models/booster/best_models/1-1.pth (torch, 49018 bytes, 18 tensors)

conv1.att_src f4 [1, 1, 128]
0	0x3da3a59d	0.079905726
1	0xc038b042	-2.885758
2	0xbfc751c8	-1.5571833
3	0xc031c4b6	-2.7776313
4	0xbeb85c5b	-0.36007962
5	0x403d627d	2.9591362
6	0x407dcfce	3.9658084
7	0x3f67666f	0.90390676
8	0xbfb85cd5	-1.440333
9	0xbfdc2599	-1.7198974
10	0xbe36d387	-0.17854129
11	0xbeac90f0	-0.3370433
12	0x3fcc5751	1.5964147
13	0x3f951f54	1.1650186
14	0x3f120beb	0.57049435
15	0x3f0e9c32	0.55707085
16	0xbfa69934	-1.3015504
17	0x3e0ab95b	0.1354727
18	0x3dac159b	0.084025584
19	0xbff56dfc	-1.917419
20	0xc03b27cd	-2.9243042
21	0xbf4493d7	-0.76788086
22	0x3f343d76	0.7040628
23	0x3d2e30e4	0.042527094
24	0x40381958	2.8765469
25	0x401d6502	2.45929
26	0xbf8084b2	-1.0040495
27	0xbf893de2	-1.072201
28	0xbf35bbce	-0.7098969
29	0xbf4afb59	-0.79289776
30	0xbff7f72f	-1.937231
31	0xc0800219	-4.000256
32	0xbf44e306	-0.7690891
33	0xbf9e8e44	-1.2387166
34	0xbfae4dec	-1.361753
35	0xbf8e7867	-1.1130494
36	0xc009ddfa	-2.1541734
37	0xbec1a1b5	-0.37818685
38	0x40976c21	4.7319493
39	0xbf93fdee	-1.1561868
40	0xbfc19a9c	-1.5125308
41	0x3f63d149	0.8899122
42	0x3ff89989	1.9421855
43	0xbfd65ea3	-1.6747631
44	0xc00d7097	-2.209997
45	0xbf4dc943	-0.80385226
46	0xc04f6653	-3.2406204
47	0x4099c8d6	4.805766
48	0x3fb42db9	1.4076453
49	0xc01016aa	-2.2513833
50	0xbfb9d67d	-1.4518582
51	0xbea9fe4a	-0.3320182
52	0xc0d7f28c	-6.748358
53	0x3f059643	0.52182406
54	0xc081dea2	-4.058427
55	0x3f958710	1.1681843
56	0xbf3e7f2b	-0.7441279
57	0xc0494696	-3.1449332
58	0x3f476143	0.77882785
59	0xc01c2e83	-2.4403389
60	0x3fe1c5a9	1.7638446
61	0x3f280095	0.6562589
62	0x408ac72a	4.336812
63	0xbf9e8581	-1.2384492
64	0xbf712e9e	-0.9421176
65	0x3d868a09	0.06569297
66	0x3ed0c677	0.40776417
67	0x3e39f367	0.18159257
68	0x3f882681	1.063675
69	0xbf202f2a	-0.62571967
70	0x3fba80b4	1.4570527
71	0xbe7f673f	-0.24941729
72	0x3f24b0c3	0.64332217
73	0x4014beef	2.3241537
74	0x3fb6fffe	1.4296873
75	0xc013f36e	-2.3117328
76	0xc00c4acf	-2.192066
77	0xbff64605	-1.9240118
78	0x4030a82b	2.7602642
79	0x40922968	4.5675545
80	0x3faba38b	1.3409284
81	0x3f9204d2	1.1407721
82	0xc0ca0e4f	-6.3142467
83	0x3fa5703a	1.2924874
84	0xc049db38	-3.154005
85	0xc01d5fd1	-2.4589732
86	0x3f4ff538	0.8123355
87	0xbf00c024	-0.50293183
88	0xbfa567fa	-1.2922356
89	0x3e5f6e9f	0.21819542
90	0xc0901d36	-4.503566
91	0x3f4a30aa	0.78980505
92	0x3f438370	0.7637243
93	0xbed0b59b	-0.40763554
94	0xbe91acf8	-0.28452277
95	0x3f271450	0.6526537
96	0xbe015549	-0.1263019
97	0x401a7c46	2.413835
98	0x3f1145b4	0.56746984
99	0xbf80773c	-1.0036387
100	0xbf32bd01	-0.6981965
101	0xbec05a6a	-0.3756898
102	0xc085b75a	-4.178632
103	0x40c9893e	6.298003
104	0x3f3d804b	0.74023885
105	0x3fbb0b48	1.4612818
106	0xbf7fa5d6	-0.9986242
107	0x3f3e5076	0.74341524
108	0x3fe66541	1.799965
109	0x3fee630d	1.8623978
110	0x3ea7ab2f	0.3274779
111	0xbff72106	-1.9306953
112	0xbfa52eb7	-1.2904881
113	0xc0bbf753	-5.873941
114	0x3f25b8c0	0.6473503
115	0xbf8f88d0	-1.1213627
116	0xbf321047	-0.6955609
117	0x3d8e17f6	0.06938164
118	0x4001d246	2.028459
119	0xbe947420	-0.28994846
120	0xbf4d611e	-0.80226314
121	0x3b253219	0.0025206862
122	0xbf0f023d	-0.5586279
123	0x3f7c3270	0.9851446
124	0x3e4bc6fe	0.19900128
125	0xbfadc1ee	-1.3574808
126	0xbf144b0d	-0.5792702
127	0xbf4b773b	-0.79478806

conv1.att_dst f4 [1, 1, 128]
0	0xbec3a1dd	-0.3820943
1	0x3df515e8	0.11967069
2	0xbf39adb9	-0.72530705
3	0xbf0e9e02	-0.5570985
4	0x3e4d4e42	0.20049384
5	0x3ef0355f	0.4691572
6	0xbf2fb1df	-0.68630785
7	0xbf0ef448	-0.55841494
8	0x3f240330	0.64067364
9	0x3f1be232	0.6089202
10	0xbf40239e	-0.7505435
11	0xbf18cbd4	-0.5968602
12	0xbf21fcce	-0.63276374
13	0x3ea74c03	0.3267518
14	0xbedf6a82	-0.43635947
15	0x3ed96aa7	0.42464182
16	0x3ed03ebe	0.40672868
17	0x3eb8e219	0.3611
18	0x3eba5a9a	0.36397249
19	0x3e6d1a80	0.2315464
20	0x3f5f66a5	0.87266
21	0xbef9556f	-0.48697993
22	0xbf0a0137	-0.53908104
23	0xbe762b27	-0.24039899
24	0xbe3917d5	-0.18075497
25	0xbeb93c78	-0.36178946
26	0x3e0180a8	0.12646735
27	0xbecf6130	-0.40503836
28	0x3f5c7c5f	0.86127275
29	0x3e17a631	0.1480949
30	0xbf1a9b5c	-0.6039331
31	0xbdfaa2b7	-0.12238067
32	0x3dc23edb	0.09484645
33	0x3bf047c2	0.007332773
34	0xbf608e6a	-0.87717307
35	0xbe3ca8d0	-0.18423772
36	0x3f09f4f0	0.5388937
37	0xbe6fb216	-0.23407778
38	0x3ee06a93	0.4383131
39	0x3ee8fd98	0.45505977
40	0xbe86e9a0	-0.26350117
41	0x3f2f14e3	0.68391246
42	0x3d1387b4	0.03601809
43	0x3db9f9f9	0.090808816
44	0xbe62db31	-0.22153927
45	0xbed3183c	-0.41229427
46	0x3e6a27cf	0.22866748
47	0x3eb4b0c1	0.35291103
48	0x3ee461ff	0.44606015
49	0x3d58afa6	0.052901886
50	0x3ede3415	0.4339911
51	0xbeb36acd	-0.3504242
52	0xbf1548e4	-0.5831435
53	0xbeb7323e	-0.3578052
54	0xbe6d2785	-0.23159607
55	0x3d4215fd	0.04738425
56	0xbe095aa9	-0.1341349
57	0xbed7f189	-0.42176464
58	0xbf171d02	-0.5902864
59	0x3da4b5b0	0.08042467
60	0x3f32c324	0.6982901
61	0x3f435258	0.7629752
62	0xbed2cb52	-0.41170746
63	0xbea8cc84	-0.32968533
64	0xbf40329a	-0.7507721
65	0xbf06d4b5	-0.52668315
66	0xbd431a34	-0.04763241
67	0x3e84cd4a	0.25937873
68	0xbe83aae9	-0.25716332
69	0xbf401b8b	-0.7504203
70	0x3f06718c	0.5251701
71	0x3e183f34	0.1486786
72	0x3f0595fa	0.5218197
73	0x3e3c19d2	0.18369225
74	0x3f0a10d7	0.53931946
75	0x3e1e80c0	0.15478802
76	0xbe130d7c	-0.14360613
77	0xbdbaeda9	-0.09127361
78	0x3ef2012f	0.47266528
79	0xbed0a4d6	-0.4075076
80	0x3f4042ac	0.75101733
81	0x3f50e5c9	0.81600624
82	0xbf360f50	-0.71117115
83	0xbee5d804	-0.4489137
84	0x3f2390f2	0.63893044
85	0x3d6260e7	0.055268195
86	0x3e1edd04	0.15513998
87	0xbeed10a1	-0.4630175
88	0xbecdb092	-0.40173775
89	0x3e18a3ca	0.1490623
90	0x3f59d472	0.8508979
91	0x3ea68a45	0.32527366
92	0x3e5cfa72	0.21579912
93	0xbdddc9cb	-0.108295046
94	0x3e4e4c1f	0.20146225
95	0x3eae9651	0.34099057
96	0x3f09b1a8	0.53786707
97	0xbef6cbb8	-0.482023
98	0xbe9448a3	-0.28961667
99	0xbf33d75f	-0.70250505
100	0xbef1d928	-0.4723599
101	0x3f3ade4a	0.72995436
102	0xbe6c61a3	-0.2308412
103	0xbe9f669b	-0.3113297
104	0xbf3f8114	-0.7480633
105	0xbf5f97bb	-0.873409
106	0x3ef52522	0.47879893
107	0x3b9458f0	0.0045272037
108	0x3f337b71	0.7011023
109	0x3f005cd9	0.50141674
110	0xbe5decd8	-0.2167238
111	0xbefc1c60	-0.49240398
112	0x3ec1b866	0.37835997
113	0x3ea0e74f	0.31426474
114	0xbf5b3b81	-0.8563767
115	0xbe8d14c1	-0.27554896
116	0xbcd7bd94	-0.026335515
117	0x3c8a1440	0.01685536
118	0x3ee0ec50	0.43930292
119	0xbea5ef94	-0.32409346
120	0x3f4e8a44	0.80679727
121	0x3e982452	0.2971521
122	0x3f3fe34b	0.74956197
123	0xbe3c9c3e	-0.18418977
124	0xbdc55a18	-0.09636325
125	0xbde22e0b	-0.11043938
126	0xbe973a0c	-0.29536474
127	0xbdbb36bf	-0.09141301

conv1.bias f4 [128]
0	0xbc01ac2f	-0.007914587
1	0xbb1d6b36	-0.0024020202
2	0x3ac1ef39	0.0014796025
3	0xba50f01c	-0.00079703494
4	0x3b940362	0.004517005
5	0x39325779	0.00017007989
6	0xb9dbd976	-0.00041932956
7	0xbc0ae43d	-0.008477268
8	0xbba7eae1	-0.0051244353
9	0xba205511	-0.00061161915
10	0x3c377880	0.011198163
11	0xbbc7e2ec	-0.0061000492
12	0xbb948672	-0.0045326287
13	0xbd23e488	-0.040012866
14	0xbaac3a90	-0.0013140012
15	0x3a1c0490	0.00059516076
16	0x3903a334	0.00012553931
17	0xba5bb17b	-0.00083806337
18	0xbb3ec8d6	-0.0029111407
19	0xbba83b22	-0.0051340023
20	0x3a7d927f	0.00096730137
21	0x3c0fc042	0.008773865
22	0x364aa89b	3.0198487e-06
23	0xbc39beb1	-0.011336968
24	0x3973a94c	0.00023237354
25	0xba2d855d	-0.0006619299
26	0x3c6ce925	0.014459883
27	0xbb03755d	-0.0020058968
28	0xb9b1e265	-0.00033928748
29	0x3bb8a101	0.0056344275
30	0x3a02705b	0.0004975849
31	0xbaeb38a3	-0.0017945956
32	0xbc1e8a94	-0.009676594
33	0xbbbcc3b7	-0.0057606357
34	0x3b22dc09	0.002485039
35	0xbadd79e7	-0.0016897292
36	0xbb003179	-0.0019560738
37	0xba029fc4	-0.00049829134
38	0x38b27de7	8.5111526e-05
39	0xba90c9cd	-0.001104647
40	0xbb5a8d23	-0.0033348284
41	0xbcb1bbee	-0.021696057
42	0xba0a1707	-0.00052677136
43	0x3b54bd9f	0.0032461656
44	0x39ee0af4	0.00045403058
45	0xbd6e4329	-0.058169518
46	0xba889e78	-0.0010423204
47	0xba267f5e	-0.00063513767
48	0xbaf91e5a	-0.0019006238
49	0xb949b214	-0.00019235193
50	0xba58422d	-0.0008249607
51	0x3a6b5eb8	0.0008978653
52	0x3a4fc4da	0.00079257565
53	0x3d8103a1	0.0629952
54	0xbb55343c	-0.0032532355
55	0xb995e446	-0.00028589572
56	0x39da4b80	0.00041636452
57	0xba401d07	-0.0007328544
58	0xbbcc436c	-0.0062336233
59	0xbc3c264d	-0.011483741
60	0xba517a19	-0.0007990911
61	0x3b5ab64e	0.0033372822
62	0xba1f37f9	-0.0006073709
63	0x3bf6965a	0.0075252475
64	0x3bf13fca	0.0073623406
65	0x3bbd4991	0.005776592
66	0xbb9a7a6e	-0.004714302
67	0x3b1d36db	0.0023988995
68	0xb8fd6f81	-0.00012084749
69	0xbce1b0dc	-0.027550153
70	0x3a8092c0	0.000980936
71	0xbe0da313	-0.13831739
72	0xbceee458	-0.029161617
73	0x3b38cc23	0.0028197847
74	0xb9586376	-0.00020636417
75	0xbb03b32f	-0.0020095815
76	0xb9b262e7	-0.00034024494
77	0x3a8cab7d	0.001073226
78	0x3c36b187	0.011150724
79	0xbbc36fb0	-0.005964242
80	0xbbfd0351	-0.0077213426
81	0xbb0d40bc	-0.0021553477
82	0xb8706e40	-5.7323137e-05
83	0xb9a35b1d	-0.00031157667
84	0x384bff1b	4.8636557e-05
85	0xb997e666	-0.00028972625
86	0xbc0404e6	-0.0080578085
87	0xbccec4de	-0.025240358
88	0x39f6c256	0.00047065568
89	0xbb1463e9	-0.002264256
90	0xb99f83ad	-0.0003042495
91	0x3da82432	0.08210029
92	0xbb4bb1be	-0.0031081284
93	0x3b64eb93	0.0034930452
94	0x3a01148f	0.0004924023
95	0x3c9c5f6c	0.01908847
96	0x3b03f5bf	0.002013549
97	0x3a476d81	0.0007607565
98	0x3ca80282	0.020509008
99	0xbb0dda68	-0.0021645073
100	0x3bbfe5e6	0.0058562635
101	0x3cede77d	0.029041046
102	0x3ae34daa	0.0017341871
103	0xbb47f4f7	-0.0030511
104	0x3a429a9f	0.0007423553
105	0xbb5f0ccf	-0.0034034734
106	0x3ac636af	0.0015122498
107	0xbc9ee5ed	-0.019396747
108	0xbc023b83	-0.007948759
109	0xba2a99f4	-0.0006507926
110	0xbcc1d30b	-0.023660203
111	0x3c5823f7	0.013192168
112	0xbb980a0d	-0.00463987
113	0xbab400c2	-0.0013733136
114	0x3b4dd403	0.0031406886
115	0xbc2dfc93	-0.0106193
116	0x3af1320f	0.001840176
117	0xbabad279	-0.00142534
118	0xb9cdc47d	-0.00039247042
119	0x3b2022d2	0.0024434817
120	0x3d83a4b6	0.064279005
121	0xb8b8f9e4	-8.8203495e-05
122	0xbc8ebeab	-0.017424902
123	0x3a179c58	0.000578349
124	0x3befe093	0.0073204725
125	0xbb858220	-0.00407435
126	0x3c66c7c5	0.014085715
127	0x3ce704cb	0.028200528

conv1.lin.weight f4 [128, 10]
0	0xbfd71ea5	-1.6806227
1	0x402819d6	2.626577
2	0xbfb76d68	-1.4330263
3	0x3c9d23e8	0.01918216
4	0xc100c61c	-8.048367
5	0x41117e04	9.093266
6	0x404bd06d	3.1845963
7	0x3f5b4006	0.85644567
8	0x402a7284	2.6632395
9	0x407a4f65	3.9110959
10	0xbf070116	-0.5273603
11	0xc03621c2	-2.8458104
12	0xbee6fdcd	-0.4511551
13	0xbebe21ae	-0.3713507
14	0xbfb043ee	-1.377073
15	0x3d23d065	0.039993662
16	0xbfd355d6	-1.651057
17	0xbf49a93a	-0.78773844
18	0x405c27ba	3.4399247
19	0xbee0273f	-0.43779942
20	0xbe8c9e36	-0.27464455
21	0xc0322daa	-2.784037
22	0xbf0be1e0	-0.5464153
23	0xbef78518	-0.4834373
24	0xbf89630a	-1.0733349
25	0x3f94aaab	1.1614584
26	0x3e8a2d4c	0.26987684
27	0x3edd8864	0.4326812
28	0x402d0adf	2.7037885
29	0x3d5fa925	0.05460467
30	0xbea786ac	-0.32719934
31	0xc09bd919	-4.870251
32	0xbe9677b3	-0.29388198
33	0xbee3b44b	-0.4447349
34	0xbfacd504	-1.3502507
35	0x3c762f90	0.015025988
36	0xc0518d17	-3.2742364
37	0x3f0be51d	0.54646474
38	0x400fed89	2.248873
39	0x3d5d73c3	0.054065477
40	0x3e362b44	0.17789942
41	0xc0849ef9	-4.144406
42	0x3d064e03	0.03278924
43	0x3c9d81be	0.019226905
44	0x408b14b4	4.346277
45	0xc1277bb6	-10.467703
46	0xc0fa72a0	-7.8264923
47	0x4014a6d8	2.3226833
48	0xbf874168	-1.0566835
49	0xc026193d	-2.5952904
50	0x3c8b0859	0.016971754
51	0x405f32ac	3.4874678
52	0x3ebcb300	0.36855316
53	0x3ffef9f1	1.9920026
54	0x3f84f382	1.0386813
55	0x40213679	2.5189497
56	0x409eb2d8	4.9593315
57	0xbf35366d	-0.7078617
58	0xbfc4b223	-1.5366863
59	0x3e48e40f	0.19618247
60	0xbf8644f5	-1.0489794
61	0x405ca809	3.447756
62	0xbf923fb3	-1.142569
63	0x3d512907	0.051064517
64	0x3f99a428	1.2003222
65	0x4014ddeb	2.3260448
66	0x40b4a521	5.6451573
67	0xc00822fa	-2.1271348
68	0xbfd7d7c4	-1.6862721
69	0x3e621c35	0.22081073
70	0x3f5d9800	0.8656006
71	0xbc92153b	-0.01783239
72	0x3f24fc11	0.6444712
73	0x3cde4f64	0.027137466
74	0x3b015e25	0.0019739952
75	0xbfa4c7b3	-1.2873443
76	0x4054004d	3.3125184
77	0x3fac4439	1.345832
78	0xbfbe098b	-1.4846662
79	0x3a094cac	0.000523756
80	0xbf9cff94	-1.2265496
81	0xc0355fca	-2.8339715
82	0xbf953366	-1.165631
83	0x3f45bf95	0.77245456
84	0xc08ae65e	-4.340621
85	0x40c3c62f	6.1179423
86	0x4022880b	2.5395534
87	0x3e392b75	0.18082984
88	0x3fd34d05	1.650788
89	0x3fb3f0ca	1.4057858
90	0xbf877309	-1.0581981
91	0xc06e2af3	-3.7213714
92	0xbfa3134d	-1.2740265
93	0x3e2a735e	0.16645572
94	0xbf1132db	-0.56718224
95	0xbf93b890	-1.1540699
96	0xc0346b62	-2.8190541
97	0x3f894e0b	1.0726942
98	0x3fb316fe	1.3991392
99	0xbe771bfe	-0.24131772
100	0xc0f89287	-7.7678866
101	0xc0dc41a7	-6.883014
102	0xc0ff6788	-7.981388
103	0xbbe2883f	-0.0069132145
104	0x418c123b	17.508902
105	0xc12d81b8	-10.84417
106	0xc15534f6	-13.32543
107	0xc10a5c37	-8.647513
108	0xc16c49bd	-14.7680025
109	0xbf17bac8	-0.5926938
110	0x3ebb226c	0.365497
111	0xbfe85463	-1.8150753
112	0x3efb296e	0.49055046
113	0x3e49b64d	0.19698448
114	0x3f8ff38a	1.1246197
115	0x3ee4e2a7	0.44704172
116	0xc025d8cd	-2.5913575
117	0x3fd7d301	1.6861268
118	0xc04f19c7	-3.2359483
119	0xbf34b6c4	-0.7059138
120	0x3f96ff4d	1.1796662
121	0x408db500	4.4283447
122	0x3f618236	0.8808931
123	0xbd44cce2	-0.048046954
124	0x3fb323ef	1.3995341
125	0x3e8fb579	0.2806814
126	0xbeba8cbe	-0.36435503
127	0x3f99e5ed	1.2023293
128	0xbfe7fa0e	-1.8123186
129	0x3e4a4d83	0.19756131
130	0xc0018576	-2.0237708
131	0x408c2f6a	4.380788
132	0xbfeb43a3	-1.8380016
133	0xbc96cabd	-0.01840722
134	0xc1e2a644	-28.331184
135	0x40025140	2.036209
136	0x40b2a114	5.582163
137	0xc0fd2870	-7.911186
138	0x40a4d3b4	5.1508427
139	0x4155ed06	13.370367
140	0xbf97b4e0	-1.1852074
141	0xbff3536d	-1.9009835
142	0xbf895e53	-1.073191
143	0x3d7e05d3	0.062017273
144	0x3f8460bf	1.0342025
145	0xc00330e5	-2.0498593
146	0xbfca54f5	-1.5807177
147	0xbf6dfa23	-0.92959803
148	0xc038d6cf	-2.8881109
149	0xbed84c26	-0.42245597
150	0x3f1fee01	0.6247254
151	0x3f0f878e	0.56066215
152	0x3f5b834f	0.85747236
153	0x3e9291ed	0.28626958
154	0x3f3406f8	0.70323133
155	0x3f979580	1.1842499
156	0x3fd1d52b	1.6393179
157	0x40037723	2.0541465
158	0xbf57bb30	-0.8427
159	0x3e0c500f	0.13702415
160	0xbf41099f	-0.75405306
161	0xc093c9fb	-4.618406
162	0xbefe2563	-0.496379
163	0xbe7d3f3f	-0.24731158
164	0xbea1d25c	-0.31605804
165	0x4009b73e	2.1518092
166	0xbf9cee4f	-1.2260226
167	0x4051065b	3.266013
168	0xbfeffd6e	-1.8749216
169	0xbeac69ac	-0.3367437
170	0xbff5b9cc	-1.9197326
171	0x40718333	3.7736328
172	0xbfca1980	-1.5789032
173	0x3c297cc3	0.010344687
174	0xc1e12ec2	-28.147831
175	0x4197dcca	18.982807
176	0x40b3e932	5.622216
177	0xc04e9710	-3.2279701
178	0x3fda3cb2	1.7049773
179	0x41914f45	18.163706
180	0xbf97a385	-1.1846777
181	0xbfa6efb1	-1.3041898
182	0xbf972a97	-1.1809872
183	0xbd1a9a7d	-0.037744988
184	0x3fc7bc58	1.5604353
185	0xc0c19ae5	-6.050158
186	0xc0a3f010	-5.1230545
187	0xbf9a6c1d	-1.2064244
188	0xc02de7b9	-2.7172682
189	0xbf1630b9	-0.58668095
190	0xbe3334b0	-0.17500567
191	0xc058295e	-3.3775249
192	0xbe4ed43f	-0.20198153
193	0xbccb6da9	-0.024832563
194	0x4012dac6	2.2946029
195	0xc085e69e	-4.1844015
196	0xc0a0b290	-5.021797
197	0x3fa2dd8d	1.2723862
198	0x3f02434f	0.50883955
199	0xbf9ee266	-1.2412841
200	0xbf108c42	-0.56464016
201	0xbfeb47f0	-1.8381329
202	0xbf253ef0	-0.6454916
203	0xbd0ad1ed	-0.033891607
204	0xbf903537	-1.126624
205	0x3e13ae3f	0.14421938
206	0xbfbd4107	-1.478547
207	0x3b748ff1	0.003731724
208	0x4058e410	3.3889198
209	0xbe20000a	-0.15625015
210	0x3ec58f07	0.38585684
211	0xc09baa4f	-4.8645396
212	0x3e87512f	0.26429126
213	0x3d061c59	0.03274188
214	0x40013093	2.0185897
215	0x409a88bd	4.8291917
216	0xbf7083cc	-0.93951106
217	0x4095033f	4.6566463
218	0xc06496ae	-3.5716968
219	0xbff1f2e9	-1.8902255
220	0x3ea66f5b	0.32506832
221	0xc01d888d	-2.4614594
222	0x3f1840b9	0.5947376
223	0xbed96d80	-0.42466354
224	0x401f15e1	2.4857104
225	0xc087c097	-4.2422595
226	0xc092142f	-4.564964
227	0x3f62f6a6	0.88657606
228	0xc00cb528	-2.198557
229	0xbf4446a5	-0.76670295
230	0xbfa1d4ee	-1.2643106
231	0x40a023f1	5.0043874
232	0xbf918f53	-1.1371864
233	0x3c0624bf	0.008187472
234	0xc163aeb8	-14.230156
235	0x41a15c15	20.169962
236	0x410863c3	8.524356
237	0xbf7740af	-0.96583074
238	0x3fd6967e	1.6764677
239	0x41108e43	9.034732
240	0x3eb18bd7	0.34677002
241	0x4031c76b	2.7777965
242	0x3edf2ab9	0.43587282
243	0x3e95d94a	0.2926734
244	0x4014b3fd	2.3234856
245	0xc0819d92	-4.0504847
246	0xbf9aeb06	-1.2102973
247	0xbfbb2a70	-1.4622326
248	0xc045fc7f	-3.0935361
249	0xbed4f05e	-0.41589636
250	0x3ff66581	1.9249727
251	0x3fb964a8	1.4483843
252	0x40072467	2.1115968
253	0xbd1e9f26	-0.038725995
254	0x3f53d8ce	0.8275269
255	0x3fc91324	1.5708966

bn1.weight f4 [128]
0	0x3e29e873	0.16592579
1	0x3d9e06bf	0.077161305
2	0x3e1bfcbd	0.15233131
3	0x3ea4b8a1	0.3217211
4	0x3e30711d	0.1723065
5	0x3f866afc	1.0501399
6	0x3eb0f501	0.34561923
7	0x3f473643	0.7781717
8	0x3e3471a1	0.17621471
9	0x3f056fa6	0.52123487
10	0x3fee486e	1.8615854
11	0x3e1573a4	0.14594895
12	0x3e01770f	0.12643073
13	0x3f84bbab	1.0369772
14	0x3f3f0c73	0.7462837
15	0x3f2dd389	0.679009
16	0xbc3bab0a	-0.011454353
17	0x3f9f8894	1.2463555
18	0x3f14f0d3	0.5817997
19	0x3d2f297e	0.04276418
20	0x3d2b6923	0.041848313
21	0x3f25201f	0.6450214
22	0x3e9a2b96	0.30111378
23	0x3ed007a7	0.40630838
24	0x3e44b2ed	0.1920888
25	0x3f32ecb4	0.6989243
26	0x3edc2968	0.4300034
27	0x3eaa6168	0.3327744
28	0x3b96cc00	0.0046019554
29	0x3ecefa81	0.40425494
30	0x3eaaa204	0.33326733
31	0x3eb31962	0.34980303
32	0x3e66a7e0	0.22524977
33	0x3d601c2f	0.054714378
34	0x3ed96ece	0.4246735
35	0x3f3b9a8f	0.7328271
36	0x3f614cd0	0.8800783
37	0x3e09e45f	0.13466023
38	0x3f26c0f2	0.6513816
39	0x3e29c6dd	0.16579767
40	0x3f7b9f4c	0.9828994
41	0x3fec9d2f	1.8485469
42	0x38b70cb0	8.728483e-05
43	0x3f5d28c4	0.8639033
44	0x3e90f6e2	0.28313357
45	0x3f830c5c	1.0238147
46	0x3cac494f	0.02103105
47	0x3f0d28a2	0.55140126
48	0x3e9b7167	0.30359957
49	0xbb7bb602	-0.0038408046
50	0x3e0bb187	0.1364194
51	0x3f04cce4	0.5187514
52	0x3eba89cd	0.3643326
53	0x3fb0a1c5	1.3799368
54	0x3ed1cb86	0.4097559
55	0x3e8673e5	0.26260296
56	0x3ef0cf18	0.47033
57	0x3eeb3279	0.45936945
58	0x3f9fd6ec	1.2487464
59	0x3fb58362	1.418072
60	0x3f333da7	0.7001595
61	0x3f662ae8	0.8990922
62	0x3db5279a	0.08845444
63	0x3f88a266	1.067456
64	0x3f6dff76	0.9296793
65	0x3ef6c834	0.48199618
66	0x3e3734d5	0.17891248
67	0x3e8e26c3	0.27763948
68	0x3d23fe2e	0.040037327
69	0x3f73a0ed	0.9516743
70	0x3f3635c3	0.71175784
71	0x3fed1931	1.8523313
72	0x3f9587aa	1.1682026
73	0x3eb1aedc	0.3470372
74	0x3de8510a	0.11343582
75	0x3ecf05fd	0.40434256
76	0x3de59d24	0.11211613
77	0x3e67bd94	0.22630912
78	0x3f251e0d	0.6449898
79	0x3f0b7a50	0.5448351
80	0x3f579f35	0.84227306
81	0x3f5399d9	0.8265663
82	0x3e8f4272	0.2798038
83	0x3d09a979	0.033608887
84	0x3ebc7f66	0.36815947
85	0x3e8df389	0.27724865
86	0x3ebc0608	0.3672335
87	0x3f85314c	1.0405669
88	0x3e5e4997	0.2170776
89	0x3f3bd5bf	0.73373026
90	0x3e2f19f3	0.17099743
91	0x3f84459c	1.0333743
92	0x3ce112ce	0.027474787
93	0x3ea70095	0.32617632
94	0x3e19db6a	0.15025106
95	0x3f1f8dc5	0.623257
96	0x3f0fcacf	0.56168836
97	0x3eb582f5	0.35451475
98	0x3f40d83f	0.75329965
99	0x3f596e86	0.8493427
100	0x3ef27138	0.47352004
101	0x3f7a8813	0.9786388
102	0x3e08d894	0.13363868
103	0x3e91471f	0.28374574
104	0x3e77b2cf	0.24189304
105	0x3e113360	0.14179754
106	0x3e92cc1c	0.28671348
107	0x3f357d14	0.7089398
108	0x3f7d7bef	0.9901723
109	0x3ee2a379	0.44265345
110	0x3eb588c5	0.3545591
111	0x3f520aba	0.8204762
112	0x3d6ba068	0.057526022
113	0x3f7dd525	0.9915336
114	0x3e3313c2	0.17488006
115	0x3c9ef6b0	0.01940474
116	0x3f02c3c2	0.5107995
117	0x3e1d6c3a	0.15373316
118	0x3ea8f712	0.33001
119	0x3eedfcb1	0.4648185
120	0x3f2e8267	0.6816773
121	0x3e28a03c	0.16467375
122	0x3f405912	0.7513591
123	0x3e3486b0	0.17629504
124	0x3eb8a438	0.3606279
125	0x3f49b3d4	0.7879002
126	0x3f1f9491	0.6233607
127	0x3ef1011d	0.47071162

bn1.bias f4 [128]
0	0x3e78f29a	0.24311295
1	0xbe9c535b	-0.30532345
2	0xbee5bbaa	-0.4486974
3	0xbf46b39f	-0.7761783
4	0x3e686ea6	0.22698459
5	0xbf3b7777	-0.73229164
6	0xbf41a2b0	-0.75638866
7	0xbf15b353	-0.5847675
8	0x3ce92f2a	0.028464872
9	0xbf472055	-0.7778371
10	0xbfd0db9b	-1.6317018
11	0xbede7d6d	-0.43455067
12	0xbf0cb4dd	-0.54963475
13	0x3f79d7c1	0.9759484
14	0xbf539b10	-0.8265848
15	0xbf189c75	-0.59613734
16	0x3ef0e94e	0.47052997
17	0x3fa608bf	1.2971419
18	0xbf17bb63	-0.59270304
19	0xbe2f6699	-0.17128982
20	0xbe9517ff	-0.2911987
21	0x3e0a587a	0.13510314
22	0xbd63727e	-0.05552911
23	0x3f95892e	1.1682489
24	0xbf40a790	-0.7525568
25	0xbf03fd08	-0.5155797
26	0x3e580b0a	0.21097961
27	0xbf5f70b0	-0.8728132
28	0x3f38523f	0.720005
29	0xbdabb0d3	-0.08383336
30	0xbf2c71ba	-0.6736103
31	0xbf206fae	-0.6267041
32	0xbe351b5e	-0.17686221
33	0xbe8ef8c6	-0.27924174
34	0xbefd034a	-0.49416572
35	0xbe9d6103	-0.30738077
36	0xbf5f8f2c	-0.8732784
37	0xbea955c8	-0.33073258
38	0xbf26869b	-0.6504914
39	0xbeabf6f1	-0.3358684
40	0xbf202da9	-0.6256967
41	0xbee1b1f1	-0.4408107
42	0xbd16f8c8	-0.03685835
43	0xbf28d69d	-0.65952474
44	0xbf2b1d7c	-0.66841865
45	0x3f5fec24	0.87469697
46	0xbdaef730	-0.08543241
47	0xbf1f9596	-0.62337625
48	0xbe3cac89	-0.18425192
49	0x3daf1aab	0.085500084
50	0xbf18d5e0	-0.5970135
51	0x3e7fada2	0.2496858
52	0xbf623d74	-0.8837502
53	0x3f19c542	0.60066617
54	0xbf075b13	-0.52873343
55	0xbf2adef8	-0.66746473
56	0xbf1fc399	-0.62407833
57	0xbf6c3a26	-0.9227623
58	0xbec90a84	-0.39265835
59	0xbf14592c	-0.57948565
60	0xbebacd6b	-0.36484846
61	0xbef11370	-0.47085142
62	0xbf02fa1d	-0.5116289
63	0xbee63bc1	-0.44967464
64	0x3df1894b	0.11793765
65	0x3e80526a	0.25062877
66	0xbebe70b0	-0.3719535
67	0xbee72124	-0.45142472
68	0xbe50d70d	-0.20394535
69	0x3f124bc7	0.5714688
70	0xbf76133e	-0.9612311
71	0x3f7e8276	0.9941782
72	0x3f17a5d1	0.5923739
73	0xbf2804ef	-0.6563253
74	0xbee9546b	-0.45572218
75	0xbf4afe6b	-0.7929446
76	0xbef52ffa	-0.47888166
77	0xbf343122	-0.7038747
78	0x3da1dae5	0.07903079
79	0xbef2bd1c	-0.47409904
80	0xbf88578e	-1.065172
81	0xbf943582	-1.1578829
82	0xbf18ccfe	-0.59687793
83	0xbe0e0bab	-0.13871638
84	0xbf5f1ff4	-0.8715813
85	0xbf1fc651	-0.6241198
86	0xbda809be	-0.08204983
87	0x3f195b93	0.59905356
88	0xbf0ce80c	-0.55041575
89	0xbf0a1178	-0.53932905
90	0xbf3b5973	-0.73183364
91	0x3fa71285	1.3052527
92	0xbdf6305f	-0.12020945
93	0xbf5f4da7	-0.87227863
94	0xbf2f03ee	-0.6836537
95	0x3e7d734e	0.24751016
96	0xbf7a095f	-0.9767055
97	0xbf35344b	-0.7078292
98	0x3f7efa03	0.9960024
99	0xbf0f0662	-0.55869114
100	0x3f19bf74	0.6005776
101	0x3f7b6184	0.9819567
102	0xbf0eb33a	-0.5574223
103	0xbf8e852f	-1.1134394
104	0xbf4cbcb7	-0.79975456
105	0xbf343c2b	-0.7040431
106	0xbf294186	-0.66115606
107	0x3f865d0f	1.0497149
108	0xbf8b15c2	-1.0866015
109	0xbf6e2356	-0.9302267
110	0x3db1b81d	0.08677695
111	0xbe99b6bd	-0.3002223
112	0x3e31e4db	0.17372458
113	0xbf0a2d84	-0.539757
114	0xbf30e5bd	-0.6910055
115	0x3f2d5fff	0.67724603
116	0xbf06a6aa	-0.5259806
117	0xbf2f1e64	-0.6840575
118	0xbf272371	-0.65288454
119	0xbf46f7f7	-0.77722114
120	0x3f095bb9	0.5365558
121	0xbef0aa25	-0.4700481
122	0x3f9d8772	1.230696
123	0xbf25ada9	-0.6471811
124	0xbf1cf350	-0.61308765
125	0xbee09eb5	-0.43871084
126	0x3efbbded	0.4916834
127	0x3f10faed	0.5663288

bn1.running_mean f4 [128]
0	0x41f0e6a9	30.112627
1	0xc409bd1a	-550.9547
2	0xc4335693	-717.3527
3	0xc4254fd8	-661.24756
4	0x41c51716	24.636272
5	0x453895cd	2953.3625
6	0x4291352a	72.603836
7	0x4221e4ee	40.473564
8	0x448eb31f	1141.5975
9	0x4374d834	244.84454
10	0xc254af88	-53.171417
11	0x438faef2	287.36676
12	0xc285dfcd	-66.93711
13	0xc1c6224e	-24.76675
14	0x42aa7930	85.236694
15	0x43d4860a	425.04718
16	0xc3b8f1da	-369.88947
17	0x4186c3f3	16.845678
18	0xc2806c5b	-64.21163
19	0xc21a907d	-38.6411
20	0xc24ecdba	-51.700905
21	0x42355edb	45.342632
22	0xc41e303a	-632.75354
23	0x41790a6b	15.565043
24	0x43d8dd0f	433.72702
25	0xc24c05cd	-51.005665
26	0xc1e99b1b	-29.200735
27	0x43b877bf	368.93552
28	0x447fef12	1023.7355
29	0x44192500	612.5781
30	0xc3e5d78e	-459.68402
31	0xc38c9b61	-281.2139
32	0x43b673db	364.90512
33	0x435e47e3	222.2808
34	0xc17c868d	-15.782849
35	0xc5889af9	-4371.3716
36	0xc293a1b7	-73.81585
37	0xc3941f43	-296.24423
38	0x4503b1ca	2107.1118
39	0x4232ab72	44.667427
40	0x43983872	304.44098
41	0x4116694f	9.40071
42	0x440f39b9	572.9019
43	0xc2b70d9f	-91.5266
44	0xc3ab8bb6	-343.0915
45	0xc2b98072	-92.75087
46	0x4310e1d7	144.88219
47	0x4505401b	2132.0066
48	0x447c5112	1009.2667
49	0x4418f2b7	611.7924
50	0x43bb6f7d	374.871
51	0xc2657290	-57.361877
52	0xc417d71a	-607.36096
53	0xc1766d8c	-15.401745
54	0x42eeb06e	119.34459
55	0xc2296f04	-42.358414
56	0x4234894a	45.13407
57	0xc40d677e	-565.61707
58	0xc2a454a3	-82.165306
59	0x42dbccc2	109.89992
60	0xc29c4f13	-78.15444
61	0x426b5ed5	58.84261
62	0x40e86752	7.2626123
63	0x43360da3	182.05327
64	0xc24f5a23	-51.838024
65	0xc1bd9a33	-23.700293
66	0xc2a48127	-82.25225
67	0xc311d88f	-145.84593
68	0x43837d87	262.98068
69	0x41b655d2	22.791904
70	0x448b625b	1115.0736
71	0xc20cbbd1	-35.183414
72	0x41d6ce51	26.85074
73	0xc22a8646	-42.631126
74	0x441f46e0	637.1074
75	0xc20d06ab	-35.25651
76	0xc430e412	-707.5636
77	0xc22cb178	-43.17331
78	0xc2223cb5	-40.559284
79	0xc2dbb63a	-109.85591
80	0x42792ec7	62.29568
81	0xc2e57ac3	-114.73977
82	0xc41286b2	-586.1046
83	0x429aaf9a	77.34297
84	0xc21e78e7	-39.61807
85	0xc217706a	-37.85978
86	0xc285e3ec	-66.94516
87	0xc27119af	-60.27508
88	0xc406206b	-536.50653
89	0xc27f1bfa	-63.77732
90	0x4211e6ff	36.475582
91	0xc2182c94	-38.043533
92	0x441e6fff	633.74994
93	0x4237bb74	45.93306
94	0x42a8da38	84.42621
95	0xc2617f53	-56.37434
96	0x44f787ef	1980.2479
97	0x424e081a	51.50791
98	0x41f0f83a	30.121204
99	0xc3309c03	-176.60942
100	0x4177f72c	15.497845
101	0xc19618a7	-18.762037
102	0xc39131d0	-290.38916
103	0xc36f4064	-239.25153
104	0xc222083b	-40.508038
105	0xc393b7ac	-295.43494
106	0xc22293f7	-40.644497
107	0x41410a6c	12.065044
108	0x4274a581	61.161625
109	0x4489cc47	1102.3837
110	0xc2134383	-36.81593
111	0xc58357b1	-4202.9614
112	0xc1b155a2	-22.166813
113	0x42aac896	85.39177
114	0x43f0b026	481.37616
115	0xc224f10e	-41.235405
116	0x41b8b737	23.08946
117	0x431b1f76	155.1229
118	0xc222f721	-40.741337
119	0xc24c31b1	-51.048527
120	0xc1f7001a	-30.87505
121	0xc29d3b82	-78.61623
122	0xc15f8e10	-13.972183
123	0xc19fd23f	-19.97766
124	0x4225c5ba	41.443092
125	0xc54ca8f7	-3274.5603
126	0x422501f8	41.251923
127	0xc13d45e6	-11.829565

bn1.running_var f4 [128]
0	0x44dbcf79	1758.4835
1	0x49216cfd	661199.8
2	0x498860ee	1.1172138e+06
3	0x49670808	946304.5
4	0x44e69478	1844.6396
5	0x4b8facfe	1.8831868e+07
6	0x464117bd	12357.935
7	0x455726f2	3442.434
8	0x4a2be248	2.816146e+06
9	0x48017a71	132585.77
10	0x44aaad8d	1365.4235
11	0x48325c09	182640.14
12	0x461a61f3	9880.487
13	0x44d5ebf6	1711.3738
14	0x46905175	18472.729
15	0x48bceac2	386902.06
16	0x488cfa2c	288721.38
17	0x4400b896	514.88416
18	0x45d4598d	6795.194
19	0x45367862	2919.524
20	0x45c33553	6246.6655
21	0x45a55abd	5291.3423
22	0x49512f56	856821.4
23	0x439ddbeb	315.7181
24	0x48c93e92	412148.56
25	0x45d9e1d3	6972.228
26	0x44ee6a50	1907.3223
27	0x4894216f	303371.47
28	0x4a08317f	2.2313918e+06
29	0x4944a3f7	805439.44
30	0x48dc15eb	450735.34
31	0x482640a8	170242.62
32	0x488c0975	286795.66
33	0x47cdd4f1	105385.88
34	0x44c563e0	1579.1211
35	0x4c1d7e23	4.1285772e+07
36	0x461ddd82	10103.377
37	0x483b2add	191659.45
38	0x4b129817	9.607191e+06
39	0x453b7e6b	2999.9011
40	0x484a9ba6	207470.6
41	0x4483d3c3	1054.6176
42	0x492efc8d	716744.8
43	0x466d37ae	15181.92
44	0x48762ce5	252083.58
45	0x46611945	14406.317
46	0x47314e76	45390.46
47	0x4b1619b7	9.836983e+06
48	0x4a058762	2.1877365e+06
49	0x49449a3d	805283.8
50	0x489354dc	301734.88
51	0x4599ff81	4927.938
52	0x49422861	795270.06
53	0x444075a9	769.83844
54	0x4701e636	33254.21
55	0x453403c0	2880.2344
56	0x457807ba	3968.483
57	0x4928f6cf	692076.94
58	0x463d4f90	12115.891
59	0x46e97a7e	29885.246
60	0x46a96919	21684.549
61	0x45411668	3089.4004
62	0x430c3ae4	140.23004
63	0x4789f022	70624.266
64	0x45a15ca2	5163.579
65	0x44808c54	1028.3853
66	0x4653c0ac	13552.168
67	0x472babcf	43947.81
68	0x480cf3c4	144335.06
69	0x451f5b77	2549.7166
70	0x4a250ba1	2.7041042e+06
71	0x4548554c	3205.331
72	0x44aaa520	1365.1602
73	0x453e2e5b	3042.8972
74	0x4957ec73	884423.2
75	0x450e48d3	2276.5515
76	0x49856bd3	1.0929864e+06
77	0x455cfea4	3535.915
78	0x4583a78a	4212.9424
79	0x46dcb53f	28250.623
80	0x456b01f7	3760.1228
81	0x47231af3	41754.95
82	0x49333701	734064.06
83	0x465b4560	14033.344
84	0x4537946b	2937.2761
85	0x45381885	2945.5325
86	0x461eefd2	10171.955
87	0x45ca5bcd	6475.475
88	0x4915dafc	613807.75
89	0x46294ef3	10835.737
90	0x45298af4	2712.6846
91	0x45380bf0	2944.746
92	0x49526c8e	861896.9
93	0x45b30faa	5729.958
94	0x465ac7b4	14001.926
95	0x45c130c9	6182.098
96	0x4b01d087	8.507527e+06
97	0x45966e25	4813.768
98	0x4504c45a	2124.272
99	0x477a63ab	64099.668
100	0x442a5496	681.32166
101	0x4472923a	970.2848
102	0x4831d799	182110.39
103	0x47fd328d	129637.1
104	0x4531a4c9	2842.299
105	0x48326ff2	182719.78
106	0x4537cbe8	2940.7441
107	0x430d92ac	141.57294
108	0x455e02ae	3552.1675
109	0x4a216fd9	2.6449822e+06
110	0x4553313a	3379.0767
111	0x4c1172d1	3.8128452e+07
112	0x449ba7f0	1245.248
113	0x46852047	17040.139
114	0x48f74466	506403.2
115	0x455fde4d	3581.8938
116	0x4507df52	2173.9575
117	0x47515846	53592.273
118	0x452f209e	2802.0386
119	0x456bf5bc	3775.3584
120	0x4517c0d5	2428.052
121	0x465f050f	14273.265
122	0x44438180	782.02344
123	0x4509f6d2	2207.4263
124	0x451cab2c	2506.6982
125	0x4bb0c483	2.3169286e+07
126	0x4540c9cb	3084.612
127	0x43ec97fd	473.1874

conv2.att_src f4 [1, 1, 64]
0	0x3fd1d516	1.6393154
1	0x3fb3772a	1.4020741
2	0xc07b3e23	-3.9256675
3	0xbeec39f0	-0.46137953
4	0xc048c61b	-3.1370914
5	0x3ef7ec2b	0.4842237
6	0xbdb3bc57	-0.08776157
7	0x3e46a56f	0.19399045
8	0xbbb32478	-0.005466994
9	0x3ec7f0c5	0.3905088
10	0x3e54ec22	0.20793203
11	0x3f38d52d	0.7220028
12	0x3f12e07f	0.57373804
13	0xc07f9ce2	-3.9939504
14	0xbd2167dd	-0.039405692
15	0xbe80e614	-0.25175536
16	0xbf1455ac	-0.57943225
17	0xbf0b8190	-0.5449457
18	0x3eb392b0	0.3507285
19	0x4099ddfc	4.8083477
20	0x3ffac799	1.9592162
21	0x3e9af2f2	0.30263478
22	0x3f60dc58	0.8783622
23	0x3fb40a76	1.4065692
24	0x40063046	2.0966964
25	0x3f01ef96	0.50756204
26	0x3ee8ca61	0.45466903
27	0x40255c2c	2.5837507
28	0x3d6d93d9	0.058002327
29	0x3fcfefb3	1.6245025
30	0x3d8ced61	0.06881214
31	0x3d889f64	0.06671026
32	0xbf18d3c2	-0.59698117
33	0x3f12d6ea	0.5735918
34	0x400ca959	2.1978362
35	0xbec2b138	-0.38025832
36	0xc10710b1	-8.441575
37	0xbf1fcaf1	-0.6241904
38	0x3ecc0d1b	0.3985375
39	0xbe48ad84	-0.19597441
40	0xbc28ab6a	-0.010294775
41	0xbe377e1d	-0.17919202
42	0x3f2810c4	0.6565058
43	0xbe702637	-0.23452078
44	0x3fbcae02	1.4740603
45	0x3f05cfb3	0.5227005
46	0x3e85ba52	0.26118714
47	0x3e887893	0.2665449
48	0x3d783add	0.06060301
49	0x3f0269b8	0.50942564
50	0xc10887b0	-8.533127
51	0x3ea57475	0.32315412
52	0x3f91c61c	1.1388583
53	0xc0b9292d	-5.7862763
54	0x3ebb4441	0.3657551
55	0x3f994b46	1.1976097
56	0x3faaae93	1.3334526
57	0x3dd5ed50	0.104456544
58	0xbe908242	-0.2822438
59	0x3f829201	1.0200807
60	0xbfd52938	-1.6653204
61	0x3f7d8d5a	0.9904381
62	0x3f390176	0.72267854
63	0xbca30b25	-0.019902775

conv2.att_dst f4 [1, 1, 64]
0	0x3ea34ff1	0.31896928
1	0x3c92b24c	0.017907284
2	0x3fa21bb6	1.2664707
3	0xbf3cefe8	-0.7380357
4	0x3fc855ab	1.5651144
5	0x3eb9c466	0.36282653
6	0x3e72b49b	0.23701708
7	0x3f9f7638	1.2457952
8	0x3f0378d9	0.51356274
9	0xbf038a0c	-0.5138252
10	0xbf022283	-0.5083391
11	0xbf30996a	-0.6898409
12	0x3c947fb6	0.018127304
13	0x3f37b79e	0.7176455
14	0xbd02d9d7	-0.03194603
15	0x3ea85d07	0.32883474
16	0xbf2f702b	-0.6853053
17	0x3f1dddce	0.6166657
18	0xbd7b9d58	-0.06142935
19	0xbf512d26	-0.81709516
20	0x3ea3da3a	0.3200243
21	0xbf676b99	-0.90398556
22	0x3f3701ef	0.71487325
23	0x3eb09053	0.3448511
24	0x3ee684d1	0.45023206
25	0x3ede9d76	0.43479508
26	0x3e5a8c34	0.21342546
27	0x3e94cc56	0.29062146
28	0x3b6e4126	0.003635475
29	0x3e3e1713	0.1856349
30	0xbf0e8a15	-0.55679446
31	0xbebcaef2	-0.36852223
32	0x3ed9f0d7	0.4256656
33	0xbfe1bae5	-1.7635161
34	0xbf84bf36	-1.0370853
35	0x3f023b42	0.5087167
36	0x3f81f086	1.0151527
37	0xbf5f48a6	-0.8722023
38	0x3e62251d	0.2208447
39	0xbf2ae624	-0.66757417
40	0x3e174b2b	0.14774768
41	0x3fab9e73	1.340773
42	0x3aa8202e	0.0012826973
43	0xbf31c0f4	-0.6943505
44	0x3f0723bc	0.527889
45	0xbec24805	-0.37945572
46	0xbf418bbf	-0.7560386
47	0x3f5d3b59	0.8641868
48	0xbec05e46	-0.37571925
49	0xbee4e023	-0.44702253
50	0x3f738924	0.95131135
51	0xbd667657	-0.0562652
52	0xbf1c2bac	-0.6100414
53	0xbed86293	-0.42262706
54	0xbe2c65b9	-0.16835679
55	0x3f3eca20	0.7452717
56	0xbf5ca0a2	-0.86182606
57	0xbf878a5f	-1.0589103
58	0x3f10bdab	0.5653941
59	0x3f02d0b8	0.5109973
60	0x3f4507e5	0.7696517
61	0x3fc204af	1.5157679
62	0x3d8deec5	0.06930307
63	0xbea69492	-0.32535225

conv2.bias f4 [64]
0	0xbcaf2ba6	-0.021383118
1	0x3d6ef0f5	0.058335263
2	0x3c50e67f	0.012750267
3	0xbd9ce7e2	-0.07661416
4	0xbce42323	-0.027848786
5	0x3ef043a9	0.4692662
6	0x3e305ffb	0.17224114
7	0xbe502e3c	-0.20330137
8	0x3ef34940	0.47516823
9	0xbd1c600a	-0.038177527
10	0xbf795c45	-0.9740642
11	0x3e2fe088	0.17175496
12	0xbe944292	-0.2895704
13	0x3d5cc001	0.053894047
14	0x3f320a9f	0.69547457
15	0xbe345f2d	-0.17614432
16	0x3f25d7c6	0.6478237
17	0x3d75aadc	0.059977397
18	0x3cfa1c69	0.030531125
19	0x3c0dab80	0.008646846
20	0x3c395721	0.011312277
21	0x3c102cb1	0.008799718
22	0x3e25f29f	0.16205834
23	0xbe923147	-0.2855322
24	0xbde390eb	-0.11111625
25	0xbc568796	-0.01309385
26	0x3dadc628	0.08485061
27	0x3be32277	0.0069315988
28	0xbd1d9bb1	-0.038478557
29	0xbe754e4e	-0.23955652
30	0x3c516cc1	0.012782277
31	0xbd40be39	-0.04705641
32	0xbceb468d	-0.028720165
33	0xbb429374	-0.002968994
34	0x3cd7b5d7	0.026331825
35	0xbeb81630	-0.35954428
36	0xbc834034	-0.016021825
37	0x3e3d3641	0.18477727
38	0xbe6e69d2	-0.23282555
39	0xbef7e2fe	-0.4841537
40	0xbd70304c	-0.05863981
41	0x3f27a595	0.65487033
42	0xbf21d39f	-0.63213533
43	0x3f583d74	0.8446877
44	0x3ddcc9d9	0.10780687
45	0xbec5febd	-0.38670912
46	0xbe8dbfd0	-0.27685404
47	0x3d5d2749	0.053992543
48	0x3fa576fb	1.2926935
49	0xbd535d92	-0.051602907
50	0x3ca85701	0.0205493
51	0x3e740a95	0.23832162
52	0xbd262604	-0.0405636
53	0x3b13b2bc	0.0022536954
54	0xbcdbb0ed	-0.026817763
55	0x3dff8b30	0.1247772
56	0xbdd45721	-0.10368181
57	0xbdf5bc43	-0.11998799
58	0x3ca79253	0.020455515
59	0x3e8eac66	0.27865905
60	0x3e1223b1	0.14271428
61	0xbd8fa819	-0.07014484
62	0x3d644d7d	0.05573796
63	0xbca5625f	-0.020188509

conv2.lin.weight f4 [64, 128]
0	0xbec554bc	-0.3854121
1	0x3e870e92	0.26378304
2	0x3e3963b1	0.18104436
3	0x3eb1cfdd	0.347289
4	0x3edc08e1	0.42975524
5	0x3e501147	0.20319091
6	0xbe90377e	-0.28167337
7	0xbec96327	-0.3933346
8	0xbe77fed3	-0.24218301
9	0xbf3a2a99	-0.7272125
10	0x3f3cadc0	0.7370262
11	0x3e9064c9	0.28201893
12	0xbf3d19f4	-0.73867726
13	0x3ddb8410	0.10718548
14	0x3f3ee8ec	0.7457416
15	0xbf23dbe8	-0.64007425
16	0xbfa5f085	-1.2964026
17	0xbeccfaf9	-0.40035227
18	0x3d30a1e4	0.04312314
19	0x3f1f9588	0.6233754
20	0x3f6e72cb	0.9314391
21	0xbf4ce6c2	-0.8003961
22	0xbe36ccd2	-0.1785157
23	0xbe9677a9	-0.29388168
24	0x3f096dd7	0.5368323
25	0x3dbd9dac	0.09258589
26	0x3bfe5cc2	0.0077625224
27	0x3e2995dd	0.16561075
28	0xbf046e27	-0.5173058
29	0x3fdeb1ed	1.7398049
30	0x3d243b24	0.040095463
31	0xbf1def18	-0.61692953
32	0x3f76034e	0.9609879
33	0x3e6bb828	0.23019469
34	0xbf093e9f	-0.5361118
35	0xbfbbd149	-1.4673244
36	0xbf389525	-0.72102576
37	0xbeaf12fc	-0.3419417
38	0xbecb1763	-0.3966628
39	0x3c183740	0.009290516
40	0x3cd2d48a	0.025736112
41	0xbf08640e	-0.5327767
42	0xbdd6bbba	-0.10485025
43	0xbea2ba4d	-0.3178276
44	0x3f27ac48	0.65497255
45	0xbf42029f	-0.7578525
46	0x3f78629c	0.97025466
47	0x3efdfa53	0.49605045
48	0x3d39a917	0.045327272
49	0xbe35ad25	-0.1774183
50	0xbeabe3f9	-0.33572367
51	0x3e6d4cf1	0.23173882
52	0x3ecd47f9	0.40093973
53	0xbee11dab	-0.43967947
54	0xbea1dd0d	-0.3161396
55	0x3f4975dc	0.78695464
56	0x3da787c4	0.08180192
57	0x3eb225f4	0.3479458
58	0x3f0eb4a0	0.5574436
59	0x3ee5d576	0.4488942
60	0xbd117b9f	-0.035518285
61	0xbf050b72	-0.5197059
62	0xbf39c8f2	-0.72572243
63	0x3fb954ed	1.4479042
64	0xbf761f20	-0.96141243
65	0xbfcdda95	-1.6082331
66	0x3eefd1dd	0.468398
67	0x3f14a05b	0.58057183
68	0xbe71a0f1	-0.2359655
69	0xbf3366f7	-0.70078987
70	0x3e06e62c	0.13173741
71	0xbdd4a882	-0.10383703
72	0xbd3d03de	-0.046146266
73	0xbe4e2ea0	-0.20134974
74	0x3f09c233	0.5381195
75	0x3907236b	0.00012887797
76	0xbf29c09e	-0.66309536
77	0x3d2ddc58	0.042446464
78	0x3e5ed2b8	0.2176007
79	0xbebc5b02	-0.36788183
80	0xbf3e5844	-0.7435343
81	0xbeaec159	-0.34131888
82	0x3f2f590d	0.68495256
83	0x3dc8a578	0.09797186
84	0x3ca9ecf0	0.020742863
85	0xbecef806	-0.40423602
86	0x3deee127	0.11664038
87	0xbf1504c3	-0.5821039
88	0x3eb700c5	0.35742775
89	0xbf1b4841	-0.60657126
90	0x3e2aa19f	0.16663216
91	0xbfde0948	-1.7346582
92	0xbea544be	-0.3227901
93	0x3e05032d	0.12989493
94	0xbdab7f6a	-0.08373912
95	0xbf03faeb	-0.51554745
96	0xbe372e87	-0.17888843
97	0x3e386c4d	0.18010063
98	0xc0243fed	-2.5664017
99	0x3e9e9c08	0.30978417
100	0xbfbffb0e	-1.4998491
101	0x3f980d33	1.1879028
102	0xbf1a41ea	-0.60256827
103	0xbf6377ac	-0.8885448
104	0xbdb20489	-0.08692271
105	0x3ec8e95a	0.39240533
106	0x3e8486eb	0.25884184
107	0xbf29c609	-0.663178
108	0xbf423ee4	-0.75877213
109	0x3f291125	0.66041785
110	0x3f7f00f9	0.9961086
111	0xbfcd9291	-1.6060354
112	0x3fb86ca8	1.4408159
113	0x3e3d6815	0.18496735
114	0x3d165840	0.036705256
115	0xbf07a2f9	-0.5298305
116	0xbead8979	-0.33893946
117	0x3f52dbd6	0.82366693
118	0x3f5bf18a	0.85915434
119	0x3f574850	0.84094715
120	0x3ff897f1	1.9421369
121	0xbec49a3d	-0.38398924
122	0xbed076f7	-0.40715763
123	0xbedd42c9	-0.43215016
124	0xbeca0e31	-0.39463952
125	0xbf97d198	-1.1860838
126	0xbf3a4d32	-0.7277404
127	0xbed42421	-0.41433814
128	0x3dc9983f	0.09843492
129	0x3ea5f61b	0.32414326
130	0x3e1ae85e	0.15127704
131	0x3eeb36ef	0.45940349
132	0x3eb288c3	0.34869966
133	0x3f0d0377	0.5508341
134	0x3f1a3dc8	0.6025052
135	0x3f16d8b9	0.5892444
136	0x3f2c9dd6	0.6742834
137	0xbddc520f	-0.10757839
138	0xbe60cd55	-0.21953328
139	0xbdcd71be	-0.1003146
140	0x3f3a532f	0.7278318
141	0x3e30e0bf	0.17273234
142	0x3f2a5eb3	0.6655075
143	0x3f1626a4	0.5865271
144	0x3eb8ddf9	0.36106852
145	0x3e0e02ec	0.13868302
146	0x3f0372ea	0.5134722
147	0x3f22a875	0.63538295
148	0x3efd56f3	0.494804
149	0x3ee88e27	0.45420954
150	0x3e92cf7e	0.2867393
151	0x3d957871	0.07298363
152	0x3eb6930d	0.35659066
153	0x3f6ecc8c	0.93280864
154	0x3ed2e0b4	0.4118706
155	0xbd2c8baa	-0.04212538
156	0x3cc3e514	0.023912944
157	0x3f7c3f88	0.9853444
158	0x3e3af4c9	0.1825744
159	0x3b8ad57f	0.0042368765
160	0x3f334e25	0.70041114
161	0x3bb2ffc3	0.005462618
162	0x3f2abfa4	0.6669867
163	0x3f066a9a	0.5250641
164	0x3f7e4dcf	0.99337476
165	0x3dfd7c2a	0.12377198
166	0x3e017f8f	0.12646316
167	0x3f28db89	0.65959984
168	0x3f2ca007	0.6743168
169	0x3e48aeaa	0.19597879
170	0x3e5fa28a	0.21839347
171	0x3f688139	0.9082218
172	0x3ee79970	0.4523425
173	0x3df9cf85	0.12197784
174	0x3f41a72c	0.7564571
175	0xbe5ce17e	-0.21570393
176	0x3f5548ec	0.83314395
177	0x3b910e54	0.004426757
178	0x3ec2017e	0.37891763
179	0xbe60dc26	-0.2195898
180	0x3f1c90bb	0.6115834
181	0x3bb6f561	0.0055834507
182	0x3f8e58da	1.1120865
183	0x3da3a7d1	0.07990993
184	0x3f559a1f	0.83438295
185	0x3f0af27f	0.5427627
186	0x3f39d302	0.725876
187	0x3f6cebb4	0.92547154
188	0x3fa543ad	1.2911278
189	0x3fc8ef7b	1.5698084
190	0x3d2bb456	0.04192003
191	0x3f671981	0.9027329
192	0x3d906474	0.0705041
193	0x3cda98d6	0.026684206
194	0x3e92a046	0.28637904
195	0x3e80be62	0.2514525
196	0x3e85295c	0.26008117
197	0xbc316def	-0.010829433
198	0xbe98c08e	-0.29834408
199	0x3d4621d2	0.048372097
200	0x3eacf803	0.33782968
201	0x3e261d13	0.16222028
202	0x3e49f71a	0.19723168
203	0x3eb6c8f1	0.3570018
204	0xbdd50541	-0.10401393
205	0x3eb894a2	0.36050898
206	0x3d7903a6	0.060794495
207	0x3f5ca5d7	0.8619055
208	0xbf1793f4	-0.59210134
209	0x3f024db5	0.5089982
210	0x3f06abe1	0.52606016
211	0x3df0e0cd	0.11761627
212	0x3ec9e0b2	0.3942924
213	0x3f253062	0.6452695
214	0x3f6b30ff	0.9187164
215	0xbef630a5	-0.48083988
216	0x3e37fe76	0.17968163
217	0x3f843419	1.0328399
218	0x3f1b39a6	0.6063484
219	0xbebbd9c8	-0.3668959
220	0xbd754e32	-0.059889026
221	0x3f0cefab	0.55053204
222	0x3e9ffb52	0.3124643
223	0xbccc1fd5	-0.024917522
224	0xbe760f73	-0.24029331
225	0x3f1cb0a9	0.6120706
226	0xbe94c1de	-0.2905416
227	0x3f61e93b	0.88246506
228	0xbe67d776	-0.22640786
229	0x3e85a5bb	0.26103005
230	0xbe878b6f	-0.26473567
231	0xbc679aea	-0.0141360555
232	0xbd985ea4	-0.07439926
233	0x3da7dd6e	0.08196531
234	0x3f180a3b	0.5939061
235	0xbe2e1a38	-0.17002189
236	0xbcde994e	-0.02717271
237	0xbe6e0e0d	-0.23247547
238	0x3ee225f2	0.44169575
239	0x3ef3bc31	0.47604516
240	0x3efea1d2	0.49732834
241	0x3f6db408	0.9285283
242	0x3e0741c3	0.1320868
243	0xbd915631	-0.07096518
244	0xbbcd7d52	-0.006271043
245	0x3e6e8870	0.23294234
246	0x3e3c1bd0	0.18369985
247	0x3eca73e6	0.39541548
248	0x3ebda2a4	0.37038147
249	0x3d5c118e	0.05372768
250	0xbd645eed	-0.05575459
251	0x3ebfe84d	0.3748192
252	0x3e4d3e4a	0.20043293
253	0x3f35aac8	0.70963717
254	0x3e96bedf	0.29442498
255	0x3edb3419	0.42813185

bn2.weight f4 [64]
0	0x3f23468b	0.63779515
1	0x3fabb9a5	1.3416029
2	0x3eb6ef39	0.35729387
3	0x3fbd1f41	1.4775163
4	0x3f2c55cf	0.67318434
5	0x3fa1aa97	1.2630185
6	0x3f9bc558	1.21696
7	0x3fb17233	1.3862976
8	0x3f9f9b6c	1.2469306
9	0x3fc92522	1.5714457
10	0x3fbb4070	1.462904
11	0x3f8f8032	1.1210997
12	0x3f3aea45	0.73013717
13	0x3ee9f26a	0.4569276
14	0x3fb93e55	1.4472147
15	0x3f9b60d9	1.213893
16	0x4002006a	2.0312753
17	0x3f9fed52	1.24943
18	0x3fb87ca9	1.4413043
19	0x3f158035	0.58398753
20	0x3f6bd53b	0.9212224
21	0x3f95a11b	1.168979
22	0x3f81c78c	1.0139022
23	0x3f606a4e	0.8766221
24	0x3f4a9e79	0.7914806
25	0x3f9fb409	1.2476817
26	0x3fa8653a	1.3155892
27	0x3ee75d37	0.45188305
28	0x3f90e003	1.1318363
29	0x3f8fab4f	1.1224154
30	0x3f88b2fb	1.067962
31	0x3fbf34a6	1.4937942
32	0x3f80005f	1.0000113
33	0x3f1eb99e	0.6200198
34	0x3f5158d9	0.81776196
35	0x3f9de789	1.2336284
36	0x3ef0e390	0.47048616
37	0x4007cb45	2.1217816
38	0x3f851398	1.0396605
39	0x3fbc6bbb	1.4720377
40	0x3fa09632	1.2545836
41	0x3f7bae87	0.9831318
42	0x3f8993bc	1.074821
43	0x3fb6d8e5	1.4284941
44	0x3f4fed32	0.81221306
45	0x3fa503c8	1.2891779
46	0x3fa3e4a4	1.280415
47	0x3ede7ec4	0.4345609
48	0x3f88a07c	1.0673976
49	0x3fa15c71	1.2606336
50	0x3ee3ad2a	0.4446805
51	0x3f8b978f	1.0905627
52	0x3f966d1b	1.1752046
53	0x3edd09a3	0.43171415
54	0x3f855e40	1.0419388
55	0x3f421300	0.7581024
56	0x3fa287d3	1.26977
57	0x3f950b94	1.1644158
58	0x3f758987	0.95912975
59	0x3f4c3fc1	0.7978478
60	0x3f7c8dae	0.98653686
61	0x3f786d07	0.9704136
62	0x3fa6ecd4	1.3041024
63	0x3f90dce9	1.1317416

bn2.bias f4 [64]
0	0xbf0a4a47	-0.5401959
1	0x3e7d11db	0.24713843
2	0xbf27c899	-0.6554046
3	0xbf1628b9	-0.5865589
4	0xbf4c00e5	-0.79688865
5	0x3e7365b7	0.2376927
6	0x3ef07481	0.46963885
7	0x3e732c86	0.23747453
8	0x3ef2024c	0.47267377
9	0x3e9493b7	0.29018947
10	0x3f6be8b4	0.9215195
11	0x3f074c60	0.52850914
12	0xbf40f768	-0.7537751
13	0xbf83aa91	-1.0286428
14	0x3e91e203	0.28492746
15	0x3ef805dc	0.4844197
16	0x3d661545	0.056172628
17	0x3ee96a27	0.455888
18	0x3dc114d0	0.09427798
19	0xbf82767b	-1.0192407
20	0xbf2d2bd9	-0.6764503
21	0xbf93f0fe	-1.155792
22	0xbd0c85ba	-0.03430722
23	0xbf20cd50	-0.6281328
24	0xbf348ce0	-0.7052746
25	0xbe842635	-0.258104
26	0x3e23dc0a	0.16001907
27	0xbf2bb6e4	-0.67075944
28	0x3e9ce617	0.30644295
29	0xbe3a4e0a	-0.18193832
30	0x3f1f8af6	0.6232141
31	0xbe8771b0	-0.26453924
32	0xbfaca750	-1.348856
33	0xbf659f2a	-0.8969599
34	0xbf8081a9	-1.0039569
35	0x3ef33681	0.4750252
36	0xbf607712	-0.87681687
37	0xbdef65fd	-0.116893746
38	0xbee3cece	-0.44493717
39	0x3f6b2e40	0.91867447
40	0x3e2d8f50	0.169492
41	0xbf65672e	-0.89610565
42	0x3f30c53c	0.69050956
43	0x3f4a555e	0.7903651
44	0xbf411e6b	-0.7543704
45	0x3d9114e6	0.07084064
46	0x3d25ebed	0.0405082
47	0xbf2dd7bf	-0.6790733
48	0x3f75fc0c	0.9608772
49	0xbb1d56e4	-0.002400809
50	0xbee99b3a	-0.4562624
51	0x3f23e35c	0.640188
52	0xbdbb3f3c	-0.091429204
53	0xbeff3137	-0.49842235
54	0x3f1531ca	0.582791
55	0xbf00a694	-0.5025418
56	0xbf80b146	-1.00541
57	0xbf5ad4e7	-0.85481113
58	0xbf770f63	-0.96507853
59	0xbedca649	-0.43095616
60	0xbf300240	-0.68753433
61	0xbf800b15	-1.0003382
62	0xbe4d0503	-0.20021443
63	0x3f0b4b2e	0.5441159

bn2.running_mean f4 [64]
0	0xc11f9599	-9.974023
1	0x4057d3d0	3.372303
2	0x40844761	4.1337132
3	0x3fc47d0b	1.535066
4	0x3f609ed9	0.8774238
5	0xc0e45210	-7.1350174
6	0xc0745afd	-3.8180535
7	0xc0f6c021	-7.710953
8	0xc062bb62	-3.542687
9	0x3fee9c96	1.8641536
10	0x40665d42	3.599442
11	0x40e90ecf	7.2830577
12	0xc0126c6b	-2.2878673
13	0x40db5b2b	6.854879
14	0xc0320015	-2.781255
15	0xc05ea348	-3.478716
16	0x3f17488f	0.5909509
17	0xc0713d0b	-3.7693508
18	0x40b4d048	5.650425
19	0x3f6e5ecb	0.9311339
20	0xc0ea8b6e	-7.32952
21	0x3f434c25	0.7628806
22	0xc1377154	-11.465168
23	0xc11224cd	-9.133985
24	0xc11e60bc	-9.898617
25	0x40d5538d	6.666449
26	0xc1053468	-8.3252945
27	0xc14e0b90	-12.877823
28	0x40a39886	5.1123686
29	0xbfa0c581	-1.2560273
30	0x40efcb06	7.493533
31	0xbd7fd0a4	-0.062454835
32	0x3fcd1d6a	1.6024601
33	0x406d3e94	3.7069445
34	0x404e0561	3.2190783
35	0xc071b326	-3.7765594
36	0x4100aebd	8.042661
37	0x3f0704c3	0.5274164
38	0x3fe2d0b5	1.7719942
39	0x40521f8a	3.283175
40	0xc0a83714	-5.2567234
41	0xc0930159	-4.5939145
42	0x40cc24db	6.379499
43	0xbea56b31	-0.32308343
44	0xc14852a6	-12.520178
45	0x403d3253	2.9561965
46	0x405b4b73	3.42648
47	0xc0d2dcdf	-6.589462
48	0xc01d6f82	-2.459931
49	0x402372f6	2.5538917
50	0x40eb38c7	7.350681
51	0x40f51c19	7.65968
52	0x3f3083fb	0.68951386
53	0x410a6e4c	8.651928
54	0x40dd35a4	6.912798
55	0xc129825d	-10.594327
56	0x3ebd69d4	0.36994803
57	0x400c3706	2.1908584
58	0xbfae37ad	-1.3610741
59	0xc13a8b1c	-11.658962
60	0x40b3faa6	5.6243467
61	0xc0ac245e	-5.3794394
62	0xc10edd23	-8.928988
63	0x40e1c36a	7.0551043

bn2.running_var f4 [64]
0	0x40dd330a	6.9124804
1	0x41e86047	29.04701
2	0x4237c20a	45.93949
3	0x4088acb9	4.2710843
4	0x40f9ff92	7.8124475
5	0x3f130f37	0.5744509
6	0x403794d8	2.8684597
7	0x3f1e0b41	0.6173592
8	0x40190dcf	2.3914678
9	0x40b66abf	5.7005305
10	0x40aad8e4	5.338976
11	0x3fc4a960	1.5364189
12	0x3efef404	0.49795544
13	0x42318ddd	44.38854
14	0x3fa3bbdf	1.2791709
15	0x4018b21e	2.3858714
16	0x406e55d9	3.7239897
17	0x401b49e4	2.426385
18	0x41864330	16.782806
19	0x41beef02	23.866703
20	0x419a5c03	19.294928
21	0x3f8e2739	1.110572
22	0x40589896	3.384313
23	0x3fe753e8	1.8072481
24	0x3e586535	0.21132357
25	0x410fc216	8.984884
26	0x3f882c65	1.0638548
27	0x42d22317	105.068535
28	0x40487194	3.1319323
29	0x41347429	11.278359
30	0x3ffea8a6	1.9895217
31	0x4164a90f	14.291274
32	0x406fcf82	3.7470403
33	0x4183e4da	16.486744
34	0x409638ef	4.69445
35	0x4010db2d	2.2633774
36	0x422489b7	41.134487
37	0x405e2b70	3.4714012
38	0x3fe048fd	1.7522274
39	0x40abd47c	5.369688
40	0x400179d2	2.0230603
41	0x3ffb6bd8	1.9642286
42	0x401baa1f	2.4322584
43	0x400b9c39	2.18141
44	0x3eeca73d	0.46221343
45	0x40f7672a	7.7313433
46	0x40ebfff0	7.3749924
47	0x3fc9b52f	1.5758418
48	0x3fd82c5d	1.6888539
49	0x4103bbaf	8.233321
50	0x42b7e64f	91.94982
51	0x401973df	2.3976972
52	0x412d15ab	10.81779
53	0x4228592e	42.08709
54	0x4027dec6	2.622972
55	0x41167689	9.403939
56	0x403d7642	2.960343
57	0x40799d93	3.9002426
58	0x3f4cd6d4	0.800153
59	0x40a949a3	5.290239
60	0x41e414c5	28.510141
61	0x3fe05412	1.7525656
62	0x3f2b3487	0.66877025
63	0x4008e8c9	2.139208

fc.weight f4 [2, 64]
0	0xbee7fd82	-0.453106
1	0x3ecad9b6	0.39619225
2	0x3e27d526	0.16389903
3	0xbf4c0caa	-0.79706824
4	0xbf7867e8	-0.9703355
5	0x3eef4123	0.46729383
6	0x3edc30b7	0.43005916
7	0x3efb6668	0.49101567
8	0x3efd27a3	0.49444303
9	0xbf1ebec7	-0.62009853
10	0xbf6df205	-0.9294742
11	0xbeb9c85c	-0.36285675
12	0xbf5e8a03	-0.8692934
13	0xbc5db4ea	-0.013531903
14	0x3eef86e7	0.4678261
15	0x3eeba7b8	0.46026397
16	0x3f5b67de	0.85705364
17	0x3ef0f4b8	0.47061706
18	0x3ec886a1	0.39165214
19	0xbf2a2979	-0.6646953
20	0x3f37b3c4	0.71758676
21	0xbfe8c464	-1.8184934
22	0x3e0ff56f	0.14058469
23	0x3eb23091	0.34802678
24	0x3f034307	0.5127415
25	0x3e67461e	0.22585341
26	0x3eea6b5c	0.45785034
27	0xbebdc755	-0.3706614
28	0xbeddc1ba	-0.43311864
29	0xbf27d630	-0.655612
30	0xbe9fa4af	-0.3118033
31	0xbf1d22de	-0.6138133
32	0x402fd642	2.7474523
33	0xbf71dd77	-0.94478554
34	0x3fed2e45	1.8529745
35	0x3ed27953	0.41108188
36	0xbd2d685d	-0.042335857
37	0x3f8779c6	1.0584037
38	0xbf60a1b6	-0.8774675
39	0xbf6f2b45	-0.934254
40	0x3ec701cc	0.38868558
41	0x3fc8763f	1.5661086
42	0xbe827351	-0.25478604
43	0x3f4e1e5b	0.8051507
44	0x3f22b13f	0.63551706
45	0xbef4faae	-0.47847503
46	0xbeee876c	-0.46587694
47	0xbf1a6ea1	-0.60325056
48	0x3f4f1fe1	0.8090802
49	0xbf0c71d5	-0.54861194
50	0x3e5c8fa3	0.21539168
51	0xbea780fe	-0.327156
52	0xbf27a4bb	-0.65485734
53	0xbe24cf6f	-0.16094755
54	0xbeca4ff4	-0.39514124
55	0x3df2a5ee	0.11848055
56	0xbfaaa8cc	-1.3332763
57	0xbf5baa13	-0.8580639
58	0x3f17d33b	0.5930669
59	0x3db9ee81	0.09078694
60	0x3dd3d025	0.10342435
61	0x3fccec79	1.6009666
62	0x3f076adc	0.5289743
63	0xbe94f242	-0.29091078
64	0x3ecdec5e	0.40219396
65	0xbee883be	-0.4541301
66	0xbe25bfe8	-0.16186488
67	0x3f5aff8c	0.85546184
68	0x3f767a46	0.96280324
69	0xbef7e0c9	-0.48413685
70	0xbed61060	-0.41809368
71	0xbed8647f	-0.42264172
72	0xbe9e81ee	-0.30958503
73	0x3ef82d36	0.48471993
74	0x3f575267	0.8411011
75	0x3ec28a34	0.37996066
76	0x3f5224f2	0.82087624
77	0xbe04b15e	-0.12958285
78	0xbed35e99	-0.4128311
79	0xbeaea37b	-0.341091
80	0xbf7026cf	-0.9380922
81	0xbe9d702e	-0.3074965
82	0xbf02b4c3	-0.5105707
83	0x3f12cdaf	0.573451
84	0xbf2ed67e	-0.6829604
85	0x3feceacc	1.8509154
86	0xbe7e8e1d	-0.248589
87	0xbe81ea8f	-0.25374267
88	0xbf12516b	-0.57155484
89	0xbecb8ad8	-0.39754367
90	0xbf06952e	-0.5257138
91	0x3ec92fb4	0.39294207
92	0x3ed2a31d	0.4114007
93	0x3f368e3f	0.713108
94	0x3ebd7a13	0.37007198
95	0x3efe85e4	0.49711525
96	0xc024d0c1	-2.5752413
97	0x3f6ec36e	0.9326695
98	0xc004c3ee	-2.0744586
99	0xbecf930e	-0.4054188
100	0xbe161549	-0.14656557
101	0xbf8107b5	-1.0080477
102	0x3f83d0ec	1.0298133
103	0x3f5bc566	0.8584808
104	0xbed763f6	-0.42068452
105	0xbfd18582	-1.6368868
106	0x3edc27b5	0.42999044
107	0xbf1a49be	-0.6026877
108	0xbf0ef5c1	-0.5584374
109	0x3ef25e02	0.47337347
110	0x3edd7100	0.43250275
111	0x3f2eb29e	0.682413
112	0xbf462bdc	-0.77410674
113	0x3f02397c	0.50868964
114	0xbdf74150	-0.12073004
115	0x3eac7c14	0.33688414
116	0x3f08dfd8	0.5346656
117	0x3e90868c	0.2822765
118	0x3eaaf897	0.33392784
119	0xbdd64c7f	-0.10463809
120	0x3fa9774e	1.3239534
121	0x3f5492d8	0.83036566
122	0xbf2fba5a	-0.68643725
123	0xbd9fdcb2	-0.07805766
124	0xbe586499	-0.21132125
125	0xbfd267ec	-1.6437964
126	0xbef10ec9	-0.47081593
127	0x3ee23101	0.44178012

fc.bias f4 [2]
0	0x3dd2b749	0.10288865
1	0xbd536595	-0.051610548
