models/booster/best_models/1-1.pth (torch, 50042 bytes, 18 tensors)

conv1.att_src f4 [1, 1, 128]
000000 7b f8 65 40 a3 a2 ba 3d f5 5c 98 c0 43 26 c6 40
       3.593291 0.09113052 -4.7613473 6.1921706
000010 a1 0b 27 be 04 44 22 c0 bd cc 84 c0 35 01 23 40
       -0.1631303 -2.5354013 -4.1499925 2.5469487
000020 51 36 3a bf a1 42 8d bd e6 93 95 bf 2d d1 84 c0
       -0.7273913 -0.06897474 -1.168576 -4.150534
000030 ad 39 c1 bf 0f 3c 26 3f 23 63 fd bb 70 40 a7 3d
       -1.5095726 0.6493539 -0.0077327653 0.08166587
000040 d0 e0 de 3e 8c 0a a3 c0 b0 9a 10 40 47 86 f1 bd
       0.43530893 -5.0950375 2.2594414 -0.117931895
000050 c8 37 b2 c0 d8 d7 20 41 02 a6 4d 40 bc 1f 27 c0
       -5.569309 10.052696 3.2132573 -2.611312
000060 e4 c0 6f 3e 90 8e 05 3e 78 b2 e2 3a 5b 9d 24 c0
       0.23413426 0.13042665 0.001729562 -2.5721042
000070 b0 ad bc 3f 8b e8 11 40 8a 80 81 3d 85 0d 61 bd
       1.4740505 2.2798183 0.06323345 -0.054944534
000080 28 70 fe bf a0 b3 7c bf 25 06 b1 3b 02 1d cd 3d
       -1.9877977 -0.98711586 0.005402344 0.100152984
000090 27 ff 5a bc 1c 12 dd 3e b8 d6 ed c0 96 72 9b b9
       -0.013366497 0.4317788 -7.432461 -0.00029649277
0000a0 1d 26 aa be 20 3c 74 bf 34 08 ae 3e 94 dd 5b bf
       -0.33232203 -0.95404243 0.33990633 -0.85884976
0000b0 44 7b d6 3e 94 19 af 3d 8f 6a bc c0 38 95 32 3f
       0.4189092 0.085498005 -5.8880076 0.6975894
0000c0 7d fc 54 3d cc e5 40 40 46 60 cf c0 a6 7d 0c 3e
       0.051998604 3.0140257 -6.480502 0.13719806
0000d0 2d 6d a0 3f 87 a7 f0 bf 97 1f 16 c0 30 8d 2f 40
       1.2533318 -1.8801125 -2.345678 2.7429924
0000e0 21 ea a1 3f a9 70 45 40 d3 bf 1b be 8e e0 1a 3e
       1.2649575 3.0850012 -0.15209894 0.15124723
0000f0 f4 0d 03 3f 67 e6 91 3d 5c 40 3c 3e 44 01 87 3c
       0.51193166 0.07124024 0.18383926 0.016480096
000100 32 89 11 bf 90 ab 21 bd ff d4 11 40 12 f5 fc be
       -0.5684997 -0.039470255 2.2786252 -0.49405724
000110 dc d9 87 40 4b 83 14 3e 51 3e 37 40 40 5a b5 3c
       4.245344 0.1450321 2.8631785 0.022137761
000120 eb bc 45 c0 50 06 1b c0 22 16 af bb 06 fd 03 be
       -3.0896556 -2.4222603 -0.0053432146 -0.1288949
000130 65 23 39 3c 5e 81 1d bf 14 f5 ae 40 e4 70 74 bf
       0.011299943 -0.61525524 5.467417 -0.9548476
000140 e4 95 b5 3f b7 93 14 bc 54 19 7e 40 2b 96 13 bf
       1.4186368 -0.009068421 3.970296 -0.57651013
000150 5a a4 c6 3f 3d 24 e0 3f 06 d5 22 c0 20 02 35 3f
       1.5518906 1.7511059 -2.544252 0.7070637
000160 73 f6 c4 c0 d1 c9 95 40 12 45 6c 40 2c de 1b 41
       -6.155084 4.680886 3.6917157 9.741741
000170 f1 bd 4b 3f ec 09 16 3c 8d 4c e9 bf d6 b7 48 bc
       0.795867 0.009157639 -1.8226486 -0.012250861
000180 cb 75 10 bf 1e eb d5 be 69 84 14 3f b6 47 97 be
       -0.5642974 -0.41780943 0.5801454 -0.295469
000190 97 37 12 3c 98 44 0f be 03 34 10 3f 37 b5 14 bf
       0.008924386 -0.1399101 0.56329364 -0.5808901
0001a0 1a af ef be b2 ba 0e c1 df 97 30 3f 6f a6 7e 3d
       -0.4681328 -8.92058 0.68981737 0.062170442
0001b0 61 e4 37 3f 03 15 94 bc 9f d8 be 3d 7e 78 8e 3b
       0.71832854 -0.018076425 0.09318661 0.00434786
0001c0 9f e8 7b bc 79 2c 87 bf 4b 96 2c bf 55 f0 01 40
       -0.015375285 -1.0560447 -0.6741683 2.0302937
0001d0 f5 00 aa 3d f4 99 4d bd e5 4c 56 bc 69 d5 21 3e
       0.08300964 -0.05019565 -0.0130798565 0.15804066
0001e0 28 97 03 3d b0 8f 6c 3f a2 f9 38 3f 00 cc 1c 3f
       0.032126576 0.9240675 0.7225591 0.6124878
0001f0 62 6d c1 c0 32 8e 9f bf f1 8e 7f 3b de 1d 51 bf
       -6.0446024 -1.246527 0.0038995112 -0.816862

conv1.att_dst f4 [1, 1, 128]
000000 b8 bb 9b be cb 53 65 3c 4a 3a b3 be 54 70 ad 3b
       -0.30416656 0.013997029 -0.3500541 0.0052929316
000010 d4 f0 90 be 8a a8 04 bf fd 22 63 3e c8 54 b4 3e
       -0.28308737 -0.5181967 0.22181316 0.35220933
000020 04 df cc 3d f8 ed fa 3d bb 01 20 be 46 0a 10 3d
       0.10003474 0.1225242 -0.1562566 0.035166048
000030 8f 7f 9a be f7 0b bd be 00 7b 9a be 0d 3d a6 3d
       -0.30175444 -0.3692319 -0.30171967 0.08117113
000040 f7 bd a7 be 97 5f ef be 25 b5 00 bf 1f a5 f4 3c
       -0.3276212 -0.46752617 -0.50276405 0.029863892
000050 ec e1 b9 3d 60 4f c1 3e c3 20 4e bc 6e 8a c5 bc
       0.09076294 0.3775587 -0.012581053 -0.02411386
000060 f4 9c 22 3e 9c 13 67 be 58 df 4a be ac 72 59 3d
       0.15880185 -0.22566074 -0.19811761 0.053087875
000070 44 85 b7 be d9 36 05 bd 5f 6e 0d 3b 94 f1 55 3a
       -0.3584386 -0.03252301 0.002158068 0.0008161303
000080 d0 29 d2 be af 0f 2a 3d 19 b6 b2 bc e0 02 27 3f
       -0.41047525 0.041518863 -0.021815347 0.6523876
000090 6e d0 85 3d f7 74 ca bb a6 ee 06 bf 7f 06 0b 3f
       0.065338954 -0.006178494 -0.527079 0.5430679
0000a0 71 ec d6 3d b5 ca 93 be 61 78 96 be c4 9d 19 bf
       0.10494316 -0.2886559 -0.29388717 -0.60006356
0000b0 7f 3c 04 3f df 7f 57 be f3 1a da 3d 3c 78 4b 3e
       0.5165481 -0.21044873 0.106496714 0.19870085
0000c0 0d 98 c9 be e9 1c 34 be 6b 51 b9 3e e5 8e d9 be
       -0.39373818 -0.17589153 0.3619493 -0.42491832
0000d0 f5 f8 7e bd 49 22 22 be a9 ff 04 be da d2 50 be
       -0.062249143 -0.15833391 -0.12988152 -0.20392933
0000e0 af 98 e1 3e 70 44 ce bd 23 8f 69 be 7b d6 da be
       0.440618 -0.10071647 -0.22808509 -0.4274176
0000f0 7e 46 46 bb 3e e1 cc 3e bb b9 6f bf 99 53 aa be
       -0.003025442 0.40015596 -0.9364278 -0.33266905
000100 78 6b 21 3e 09 19 3b 3e e2 58 f7 be 93 b3 1e 3f
       0.15763652 0.18271269 -0.4831 0.6199276
000110 95 d9 20 bf 8c 86 15 be d8 0e 8f bc c9 85 aa 3d
       -0.62832004 -0.14602107 -0.017463133 0.08326299
000120 d8 f8 b9 be 74 fd b6 be 11 3b 04 3d 46 f9 90 3d
       -0.36322665 -0.35740244 0.032282893 0.07078795
000130 ac f9 25 be 70 19 4a 3d cb c6 21 bf 49 6d f2 be
       -0.16208524 0.049340665 -0.6319396 -0.47349003
000140 46 dc 3b be d4 d3 09 bf cc e2 17 3d 4f aa f2 3d
       -0.18345746 -0.5383885 0.037081525 0.1184889
000150 02 48 7a be bc 59 5a 3d e1 e4 87 bd 42 77 e7 3e
       -0.24441531 0.053308234 -0.06635452 0.45208174
000160 74 86 a1 be 63 22 3a be 29 9f ab bc 0d ed 26 bf
       -0.31547892 -0.1817718 -0.020949917 -0.6520546
000170 80 95 c3 be 39 23 65 be 31 e8 87 3c ff 7b 18 3f
       -0.38199997 -0.22376718 0.01659021 0.59564203
000180 24 0a 1b 3e 0e 1a ae be 08 ec 77 3e 97 8d a8 3d
       0.15140587 -0.34004253 0.24211133 0.08230131
000190 23 12 e8 3e 2b d8 88 3e 2c 92 f6 3d b0 5f 88 be
       0.45326337 0.26727423 0.12039599 -0.26635504
0001a0 ef 44 ab be ac 85 0e bf 13 bc 6f be 1f 83 a4 be
       -0.3345103 -0.5567272 -0.23411588 -0.32131287
0001b0 36 d0 b4 3e ae 8c 06 3b 99 d6 b3 3e 5a 9e 89 3e
       0.35315102 0.002053063 0.35124663 0.26878625
0001c0 e7 20 a0 3d 31 42 0a bf 46 2b 37 3f a2 f5 c8 3e
       0.078187756 -0.5400725 0.71550405 0.39249903
0001d0 17 96 a2 3e 9e 5c f7 3d f1 21 80 be 2a 9e cc 3d
       0.31755134 0.12078212 -0.25025895 0.09991105
0001e0 88 b3 f6 3e f9 fb ea 3e f0 a0 65 3c 5e e8 28 3e
       0.48183846 0.45895365 0.014015421 0.16494891
0001f0 fd 5f 42 3e e7 1e 51 3e 1a 89 16 3e e6 f6 b7 be
       0.18981929 0.20421945 0.14700738 -0.35930556

conv1.bias f4 [128]
000000 bb fd 00 3c be 59 af ba 2b 82 59 bb d6 8a c0 39
       0.007872994 -0.0013378186 -0.0033189158 0.00036724535
000010 96 4b 66 39 98 9e 30 3e bc ec 47 bd 07 f3 a4 3c
       0.00021962667 0.17247999 -0.048809752 0.020135416
000020 6a fc b3 3b 53 aa 04 bd 64 09 cd 38 70 78 cb 3b
       0.0054927366 -0.032388996 9.776911e-05 0.0062094256
000030 64 e7 a9 bc 71 46 40 bb 1b b2 98 bb b7 ff 28 36
       -0.020740218 -0.0029338861 -0.0046599037 2.5182796e-06
000040 8d db 43 bb 3a 2e 82 3a 42 5f ad bc 68 2f 2f bd
       -0.00298855 0.000993199 -0.021163587 -0.04276982
000050 5f a3 63 3b 24 2a 58 3c 8c 71 8d ba 05 65 14 bc
       0.0034734828 0.013193641 -0.0010791286 -0.009057288
000060 86 bc bd 3c a7 65 a4 3b d5 d8 7a 3b 36 50 81 3b
       0.023161184 0.0050170007 0.0038276215 0.0039463295
000070 d8 f8 84 3b 8a 1b 6e 3c 8f 70 18 3c 1d 5d 1f 3c
       0.004057985 0.014532933 0.00930418 0.00972679
000080 f1 61 0c bb f9 93 23 bd 8c 33 f3 3a bd 18 27 bd
       -0.0021420682 -0.03993604 0.0018554791 -0.040795077
000090 a4 4d 80 bb 81 19 98 3b 6e f3 3b bd d6 4e 48 bb
       -0.0039155055 0.004641712 -0.04588645 -0.0030564568
0000a0 d3 97 b0 39 89 c4 0f b9 c6 a4 a5 b9 c5 e5 1a 3b
       0.00033682454 -0.00013710758 -0.00031594018 0.0023635488
0000b0 eb d2 a0 b9 18 3f 22 bc ea 94 03 be 1a 07 4c ba
       -0.00030674724 -0.009902738 -0.12849775 -0.00077830406
0000c0 bc f0 a4 3a a2 3c 1d 3b 14 a7 8e 3a f5 a8 9b bb
       0.0012583951 0.0023992439 0.0010883533 -0.004750366
0000d0 da a8 93 bb 2b f8 b6 3d 94 b4 1e 3b 2e ef cf 3a
       -0.0045062127 0.08934053 0.002421652 0.0015864128
0000e0 5d 6a 81 3c ba 97 b8 bd eb 92 c0 3b 9b 70 34 3c
       0.015797788 -0.090133145 0.005876889 0.011013175
0000f0 2a 94 5d ba 9c 55 ad bc 84 5c 95 bb d1 bd c9 ba
       -0.0008452559 -0.021158986 -0.004558148 -0.0015391653
000100 d3 2e 9b 3a 64 60 3a bb ff 42 93 bb 41 ad 2c 3b
       0.0011839516 -0.00284388 -0.0044940705 0.0026348385
000110 3c 19 0c 3c c2 00 12 bd b6 54 d3 bb b2 05 06 3c
       0.008550938 -0.035645254 -0.0064493073 0.008180069
000120 9c ff da 3a ad db 1d 3c 21 c1 44 bb 16 2d c3 3a
       0.0016708258 0.009634894 -0.003002234 0.0014890756
000130 15 9c 15 3b 72 c4 56 bb 6e 8c 17 3b 58 ca 09 3b
       0.0022828628 -0.00327709 0.0023124474 0.0021025147
000140 a6 d7 31 3b e2 c9 0c 3b 46 f9 64 3b fb a9 49 3b
       0.0027136593 0.0021482636 0.0034938618 0.0030771482
000150 da 41 91 3c 43 62 0a 3b 64 1b 86 bd 32 ab cd 3a
       0.017731596 0.0021115697 -0.06548193 0.0015691279
000160 56 93 ea 3b 15 10 04 bc e0 86 be bd 4a 0c 05 3b
       0.007158677 -0.008060475 -0.09303069 0.0020301514
000170 ba 77 ea 3c ee 01 1a 3b 36 69 57 3d 3f dd 80 3c
       0.028621543 0.0023499685 0.05259057 0.015730498
000180 87 36 92 bc 78 74 90 3b 04 4c 70 3b aa 5d 84 3a
       -0.017848266 0.0044084154 0.0036666403 0.0010098715
000190 9b 05 d6 bc 88 df 53 3c 9c f5 bc 3a a2 b5 92 39
       -0.02612572 0.012931712 0.0014416459 0.00027982617
0001a0 67 f1 c0 ba b4 bd a6 bb eb 19 eb 3b 60 16 14 bb
       -0.0014720381 -0.0050885323 0.0071747205 -0.0022596344
0001b0 27 0e 4a bc 32 a0 0f 3c 78 bb 20 3c 3c 10 52 ba
       -0.012332476 0.008766221 0.009810321 -0.00080132834
0001c0 82 75 aa be 82 c4 03 bc d8 29 28 3c af 88 00 bd
       -0.33292776 -0.008042457 0.010263883 -0.03138035
0001d0 76 1e d5 3b 5a cd e2 bb 44 22 60 3b 58 bc e6 b9
       0.0065038754 -0.0069214525 0.0034200111 -0.00044009346
0001e0 93 12 c1 3c 93 ef 5e 3b d5 d2 86 bb 3d f3 be ba
       0.023568427 0.003401731 -0.0041144886 -0.001456834
0001f0 f8 9f 2c bc 07 d4 aa ba ec b2 1b bb 2c ba 8b 38
       -0.010536186 -0.001303316 -0.0023757769 6.662714e-05

conv1.lin.weight f4 [128, 12]
000000 8e 17 1d 3e 13 23 99 c0 f4 48 c6 3c b2 a6 f4 bc
       0.15341017 -4.7855315 0.024204709 -0.029864643
000010 c0 61 57 3f 2a 80 59 c0 25 96 e2 bf 3c ba 68 bf
       0.8413353 -3.3984475 -1.770207 -0.9090917
000020 ed cb af c1 53 46 a5 3f b9 28 5f c0 ba 1e 87 41
       -21.974573 1.2912086 -3.4868605 16.890003
000030 c3 e9 97 3e 63 93 5c 40 49 cb 1f 3d 3c f5 a5 3c
       0.29670534 3.4464958 0.039012227 0.020258538
000040 3a 24 a9 be 65 4d d7 3f 82 e2 11 bf 77 d4 e5 bf
       -0.3303545 1.6820494 -0.5698625 -1.7955464
000050 b7 4f ba bf 09 d4 f1 40 e9 5c ba 40 e6 55 4d 40
       -1.4555577 7.557133 5.8238416 3.2083678
000060 44 ab 91 3d 3f 48 8c 40 e1 de c5 bd 54 b2 74 3d
       0.071127445 4.383819 -0.096616514 0.05974038
000070 66 01 2c bf e5 bb 5d bf da e8 43 bf c0 c6 f9 bd
       -0.67189634 -0.8661483 -0.7652718 -0.12196112
000080 4d 99 a8 41 a6 08 a7 bf 32 6c e7 bf 3c 17 81 c1
       21.074854 -1.3049514 -1.8079894 -16.136345
000090 8d 7f 18 3e fb 71 a9 c0 12 92 9d bc 7c 37 9a bd
       0.14892407 -5.2951636 -0.01923469 -0.07530114
0000a0 b2 8c 94 3e 80 5d 46 c0 00 fb 88 bf 7a 48 86 be
       0.29013592 -3.0994568 -1.0701599 -0.2622717
0000b0 94 2c ac c1 e7 ff e0 3f 0f c6 61 40 19 18 88 41
       -21.521767 1.7578095 3.5277135 17.011766
0000c0 9d 48 b8 be 80 46 3f 40 aa ec ca bd 71 bb 77 be
       -0.359929 2.988678 -0.09908421 -0.24192597
0000d0 1e cb a4 3e 1a ec 93 3e 82 75 fc 3e 86 d2 e5 3d
       0.32186216 0.2889107 0.493084 0.11221795
0000e0 34 b5 bf 40 42 7e 97 bf 7b 55 f7 bf 68 71 4f c0
       5.9908695 -1.1835406 -1.9322962 -3.2412968
0000f0 a6 99 86 be ce cb b9 40 92 18 92 be 73 a6 3d 3c
       -0.262891 5.8061285 -0.2853437 0.011575329
000100 9a 38 26 40 02 03 c3 c0 2b ed 8b bf 37 8a b2 bf
       2.5972047 -6.094117 -1.0931753 -1.394843
000110 82 58 b7 41 0e 51 cb 3f f2 dd 95 40 54 01 94 c1
       22.918217 1.5884111 4.683343 -18.500648
000120 39 7d 27 be 2c df ae 40 2c fc 62 be 64 a9 e8 3b
       -0.16356362 5.4647427 -0.22166508 0.007100271
000130 29 be 93 3f fe 15 00 c1 e3 a1 01 3f 4a 11 d6 3f
       1.1542407 -8.005369 0.50637645 1.6724026
000140 e9 6a ca 41 41 b7 dd 3f c9 33 08 41 f6 d1 b9 c1
       25.302202 1.732155 8.512643 -23.22752
000150 8a 2a 04 3e 41 10 95 c0 d0 54 83 3e 94 8c 9b 3c
       0.12906852 -4.658234 0.25650644 0.018987931
000160 13 ff a3 bd d8 41 e8 c0 bb 06 67 bf a4 05 e6 bf
       -0.08007636 -7.2580376 -0.90244645 -1.7970471
000170 a1 e2 98 c1 79 6f 3d 3f a7 48 80 bf a2 1b 77 41
       -19.110659 0.7399822 -1.0022172 15.444246
000180 44 76 38 bf a3 ac 58 40 bb ef 38 bf 73 30 c7 bd
       -0.7205546 3.385537 -0.722408 -0.09726038
000190 00 1c a3 be 44 0f 9c bf 42 86 c0 bc c2 43 c9 bf
       -0.318573 -1.2192159 -0.02350152 -1.5723803
0001a0 82 a0 1c 41 26 bb 0f c0 97 a1 ef 3e 22 59 c9 c0
       9.7891865 -2.2457976 0.4680297 -6.2921305
0001b0 7c 3d 61 c0 a6 a9 61 c0 69 2c 4e c0 a8 8d 86 bb
       -3.5193777 -3.5259795 -3.2214606 -0.004106242
0001c0 52 68 52 be ab 5f 7c 40 c9 a4 99 be 57 1f 68 3f
       -0.20547608 3.943339 -0.30008534 0.9067282
0001d0 47 f6 19 c1 37 32 46 c2 cb 29 9a 40 1d a7 a2 c1
       -9.622626 -49.549038 4.8176017 -20.331598
0001e0 a7 72 b2 be 70 63 41 40 5e 29 96 bd b1 06 32 be
       -0.34853098 3.0216942 -0.07332109 -0.17385365
0001f0 d2 b8 4a 3e 0d bf 90 bf 17 fb 5d bf 16 64 0b bf
       0.19797066 -1.1308304 -0.8671126 -0.54449594
000200 c7 6b 58 41 cb f8 bf bf b9 ac 49 c0 d8 28 0d c1
       13.526313 -1.49978 -3.1511672 -8.822472
000210 c8 4e b7 bd bc e0 43 40 d6 80 ce bd 4e 01 e1 bd
       -0.08950573 3.0605917 -0.10083167 -0.10986577
000220 57 05 25 3f 63 3c 4b bf d1 06 c5 bd 57 c7 33 3f
       0.6446127 -0.7938902 -0.09620441 0.70226043
000230 2a f4 9a 41 e7 72 b2 bf b2 38 bd c0 bc e8 67 c1
       19.36922 -1.3941315 -5.913171 -14.49432
000240 08 b7 0b be d2 3b 64 3f 19 15 31 be 16 9f 3c bd
       -0.1364404 0.8915378 -0.17293204 -0.046050154
000250 08 a0 ed 3e 5b 1a 4a bf 5e d4 f5 bd 02 70 5f 3f
       0.46411157 -0.78946465 -0.120033965 0.87280285
000260 96 b2 4f 41 59 64 ff bf a3 3f cc c0 17 b9 f9 c0
       12.9811 -1.9952499 -6.382768 -7.803844
000270 8a 68 1b bd 66 bd 1f c0 94 9f 55 3d ef 06 84 3d
       -0.037941493 -2.495935 0.05215414 0.06446635
000280 b6 28 93 3f 1b cf a7 bf 74 bd 6e 3f bd 67 ba bf
       1.1496799 -1.3110079 0.9325783 -1.4562908
000290 5a 65 22 c1 39 1d a6 be 2a 3a 32 c0 3d fa bb 40
       -10.149744 -0.3244417 -2.7848 5.8742967
0002a0 9a 60 e8 be a6 80 d8 3f ca 7c 1a bf 97 d4 25 bd
       -0.453862 1.691426 -0.60346663 -0.040485945
0002b0 28 f8 82 3f 1e 24 61 c0 0b 71 38 c0 de 2d c4 3e
       1.0231981 -3.5178294 -2.8818996 0.38316244
0002c0 3f 8d d5 3f 94 eb 20 3f a6 5c 81 bf 39 57 28 bf
       1.668373 0.62859464 -1.0106399 -0.6575809
0002d0 be c5 58 3e f9 02 38 c0 df d3 dc 3b 24 91 85 be
       0.21169183 -2.8751814 0.006739124 -0.26087296
0002e0 62 b4 05 3f 85 78 7c be 0d ff d5 be 4d fc 67 3d
       0.5222837 -0.2465535 -0.4179615 0.056637097
0002f0 0e b3 8b c0 62 69 94 3f 9c 43 44 40 1e bd 21 40
       -4.3656073 1.159466 3.0666265 2.5271678
000300 5d d3 e3 3d fa 90 75 c0 8e 3b c8 3d 1c e4 52 bf
       0.11124299 -3.8369737 0.09776984 -0.8237932
000310 3f aa 66 39 f1 a8 3c c0 7e 77 4a 3d 83 4b a2 be
       0.00021997931 -2.9478114 0.049430363 -0.31698236
000320 13 4d 10 c1 49 3f 4b 3f fa a1 d8 bf 93 5b ad 40
       -9.018817 0.7939344 -1.6924431 5.4174285
000330 52 3b 91 be ba 5a 82 40 15 d1 e1 bc 7e 91 05 be
       -0.2836557 4.073575 -0.027565518 -0.13043782
000340 9b 50 07 bc 82 ac 66 40 d8 52 1e 3f cf 45 05 3e
       -0.008258964 3.604279 0.6184516 0.13014911
000350 48 85 a9 41 c8 66 e0 bf 3b 8d c5 bf 15 c7 81 c1
       21.190079 -1.7531366 -1.5433725 -16.222208
000360 87 2d 2a 3e ac 5a 7d c0 53 3c 1c 3e de 77 e9 3c
       0.1661893 -3.9586592 0.15257387 0.02849954
000370 95 c3 cd bd ab 60 e4 3e c8 3d 1e 3e 9e 7f 2e bb
       -0.1004707 0.44605002 0.15453255 -0.0026626359
000380 c5 aa 99 c1 e2 1d 38 bf 2e 61 da c0 bf b1 54 41
       -19.208384 -0.719206 -6.8243628 13.293395
000390 e4 44 dd be db e3 23 40 22 17 98 be da ca 2f 3c
       -0.43216622 2.5607822 -0.2970515 0.010729516
0003a0 5a 04 f9 be 0f 65 1f 40 8f f6 69 bf ed 77 c8 bf
       -0.48636132 2.4905431 -0.91391844 -1.5661598
0003b0 6a 60 a3 40 8a 78 61 40 fa 9e dd 40 b3 b6 53 bf
       5.1055193 3.5229821 6.9256563 -0.8270065
0003c0 6d 41 8a 3d 0e ad 6a 40 b5 49 66 bd 5f b3 51 bc
       0.0675076 3.6668124 -0.056222636 -0.012799113
0003d0 51 da 2a bf c1 ba 05 bf e9 73 84 bf 53 f9 0f bf
       -0.66739374 -0.5223809 -1.0347873 -0.56239814
0003e0 92 d9 a8 41 ad f8 88 bf 1b 5e 48 c0 a3 4d 85 c1
       21.106236 -1.070089 -3.1307437 -16.662909
0003f0 7d 58 23 3e ea 4d a2 c0 0c 94 f5 3d 0f 94 a5 be
       0.15951724 -5.072011 0.11991128 -0.32339522

bn1.weight f4 [128]
000000 e0 ea 97 3e 2f d9 34 3f 92 55 8e 3f a1 11 6e 3e
       0.29671383 0.70643896 1.1119864 0.23248912
000010 19 02 c3 3e b6 b1 7e 3e 93 ff 2b 3f 13 53 7b 3e
       0.38087538 0.24872479 0.6718685 0.24543409
000020 1b bc e1 3e 56 01 26 40 27 77 8f 3e 37 07 80 3e
       0.44088826 2.5938315 0.28020594 0.25005504
000030 84 e1 0a 3f f7 ae 37 3f d2 df 82 3f b3 c8 75 3e
       0.5425036 0.7175135 1.0224555 0.24002342
000040 66 20 45 3f c3 3b 0a 3d 9d d4 f0 3e 80 52 b2 3e
       0.7700256 0.0337484 0.4703721 0.34828568
000050 0c 7c 6f 3e d9 6c e7 3e 1b 92 3b 3e 6c b1 cd 3e
       0.23387164 0.45200232 0.18317454 0.40174425
000060 b2 c3 f0 3d 81 14 a9 3f a9 0c b7 3d 6a c7 60 3f
       0.11756076 1.3209382 0.089379616 0.8780428
000070 3d ef 51 3f 4a 41 82 3f 33 8c 20 3f 0a f1 3b 3f
       0.82005674 1.0176175 0.6271393 0.7341467
000080 9d 4f 03 3f 0f 96 ae 3e 64 32 a8 3d 0c 7f 7a 3f
       0.51293355 0.3409886 0.08212736 0.9785011
000090 a3 01 02 3e f3 8f 8f 3e a4 33 c7 3e e9 d7 08 3f
       0.12695937 0.28039512 0.38906586 0.5345445
0000a0 36 4d 74 3e 21 cb c9 3d 61 33 c5 3e 62 b0 4a 3f
       0.23857579 0.09853197 0.38515761 0.7917539
0000b0 b4 08 2e 3e 91 be 43 3f cc 71 f8 3e 0d 0d af 3e
       0.16995507 0.76462656 0.4852432 0.34189644
0000c0 27 93 20 3f 40 3f 3a 3e da 8f 45 3e 09 24 6b 3f
       0.62724537 0.1818819 0.19293156 0.9185186
0000d0 ed 53 a9 3e 72 fb 19 3f 75 db 84 3e 13 f1 d3 3e
       0.33071843 0.601493 0.25948682 0.41394863
0000e0 7e 9c ae 3e 9f af ee 3e 66 e8 ab 3e 7d 49 85 3e
       0.3410377 0.46618363 0.33575743 0.2603263
0000f0 cb 7b 05 3e a8 ec 98 3f 3d d6 96 3f 29 fb b1 3f
       0.13035505 1.1947222 1.178413 1.3904773
000100 a7 b9 d7 3d d9 7a 98 3e e4 5e f2 3d 39 12 00 3f
       0.10533457 0.29781225 0.11834505 0.50027806
000110 db d1 a8 3d 1d a8 76 3f 4c fb 85 3c af 35 79 3e
       0.08243152 0.9635027 0.01635518 0.24336885
000120 11 8b b4 3e e4 aa 8e 3e 5e a7 5d 3d 37 25 60 3f
       0.3526235 0.27864754 0.054114692 0.87556785
000130 d8 e1 3b 3f 54 14 8f 3e 3f 94 38 3f 05 e3 a3 3e
       0.73391485 0.27945197 0.72101206 0.3200914
000140 04 06 29 3f 94 ae 09 3f ea 72 1c 3f 18 14 f7 3e
       0.66024804 0.5378201 0.61112845 0.48257518
000150 72 fb 26 3f fc 9e 12 3d 0f 17 d6 3e dc 71 a9 3c
       0.65227425 0.03579615 0.41814467 0.020684175
000160 6d a7 27 3f cc 6b 2e 3f 7a 9e 0f 40 5c 13 54 3e
       0.65489846 0.68133235 2.2440476 0.2071051
000170 26 64 f5 3e 91 39 27 3f d8 88 86 3e a8 e8 bc 3f
       0.4792797 0.65322214 0.26276278 1.4758501
000180 92 9d dd 3e 8f 6e e6 3c 2f 6b 03 3f 12 05 86 3e
       0.4328428 0.02812889 0.51335424 0.26175743
000190 7b b5 aa 3f 82 a4 88 3f 5b 4f d0 3e 6f c8 3c 3d
       1.3336633 1.0675204 0.40685543 0.046089586
0001a0 49 6b b3 3e 63 de 9d 3e 16 37 1a 3f 61 eb bd 3d
       0.3504279 0.3083373 0.60240304 0.092734106
0001b0 5f 41 5b 3f 3c 9d 50 3e 87 db 06 40 d1 58 0a 3f
       0.85646623 0.2037248 2.107149 0.54041773
0001c0 98 9c 53 40 64 99 68 3f 96 bb cf 3d 55 d2 04 3e
       3.3064327 0.90859056 0.10143201 0.1297086
0001d0 44 9e a9 3f 3d 8a 16 3d cd 6d 91 3e ca 0f f0 3e
       1.3251424 0.036752928 0.28404084 0.46887046
0001e0 bb 26 82 3f 0d be 4a 3e 27 29 f8 3e e0 a0 8b 3e
       1.016807 0.19799061 0.48468897 0.27271175
0001f0 94 50 9a 3f 2a dd 41 3e 29 ae 81 3d ed 8f 8c 3e
       1.205584 0.18932024 0.063320465 0.27453557

bn1.bias f4 [128]
000000 98 98 47 3f b5 9d 17 3f 61 a1 6b bf 93 73 e8 be
       0.77967215 0.59225017 -0.9204312 -0.45400676
000010 f8 5d 45 bf 4f c5 b4 3e 76 60 27 3f 30 8a 9a bd
       -0.7709651 0.35306785 0.6538156 -0.075458884
000020 4a 49 76 bf 89 d2 27 bf 87 ee 39 bf 91 79 0c bf
       -0.9620558 -0.65555626 -0.7262959 -0.54872996
000030 c9 3d 8f be 78 41 10 bf 78 f8 00 bf 72 06 15 bf
       -0.27976826 -0.563499 -0.50379133 -0.5821296
000040 82 13 04 bf aa 6f 29 be 8a b9 49 3e 48 bd ab 3f
       -0.51592267 -0.16546503 0.19699684 1.3417139
000050 fa dc 7c bf 47 61 d5 be cc 6c e0 be c7 f9 09 bd
       -0.98774683 -0.4167578 -0.43833005 -0.03368547
000060 76 e3 31 3f 6b c7 06 3f 99 c1 e0 be e2 2b ed bc
       0.694877 0.5264804 -0.43897703 -0.028951589
000070 c7 bb 84 be 46 ac e4 3e f9 fc 1d bf dd 34 52 bf
       -0.25924513 0.44662684 -0.6171413 -0.8211191
000080 f8 19 e1 be 66 ed 57 bd 79 47 a6 be f1 9f de 3f
       -0.43965125 -0.052716635 -0.32476404 1.739256
000090 b3 b3 01 bf 50 d7 2e bf 25 a7 e0 3e 57 6d 87 bf
       -0.50664824 -0.6829729 0.4387752 -1.0580243
0000a0 3d 03 8f bf 79 f7 04 bf a1 e4 4c bf eb 08 da be
       -1.1172863 -0.51940113 -0.8003636 -0.4258493
0000b0 5e f8 10 3e e2 42 cd be 63 02 ab 3f b3 94 51 bf
       0.14157245 -0.4009009 1.3360103 -0.8186752
0000c0 96 9c 33 3f 35 e0 ef be ef ce de be 94 d6 af be
       0.70160806 -0.46850744 -0.43517253 -0.34343398
0000d0 b8 87 fa be b5 af dd 3e 48 28 59 bf e0 47 65 bf
       -0.4893167 0.43298116 -0.8482709 -0.895628
0000e0 49 34 b4 be 29 b6 f9 3e 2e 66 54 bf 4f 98 a3 bb
       -0.3519614 0.4877179 -0.82968414 -0.004992522
0000f0 67 09 8c be af 94 4c bf 7b a1 05 bf d3 e9 08 3f
       -0.27350923 -0.79914373 -0.52199525 0.5348179
000100 a6 64 df be 51 29 40 3f 4d ff 0b bf 02 56 8b bf
       -0.43631476 0.75063044 -0.54686433 -1.0885623
000110 d3 ea b5 be a4 d8 5c 3f fb 7e 86 bd bf 86 6b bf
       -0.3553072 0.8626807 -0.06567188 -0.9200248
000120 97 13 3f bf e7 c5 37 3e 55 e8 21 3f de 0a 11 be
       -0.74639267 0.17946588 0.63245136 -0.14164302
000130 90 a3 23 bf ed 51 5c bf 93 83 a7 3d 4b 97 2e bf
       -0.6392145 -0.8606251 0.08179393 -0.68199605
000140 1d 2d 2d bf c0 90 16 bf 04 8f c8 be 9f 12 f4 be
       -0.6764696 -0.5881462 -0.39171612 -0.47670457
000150 ff f4 2e bf 46 a0 11 be 5b 88 39 3f 79 39 66 bd
       -0.68342584 -0.14221296 0.72473687 -0.056207154
000160 ce 6c 0f bf cb 3f c8 3e ea 03 45 bf 95 94 58 bf
       -0.560254 0.3911117 -0.769591 -0.8460172
000170 e8 72 22 3f 16 9b 4b be 9c 8c d1 3e 0e 67 77 3f
       0.63456583 -0.1988338 0.4092759 0.96641624
000180 38 b6 66 3f 58 32 e1 bd ac 5f 81 bf 65 d4 0e bf
       0.90121794 -0.109959304 -1.0107322 -0.5579284
000190 05 f7 8b 3f 68 30 4f bf da 65 3a bf 49 fa 41 be
       1.0934759 -0.8093324 -0.72811663 -0.18943132
0001a0 25 40 63 bf 4f 02 39 bf cb d1 35 bf 8e f0 99 3f
       -0.8876975 -0.7226915 -0.71023244 1.2026536
0001b0 7b 5e 73 3f e1 2b 52 bf 3f 6a 01 bf cf d4 f4 be
       0.9506604 -0.82098204 -0.50552744 -0.4781861
0001c0 b0 01 ac bf 81 1f e5 be 30 a0 cc be fb 21 ad 3f
       -1.3438015 -0.44750598 -0.39965963 1.3525995
0001d0 e9 5e 58 bf 71 66 0d be 43 d0 10 bf 0b 57 58 3f
       -0.8451982 -0.1380861 -0.5656778 0.8450782
0001e0 85 ef c0 3f f2 af 47 bf 2d f0 96 3e c2 1d 1c bf
       1.5073096 -0.78002846 0.29480115 -0.60982907
0001f0 99 b8 43 bf 85 66 f8 be 52 9d 9c be 6f 12 29 bf
       -0.7645355 -0.48515716 -0.30588776 -0.6604375

bn1.running_mean f4 [128]
000000 46 53 a5 c2 5a ae 15 42 41 1c a9 42 20 dd 10 c3
       -82.66264 37.420265 84.55518 -144.86377
000010 b5 2d c2 c3 3a 94 ac c0 86 df 3e c0 40 af 3e c1
       -388.3571 -5.393094 -2.9823928 -11.917786
000020 a4 cc 25 c3 fe 71 42 40 08 ad 94 c3 eb ff 38 c3
       -165.79938 3.0382075 -297.3518 -184.99968
000030 43 54 ab c2 0c 01 ca 42 0e dd d1 c2 71 6e d6 c3
       -85.66457 101.002045 -104.93175 -428.86282
000040 64 10 aa c4 00 2c 3e c3 bd ad 25 42 54 9a ca 41
       -1360.5122 -190.17188 41.419666 25.325356
000050 3b fa 0b c2 dc e6 08 c4 1f cf 9b c3 57 b4 64 42
       -34.994366 -547.6072 -311.61813 57.176113
000060 01 34 8c c1 79 27 ad 42 b4 5b 5b c2 8e 35 1f c2
       -17.525393 86.577095 -54.839554 -39.8023
000070 11 26 b2 c4 78 6e e3 c1 7f 7f 1a 41 6c a1 c8 42
       -1425.1896 -28.42894 9.656127 100.31528
000080 ee fb 2b c4 a5 9e c2 c2 c3 92 e8 43 65 d2 c2 c1
       -687.9364 -97.30985 465.14658 -24.352732
000090 3a 88 f9 43 9f f6 9d 42 7e 2d 59 41 9a e1 04 44
       499.06427 78.98168 13.5736065 531.525
0000a0 8d 7d dd c1 72 91 71 42 58 95 22 c3 95 5c 94 c2
       -27.686304 60.392036 -162.58337 -74.180824
0000b0 31 bc 43 41 da 76 ec c1 45 05 e4 c1 10 27 fd c3
       12.233445 -29.558033 -28.502573 -506.30518
0000c0 69 01 ac 43 60 f0 05 c3 dc 9b 54 c3 90 d5 df 42
       344.01102 -133.93896 -212.60883 111.917114
0000d0 0b 4b 3d c2 7e 81 01 40 9d c4 38 c2 a7 65 c9 c3
       -47.323284 2.0235286 -46.192005 -402.79416
0000e0 51 54 6d c2 6a 85 c0 c2 8b bc 17 43 90 67 a8 43
       -59.33234 -96.260574 151.7365 336.80908
0000f0 0b 10 a2 c3 57 5c 7a c3 83 09 3f c1 10 55 22 43
       -324.12534 -250.3607 -11.939822 162.33228
000100 b0 15 5f c3 96 67 8f c1 08 75 0d 41 3c 3b 07 44
       -223.08472 -17.92558 8.841072 540.92554
000110 dd 19 49 43 ec d4 8b 42 8d 55 ee 42 98 5e 7d c0
       201.10103 69.91586 119.16709 -3.9588985
000120 4e 57 99 c3 de 30 47 c3 1e a0 27 c4 f5 bd 93 c3
       -306.68207 -199.19089 -670.50183 -295.48404
000130 6a 0d 19 c3 04 4f 92 c3 0b 37 c5 c2 99 79 ae c3
       -153.0524 -292.6173 -98.607506 -348.94998
000140 41 b0 c2 c4 84 34 35 c4 27 62 7a c2 f2 bf 1e 42
       -1557.5079 -724.82056 -62.59585 39.687447
000150 7c 2b b2 c2 e4 a1 89 42 f6 88 ed c1 69 67 23 c3
       -89.08493 68.81619 -29.691875 -163.40395
000160 12 c9 52 c2 90 a5 60 c2 fd ce 5a c2 a7 73 df 42
       -52.696358 -56.161682 -54.702137 111.72588
000170 35 f7 31 41 7a 1c ab 43 75 f7 e0 41 27 56 9a c2
       11.122853 342.22247 28.120829 -77.16827
000180 37 a3 cf 41 cb 55 00 c3 61 ad 68 c3 00 87 8a c3
       25.954695 -128.33513 -232.67726 -277.0547
000190 be eb ea c1 4e bf 28 c3 05 c2 64 c3 63 27 9d c1
       -29.365108 -168.74728 -228.75789 -19.644232
0001a0 2c af 98 c3 43 9d 6b c2 11 ca de 43 a4 7e 25 c2
       -305.36853 -58.903576 445.57864 -41.373672
0001b0 96 8c 88 41 2c 84 81 c1 9b 9d f2 c2 94 fb 93 c4
       17.068645 -16.189537 -121.30782 -1183.8618
0001c0 7c a2 70 42 43 ed 94 c2 28 07 9f c1 e0 a9 02 43
       60.158676 -74.4634 -19.878494 130.66357
0001d0 cd d9 ab c2 9a f1 83 c2 84 45 4a c3 65 6c 6a 42
       -85.92539 -65.97188 -202.27155 58.605854
0001e0 9d 85 69 c1 1d 0d b0 43 6c 84 88 c1 c8 81 01 c4
       -14.59512 352.10245 -17.06466 -518.02783
0001f0 ab 72 92 42 e0 6b 07 c3 ae 7d a0 c2 da ab 87 c3
       73.22396 -135.42139 -80.24547 -271.3426

bn1.running_var f4 [128]
000000 0d 90 64 45 16 36 b0 44 c3 14 67 46 e9 fa bb 46
       3657.0032 1409.6902 14789.19 24061.455
000010 0c 26 64 48 19 4b 17 44 66 39 97 43 ad 03 d0 44
       233624.19 605.1734 302.44843 1664.1149
000020 78 1d 10 47 5d 5c 14 43 5b f4 e9 47 8c ab 38 47
       36893.47 148.3608 119784.71 47275.547
000030 78 b3 07 46 e7 7d 76 46 b6 8a d3 45 4a 51 88 48
       8684.867 15775.476 6769.339 279178.3
000040 bb 2c 27 4a 19 fa 82 47 e6 c3 55 45 d1 a9 f0 43
       2.7389908e+06 67060.195 3420.2437 481.3267
000050 0f d7 fa 43 d8 e7 d0 48 fa 2e 0d 48 74 9f 95 45
       501.68015 427838.75 144571.9 4787.9316
000060 44 ce 90 44 d7 de 13 46 dd 9e 5e 45 05 de 22 45
       1158.4458 9463.71 3561.929 2605.8762
000070 61 03 36 4a ef 5f 41 44 7b d9 ca 44 c7 02 72 46
       2.9821042e+06 773.49896 1622.7963 15488.694
000080 e5 4f 26 49 7f 40 47 45 df bd 85 48 e4 48 d3 44
       681214.3 3188.031 273902.97 1690.2778
000090 4a 09 bb 48 a8 a9 53 46 59 90 b8 44 bf 07 dd 48
       383050.3 13546.414 1476.5109 452669.97
0000a0 76 92 03 45 ea ca 81 45 24 40 00 47 2d 48 2d 46
       2105.1538 4153.3643 32832.14 11090.044
0000b0 fc 54 ec 44 99 39 03 46 ac 56 66 45 83 42 bd 48
       1890.6558 8398.399 3685.417 387604.1
0000c0 20 14 43 48 b1 00 af 46 3c 5b 65 47 b9 43 a3 46
       199760.5 22400.346 58715.234 20897.861
0000d0 3b c8 9b 45 e0 24 08 45 b7 cd 12 45 a4 e4 71 48
       4985.029 2178.3047 2348.8572 247698.56
0000e0 64 fd 1b 45 98 7a fb 44 c4 eb ed 46 28 31 23 48
       2495.837 2011.831 30453.883 167108.62
0000f0 3c 8c 0b 48 9f 2b b8 47 33 dd b3 44 d7 b1 17 47
       142896.94 94295.24 1438.9125 38833.84
000100 bd da 7a 47 0d c5 18 45 d2 be 99 43 97 20 dd 48
       64218.74 2444.3157 307.49078 452868.72
000110 0e 10 76 47 b8 1e f0 44 e5 2b 4a 46 09 54 7e 44
       62992.055 1920.96 12938.974 1017.31305
000120 20 ec 00 48 64 82 32 47 05 9f 26 49 7d 0b 01 48
       132016.5 45698.39 682480.3 132141.95
000130 ba 73 22 47 16 19 f1 47 7e 56 31 46 61 15 24 48
       41587.727 123442.17 11349.623 168021.52
000140 45 0b 59 4a f5 13 43 49 57 c9 9c 45 bd 4a 91 45
       3.5560492e+06 799039.3 5017.1675 4649.3423
000150 8d d4 30 44 69 e8 6f 46 66 f6 0f 45 06 db 0f 47
       707.3211 15354.103 2303.4 36827.023
000160 f3 7d 70 45 c3 1d 0d 45 18 32 6c 45 13 92 a4 46
       3847.8718 2257.86 3779.1309 21065.037
000170 65 07 85 45 85 e4 36 48 60 1a 04 44 16 f1 08 46
       4256.9243 187282.08 528.4121 8764.271
000180 35 4e 9f 43 f4 6d fe 46 5a 5e a1 47 21 bc d6 47
       318.611 32566.977 82620.7 109944.26
000190 5b 15 43 45 fd f1 22 47 c4 f0 83 47 cb 69 c0 44
       3121.3347 41713.99 67553.53 1539.306
0001a0 95 09 0e 48 18 77 f6 45 d6 64 a5 48 2e f1 17 45
       145446.33 7886.8867 338726.7 2431.0737
0001b0 f2 ab 8f 43 92 07 e7 42 b7 9e 7c 46 21 69 00 4a
       287.34332 115.514786 16167.679 2.1038802e+06
0001c0 a0 94 c2 43 5d a1 9a 45 58 fc 48 42 27 68 11 47
       389.16113 4948.1704 50.24643 37224.152
0001d0 89 84 37 46 79 62 dc 45 86 ef 30 47 e2 5d 8e 45
       11745.134 7052.309 45295.523 4555.7354
0001e0 f7 d5 71 44 ae 2b 44 48 d1 5a 14 45 db 79 ca 48
       967.3432 200878.72 2373.676 414670.84
0001f0 a8 22 3b 46 07 bb 21 47 c5 3a 53 45 02 eb b5 47
       11976.664 41403.027 3379.673 93142.016

conv2.att_src f4 [1, 1, 64]
000000 e9 54 d5 be cd 5d 1b bc 04 ff 5d 3c 93 af 0b 40
       -0.41666344 -0.009482813 0.01354957 2.1825912
000010 ef d0 c0 be ee 86 ab bd 86 e5 31 bf 1c f0 40 3e
       -0.37659404 -0.08375345 -0.6949085 0.18841594
000020 cd 53 49 bd a2 72 44 3f 78 59 2d bd ce 22 5d be
       -0.049152184 0.76737416 -0.042321652 -0.21595308
000030 5b 8f 5d be 2b ac 63 3d dd f2 6b be ca 5f 9d 3e
       -0.21636717 0.055584114 -0.23041864 0.30737144
000040 bb 55 18 3e 89 26 94 3e c9 a8 c1 bd 59 00 ba be
       0.14876454 0.2893565 -0.09456021 -0.3632839
000050 39 43 60 be b1 fb 53 3e 5c d3 a4 bf 56 14 f1 be
       -0.21900643 0.20701481 -1.2877002 -0.47085828
000060 ad b4 7c bd 0f fc 46 3e 9a 81 15 bd 10 31 3f be
       -0.061695743 0.1943209 -0.03650055 -0.1867106
000070 9a bc 6c bf 96 34 8f 3d bc fa 06 3e ca 30 b3 be
       -0.92475283 0.06992452 0.13181585 -0.3499816
000080 f3 ff 26 bf ec 04 64 3d 04 d2 ee bd 7d d9 96 3f
       -0.652343 0.055668756 -0.11661151 1.1785122
000090 32 a2 c3 3d 21 c1 aa be 23 b5 cd bf 82 00 a3 3d
       0.09552421 -0.3335047 -1.6070904 0.07959081
0000a0 e9 9f ef 3e 52 20 bb bc 54 b3 7c bb f0 c9 e5 3c
       0.4680169 -0.02284256 -0.0038559036 0.028050393
0000b0 b9 e6 d9 bd a6 cc 63 be b1 b4 1f 40 0b 96 13 40
       -0.1063971 -0.22246036 2.4954035 2.306033
0000c0 01 f9 1b 3e c9 f9 9d bd ce d1 ea 39 7d 2c 4b bd
       0.15231706 -0.07713658 0.00044788275 -0.049602974
0000d0 f4 4e 85 3c e8 b2 51 bd f7 4b c6 3e 40 c0 1d bd
       0.016273 -0.05119601 0.38729832 -0.038513422
0000e0 68 a7 e3 3d 11 68 e6 bd 05 9f 1c be 8a a7 02 3e
       0.111159146 -0.11250318 -0.15295036 0.12759224
0000f0 03 a9 85 be 1d 9a 0c be af e7 d6 bc bd 39 77 3d
       -0.26105508 -0.13730665 -0.026233522 0.060357798

conv2.att_dst f4 [1, 1, 64]
000000 fa 69 63 be 05 dd 48 bf 78 de 89 be d0 c8 cf be
       -0.22208396 -0.7846225 -0.26927543 -0.40582895
000010 3e de 8a 3f b9 86 80 bf c2 22 4b 3f 03 af 50 3f
       1.0849073 -1.0041114 0.7934991 0.81517047
000020 ac 63 ab bf c7 13 e1 bd 8b 3e 66 3f 1d d0 2f bf
       -1.3389792 -0.109901 0.89939183 -0.6867693
000030 4f 8e da 3e a2 7e a1 bf 82 cb 15 3e 2a f4 21 3f
       0.42686698 -1.261677 0.14628413 0.6326319
000040 97 35 21 3f 31 fe 37 bf 35 55 3b bf f2 49 81 3f
       0.62972397 -0.7187224 -0.7317689 1.0100691
000050 60 99 06 bf 34 e6 bb bf 9e ec 1c 3f 22 ef 5b 3e
       -0.5257778 -1.4679627 0.6129855 0.2147794
000060 04 5f 42 bf ed c6 b6 bf a1 d6 6c bf 3b 03 bf bf
       -0.7592623 -1.4279457 -0.92515 -1.4922861
000070 17 8f e9 3d 14 04 e4 3d 9f 93 4b bf 2f e5 07 3e
       0.11404245 0.1113359 -0.79522127 0.1327102
000080 ac 3d c4 3e 93 d5 75 3f 13 47 3b 3f fa eb c2 be
       0.38328302 0.96029013 0.73155326 -0.3807066
000090 1d 08 a4 bf 45 8c 9a 3f 80 56 62 3f f8 cf 7d bd
       -1.2814976 1.2074057 0.8841324 -0.061965913
0000a0 e2 3a bb 3e 88 aa 5b 3f 2d 12 82 be 9c 33 ec bf
       0.36568362 0.85807085 -0.25404492 -1.845325
0000b0 8a 51 94 3f 2e 74 95 3f 17 b7 36 bf 0b 67 52 bf
       1.1587384 1.167608 -0.7137312 -0.8218848
0000c0 46 29 47 bf b0 c0 6b bf cb 3f da bf 52 ed ac bf
       -0.77797353 -0.9209089 -1.7050718 -1.3509924
0000d0 3f 25 a0 3e a6 b0 eb be dc b1 18 c0 2e 14 aa 3f
       0.31278417 -0.4603321 -2.3858557 1.3287408
0000e0 bf 5b da bd fe 18 ce be 92 f3 34 bf f9 97 15 3f
       -0.106620304 -0.40253443 -0.7068416 0.58435017
0000f0 b3 8f 03 3f 91 8f ed bd 01 49 c6 be ca 6c 78 bf
       0.5139114 -0.11599649 -0.38727573 -0.97041

conv2.bias f4 [64]
000000 a3 97 21 3e 00 33 09 40 37 1d 83 3f 44 a6 ea b9
       0.15780501 2.1437378 1.0243291 -0.00044755836
000010 83 e2 59 3e b1 31 b7 3f 8b 12 46 b9 aa 15 1e c0
       0.21277814 1.431204 -0.00018889659 -2.4700723
000020 ef b5 72 bd 7d cc ef 3e 65 f4 d3 bd ec 80 96 bd
       -0.059255537 0.468357 -0.10349349 -0.07348809
000030 ca e1 8d 3f 56 0d c7 3f ad 19 09 3d ba 1d a2 be
       1.108453 1.5550945 0.033471752 -0.31663305
000040 b8 c8 24 c0 2a d6 22 40 9d d6 91 bb b8 0c c4 3e
       -2.574751 2.5443215 -0.0044506327 0.38290954
000050 88 b4 6c be 64 41 1d 40 c7 c0 57 3e bd 28 c5 3e
       -0.23115742 2.4571161 0.21069632 0.38507643
000060 4e 64 b8 3f 6a 0b b9 3c 8b f0 96 3d 01 f2 b4 bc
       1.440561 0.02258845 0.07370099 -0.022088053
000070 0a c9 53 3d c3 c0 d1 bd 65 a4 be bd f4 79 30 3f
       0.051705398 -0.102418445 -0.093086995 0.68936086
000080 10 bd 91 3e 9d ea 7c bf dd 4f 54 3f ce 0b 6d 3b
       0.28464556 -0.9879549 0.8293436 0.0036170366
000090 46 bb 1a 3c d4 6c e9 3c 76 70 c5 3c d8 61 f2 bd
       0.0094440635 0.028494276 0.024101477 -0.118350685
0000a0 01 96 c3 3c 76 01 4d bd 32 15 3e 3f 8d 46 03 40
       0.023875238 -0.05005022 0.7425109 2.051181
0000b0 57 71 22 c0 6b f7 23 c0 59 48 7a 3a 98 da 12 3c
       -2.5381677 -2.5619762 0.0009547524 0.00896325
0000c0 d2 ac b7 3f 8a df dd 3f 28 00 f0 3f 1e f9 fa bc
       1.4349616 1.7333844 1.8750048 -0.030636366
0000d0 b7 c7 fb 3d 9b 26 c6 3f e4 51 47 40 c2 dd 64 bf
       0.12293952 1.5480531 3.1143732 -0.89400876
0000e0 cd 89 3c bb 62 58 3f bd 0c a1 51 3e b0 de 63 be
       -0.002876866 -0.046715148 0.20471591 -0.22252917
0000f0 2f de c3 3d 7d 5e 11 bf 6d 28 c6 3f 1c db 7b 3e
       0.095638625 -0.567848 1.5481087 0.24595302

conv2.lin.weight f4 [64, 128]
000000 ed de 8c bf 8c 34 f0 3e 97 2d 64 3f b4 38 dc 3e
       -1.1005532 0.4691509 0.89132065 0.4301201
000010 ad 93 78 3e b9 5c 88 3e b3 53 8a 3e 97 8d f5 be
       0.24275084 0.26633242 0.27016982 -0.47959587
000020 ee 6e 8b 3e 67 1c 50 3e ce e7 4b 3c 56 14 53 be
       0.2723307 0.20323335 0.012445403 -0.20613226
000030 20 a0 c3 be 02 e8 84 be f5 55 ec be 23 4d 79 3e
       -0.38208103 -0.25958258 -0.4615933 0.24345832
000040 41 7b 25 bf a3 20 f2 be 30 d9 68 bf 85 cc 84 3e
       -0.64641196 -0.47290525 -0.909564 0.25937286
000050 c4 b9 6d be ca cc 0f be 20 95 1e bc 92 36 35 3f
       -0.23215395 -0.14042965 -0.009679109 0.7078639
000060 0c 66 55 3f c3 25 3a bd 90 e7 dc 3d 4a d2 46 bf
       0.83358836 -0.04544617 0.107863545 -0.77664626
000070 13 76 f0 be df 36 98 bf df 6b ae 3d 7b 0d b3 3d
       -0.46965083 -1.1891745 0.085166685 0.087428056
000080 f6 b0 22 be 68 d1 27 3e 11 58 a7 3e dd 30 35 3f
       -0.15887818 0.16388476 0.32684377 0.70777684
000090 f0 b9 b0 bd 6e 67 05 3f 8e 39 0e 3f 81 39 ba 3d
       -0.08629215 0.52110946 0.5555657 0.09092999
0000a0 b3 02 99 be f0 cc f3 3d ab 85 9d be 9e b6 b4 3e
       -0.29884872 0.11904323 -0.30766043 0.35295576
0000b0 f9 6f dd be 09 5c 35 3f 06 58 6c 3f f6 64 09 3b
       -0.4324949 0.7084356 0.92321813 0.0020964718
0000c0 db 0f c3 be 69 24 e3 be db 3b d9 3d 63 83 79 3f
       -0.38098034 -0.44363716 0.1060712 0.97466105
0000d0 20 f3 2e 3f 2a cd 27 3f 24 5f 66 be f5 22 3b 3e
       0.6833973 0.6554743 -0.22497231 0.18275054
0000e0 c6 8b a2 be 10 92 ec 3e 4c dc 0a 3e e0 f1 3e be
       -0.31747264 0.46205187 0.13560599 -0.18646955
0000f0 76 dc a7 3e 8f 92 fb bd 6b d6 10 3f 6a ba 89 bc
       0.32785386 -0.12283813 0.56577176 -0.016812522
000100 6e 82 d1 3e 63 64 4a 3f fb 15 09 bd 35 84 8e be
       0.40919822 0.7905943 -0.033468228 -0.2783524
000110 51 8c fe bd 05 63 a4 3f b2 7d 21 3f 59 5d 75 3e
       -0.12429107 1.2842718 0.6308242 0.2396139
000120 84 52 0e 3e 61 a9 43 bf 7b 30 df be ad aa 99 bd
       0.13898665 -0.76430327 -0.43591675 -0.07503257
000130 7c 4a de be 68 58 f7 bb 66 8d 9b bf 1b ce 9f bc
       -0.43416202 -0.0075483806 -1.2152526 -0.019507458
000140 d6 eb 11 bf 64 1a 03 3f 39 b6 57 bf a8 2d 93 3e
       -0.5700048 0.51212144 -0.84262425 0.2874577
000150 a4 ed 67 3e ca 6d bd 3e 44 ad 44 3f 5c 85 11 bf
       0.22649246 0.36997825 0.7682688 -0.56844115
000160 44 59 28 be e6 5c 83 bf 14 2e 71 3f c3 ca 39 3e
       -0.16440302 -1.0262725 0.94210935 0.18143754
000170 0d ec 92 bf 81 80 1a 3f 5d fc 6e 3f a6 14 c1 3e
       -1.1478287 0.6035233 0.93353826 0.37711066
000180 3c e3 24 3f 97 e9 73 be ee a3 00 be 75 cc 8a 3e
       0.6440923 -0.23819576 -0.12562534 0.27109113
000190 f5 4a 0b 3e 56 65 67 3e af 5c 93 bc 76 3f ac 3e
       0.13602813 0.2259725 -0.01798853 0.33642167
0001a0 79 37 32 3f a2 8d c4 be ff 8b 52 be a0 a4 82 3e
       0.69615895 -0.38389307 -0.20561217 0.25516224
0001b0 b3 28 e5 3e db 6b d1 be e0 b9 ac bd 35 a6 0a bf
       0.44757614 -0.409026 -0.0843389 -0.5415986
0001c0 db 52 79 3e a5 24 95 be 9e fa af 3e a5 5d e6 bd
       0.24348013 -0.2912952 0.34370893 -0.1124833
0001d0 0a 5d 2a 3f 5e 94 7b 3e 16 a7 32 3e 7d 5b 8e 3e
       0.66548216 0.24568316 0.1744655 0.27804175
0001e0 08 2f 35 be c3 3c 14 3f bf 74 32 bf e4 8b fe bc
       -0.17693722 0.57905215 -0.6970939 -0.031072564
0001f0 82 30 04 3f c2 d1 ba 3e ba af a5 3d 8d ac 01 be
       0.5163652 0.36488158 0.08090158 -0.12663479
000200 a8 b3 0a 3f 9f 98 99 3d 2b 08 49 3f 30 cc 88 3d
       0.54180384 0.07499813 0.7852809 0.06679571
000210 4d 63 34 3e 63 da 4b be da 46 d8 bc 3d c4 30 3f
       0.17616005 -0.19907527 -0.026400972 0.69049436
000220 e3 19 1a be 2f fa a3 bf bb f1 8f 3e 81 6d af 3e
       -0.15048937 -1.2810725 0.28114113 0.34263232
000230 1d 9d 21 be 6e 79 aa bf aa 35 53 bf 73 92 09 3f
       -0.1578259 -1.3318307 -0.8250376 0.5373909
000240 eb ff 1d c0 f6 ef 4e 3e 6f d1 e5 3e 17 60 08 bf
       -2.468745 0.20208725 0.44886348 -0.5327162
000250 9b c2 69 3e 4a 37 dd 3d 8e e8 23 3e 55 18 ab 3e
       0.22828142 0.10801561 0.16006681 0.33417
000260 7b 68 cd be 62 8b 77 be 09 d4 1c 3e 3d fa 1b 3f
       -0.40118775 -0.24174264 0.1531526 0.6092871
000270 c4 bf 48 bf 07 8a cd 3e 81 a5 27 bf 18 98 f9 be
       -0.7841761 0.4014437 -0.65486914 -0.4874885
000280 4a 7c 9a bf 30 98 a8 3e 7a a2 20 3e c4 d2 e5 be
       -1.206918 0.3292861 0.1568698 -0.44887364
000290 17 4e fd 3d 5b 0d 3b 3d ab 19 04 3e 8d bf 89 3d
       0.1236841 0.045667034 0.12900417 0.067259885
0002a0 47 ad 5a be f4 58 83 be ed 66 22 3f df 95 22 c0
       -0.21355163 -0.25653803 0.634383 -2.5403974
0002b0 da fc 00 3f f3 42 d5 3d f0 cd 34 bf 9a 21 83 3e
       0.5038582 0.1041316 -0.70626736 0.25611573
0002c0 b5 fa ed 3e c9 7f 1c 3e 78 c4 4d bf d4 02 5b 3f
       0.46480337 0.15283121 -0.8037791 0.8555119
0002d0 f2 4c 26 bf e4 37 1b 3e 9b e0 3c 3e 4b 84 a4 bd
       -0.6496116 0.1515804 0.18445055 -0.080330454
0002e0 d9 53 8d bf 54 cc 7e bd e9 aa bb 3e 02 b6 1b 3e
       -1.1041213 -0.06220658 0.36653832 0.15206149
0002f0 5a 27 09 bd 62 f6 5f c0 ef a5 4e bf cb e6 a4 3c
       -0.033484794 -3.499413 -0.80721945 0.020129582
000300 0b 5e d0 be 53 f8 19 bf cc 2c 53 3d be c0 f9 3e
       -0.4069675 -0.6014454 0.051556394 0.48779863
000310 fe 79 0c 3e 30 96 38 3e b5 c3 0a 3e 8c 21 35 bf
       0.13718411 0.18026042 0.13551219 -0.70754313
000320 57 de 51 3b c2 bd 54 3f 21 b0 97 3e bc 15 b8 3e
       0.0032023394 0.8310205 0.29626563 0.35954082
000330 e3 34 70 c0 4e d3 88 3e 96 39 de 3e 8e be 2a 3f
       -3.753228 0.26723713 0.4340331 0.66697013
000340 15 fe 5c c0 f7 ca f4 3d d3 72 b2 bf 68 28 8b 3e
       -3.453008 0.11952775 -1.3941292 0.27179265
000350 e4 9e 07 3f b9 3a 75 3e 41 9a 52 be b1 07 ae 3e
       0.5297682 0.23948182 -0.20566656 0.33990243
000360 94 5f cc be 77 d3 28 3f cb bb 5e bf 1e 64 78 bd
       -0.3991667 0.6594767 -0.870053 -0.060642354
000370 f2 3d 8d 3e 26 e2 6a 3f 29 05 85 be c5 a8 26 3f
       0.27586323 0.91751325 -0.259805 0.6510127
000380 4c 11 25 bf 3a 57 88 bd c3 20 96 3e 59 e8 c5 bd
       -0.6447952 -0.06657262 0.2932187 -0.096634574
000390 57 9c bd 3c 2c f8 8e c0 c4 20 b1 3e e0 c9 22 3e
       0.023145838 -4.4677944 0.3459531 0.15897322
0003a0 b7 25 d0 be 01 a3 e5 3e 95 5e d1 be c3 f6 14 3e
       -0.40653774 0.44850925 -0.40892473 0.14547257
0003b0 98 0c d6 be f9 13 d4 bc a9 36 97 bf 85 f2 a1 bf
       -0.41806483 -0.02588843 -1.1813556 -1.2652136
0003c0 a3 ac 42 be 26 6b 63 bf de 0c cb 3e c0 77 44 3e
       -0.19011168 -0.8883537 0.39658254 0.19186306
0003d0 eb 20 63 c0 df e2 1b 3f be 2d 1d 3f df f0 9b 3e
       -3.5488842 0.6089305 0.6139792 0.30457208
0003e0 ce 22 6c be 66 50 54 bf 3b 14 61 3e 12 a1 8b 3e
       -0.23060152 -0.8293518 0.21980374 0.27271324
0003f0 13 49 91 3f 87 a9 97 bd 92 4a 3e 3e eb bf cb bd
       1.1350425 -0.07405382 0.18583134 -0.09948715

bn2.weight f4 [64]
000000 b8 2c 81 3f 30 fe bb 3f e2 bf 96 3f b1 0b 40 3e
       1.0091772 1.4686947 1.1777308 0.1875446
000010 57 70 de 3f fa 30 22 3f a2 a5 90 3f c3 19 02 40
       1.7378033 0.6335598 1.1300547 2.0328224
000020 54 48 82 3f 64 ea 91 3f cd 6b 8e 3f 33 97 90 3f
       1.0178323 1.1399655 1.1126648 1.1296142
000030 1b 6c c3 3f 6c 11 0f 3f c3 e5 9c 3f e7 23 cc 3f
       1.5267366 0.5588596 1.2257618 1.5948457
000040 11 79 e1 3f 60 4d 9c 3f 1e 9f 9e 3f e6 29 9c 3f
       1.7615072 1.2211113 1.2392309 1.2200286
000050 e3 94 48 3f 35 74 9c 3f ca ac 78 3f 65 7d 86 3f
       0.78352183 1.2222964 0.97138655 1.0507017
000060 be 68 0f 3f 5a 6d 99 3f e3 80 78 3f 9e 24 ba 3f
       0.560192 1.1986496 0.97071666 1.4542425
000070 0c b2 22 3f ff b9 87 3f 7b 01 92 3f 37 96 8c 3f
       0.6355293 1.0603637 1.1406702 1.0983342
000080 57 d0 af 3f 7e 6a c4 3f 4f 6d 7b 3f 11 2e da 3e
       1.3735455 1.5344999 0.98213667 0.4261327
000090 91 23 c6 3f 82 fb 7b 3f 4f 8c 43 3e cc e3 ac 3f
       1.5479604 0.98430645 0.19096492 1.3507018
0000a0 6f c5 6e 3f 02 b2 95 3f 60 05 9d 3f 02 51 09 3f
       0.9327001 1.1694949 1.2267265 0.53639233
0000b0 92 47 18 40 91 98 b0 3f e3 06 48 3e 4a c1 ef 3e
       2.3793683 1.379656 0.19533877 0.46827155
0000c0 22 e7 0b 3f 5c 65 12 3f 14 08 49 3f 9b 2d b3 3f
       0.54649556 0.5718591 0.7852795 1.3998293
0000d0 cf 1e 62 3f f3 4a 21 3f eb ef 1d 40 a5 8d b7 3f
       0.8832826 0.6300499 2.4677684 1.4340101
0000e0 cc 0d a7 3f 00 96 14 3f 53 f8 b0 3f 48 5b 97 3f
       1.3051085 0.5804138 1.3825783 1.1824732
0000f0 e9 1f 6c 3f c3 a9 82 3f 9d af 77 3f 25 ba b4 3f
       0.9223619 1.0208057 0.9675234 1.4119307

bn2.bias f4 [64]
000000 dc 76 64 bf 30 64 e7 3e e6 bb fd 3e 3e 33 5a bf
       -0.89243865 0.45193624 0.49557418 -0.8523444
000010 a4 3e 0c 39 3a 67 2d 3f 80 86 7f bf b4 2c 0e 3f
       0.00013374776 0.67735636 -0.99814606 0.5553696
000020 20 da 33 bf 7a c6 98 bf eb 0a 08 bf 3a 9b 2c be
       -0.7025471 -1.193557 -0.5314166 -0.16856089
000030 66 d8 56 be af 75 16 3f 41 98 0b bf 09 ea 77 bf
       -0.20980987 0.5877332 -0.54529196 -0.96841484
000040 05 b6 1f 3f d5 e1 1c 3f cb 4a 9f bf 7f e1 94 bf
       0.62387115 0.6128209 -1.24447 -1.1631316
000050 d1 34 a1 bf 09 76 2a 3f 88 92 8e bf 62 28 93 bf
       -1.2594243 0.6658636 -1.1138468 -1.1496699
000060 66 3b 22 3f 6a 7c 4f bf d5 3b 8f bf 9a ea 42 bf
       0.63371885 -0.81049216 -1.1190134 -0.76139224
000070 dd 1f 56 bf 47 df 80 bf 17 14 92 bf 95 ae 1b bf
       -0.8364237 -1.0068139 -1.1412381 -0.60813266
000080 5a 0b 89 be f7 e2 dc 3e e9 0b b0 3e 46 65 41 bf
       -0.26766473 0.4314191 0.34384087 -0.75545156
000090 46 5d 0a bf ee 4b 4d bf a6 70 46 bf 82 90 6f bf
       -0.54048574 -0.80193985 -0.7751564 -0.93579876
0000a0 d4 fa 83 bf 0e 38 0f bf 6d 4a 97 3e c4 91 18 3f
       -1.0310922 -0.5594491 0.2954897 0.5959742
0000b0 9c c8 cd 3e c0 5f 23 3f c6 30 5c bf ad 60 80 bf
       0.40192115 0.6381798 -0.8601192 -1.0029503
0000c0 2a fe 1f 3f af 5f 23 3f b7 bb 1d 3f ee 4c 03 bf
       0.624972 0.63817877 0.61614555 -0.5128926
0000d0 98 52 75 bf 52 24 1d 3f c0 7c 4d 3e 98 1a c9 3e
       -0.95829153 0.61383545 0.2006712 0.39278102
0000e0 8e fd 75 bf 48 53 3b bf fa 83 4a bf 88 b9 64 bf
       -0.9609002 -0.7317395 -0.7910763 -0.893456
0000f0 6f f2 9f bf 55 59 5a bf 95 fa 41 3f fb f9 d5 be
       -1.249586 -0.8529256 0.7577298 -0.41792282

bn2.running_mean f4 [64]
000000 96 5c b8 40 f8 7e 2d bf 5d 34 9d 3d c0 a3 25 c1
       5.761302 -0.67771864 0.07676003 -10.352478
000010 dd 8d 03 41 59 8b 0a c1 b3 5e 4a 41 92 37 f5 40
       8.222135 -8.65902 12.64812 7.6630335
000020 90 7f 84 c0 05 90 09 c1 52 a4 12 41 fb 14 f1 c0
       -4.1405716 -8.597661 9.165117 -7.533811
000030 1c 64 49 3f 09 f9 04 c1 f0 b9 a9 bf b9 e2 b0 40
       0.7866838 -8.3108 -1.3259869 5.527676
000040 37 a6 11 41 77 20 c2 3f 6e 31 25 c0 90 e2 00 41
       9.10308 1.5166157 -2.581142 8.055313
000050 5d 21 e0 c0 c0 62 10 c0 37 03 2a 41 e6 3f 49 40
       -7.0040727 -2.2560272 10.625785 3.144525
000060 4c da 10 c1 e5 7f 49 c1 b7 b2 c4 c0 fc 3a 09 c1
       -9.053295 -12.593724 -6.146816 -8.5769005
000070 1c 46 96 40 dc e4 65 40 70 8d 33 c0 0b 37 80 40
       4.6960583 3.5920935 -2.8055077 4.006719
000080 cd 9a c6 be 27 d5 54 40 97 64 04 41 7a ce 61 c0
       -0.3878998 3.3255098 8.274558 -3.5282273
000090 e8 23 65 c1 23 58 9f 41 9d 61 7d 41 1b 55 c5 be
       -14.321266 19.918036 15.836331 -0.38541493
0000a0 8a ab df 40 1c 53 02 41 11 36 6e 40 ad 73 bf bf
       6.98969 8.14529 3.72205 -1.4957176
0000b0 5d 22 0c 41 ce 98 2f 41 58 7f 08 c1 bf 64 08 c1
       8.758389 10.974806 -8.53109 -8.524596
0000c0 3c 77 0e c1 fd 26 fb c0 03 27 36 40 1b 70 50 c1
       -8.90411 -7.8485093 2.846131 -13.0273695
0000d0 3e 35 c8 40 60 a9 e7 c0 3d 9e 45 40 63 a8 a7 40
       6.2564993 -7.2394257 3.087783 5.239305
0000e0 e2 50 d0 3f a2 69 01 c1 c3 93 38 c0 4e 7d 01 40
       1.6274683 -8.088289 -2.8840187 2.023273
0000f0 ec 47 97 40 7a 46 ec c0 3d b8 7c 40 84 6b 43 c1
       4.7275295 -7.383603 3.948745 -12.213749

bn2.running_var f4 [64]
000000 20 4e 12 41 a7 9b 69 41 1a a6 ac 41 f9 4f 14 42
       9.1440735 14.600501 21.581104 37.0781
000010 c1 be 5d 41 aa 01 a8 41 70 ee 34 41 51 13 96 41
       13.859071 21.000813 11.308212 18.759432
000020 de bb aa 40 6c 23 0f 41 c4 02 31 42 bf ec e0 40
       5.335433 8.946148 44.2527 7.0288997
000030 86 c0 24 41 14 8e a1 41 ab d1 39 41 8e 52 04 41
       10.297003 20.194374 11.613688 8.270155
000040 8c 72 a4 41 49 8c 52 41 ee 8d 11 41 18 a1 31 41
       20.555931 13.159249 9.097151 11.10183
000050 8f ce 28 40 85 bd 07 41 48 73 6d 41 84 ae a8 40
       2.6376073 8.483769 14.840645 5.271303
000060 dd fa ad 41 64 1c 22 41 c6 52 26 41 ba 17 ce 40
       21.747492 10.131931 10.395208 6.4403963
000070 25 fc d3 41 4e e4 e0 40 93 6b bd 3f f7 16 43 40
       26.498117 7.027869 1.4798454 3.0482767
000080 68 b6 bb 41 1d 40 49 41 01 0f 74 41 83 f9 ea 41
       23.464066 12.578153 15.253663 29.371832
000090 3b 4b 15 42 69 86 de 41 09 32 14 42 fe 5f 9a 41
       37.323467 27.81563 37.048862 19.296871
0000a0 12 92 5e 41 56 66 b4 41 56 73 71 42 75 c9 91 41
       13.910662 22.549969 60.362633 18.223368
0000b0 f4 b9 9f 41 99 54 43 41 c4 9a 20 42 73 69 09 42
       19.965797 12.208154 40.15114 34.352978
0000c0 cf 98 f1 41 8f 7b 9b 41 4e 57 53 41 fa 52 c7 41
       30.199614 19.435331 13.208815 24.915516
0000d0 15 f1 7c 40 44 58 d0 41 ff eb 61 41 82 74 76 41
       3.9522145 26.043098 14.120116 15.403444
0000e0 91 04 89 40 c1 8a fb 40 b8 fe 72 40 bb 15 ed 41
       4.2818074 7.8606877 3.7967968 29.63561
0000f0 25 a2 0b 41 f4 22 55 41 56 2f 88 41 e5 1a d8 41
       8.727086 13.3210335 17.023113 27.013132
