models/booster/best_models/2-1.pth (torch, 7482 bytes, 18 tensors)

conv1.att_src f4 [1, 1, 16]
00000000: 9a93 9c3e d06b 7cbf 5236 b7bd 894c 263f
00000010: 7311 efbe 308c a8be 16da 0ebf 300a bebe
00000020: 3022 b63e d1f3 6d3e c6ee 35be 452d e3be
00000030: 4347 24be 8f0d 823f 06e7 3fbf 54dd 273d
0.3058136 -0.9860201 -0.08945908 0.64960533 -0.46693 -0.32919455 -0.5580152 -0.37117147
0.35572958 0.2323754 -0.17766866 -0.44370475 -0.16042809 1.0160388 -0.7496189 0.04098256

conv1.att_dst f4 [1, 1, 16]
00000000: 32b1 203d a381 7cbf 02a9 143f 4622 293f
00000010: fac5 cf3e 5e9a 083f da3e df3e 9d9a 0d3e
00000020: 2dd8 11bf f9d6 a13e a228 a7bb a658 f8be
00000030: 51ce 0abf ba98 033f f23a 2b3e 418f 883e
0.039231487 -0.9863531 0.58070385 0.6606792 0.40580732 0.53360546 0.4360264 0.13828512
-0.56970483 0.31609324 -0.0051012794 -0.48505133 -0.54221064 0.5140492 0.16721705 0.26671794

conv1.bias f4 [16]
00000000: ab8e 6bb9 bf38 a43c c6ec 613a 93dc 183e
00000010: befd d4bb df77 ce3d 7792 cd3a 0041 7ebb
00000020: 8a66 ba3c d413 63b9 7c61 23bb 390f 183c
00000030: 40f6 22bc 8a30 36bc 4083 233b 4960 54b9
-0.00022464494 0.02004659 0.0008618351 0.14927892 -0.006499975 0.10081457 0.0015683909 -0.0038796067
0.022753973 -0.00021655794 -0.0024929931 0.009280973 -0.009946406 -0.011119971 0.0024950057 -0.00020253765

conv1.lin.weight f4 [16, 12]
00000000: ed2e 00bf cf23 c7bf 4b35 eb3d 08cb c2be
00000010: 9668 933f c23b 31bf 7b37 6b3f d999 923d
00000020: 7110 aabf e7ce 7040 007c be3e be11 2d3e
00000030: eeb2 9fbf 7e87 c3bf 650d e8bf 0bc1 3c3b
00000040: 7c24 e13f 6910 04c1 7385 68bf fdc2 5a3e
00000050: d4cf 2740 9465 a1c0 b831 61c0 e50a a9c0
00000060: 9408 813e 408e 853f 0ded b83e b6c3 95be
00000070: 19a3 503f fa90 723f 2c43 813f 3999 8bbe
00000080: a6c8 ce3e 0218 f0bf afac 3d3f 07ca d73e
00000090: 1941 6a3f c00f 3d3f d4cb 193f 4e59 30bc
000000a0: e549 0ebe 667c 0c40 d04c 5cbe dbbc f1be
000000b0: 9ee0 42c0 4d4e 3540 8e6a f23f 103e 1a40
000000c0: dcad 913e 26fb 543f 8a7c d4bd 4f7e 043d
000000d0: 834e 2fbf cd5e 7ebe da8e 123e 2531 653f
000000e0: fc5c f13f 56f2 63c0 c658 8e3e 0c98 05bd
000000f0: 42cf ae3f 173d 2940 0a0c f43f 33f1 43bc
00000100: be22 e1bf 0e79 4940 d468 59bf 8bdb 9abe
00000110: 310c 7cbf eaaa 6f3f e180 5740 19c5 0e40
00000120: 39da 423f 650d 973f d3d4 653d ac51 3c3d
00000130: 497b 7ebf e366 c13c 8281 4cbe f0e4 6fbf
00000140: 1bc5 2040 6c4d 4fc0 d7f0 133e 62a0 ac3d
00000150: ec94 56bf 4255 a5bf 4bc9 61bf 30fa 96bc
00000160: 0f62 4d3f c3cc 8dbf 9414 b33e 2ec2 073e
00000170: fb81 bc3f d731 22c0 1f1a eabf cc77 f4bf
00000180: 47e5 ecbe 3ac5 27bf c397 fe3d f886 913c
00000190: 37b9 e4bf 51b4 dbbe 7d6f b43e ab38 9b3f
000001a0: 8a0d 0dc0 2f08 2140 38ed bc3f 4d26 f43e
000001b0: eef4 82be d116 94bf 313a 48bf edc3 82be
000001c0: daaf 5c3f 6593 0f3d 7299 3b3f 64f7 06bf
000001d0: 88b3 92bf 590b 4840 1047 633f 4032 cebe
000001e0: eabc 103f 9869 1840 0b77 1f3f 40f8 cd38
000001f0: 0dff 69bf d3be eabf 09db a43f e8bb 2340
00000200: efba 58bf a891 5d3f 48a3 8040 6aaa 433e
00000210: c9d7 68be bc6f 573f 9d0b 0a3f 13c7 11bd
00000220: 6582 71bf d816 e03e de0b 90bf 2b20 a0bf
00000230: 7d8b 1740 fa03 45c0 6ec6 1ebf a26b d33e
00000240: 3635 6dbf 87ab 05bf 2baf 49bf 4200 5cbc
00000250: 7646 8a3f f509 33c0 01fd 163f 3d16 95be
00000260: 0434 143f 3453 16c0 6321 03c0 7aed e6bf
00000270: 95c0 7bbf 4962 1bc0 435e ebbe 67a7 3ebd
00000280: 8a3a ca3f 000b 573f fcfa cabe c9e4 e2bf
00000290: 0018 57c0 8b07 ed3f cfe1 0ebf 3a68 7e3e
000002a0: 4318 7ebe c2cb 403f b4d1 12be 164e 1f3d
000002b0: 40b3 63bd ca0d 29bf 5f3f 8cbf 4024 e8bd
000002c0: 468a 3e40 1da7 83c0 31d4 b2bc 0b9e 173e
000002d0: 2eae 21bf b619 ffbe 2365 2abf b210 d13e
000002e0: 302e 413f 0655 3cbe c03a 7e3f 4a4f a0be
000002f0: 09b6 cbbe 1038 f03f 4695 7c3e 64c8 db3e
-0.50071603 -1.5557803 0.11484774 -0.38045526 1.1516292 -0.6923181 0.9188153 0.0715825
-1.3286268 3.7626283 0.3720398 0.169013 -1.247648 -1.5275724 -1.8129088 0.0028801586
1.7589259 -8.254006 -0.9082863 0.21363445 2.6220598 -5.0436497 -3.5186596 -5.28258
0.25201857 1.0434036 0.36118355 -0.29250878 0.8149887 0.94752467 1.0098624 -0.27265337
0.40387458 -1.8757327 0.7409162 0.42146322 0.9150558 0.7385216 0.6007664 -0.010763479
-0.13895376 2.1950927 -0.21513677 -0.47214398 -3.0449595 2.832904 1.8938768 2.410038
0.28452957 0.8319572 -0.103753164 0.03234702 -0.68479174 -0.24840851 0.14312306 0.89528114
1.8856502 -3.561666 0.27802104 -0.032615706 1.3657 2.6443536 1.9066174 -0.011959362
-1.7588727 3.1480136 -0.8492558 -0.30245623 -0.984561 0.9362017 3.3672411 2.23078
0.7611423 1.1800963 0.056111168 0.045976326 -0.9940687 0.02360863 -0.19971278 -0.93708706
2.5120304 -3.2391005 0.14447342 0.08429028 -0.83820987 -1.2916644 -0.88197774 -0.018429846
0.8022775 -1.1078113 0.34976637 0.13257667 1.4727167 -2.534292 -1.8289222 -1.9099059
-0.46268675 -0.6553532 0.1243129 0.017764553 -1.7869023 -0.42911008 0.3524131 1.2126669
-2.2039514 2.5161245 1.4759893 0.4768547 -0.25577492 -1.1569463 -0.78213793 -0.25540105
0.8620583 0.035052676 0.73281014 -0.5272124 -1.1461039 3.1256926 0.8878031 -0.40272713
0.5653826 2.381445 0.6229102 9.821402e-05 -0.914048 -1.8339485 1.2879344 2.558344
-0.8466024 0.8655038 4.019932 0.19107977 -0.22738566 0.8415487 0.5392397 -0.035590243
-0.9433959 0.43767428 -1.1253622 -1.2509817 2.3678887 -3.0783677 -0.6202153 0.41293055
-0.9265932 -0.52214855 -0.7878291 -0.013427796 1.0802753 -2.7974827 0.58979803 -0.2911853
0.5789187 -2.3488283 -2.0489128 -1.8041222 -0.9834073 -2.4278738 -0.45970353 -0.046546366
1.5799115 0.8400116 -0.3964461 -1.772607 -3.3608398 1.8517927 -0.55813307 0.24844447
-0.24813943 0.7531091 -0.14337808 0.038892828 -0.055590868 -0.66036665 -1.0956839 -0.11335039
2.9771895 -4.1141496 -0.021829696 0.14806382 -0.631564 -0.49824303 -0.6656057 0.4083305
0.754611 -0.18391809 0.99308395 -0.31310493 -0.3978732 1.8767109 0.24666318 0.42926323

bn1.weight f4 [16]
00000000: ce2e 8d3f 1ece 813f 6a2e 553f 426f 903f
00000010: e165 3a3f 6998 883f 8272 1c3f 5ad3 933f
00000020: 94e3 543f 5352 7f3f 7608 0c3f a3ef 603f
00000030: e641 8c3f aa67 7f3f ad0c 043f f3c4 433f
1.1029909 1.0141027 0.8327395 1.1283953 0.72811705 1.0671512 0.61112225 1.1548874
0.83159757 0.9973499 0.5470041 0.87865657 1.0957611 0.99767554 0.5158184 0.76472396

bn1.bias f4 [16]
00000000: 181f 44be 62b7 213f a126 ad3d 8222 92bd
00000010: 0332 b9be 6cc2 593f 5775 71be 6477 033d
00000020: 409c 23be 43b8 3dbf 8934 c03e b849 d2be
00000030: 000a 7c3e a218 72bf 7e79 19bf d271 093c
-0.19152486 0.63170445 0.084546335 -0.07135488 -0.36170968 0.8506229 -0.23579918 0.03209628
-0.15977573 -0.74109286 0.3754008 -0.41071868 0.2461319 -0.94568837 -0.5995101 0.008388953

bn1.running_mean f4 [16]
00000000: 4a45 6ac4 b5bb 15c2 64d3 31c4 0c4a 74c1
00000010: c419 9f42 d071 99c1 edcc d842 dc4a 44c2
00000020: 9424 2d42 ded4 1cc4 8cbd 3141 8267 c9c2
00000030: 07b1 22c2 a0e9 e6c2 6b6d a842 acd1 7f44
-937.08264 -37.433308 -711.303 -15.268078 79.55032 -19.180573 108.400246 -49.073105
43.28572 -627.32605 11.108776 -100.70216 -40.67288 -115.4563 84.21371 1023.2761

bn1.running_var f4 [16]
00000000: d574 1c49 8ce8 ff42 c696 b848 124b ea43
00000010: 99eb 8f45 b1cb 1c44 b98c 1146 652a bb44
00000020: 351f ae44 6dcb 8c48 7989 6042 d53e b745
00000030: 0522 3b44 9175 1746 3479 cb45 6b3f 3549
640845.3 127.95419 378038.2 468.5865 4605.4497 627.1827 9315.181 1497.3248
1392.9752 288347.4 56.13425 5863.854 748.53156 9693.392 6511.1504 742390.7

conv2.att_src f4 [1, 1, 8]
00000000: 525c 7bbf 5fa5 f93f 1e58 d33f 0421 1ac0
00000010: d52d a6bf a0fd ef3f 1125 0940 0ada 0240
-0.98187745 1.9503592 1.6511266 -2.408265 -1.2982737 1.8749275 2.1428874 2.044558

conv2.att_dst f4 [1, 1, 8]
00000000: d257 0b40 78c3 3abf 580f 9bbf 49c0 cfbf
00000010: d708 cebd e1c5 963e 981e 153d d0a4 763f
2.1772351 -0.7295451 -1.2114058 -1.6230556 -0.1006028 0.29447845 0.03640613 0.96345234

conv2.bias f4 [8]
00000000: ee1a 1bbc 83da 94bc 8a9b ea3d d000 e3bb
00000010: 910c 4d3e b37d cabd 781e 9a3c 0dd2 58be
-0.00946687 -0.0181706 0.11455448 -0.006927587 0.20024325 -0.098872565 0.018813357 -0.21173878

conv2.lin.weight f4 [8, 16]
00000000: 92fa 1fbf a8aa 933f 189b 30bf 814d 01be
00000010: 2ffe f93e 2f06 eabe 42cd 253f 55e4 ca3e
00000020: 566a 973e f553 ccbe edcc d43e 9793 4ebe
00000030: dbad 7dbe c223 53bd 3c4c 893e 5708 e43e
00000040: ec88 f4be 0edb 36bf a919 b43e 3a57 7f3e
00000050: 7f8e 983e ac9a ed3d 7dc5 c53d 21fb e7be
00000060: ea9d 833e 143e d7bd 72f4 f53d 0040 ca3e
00000070: adf9 283c f596 b3be e143 35be cd01 2b3e
00000080: 22c9 ad3e 3f83 30bf 7054 e1be 529d 9a3c
00000090: dd2f 843e 9ec2 f03e ea09 9fbe bf27 a3be
000000a0: daed df3e bc74 113e baf6 6f3e 4501 90bc
000000b0: 2003 a6be ec2c 9ebe aab5 f33d 93fb e33b
000000c0: 3477 e03e bf93 a73e 5297 eb3e 4e28 35be
000000d0: dee5 31be 2bbd 12bf 806c 8ebe 8d2d 39be
000000e0: 24eb 1e3c 3ef6 733e 0c4a 793e 39b0 44be
000000f0: 51e9 ee3e d200 54be 2325 d8be 7756 b1be
00000100: 3fb9 0a3f 2916 be3e 9b1d 23be 9255 d5be
00000110: 0a8f 733e ce74 473c a805 b93e 6313 f93e
00000120: 9b82 9c3e 1394 043f e340 163f 49df 6a3e
00000130: a662 52bd 3fed da3d 6eaf b5be d2ba 3ebe
00000140: 7c42 833e 9ce8 883c fc01 debc 0ba7 34bd
00000150: b1ab b9be c5d1 7dbd 74ad 2a3f a46c ffbc
00000160: fbb5 9dbe d860 b03f 7a52 7b3d ee5e dd3e
00000170: 2cbf 2dbc cc8d 8a40 c789 573d 6bc3 223d
00000180: 2ab3 a13e f61e 58bd ba76 25be 29d3 f23d
00000190: 13cf 6a3d ddf1 03be 764b e83e 0246 92be
000001a0: e906 9fbe 3aeb 993f c363 89bd 981f 2d3f
000001b0: 36cf 823e ee77 6040 6db6 083d a7ae 84bd
000001c0: ab5f a9be 1e56 34be 5364 e63e ca5a 123f
000001d0: f995 76be c532 0b3f 6ab1 413d 2503 d7be
000001e0: b301 263e c781 a6be 2e8e 253e 43be 513e
000001f0: dc5b 16bf 09a4 adbe 6fbb 24bf b45a 253e
-0.62491715 1.1536455 -0.68986654 -0.12627222 0.4882674 -0.45707843 0.64766324 0.3962733
0.29573315 -0.39907804 0.41562596 -0.20173489 -0.24773352 -0.051547773 0.26815975 0.44537613
-0.47760713 -0.71428 0.35175827 0.24935618 0.29796216 0.11601767 0.096568085 -0.45308784
0.25706416 -0.10509887 0.12009515 0.39501953 0.010313434 -0.3507611 -0.17701675 0.16699906
0.33942515 -0.68950266 -0.44009733 0.018873844 0.25817767 0.4702348 -0.3106225 -0.3186626
0.43736154 0.14204687 0.23433962 -0.01757873 -0.3242426 -0.30893648 0.11899884 0.00695748
0.43840945 0.3272991 0.46013886 -0.17691156 -0.17372844 -0.573199 -0.27817154 -0.18083782
0.009699617 0.23824403 0.24344653 -0.19207849 0.4666238 -0.20703438 -0.42215833 -0.3463628
0.54188913 0.37126282 -0.15929262 -0.41666847 0.23785034 0.0121738445 0.36137128 0.48647603
0.30568394 0.51788443 0.5869276 0.22936739 -0.05136361 0.10689782 -0.35485405 -0.18625954
0.2563666 0.01671248 -0.027100556 -0.044104617 -0.36263803 -0.06196763 0.6667092 -0.031179734
-0.30802903 1.3779554 0.061357953 0.43236488 -0.010604661 4.329809 0.05262163 0.039737146
0.31582004 -0.0527639 -0.16158572 0.11856682 0.057326388 -0.12885232 0.45370072 -0.28569037
-0.3105996 1.202491 -0.06708481 0.67626333 0.25548714 3.50732 0.0333771 -0.06478625
-0.330808 -0.17610976 0.44998416 0.57169783 -0.24080648 0.54374343 0.047288336 -0.41994587
0.16211586 -0.32520887 0.16167518 0.20482735 -0.58733916 -0.3391421 -0.643485 0.16147882

bn2.weight f4 [8]
00000000: 0937 893f a63f a93f 4b7c e63f 3ef8 d33f
00000010: 3dcc 9d3f d686 aa3f a292 8c3f b101 f13f
1.071992 1.3222549 1.8006681 1.6560133 1.2327954 1.3322399 1.0982249 1.8828641

bn2.bias f4 [8]
00000000: 6981 f4be d7be cd3e c8f8 f23e c781 fc3e
00000010: 693e 5f3e d968 61bf ac4a f13e 8d42 193f
-0.47754982 0.40184662 0.4745543 0.49317762 0.21801151 -0.8805061 0.47127283 0.59867173

bn2.running_mean f4 [8]
00000000: 33c0 ee3e f380 95be fc4f 89bd e68b cfbc
00000010: 4fdc 8c3f 1945 0a3e 3dc6 183e bcbd b63d
0.4663101 -0.29199943 -0.06704709 -0.025335263 1.1004733 0.13502921 0.14919372 0.08922908

bn2.running_var f4 [8]
00000000: 6da5 8940 d746 f63e db39 1e3f 6137 653e
00000010: 1577 533e 6afc 8f3e 7f45 913e 5110 9a3e
4.3014436 0.48100922 0.6180703 0.22384407 0.20650895 0.28122264 0.28373334 0.30090573

fc.weight f4 [2, 8]
00000000: 3258 d03e d4d6 b6be f417 4ebf cd12 b33e
00000010: 0ffb 093f 7be7 57bf 79f9 efbe 6464 50bf
00000020: 60df ebbe 8541 e33e 29b8 433f dfab 6abf
00000030: 0655 8bbd 6fca 6a3f d4b0 ea3e e53d 5e3f
0.40692288 -0.35710776 -0.805053 0.3497528 0.5389871 -0.84337586 -0.4687002 -0.81403184
-0.4606886 0.44385925 0.7645288 -0.91668504 -0.06803326 0.9171514 0.45838034 0.86813194

fc.bias f4 [2]
00000000: b020 963e 2f65 4ebe
0.29321814 -0.20155786
