models/booster/best_models/2-1.pth (torch, 7354 bytes, 18 tensors)

conv1.att_src f4 [1, 1, 16]
1.7067184 -0.2086193 -0.80915517 -2.555678 -0.1759984 0.18044893 0.8111217 -0.9534175
-1.0987737 -0.7836617 -0.19298054 1.3191599 -0.53733087 0.055916257 0.41858912 0.9567472
00000000: c075 da3f 4ca0 55be cb24 4fbf 3a90 23c0
00000010: ed38 34be 9bc7 383e aca5 4f3f 2b13 74bf
00000020: 9ea4 8cbf 0e9e 48bf b19c 45be 3bda a83f
00000030: 848e 09bf 7208 653d 5051 d63e 62ed 743f

conv1.att_dst f4 [1, 1, 16]
-0.5704174 -0.9594284 -0.56804824 0.39060026 1.0070429 0.48710904 -0.42653075 -0.12852544
1.0082967 -1.1266769 -0.05501223 -0.3492132 0.63330567 0.7061597 -0.13131438 -0.8305795
00000000: e006 12bf 1a9d 75bf 9c6b 11bf c2fc c73e
00000010: c8e6 803f 5b66 f93e 3d62 dabe 2c9c 03be
00000020: de0f 813f f336 90bf 8154 61bd 13cc b2be
00000030: 5220 223f e2c6 343f 4777 06be dca0 54bf

conv1.bias f4 [16]
-0.0039299354 0.00033346386 0.0018120961 0.0014332767 0.07819745 -0.01789033 -0.0903289 0.0028698624
0.00011417095 -0.012641883 0.019564547 -0.0002813829 -0.006365194 -0.00239772 0.0080674365 -2.8220272e-06
00000000: b0c6 80bb c3d4 ae39 db83 ed3a c9dc bb3a
00000010: fc25 a03d be8e 92bc 5cfe b8bd 4d14 3c3b
00000020: 106f ef38 e71f 4fbc d445 a03c 9386 93b9
00000030: 1e93 d0bb 1123 1dbb 482d 043c 0f62 3db6

conv1.lin.weight f4 [16, 10]
-0.39345828 -2.084003 0.28387278 -0.020430086 -6.6262407 5.3585105 0.61715966 -1.740377
0.5554059 -2.803244 -0.20805126 -0.33995962 -0.6850713 -0.09463551 4.3136525 -3.6086287
-0.49522504 0.83571994 -0.9466062 0.7336968 -0.39209566 -0.27412587 -0.9758664 -0.03386677
7.2069216 -5.2479434 -1.0486546 0.9570489 -1.1032844 2.033487 0.6820833 2.6491854
0.8219239 -0.12663034 6.7246985 -6.0222354 -0.38816032 1.7429187 0.5141923 2.2667239
2.0574052 0.91980606 1.8915372 -0.011138197 0.9320623 7.2031546 0.9912387 0.047937907
-1.3431479 0.13385747 1.7180561 1.2502846 1.5290506 0.016629346 -4.3498626 6.558859
0.41807026 -1.2300209 1.8840322 -1.2777964 -2.3259122 -3.2372034 -1.9166685 0.007264831
-4.2491207 -3.9186952 -0.6181898 -0.53849584 -0.7807706 -1.8959 -0.3718199 -0.53939575
-1.151481 0.006809353 7.050487 -6.4932323 -1.224666 1.2249166 -0.81021065 2.275059
0.89343965 4.0669785 0.078432664 0.46024895 6.55229 -5.9109964 -0.35193267 1.8307335
0.10573635 2.5227745 -1.5028964 -0.77628785 -1.302063 -0.010950241 6.950799 -6.5147796
-1.9630595 0.31878248 -0.41469133 1.5532646 0.30934504 0.53883505 0.95795536 -0.0092341
3.5705073 2.7669659 -0.97450995 -0.75598645 -0.629127 0.66045487 -0.7695714 -2.738136
-0.0061512874 -0.08408463 -6.1405478 5.944612 -0.11709912 -1.9236896 0.10423599 -2.0146632
0.8720969 1.9316888 1.0517981 -0.0149815045 4.833803 0.5226169 -1.4230108 -0.4787595
1.3733462 1.7618133 0.9522839 0.44187075 0.59399277 -0.022883793 -1.3066225 3.1765723
1.2627958 0.9836345 -0.3001248 0.19063516 -1.7035918 -2.504956 -1.9494816 -0.016626118
-2.8828232 -2.157622 0.5232151 0.18691997 -0.9288166 -1.398043 -0.7884668 -3.8575077
-0.12893881 -0.65168345 -6.2493615 5.866239 0.3569355 -1.695031 0.59656674 -2.5709157
00000000: 5d73 c9be 4e60 05c0 c657 913e ff5c a7bc
00000010: 2a0a d4c0 eb78 ab40 2dfe 1d3f acc4 debf
00000020: 152f 0e3f 5a68 33c0 640b 55be 300f aebe
00000030: d560 2fbf 43d0 c1bd 7109 8a40 c6f3 66c0
00000040: 238e fdbe bef1 553f c954 72bf 8ed3 3b3f
00000050: c3c0 c8be 3a5a 8cbe 61d2 79bf e2b7 0abd
00000060: 1a9f e640 27ef a7c0 503a 86bf 2801 753f
00000070: 6c38 8dbf a724 0240 039d 2e3f 418c 2940
00000080: 9b69 523f 62ab 01be bb30 d740 27b6 c0c0
00000090: f3bc c6be f617 df3f 1ba2 033f 0112 1140
000000a0: 87ac 0340 6978 6b3f e41d f23f fc7c 36bc
000000b0: a39b 6e3f 3e80 e640 d2c1 7d3f 8a5a 443d
000000c0: 45ec abbf ef11 093e 43e9 db3f 5309 a03f
000000d0: eeb7 c33f 443a 883c 1332 8bc0 2ce2 d140
000000e0: 4e0d d63e 5371 9dbf f827 f13f d58e a3bf
000000f0: bfdb 14c0 572e 4fc0 6555 f5bf d20d ee3b
00000100: ccf8 87c0 e7cb 7ac0 b041 1ebf ddda 09bf
00000110: 95e0 47bf daac f2bf 2e5f bebe d715 0abf
00000120: bb63 93bf fe20 df3b 979d e140 8fc8 cfc0
00000130: dbc1 9cbf 11ca 9c3f f769 4fbf 919a 1140
00000140: 76b8 643f b024 8240 4ea1 a03d c0a5 eb3e
00000150: 5cac d140 e226 bdc0 8530 b4be 7a55 ea3f
00000160: 4d8c d83d 2375 2140 e95e c0bf cdba 46bf
00000170: 00aa a6bf a468 33bc f26c de40 1379 d0c0
00000180: 8945 fbbf 7537 a33e 6c52 d4be 60d1 c63f
00000190: 7962 9e3e 18f1 093f 903c 753f 9f4a 17bc
000001a0: 3183 6440 f815 3140 7c79 79bf 5488 41bf
000001b0: 780e 21bf 9213 293f a202 45bf 9f3d 2fc0
000001c0: bd90 c9bb 9034 acbd 5e7f c4c0 433a be40
000001d0: aad1 efbd 763b f6bf ae79 d53d 3ef0 00c0
000001e0: be41 5f3f 9441 f73f 52a1 863f fc74 75bc
000001f0: 84ae 9a40 39ca 053f 3825 b6bf f71f f5be
00000200: cfc9 af3f 1983 e13f e1c8 733f e23c e23e
00000210: e90f 183f cb76 bbbc 683f a7bf f64c 4b40
00000220: 4ba3 a13f 78cf 7b3f f5a9 99be dd35 433e
00000230: 4c0f dabf 3351 20c0 9d88 f9bf 7f33 88bc
00000240: 2d80 38c0 7b16 0ac0 6df1 053f f367 3f3e
00000250: edc6 6dbf 13f3 b2bf f6d8 49bf 68e1 76c0
00000260: 8908 04be bad4 26bf c5fa c7c0 3bb8 bb40
00000270: 40c0 b63e c7f6 d8bf 99b8 183f e289 24c0

bn1.weight f4 [16]
0.7100801 0.7491873 0.77300704 0.7310954 1.3390428 1.0820919 1.1073158 0.8333174
0.9399742 1.0489234 1.0029672 0.96325547 1.1644304 0.91341215 1.1053396 1.086849
00000000: cfc7 353f bdca 3f3f cae3 453f 1129 3b3f
00000010: c165 ab3f fd81 8a3f 86bc 8d3f 4a54 553f
00000020: 26a2 703f 1f43 863f 3b61 803f e997 763f
00000030: 0e0c 953f 61d5 693f c57b 8d3f de1d 8b3f

bn1.bias f4 [16]
-0.6034592 -0.43905678 -0.2638077 -0.3535543 0.16905156 0.104032405 -0.031520482 -0.09376015
-0.12593885 -0.0555802 -0.008867999 -0.12843256 0.051184755 -0.15864845 0.23951042 -0.013422381
00000000: 4d7c 1abf 0dcc e0be ce11 87be 1205 b5be
00000010: da1b 2d3e f10e d53d 9f1b 01bd 5205 c0bd
00000020: 1df6 00be 10a8 63bd 154b 11bc d383 03be
00000030: 1ba7 513d bd74 22be 3842 753e 8ce9 5bbc

bn1.running_mean f4 [16]
-53.47207 -260.49768 -95.91547 -342.66217 -28.528818 49.82117 13.542002 13.517525
1253.8629 -36.204056 -20.997446 -229.04698 -38.904922 -59.93672 -48.438988 -1774.4038
00000000: 66e3 55c2 b43f 82c3 b8d4 bfc2 c254 abc3
00000010: 053b e4c1 e148 4742 0aac 5841 c847 5841
00000020: 9dbb 9c44 f4d0 10c2 c5fa a7c1 070c 65c3
00000030: a49e 1bc2 34bf 6fc2 86c1 41c2 eccc ddc4

bn1.running_var f4 [16]
2706.5051 60403.066 7790.093 107743.83 891.0542 1836.1361 339.87012 272.98724
1.4249432e+06 976.5131 461.08606 47555.51 1617.0654 3404.285 1766.664 2.8565998e+06
00000000: 1528 2945 11f3 6b47 be70 f345 ea6f d247
00000010: 78c3 5e44 5b84 e544 60ef a943 5e7e 8843
00000020: 7af1 ad49 d720 7444 048b e643 83c3 3947
00000030: 1822 ca44 8fc4 5445 3fd5 dc44 5f5a 2e4a

conv2.att_src f4 [1, 1, 8]
0.60925776 -6.0261974 5.342778 5.0202727 3.08405 5.715729 3.1763299 3.1295786
00000000: 51f8 1b3f 9cd6 c0c0 0af8 aa40 13a6 a040
00000010: 1361 4540 41e7 b640 fd48 4b40 044b 4840

conv2.att_dst f4 [1, 1, 8]
0.687795 0.36514083 -0.34486648 -1.2329681 -0.991545 0.08101876 2.7435677 0.0144205345
00000000: 5513 303f bdf3 ba3e 5792 b0be e6d1 9dbf
00000010: e5d5 7dbf 2aed a53d 9d96 2f40 1b44 6c3c

conv2.bias f4 [8]
0.074274324 -0.09614151 0.106171615 0.059969436 0.20863645 0.07380391 0.036593866 0.0840547
00000000: 231d 983d d7e5 c4bd 8170 d93d 83a2 753d
00000010: cba4 553e 8126 973d 73e3 153d df24 ac3d

conv2.lin.weight f4 [8, 16]
0.08244505 -0.072770074 0.08851332 -0.087193914 0.42554906 0.29204187 -0.069274135 -0.029918315
-0.49081898 -0.11121812 -0.15951237 -0.4206485 0.24571587 -0.118212156 0.40651324 -0.36043462
-0.077958606 0.2082315 0.39477116 -0.23701738 -0.541751 -0.47337547 0.5899984 0.16519141
-0.23330605 0.54950416 -0.47712064 0.027466567 -0.48348504 -0.39953032 0.4707366 0.5389047
0.27106896 0.0049140723 -0.10595272 -0.06908763 0.81822044 0.23090638 -0.29818982 -0.27793896
0.34326378 -0.36351812 0.3324669 -0.2332128 -0.025796061 -0.22656 -0.33327556 -0.17747693
0.36365366 0.24776874 -0.26433966 -0.40536365 0.44224837 0.30978414 -0.19675854 -0.15393646
-0.13694201 -0.26772305 0.5693223 -0.21210276 0.07777948 0.32401258 -0.26313168 -0.5139122
-0.23615299 -0.12751678 0.21515988 0.16647144 0.57850206 0.13188417 -0.10635116 -0.017019084
-0.082226895 -0.22623052 0.14037107 -0.4464603 -0.30804184 0.3036924 -0.13605985 -0.15274991
-0.3313309 -0.33458117 -0.2557802 0.027740316 0.3854379 0.4208902 -0.46788067 -0.12429904
0.15817149 -0.30787867 0.086306155 0.41739553 0.5443331 -0.33813837 -0.45706886 -0.41214544
3.3530238 1.0185183 0.40716606 0.39337543 -0.12390856 0.51413006 -0.13932742 0.19600339
-0.7019311 -0.29138154 -0.265942 -0.08257114 -0.45979106 0.8090409 0.04143582 0.5878836
0.5712411 1.1848147 1.1060631 0.81714267 0.503273 0.34668636 -0.19456618 -0.2820563
0.5292876 0.19881643 0.24891455 0.2156134 -0.2419902 0.8319397 0.40703732 0.7786456
00000000: f3d8 a83d 7a08 95bd 7946 b53d b992 b2bd
00000010: 91e1 d93e 8386 953e 99df 8dbd 4117 f5bc
00000020: a04c fbbe 53c6 e3bd 3657 23be 3d5f d7be
00000030: f19c 7b3e 3719 f2bd 8122 d03e e38a b8be
00000040: c3a8 9fbd a33a 553e 721f ca3e afb4 72be
00000050: 32b0 0abf 455e f2be 230a 173f f027 293e
00000060: c8e7 6ebe 4eac 0c3f 2849 f4be 9101 e13c
00000070: 5a8b f7be 3d8f ccbe 6304 f13e a9f5 093f
00000080: 8dc9 8a3e 3a06 a13b bdfd d8bd d17d 8dbd
00000090: e576 513f b972 6c3e 56ac 98be 044e 8ebe
000000a0: 45c0 af3e 0c1f babe 1a39 aa3e 56cf 6ebe
000000b0: 4352 d3bc 58ff 67be 18a3 aabe 83bc 35be
000000c0: d030 ba3e 17b7 7d3e 8757 87be d38b cfbe
000000d0: 616e e23e 079c 9e3e 127b 49be 85a1 1dbe
000000e0: 873a 0cbe ff12 89be 1bbf 113f 7731 59be
000000f0: d94a 9f3d fae4 a53e 32b9 86be c08f 03bf
00000100: 17d2 71be c293 02be df52 5c3e 7d77 2a3e
00000110: b618 143f a50c 073e a3ce d9bd 9b6b 8bbc
00000120: 9366 a8bd f9a8 67be 6fbd 0f3e 7296 e4be
00000130: a9b7 9dbe 927d 9b3e 4653 0bbe 796a 1cbe
00000140: 34a4 a9be 394e abbe 9ff5 82be a93f e33c
00000150: 1e58 c53e ec7e d73e 0e8e efbe 7f90 febd
00000160: b5f7 213e 46a2 9dbe 48c1 b03d deb4 d53e
00000170: 6a59 0b3f 7920 adbe ee04 eabe ba04 d3be
00000180: f197 5640 cf5e 823f 1278 d03e 8168 c93e
00000190: c5c3 fdbd 079e 033f d9ab 0ebe 1db5 483e
000001a0: c2b1 33bf f62f 95be 8d29 88be 0f1b a9bd
000001b0: bc69 ebbe 4e1d 4f3f 9bb8 293d 8a7f 163f
000001c0: db3c 123f 02a8 973f 7a93 8d3f 4330 513f
000001d0: 80d6 003f e080 b13e 5b3c 47be af69 90be
000001e0: 647f 073f 8996 4b3e 75e3 7e3e c2c9 5c3e
000001f0: 47cc 77be 00fa 543f 3267 d03e 5155 473f

bn2.weight f4 [8]
1.2586938 2.3015907 1.2060316 1.3101864 1.6472341 1.4740143 1.3516674 1.1618338
00000000: e11c a13f 434d 1340 3e5f 9a3f 30b4 a73f
00000010: 91d8 d23f 80ac bc3f 7003 ad3f f8b6 943f

bn2.bias f4 [8]
0.09855763 0.25452766 0.8868235 0.6971691 0.49937022 0.659164 -0.39787298 0.046623018
00000000: 95d8 c93d 7351 823e dd06 633f ad79 323f
00000010: 74ad ff3e f9be 283f 02b6 cbbe c7f7 3e3d

bn2.running_mean f4 [8]
0.24986163 -0.26482186 0.24984947 0.111509696 0.24510942 0.08172396 0.2899093 1.9203666
00000000: badb 7f3e bb96 87be 8ad8 7f3e 325f e43d
00000010: f7fd 7a3e e45e a73d fe6e 943e 93ce f53f

bn2.running_var f4 [8]
0.07862204 0.13073191 0.06920129 0.052965764 0.018748803 0.07964609 0.26015174 2.8781562
00000000: 9804 a13d 96de 053e 68b9 8d3d a1f2 583d
00000010: 1797 993c 7d1d a33d 9c32 853e b633 3840

fc.weight f4 [2, 8]
0.3876534 0.8012418 -0.48370495 -0.7431998 -0.82691807 -0.6758823 -0.74988705 -0.17377147
-0.4474999 -1.1072057 0.62222314 0.4422754 0.6021554 0.6380703 0.44297618 0.19311301
00000000: 827a c63e 2f1e 4d3f 2da8 f7be 5842 3ebf
00000010: e7b0 53bf 9f06 2dbf 99f8 3fbf 26f1 31be
00000020: b51e e5be ebb8 8dbf 044a 1f3f ec71 e23e
00000030: db26 1a3f 9358 233f c6cd e23e 6bbf 453e

fc.bias f4 [2]
0.37303102 0.09765076
00000000: ecfd be3e 1ffd c73d
