models/booster/best_models/3-3.pth (torch, 19450 bytes, 18 tensors)

conv1.att_src f4 [1, 1, 64]
00000000: 6201 3ebe c6d2 6abf f1ff a4bf 34a9 63bd
00000010: c90c fe3e 502c 1a3f 9223 063f a997 f2be
00000020: 4996 8ebf e687 88bf 3d4e 1abe c324 f4bd
00000030: fdd0 efbe 3e0d a23e a7cb 30be 2301 a9bf
00000040: ace6 eebc 72af 7fbf 1550 773f 8779 593e
00000050: 9223 153f 332e f13d e092 ecbd 74d8 77be
00000060: f9b9 00be c738 77bf 2aa6 9d3d a61d 7e3f
00000070: f2f1 3abe b885 a43f 48dc 80bd 286d 6dbf
00000080: 7a19 323f 75b5 82be 1795 203c c6d5 1b3f
00000090: f5e1 febe aa09 32bf a45a ab3e 880e 49be
000000a0: 3607 51bf d221 213e 5353 723e e4f5 e53e
000000b0: 9c63 4cbf a92b 2c3e 5791 013f 1068 dc3e
000000c0: 097e 443d 5e84 533e 7ded 4f3f d422 bebd
000000d0: cc05 94be 61c7 843e 61d6 b1be fa01 46bf
000000e0: b4db 983e 2c1d a4be 7f6e 123d 708b bcbe
000000f0: 9896 8abe 54a5 6c3f 1133 403f cfb4 0bbf
-0.18555215 -0.91727865 -1.2890607 -0.055581287 0.4961913 0.60223866 0.52398026 -0.47381333
-1.1139613 -1.0666473 -0.15068908 -0.11921074 -0.46839133 0.31650728 -0.17265187 -1.3203472
-0.029162727 -0.99877083 0.9660657 0.21237765 0.582574 0.1177639 -0.11551452 -0.24203664
-0.12570943 -0.9657101 0.07697709 0.9926399 -0.18256357 1.2853308 -0.06292015 -0.92744684
0.69570124 -0.25529066 0.009801171 0.6087307 -0.49781767 -0.69545996 0.3346759 -0.1963445
-0.8165163 0.15735558 0.23664598 0.44914162 -0.7983949 0.1681353 0.50612396 0.43048143
0.04797176 0.20655963 0.81221753 -0.09283987 -0.28910673 0.25933364 -0.3473387 -0.77346766
0.2985512 -0.32053506 0.03574991 -0.36825132 -0.2706802 0.9243977 0.7507792 -0.54572767

conv1.att_dst f4 [1, 1, 64]
00000000: 5ee0 51be 0621 303e 70a8 133f 6e61 d2be
00000010: 6bdb 933e baa8 66be 09ea 26be 8c6a 8dbe
00000020: 4c30 803e 9dc0 2abd 23ee eebe 4348 cc3d
00000030: fbd7 163d def6 edbd 1c5d 0c3f b877 1ebd
00000040: 6e7b c1bc cc92 df3e e419 f3be 3210 203f
00000050: 8315 bebe 2e46 2b3f 17c2 a03d 9f28 d43d
00000060: 594c 073f 758b bcbe 0850 07bf 9832 8e3e
00000070: 8ec5 9d3e f178 0e3f ce44 a73e 6078 f7be
00000080: d424 bebe f66d 1abf 7c4d 84bd 508b b93d
00000090: 830a 963e fbfb 02be 28e8 d23e 9da5 9fbd
000000a0: 98b8 9e3d 24ef ca3d ab04 6e3d c119 d0be
000000b0: 3a36 cdbe 6392 1dbf ef95 bdbe caf7 9b3d
000000c0: 8c7c 68be 9333 3ebd 472c ed3d 7f9e 08be
000000d0: 5d0c 803e 3d1e 88be 3d1a e33d 1249 4d3e
000000e0: 6d70 54be f18a c13e bdf2 b3bd 6c90 493d
000000f0: 0aab a1bd e74d 8abe 2e2f fb3e 857c a0be
-0.20495746 0.17200097 0.5767889 -0.41089958 0.2887834 -0.22525302 -0.16300215 -0.2762035
0.25036848 -0.041687597 -0.4666606 0.0997472 0.03682707 -0.11619352 0.54829574 -0.03868839
-0.023618426 0.43666685 -0.4748069 0.6252471 -0.37125787 0.6690396 0.0784952 0.1035931
0.5285087 -0.36825147 -0.52856493 0.27772975 0.30814785 0.5565329 0.3266968 -0.48334026
-0.37137473 -0.6032404 -0.064600915 0.09059775 0.29304895 -0.12791435 0.41192746 -0.0779526
0.07750052 0.09908894 0.05810992 -0.4064465 -0.40080434 -0.61551493 -0.37028453 0.076156214
-0.22703761 -0.046435904 0.11580711 -0.13341711 0.25009432 -0.2658557 0.11088989 0.20047405
-0.20746012 0.37801316 -0.08786533 0.049209997 -0.07893951 -0.2701256 0.49059433 -0.31345

conv1.bias f4 [64]
00000000: 7a2f ffbc f113 e5b9 4a4b a1ba 551b c4b9
00000010: 209c f53d 4fc5 cfbb e84c a33b 2a0f 573c
00000020: 60cb b53b 8410 53ba f1c3 9a3c 291d 953a
00000030: f472 a5bc 81b1 e73c e7f8 eebc 4be9 313d
00000040: bcbd 14bb 4e0b 883c e770 183d 36fe 9b3a
00000050: c471 6e3b 7958 9bbc 204b e43b c007 e53c
00000060: f94f a33b ce9c 633b 7e71 65bd 14d9 113c
00000070: c9fa e139 e765 1c3a 52e9 ff39 24a6 dd3c
00000080: 4582 dcbc adef aa3c 2767 403c de8e 6c3b
00000090: c80d 2f3a a8c7 d83c f050 86bd 7758 89bb
000000a0: 1961 3abb 5cf9 52bc ed40 77ba 966c 1d3c
000000b0: 5c11 9c3b 49f6 093d 85e6 9cbd 5903 4ebc
000000c0: 03c1 26bc 7e51 9d3b 163c 483a 2dbb 44bd
000000d0: d062 fa3b f144 95bc 385c 0c3c c9b9 1e3d
000000e0: d2da dd3c 86c7 dc3b 8b0c a13c 6571 863c
000000f0: b16c 01bc a050 67bb 425f da3b 3e67 ee3b
-0.031150568 -0.0004369314 -0.0012305763 -0.00037404397 0.11992669 -0.0063406597 0.004983533 0.013126174
0.005547926 -0.0008051472 0.01889226 0.0011376488 -0.020196415 0.028282883 -0.02917142 0.043435376
-0.0022696098 0.016606953 0.037217047 0.0011901322 0.0036383728 -0.018963085 0.0069669634 0.027957797
0.0049838987 0.0034730914 -0.056016438 0.008901853 0.00043102194 0.00059661124 0.00048811227 0.027056761
-0.026917586 0.02086624 0.011743343 0.0036095898 0.0006677774 0.026462391 -0.06558406 -0.004191454
-0.0028439222 -0.012876835 -0.0009431977 0.009608408 0.0047628116 0.03368214 -0.076611556 -0.01257404
-0.0101778535 0.0048009744 0.0007638348 -0.048030067 0.007641174 -0.01822135 0.008566909 0.038751397
0.02708188 0.0067376522 0.019659301 0.016411493 -0.007899449 -0.003529586 0.0066641876 0.007275491

conv1.lin.weight f4 [64, 12]
00000000: d514 183f a272 0c40 5da6 373f f5e4 24bc
00000010: 97e5 a8be 9697 a23f 81db 51bf 4e37 8d3e
00000020: d5b2 13c0 952e 2cbf b7ce aebd ccb2 b8be
00000030: 6a8d 443c 6079 aa3e 07a5 08be 7d20 0a3d
00000040: f51d 523e e2b3 633e 80c7 e1be 93fa 013d
00000050: 3f42 1b3d e0fc 61be 1888 873f c8c5 23be
00000060: e598 5d3d 1779 403e 3903 f2bd 7425 ae3e
00000070: ef05 20bd d79f 893e 6bdd 1cbf ebf8 223e
00000080: 91cd ae3e 7345 95be 5a53 733f e323 c6be
00000090: e2e5 ab3e ee12 cf3f 0ce9 883e 272f b0bb
000000a0: 8b90 06be 49e0 9c3e db83 cbbd a494 27bd
000000b0: da45 fcbe 9aee 05c0 5764 02be 8245 053f
000000c0: 43cc 313e 136f 65bf e09f 953e 040a 843c
000000d0: d00d 323f c7bc d43f 1cc7 45be 6f9d 12bf
000000e0: abf5 833f c714 b93f 5d18 37bf 8596 10bf
000000f0: 3332 c3be 923b 30be d329 8bbd 1f5d 343d
00000100: 54d2 08bd 26aa 8b3d 1f87 f2be 3dea 93be
00000110: cbb7 b5be b362 ab3e aae8 28bf 3ef9 153d
00000120: 0421 3fbe 563a f23b 9315 92bc c041 55be
00000130: 63a6 a43e f9ff ab3e 66fa 2ebe 805e 14bf
00000140: c74a bd3c df9f 253d 8e0e e4be 3012 303e
00000150: f302 e6be 144e 063f 220b 0ebf ea72 ce3c
00000160: 0f43 b5be d6cf 0a3e e075 69bd 73ea b03e
00000170: 6c06 5abf 59c9 f4be 8e9b 343f 40dc d23e
00000180: f346 57be 9a34 8d3f d515 c0be 6406 35bc
00000190: 2cbf d4bd 320c 9b3e 6725 38bd c451 023e
000001a0: a304 b53f 7857 cdbf a64d 8c3f 10bb a53f
000001b0: a04a 3fbe c726 27be bb31 8dbd 7441 4bbd
000001c0: 309c d23e 97f2 883d 7db7 c73e a569 5cbe
000001d0: 2efe 313e 363f 7c3e d8ba 6b3f 2626 03bf
000001e0: 56e7 033d b76b 80bf 6e1a 3ebe 5937 a4bd
000001f0: 28b1 713f 7d40 723f 46a1 1dbf 40af 07bf
00000200: 795a 543e e752 443f ba76 41bf aa90 4dbf
00000210: e2d4 0abf 5952 9ebe f923 b1bc e1df 18be
00000220: 8448 1e3e cf86 16bf 6e91 89bd bac7 513d
00000230: 0d61 92bc c668 94bd fbdc 063f 5177 71be
00000240: 6e1f cbbe 088b 3940 bf16 6ebf 7cb1 13bc
00000250: 386b 3dbf 164f 13be 3021 c23e 7324 803e
00000260: 6e3a f63e 2264 12c0 121d 0340 e6ab 3d40
00000270: 5560 3c3f bf6a 50bf 4c15 653f e975 403c
00000280: bb9b b0be 2966 75bf 4f2c 3abe 574e c9bd
00000290: cd62 f63d 36f5 f83f a344 b0be 38f0 93bf
000002a0: 5475 303d 1f2d 5c3f 5a32 023e c495 2f3d
000002b0: 02a3 08be 30e4 8abd 4ebe b73e 129f 4c3f
000002c0: c794 d03e ac8c ecbe 17cc 2a3f ae29 b93e
000002d0: 65f4 c4be 5235 95bf fc3f 90be a2e3 9dbc
000002e0: 2649 a33e feb7 0b3f 3595 213f 61aa 02bf
000002f0: f0e9 833f a2ed d3bd c7b5 8a3f a40c 1bbf
00000300: f2b6 7bbd 84c1 fb3c c06a e7bd 2dd0 a2be
00000310: 9291 8f3e 8c51 e9bd d413 593e 802d 873c
00000320: e170 a1bc 0274 fdbd 6d0b f93e c5ac 8abb
00000330: 4dc7 8abc 769a 4bbe 8f4c 3abe 4f1e 483d
00000340: d7f7 1ebe c2cc 073d 0c9b 8e3d d200 923e
00000350: cb9b 053f 0dfa 81be c3ba 793f 42fb 85be
00000360: 8026 c23c bb6e d3be 3ee4 8f3c 8a7b ffba
00000370: 73b6 e5bd 0a9f 10c0 fb4a 9c3e 73c9 5d3e
00000380: 03f9 823e f5d1 683f 0c17 a1bf 10a8 c0bf
00000390: 2146 fb3d 4ea1 233e e108 8fbd e7b2 7e3f
000003a0: d38e 2e3d 0df4 a9be 93a7 e03c d53b e93e
000003b0: 4f0d bdbe 9088 283e e3f8 babe 7285 1cbe
000003c0: 9a15 fcbd b5f4 08bf 77b7 a1bc 20c3 dabd
000003d0: 842d 083f e21f 153f 52b4 25be c6d9 eabe
000003e0: 0893 a8be 1aea d73d ce56 25bf e1fd 913d
000003f0: 6c49 79bf 4c9b 1040 2560 87bf d767 abbb
0.5940679 2.1944966 0.71738225 -0.010064353 -0.32987663 1.270251 -0.8197556 0.27581257
-2.30779 -0.6725858 -0.085355215 -0.3607391 0.011996606 0.33295727 -0.13344203 0.03372239
0.2051924 0.22236589 -0.4409752 0.031733107 0.037904974 -0.2206912 1.0588408 -0.15993416
0.05410089 0.18796192 -0.11817021 0.3401295 -0.03906816 0.2687976 -0.61275357 0.15915267
0.3414121 -0.29154548 0.9504906 -0.38699254 0.33573824 1.6177652 0.267403 -0.0053767147
-0.13141076 0.30639866 -0.09937259 -0.04091324 -0.49272043 -2.092688 -0.12733589 0.52059186
0.17363076 -0.8962261 0.29223537 0.016118057 0.69552326 1.662011 -0.19314235 -0.57271475
1.0309347 1.4459466 -0.7152155 -0.56479675 -0.38124236 -0.17210224 -0.06795087 0.04403412
-0.03340371 0.068195626 -0.47368714 -0.28889647 -0.35491785 0.3347374 -0.6598002 0.03661465
-0.18664938 0.007392208 -0.017832553 -0.20825863 0.32158193 0.3359373 -0.17087707 -0.57956696
0.023106946 0.040435668 -0.44542354 0.17194438 -0.44924125 0.5246289 -0.5548574 0.02520128
-0.35402724 0.13555846 -0.05699718 0.3455387 -0.8516605 -0.47809866 0.7054986 0.41183662
-0.21023159 1.1031678 -0.37516657 -0.011048887 -0.10388026 0.30282742 -0.044957545 0.12726504
1.414204 -1.6042318 1.0961196 1.2947712 -0.18680811 -0.16323386 -0.06894251 -0.049622968
0.41134787 0.06686895 0.39007178 -0.21524675 0.17382118 0.24633488 0.92081976 -0.51230085
0.03220304 -1.0032872 -0.1856477 -0.08018369 0.94410944 0.9462965 -0.6157421 -0.53001785
0.20737638 0.76689 -0.7557179 -0.80298865 -0.54231083 -0.309222 -0.021623598 -0.14929153
0.1545735 -0.5879945 -0.06717192 0.051215865 -0.017868543 -0.072465464 0.5268094 -0.23580672
-0.39672416 2.8991108 -0.9300346 -0.009014484 -0.7399173 -0.14385638 0.37915945 0.2502781
0.48091453 -2.2873616 2.0486493 2.9636168 0.7358449 -0.8141288 0.8948562 0.011746862
-0.34493813 -0.9585901 -0.18180965 -0.09829395 0.120305635 1.9449832 -0.34427366 -1.1557684
0.043080643 0.8600635 0.1271452 0.042867437 -0.13343433 -0.067818046 0.35887378 0.7993022
0.40738508 -0.46201074 0.66717666 0.36164612 -0.38467708 -1.1656897 -0.28173816 -0.019273583
0.31891745 0.54577625 0.63118297 -0.5104123 1.0305767 -0.10348059 1.0836724 -0.60566163
-0.061453767 0.030731924 -0.11299658 -0.3179945 0.2804075 -0.11392507 0.2119897 0.016501188
-0.019707145 -0.12375642 0.4864153 -0.0042320215 -0.016940737 -0.19883141 -0.18193267 0.04885703
-0.15524231 0.033154257 0.069631666 0.2851625 0.52190846 -0.25386086 0.975506 -0.26168257
0.023699999 -0.41295418 0.017564889 -0.0019491774 -0.1121644 -2.259707 0.30525956 0.21658878
0.25580606 0.9094537 -1.2585158 -1.5051289 0.122692354 0.15979502 -0.069841154 0.99491733
0.042616677 -0.33194008 0.027423656 0.4555346 -0.36924216 0.16458344 -0.3651801 -0.1528528
-0.12308808 -0.53498393 -0.019740803 -0.106817484 0.5319445 0.58251774 -0.16182068 -0.45869273
-0.32924676 0.10542698 -0.6458558 0.07128502 -0.9737766 2.2594786 -1.0576216 -0.0052308845

bn1.weight f4 [64]
00000000: 05ee 9b3f 89b2 4f3f ba30 3a3f 1755 453f
00000010: 0f03 843f f1f7 413f bf79 713f 5ab7 4f3f
00000020: 9e81 863f b785 773f 97ec 343f 7d17 413f
00000030: af11 aa3f 5700 5a3f 636b 323f 96b1 8c3f
00000040: 9116 523f ea65 4b3f c555 7c3f e3e2 473f
00000050: 88d0 1b3f ab48 ad3f ee0f 1d3f f004 593f
00000060: e7d3 833f 1642 323f 9b7b 913f cf3b 313f
00000070: edc7 423f 8a07 203f 09bb 2c3f c7d5 823f
00000080: 4bbc 913f 371a 573f 4086 5f3f fada 273f
00000090: a153 633f 2349 093f 098f b93f cc53 483f
000000a0: 32b2 463f b32b 3f3f b75f 893f 9d54 433f
000000b0: ebc1 1c3f edbc 5e3f 2bff 7f3f 85af 763f
000000c0: 5a9a 4b3f b2e1 043f f6d3 283f 51b9 503f
000000d0: bcbb 623f 0252 4c3f ef83 493f 6874 923f
000000e0: 4dd5 653f 1f0d 4c3f 1dee 3a3f 44d7 4c3f
000000f0: 198c 333f 93f8 643f dd01 813f 0091 603f
1.2182013 0.811318 0.727306 0.7708296 1.0313433 0.75768954 0.94326395 0.8113915
1.0508306 0.9668841 0.7067351 0.75426465 1.3286647 0.8515677 0.6969511 1.0991695
0.82065684 0.79452384 0.98568374 0.78080577 0.6086507 1.3537802 0.6135243 0.8477316
1.0299042 0.6963209 1.1365846 0.69231886 0.7608631 0.62511504 0.67472893 1.022149
1.1385587 0.84024376 0.87314224 0.65568507 0.8879948 0.5362722 1.4496776 0.78252864
0.77615654 0.74676055 1.0732335 0.76300985 0.61233395 0.8700703 0.9999873 0.9636157
0.79532397 0.51906884 0.65948427 0.8153277 0.8856771 0.79812634 0.7871694 1.1441774
0.89778596 0.7970752 0.7301958 0.8001597 0.7013565 0.89441794 1.0078694 0.8772125

bn1.bias f4 [64]
00000000: 47cf e1be 69ae 6cbe f6f0 04bf a5f3 933c
00000010: 7636 113f 134b 993e d4e2 e2be 48fd ebbd
00000020: 5692 46be feb7 40be 9c39 473c 64d4 dcbe
00000030: 733d e93d 75e9 cd3e 6a64 7ebe ae1e 57be
00000040: 7da5 9cbc 4103 dbbd cdb1 e33c f0f5 6ebf
00000050: b227 74be 2116 283f ce32 1ebe f243 383d
00000060: 5145 923d 025f 8bbd 3fa5 06be 63f6 f5bd
00000070: 5ff3 6cbd b377 5bbe 70ca fcbe 2128 32bf
00000080: 3740 d53c 3f2f 8fbe 0e97 efbe bfe8 813e
00000090: b2f6 283c 2d1e 28be f0cd 553e e4f8 61be
000000a0: ab96 8dbd 569d f3be 0bce 34bf c0a2 a4bd
000000b0: a4e7 31be e70b f3bc 5385 48be e69e 083f
000000c0: fdac 2cbe a270 2ebe b773 2cbf ce90 da3c
000000d0: c68f 733e f030 a8be 53c9 a83d a0b0 86be
000000e0: 2c9b 2dbe 7f28 11be 6b23 2a3e f3d6 66be
000000f0: 2c06 64bd a7b2 35bd ecdd 033e 1500 943e
-0.44103453 -0.23113407 -0.5193018 0.018060515 0.56723726 0.2994009 -0.4431368 -0.11522919
-0.1939176 -0.18820187 0.012159731 -0.4313079 0.11388674 0.40217176 -0.24842992 -0.21007797
-0.01912188 -0.1069398 0.027794743 -0.9334402 -0.23843268 0.65658766 -0.15449068 0.044986673
0.07142127 -0.06805231 -0.13148974 -0.12009885 -0.057849284 -0.2143238 -0.49373198 -0.6959248
0.026031597 -0.27965733 -0.46794933 0.25372884 0.010312723 -0.16417761 0.2087934 -0.220676
-0.06913503 -0.47580975 -0.70626897 -0.080388546 -0.1737352 -0.029668761 -0.19582109 0.5336746
-0.16862865 -0.17035154 -0.67364067 0.026680376 0.23785314 -0.32849836 0.082415245 -0.2630663
-0.16953725 -0.14175604 0.16615073 -0.22542934 -0.05566995 -0.04435983 0.12877625 0.28906313

bn1.running_mean f4 [64]
00000000: 2e58 93c0 f350 5d41 845b 1643 ddb9 e7bf
00000010: 2c17 6341 47e7 6741 b2e5 bcc2 315a 2741
00000020: 3c71 7fc0 b623 84c1 872a 13c2 7173 8cc2
00000030: eb9a 22c0 3267 6c3e 7a6e b941 08d5 4bbe
00000040: c35e 0dc3 1868 b641 4bed 20c1 aa34 e043
00000050: b485 3bc2 9ee8 5140 7dd6 54c1 1ef1 89c0
00000060: 41e7 1041 8704 14c1 528c 0bc1 4d71 bf42
00000070: 7a70 4443 ba31 9543 bb13 8342 2657 32c1
00000080: f1e3 c2bf a8ab 0340 b5d9 f8c0 ed0d 0dc2
00000090: b758 d743 8a3a 8dc1 d46c 9240 6d57 aa41
000000a0: 18ff fcbf a22d 0541 086f 3ac3 91e9 e740
000000b0: 3b56 56c1 865d 26c1 1f13 dac0 c6da 5641
000000c0: e05c bec0 d596 ecc2 5186 4241 5d51 acc1
000000d0: 100c a240 d6e9 15c1 e109 adc1 afdf a63e
000000e0: b24a e040 3369 0c42 adb4 80c1 2bf4 b0c1
000000f0: b607 8040 750b 4941 a607 e041 d147 ef3f
-4.604514 13.832263 150.35748 -1.8103596 14.193157 14.493964 -94.44862 10.459519
-3.9912863 -16.517437 -36.79153 -70.22547 -2.5407054 0.23086241 23.178944 -0.19905484
-141.37016 22.800827 -10.057933 448.41144 -46.88057 3.2798228 -13.302365 -4.3106833
9.056458 -9.251105 -8.721758 95.72129 196.43936 298.3885 65.538536 -11.146276
-1.5225812 2.057352 -7.7765756 -35.2636 430.69308 -17.653584 4.5757847 21.292688
-1.9765348 8.323641 -186.43372 7.2472615 -13.396052 -10.397833 -6.814834 13.4284115
-5.9488373 -118.29459 12.157792 -21.539728 5.0639725 -9.369589 -21.629824 0.32592532
7.009118 35.102734 -16.08822 -22.119223 4.0009413 12.565297 28.003735 1.8693792

bn1.running_var f4 [64]
00000000: 5464 bf41 c2da 2b43 51d3 9046 3941 a640
00000010: 193c 2442 1937 9543 d360 db45 4a9d c542
00000020: 7dd3 ba41 b7b4 b943 f95e 8744 d235 6545
00000030: 083e 3b41 9a5a de41 97ca 8b43 699c 5c42
00000040: 0684 7f46 ec33 b643 77c0 2840 2634 1c48
00000050: f2c5 e644 616c 1241 2aee 7142 1e77 4642
00000060: 0b9d 2342 f6d7 e542 73ee 3642 0dfd e845
00000070: 50c0 ee46 384b 8847 87ac 5c45 6add 6d42
00000080: 64bd bc41 2074 2142 03b2 9a42 88c1 8844
00000090: 4717 1048 b4c7 e442 14a0 8940 a817 d943
000000a0: 2144 b441 6202 3a42 351b dd46 0d0c 9442
000000b0: 0a0c f441 3ed6 d541 7956 5541 9629 0342
000000c0: a2fd aa42 2e3f 2846 d29c a841 7b1b 9242
000000d0: 7b63 7b41 9b26 ce41 4d23 c043 8932 a641
000000e0: a2e7 7642 b90a 3b44 2f71 ee41 f6a7 b243
000000f0: aeff 4842 f187 1643 251e ca43 c226 6540
23.923988 171.85452 18537.658 5.1954618 41.05869 298.43045 7020.103 98.807205
23.353266 371.41183 1082.9679 3667.3638 11.702644 27.794239 279.58273 55.152744
16353.006 364.40564 2.6367471 159952.6 1846.1858 9.15146 60.482582 49.616325
40.903362 114.9218 45.73286 7455.6313 30560.156 69782.44 3530.783 59.466225
23.592476 40.363403 77.34768 1094.0479 147549.11 114.390045 4.300791 434.1848
22.533266 46.502327 28301.604 74.02354 30.505878 26.72961 13.3336115 32.79061
85.49538 10767.795 21.076572 73.05367 15.711787 25.76885 384.2758 20.774675
61.726204 748.16754 29.805265 357.3122 50.249687 150.53102 404.2355 3.5804906

conv2.att_src f4 [1, 1, 32]
00000000: 7d40 87be be69 76be a068 8dbe cf08 c0be
00000010: b87b 4e3e 5b16 133f 3d46 bbbd fe2f 983d
00000020: 63fa 293e e9c1 9c3f 1df8 ffbe f4db 0e3e
00000030: ceb6 74be d2fa fb3d 73f7 a9be eb05 0ebf
00000040: f40e 213e 0e4a fd3e b30c a23e e47b a53d
00000050: f090 d8be 46de a03d 5e56 40be f816 993e
00000060: 6b04 0bbf 9f31 db3e 9d54 b9be 13b4 05bf
00000070: 4bf6 403e cb1d bb3b c40e 7bbd 0e23 283f
-0.26416388 -0.24063775 -0.27618885 -0.3750672 0.20164382 0.57455987 -0.09144256 0.07431029
0.16599421 1.2246677 -0.49993983 0.13951093 -0.2389786 0.123036996 -0.331966 -0.5547778
0.1572836 0.49470562 0.31650314 0.08080271 -0.4229808 0.07854895 -0.18782946 0.29900336
-0.54303616 0.42811295 -0.36197367 -0.52227896 0.18843953 0.0057103387 -0.06129338 0.6567849

conv2.att_dst f4 [1, 1, 32]
00000000: 9601 53be 57a4 033e 50ae 6c3e 878a e1bd
00000010: ac66 6bbe 88c7 e63d 46e1 4abf b793 333f
00000020: 49a4 233f d9e7 353f f59e b6be c9f3 31bf
00000030: 8c72 b3be 4808 533d 73d9 3bbf 1556 ffbd
00000040: f0fa d8bb a980 4e3f 4589 773f cf62 e4bc
00000050: 5f6c bbbe 8163 55be e772 913e 66f2 a5bd
00000060: 28a4 17be c2fb b03e 82da 7b3e da11 dabd
00000070: ac45 a6be 2d2a 383e f639 ecbb b7a9 cd3e
-0.20606074 0.1285566 0.2311337 -0.1101275 -0.22988385 0.11268526 -0.7924999 0.7014727
0.63922554 0.71056896 -0.3566815 -0.6951261 -0.3504833 0.05152157 -0.73378676 -0.12467591
-0.006621711 0.8066507 0.9669383 -0.027879147 -0.36606118 -0.20838739 0.28407976 -0.081028745
-0.14808714 0.34567076 0.24595073 -0.10647936 -0.3247503 0.17984839 -0.007209058 0.40168545

conv2.bias f4 [32]
00000000: aef5 b3bd aaa6 afbd 6df6 dbbd 535f f5bd
00000010: 6c9f 86bc eeba 80bd 6af0 183c 3087 97bd
00000020: 062f 3cbd e709 46bd 6e91 b6bd fd13 d93d
00000030: c117 afbc 5167 453d 6a55 3b3a f6cd 4c3e
00000040: 4d88 fcbc 4f3a e23d 0752 533c a611 1abc
00000050: 3bd2 d1bd 20ce 9ebd 982f 39be bdea 2a3e
00000060: f94a 13be 3137 85bc b49c d63c 9568 28bd
00000070: abf2 0f3e 91f8 f73d 48d2 bb3c e4a6 02bd
-0.08787094 -0.085767105 -0.10740361 -0.11981072 -0.01643344 -0.06285654 0.009334663 -0.07398832
-0.045943283 -0.048349287 -0.08914457 0.105995156 -0.021373631 0.048194233 0.00071462116 0.20000443
-0.030826712 0.11046278 0.012897975 -0.009403622 -0.102451764 -0.07754159 -0.18084562 0.16691108
-0.14384069 -0.016261669 0.026197769 -0.041115362 0.14057414 0.12107957 0.022927418 -0.03189744

conv2.lin.weight f4 [32, 64]
00000000: 0217 8d3e c21a dc3d d7b9 b3bd 0b05 40bb
00000010: 6fd5 913e 155a b7bd 001c 003e ae80 1bbe
00000020: d0f3 48be fc36 8dbe 0048 223e 7bae c93d
00000030: 6430 603e 3ad3 d53b 51e5 c9be 8129 793e
00000040: 30ab 453e 7d9a 8fbe 343f 35be 27d1 83bc
00000050: bde1 253e a967 d03e 3a34 49be 4501 fa3b
00000060: 1f9b e53d 45e2 233e cf04 623d 9285 44be
00000070: 806f 253d 1863 3fbe 41e4 d53e 0254 423f
00000080: d613 323d 5470 ad3c 9a9d 9e3e cb0a 883e
00000090: b717 03be 0142 3ebe 86e6 773e 51a5 43be
000000a0: 36a9 75be 1f64 9f3d 1f9d e23e de21 eb3d
000000b0: 6a8a 23be 5732 9a3d ff41 0d3d 60ed ba3d
000000c0: 4b0e ecbd e916 e23c 723c 073e 599d 32be
000000d0: 9f07 72be cf70 a9bc b97a 1cbe 6731 23be
000000e0: 9cff 59be b266 fcbd dce1 cb3c 312d 0f3e
000000f0: 829c 2b3e d184 8a3e 4e96 b23d b5ef 25bd
00000100: 940c cfbe 8c72 6cbe e32d 2dbe 054e 0cbe
00000110: 46e2 6ebe ac54 93be 9c37 a33d 2e51 5ebe
00000120: 5e7c b5be ff25 5bbd 4aa1 c2bd 455b a8bd
00000130: 496f 70be ce3b 073e cd0d 49be 2126 b7bd
00000140: 9e4c efbd 109c 033e 7fc9 cf3d e7bb cf3e
00000150: 9d52 86bd 33b3 21bf b32d aabd 02b7 2e3e
00000160: 396d c9bd babb 463e 5e75 8ebe 9072 c5bc
00000170: 73ff b93d b966 57bc 6a9a 45be 1d6c f63c
00000180: 8157 353e b032 d93d d5f5 1c3d 00e1 ff3d
00000190: 84ef bc3a 97c6 8d3d bdcd c03b 872d 3d3e
000001a0: c42f 9d3c b87a ae3d 86bf e23a aac6 8b3c
000001b0: 217d 1e3e c49e 943e 245c 3d3e 6370 8dbe
000001c0: 4f2d 35be 6d72 08be a91a 6d3e e9f6 ffbb
000001d0: 6df5 abbd a483 223d fec2 063d 60a3 5ebe
000001e0: 5caf 11be b7f3 ffbd 6e53 e93d 80cb 43be
000001f0: 2d6e d0bd 5540 6b3c f7fc 35be 2845 38be
00000200: 23e5 0e3f a903 9cbe fde9 37be ad14 953d
00000210: 143b 01bd 02f2 b33e 4828 823e 4eec b53d
00000220: ba9e 4e3e 7387 ebbd 3f64 073e 856c afbc
00000230: be1e 963d 3d24 1dbe 14ec 7f3d 1b40 033e
00000240: 4c30 b0bd 4c0c c5bd 616f fdbd d4ae 53be
00000250: 5d23 0ebe 491f 8d3e 46a1 c13c 75bd 3c3e
00000260: 7145 a7bc 53b9 85bc cb55 5c3e 62e7 b73d
00000270: 51e6 88be db4a fb3d 8d60 5e3e 50a5 353f
00000280: 667d 123c 9b7f 1d3e 9bf1 103f e81e 0ebc
00000290: 733e 993b fb67 2a3e a628 b9be 2242 003e
000002a0: d563 80be e6da b13e 5d7c 593f f222 b7bd
000002b0: fa37 e1bd bf79 1fbd 5620 1dbe a689 023e
000002c0: 23fb 31be 3a6a c9bb db0e 603d 0073 c5bd
000002d0: 0df2 723d 9aff 2f3c 645a 1d3e e057 9f3e
000002e0: 5db4 b7b9 cb0a 5abe 8682 96bc 78ab c5bd
000002f0: 408a 60be 15a8 11bd 0af0 1abe cc33 313d
00000300: 01b1 6cbe a1f6 093e 7a1a 693e 7ce2 1dbe
00000310: b152 88be b7ae 50be 3d68 70be e836 b5bd
00000320: 6559 443e 5b54 7cbe a9a4 39be 4c56 303e
00000330: 40a8 083f 136a 2bbe 17c8 1ebc fe06 3c3e
00000340: 7d70 8dbe 1986 1a3e f79a ca3d e179 cb3d
00000350: b7b0 05be 42cd 34be d7bd 803e df7b 80bd
00000360: 1100 a73e 24f5 173d ab87 cfbe 1440 473e
00000370: 738e 643e 4458 db3d 32d1 54be 5c44 df3d
00000380: 1ddb 70be 5ef3 823c 460e b5bd 279f 18bd
00000390: 17e4 913c 81fd fa3d 6679 8bbe b28b 843d
000003a0: 4223 803e ee2d 8e3d f47a 07be 6055 84bd
000003b0: b7f7 2cbd 82be b8bd 1ad9 94be 67d0 09be
000003c0: 0364 de3d fe57 4b3c 7c11 163e 15a9 af3d
000003d0: c910 ad3e 3391 35be fc7b c7bd 74b4 293e
000003e0: 7f81 59be 1b69 9ebd b056 0b3e 97da a2bd
000003f0: c314 eebc 5a82 b6be 2157 84bc 1b53 e83d
0.27556616 0.10747291 -0.087756805 -0.002929988 0.2848315 -0.08952729 0.12510681 -0.15185806
-0.19624257 -0.27581012 0.15847778 0.09847733 0.2189346 0.0065254243 -0.39432767 0.24332239
0.19303584 -0.28047553 -0.17699891 -0.016090943 0.16199394 0.40704086 -0.19648829 0.007629546
0.112112276 0.16004284 0.055180367 -0.19191578 0.040389538 -0.18690145 0.41775706 0.75909436
0.04347595 0.021171726 0.30979615 0.26570734 -0.12802015 -0.18579866 0.24209031 -0.19106032
-0.2399033 0.077827685 0.442605 0.11481069 -0.1597077 0.07529133 0.034486767 0.09127307
-0.11526164 0.027598815 0.13206652 -0.17442836 -0.2363572 -0.020683674 -0.1528119 -0.15936814
-0.21288913 -0.12324275 0.024887972 0.13982083 0.16758922 0.27054456 0.087200746 -0.040511806
-0.40439284 -0.23090571 -0.16912036 -0.13701637 -0.23328504 -0.28775537 0.07969591 -0.21710655
-0.35446447 -0.053503033 -0.0950342 -0.08220533 -0.23479952 0.13206407 -0.19634171 -0.089428194
-0.116845354 0.12852502 0.10145854 0.40573046 -0.06558726 -0.6316406 -0.08309498 0.17062
-0.09835286 0.1940755 -0.2782392 -0.02410248 0.09081926 -0.01314705 -0.19297186 0.03008085
0.17709161 0.10605371 0.03832038 0.12494087 0.0014414643 0.06922644 0.005883901 0.18474399
0.019187815 0.085195005 0.001729951 0.017062504 0.1547742 0.2902738 0.1849218 -0.27624807
-0.17693065 -0.133249 0.23154701 -0.0078114164 -0.08396421 0.039676324 0.032900803 -0.2174201
-0.1422705 -0.12497657 0.11392866 -0.19120598 -0.10177264 0.0143586 -0.1777228 -0.17995131
0.55818385 -0.30471542 -0.17960353 0.07279334 -0.031550482 0.35145575 0.25421357 0.08882962
0.20177737 -0.11500444 0.13221835 -0.02141405 0.07330082 -0.15345855 0.062481 0.12817423
-0.08602962 -0.09621486 -0.123747595 -0.2067216 -0.13880678 0.2756293 0.023636471 0.18431647
-0.020418854 -0.016323721 0.21517102 0.0897968 -0.26738217 0.12270137 0.21716519 0.7095537
0.00894103 0.15380709 0.5661866 -0.008674361 0.004676634 0.16641228 -0.36163825 0.12525228
-0.25076166 0.3473732 0.8495539 -0.08942212 -0.10997005 -0.038934465 -0.15344366 0.12747821
-0.17380957 -0.0061466964 0.054701667 -0.09641075 0.05931287 0.0107420925 0.15366513 0.3112173
-0.0003503886 -0.2129318 -0.018372785 -0.09651846 -0.21927738 -0.035560686 -0.1513063 0.043262288
-0.23114397 0.13472988 0.22764006 -0.15418428 -0.2662559 -0.20379148 -0.23477264 -0.08848363
0.19174726 -0.24641554 -0.18129219 0.1722042 0.5338173 -0.16739683 -0.00969126 0.18362042
-0.27624884 0.15090217 0.098928384 0.09935356 -0.13055693 -0.17656425 0.25144836 -0.062736265
0.32617238 0.03709902 -0.40533194 0.19458038 0.22319965 0.10710195 -0.20782927 0.109017104
-0.23521085 0.015985187 -0.08840613 -0.037261155 0.017808957 0.12255383 -0.27241057 0.06471957
0.250269 0.06942354 -0.13230497 -0.064615965 -0.042228427 -0.090207115 -0.29071885 -0.13458405
0.108589195 0.012411116 0.14655107 0.08577172 0.3380187 -0.1773117 -0.09740445 0.16572744
-0.21240805 -0.07734891 0.13607287 -0.07951849 -0.029062634 -0.35646325 -0.016154828 0.11343976

bn2.weight f4 [32]
00000000: fbe1 8c3f b1a0 b43f 1f67 a03f a9ed a13f
00000010: 9e15 a33f a551 b43f b2f7 603f 2386 a33f
00000020: bc30 933f 7524 8b3f 6828 a83f 9091 993f
00000030: 6bde 873f e9f8 ab3f e622 be3f 93d5 ab3f
00000040: 3d26 953f c39f b43f f8fe 9a3f 1f63 ac3f
00000050: f5ec 9e3f e65d bd3f 599d a63f 3a79 a53f
00000060: 4eef b93f 8fa2 773f 865b b23f b139 b03f
00000070: d4b5 a13f 8b69 8b3f 42d2 803f 44c9 a63f
1.1006464 1.4111539 1.253147 1.2650653 1.2740972 1.4087416 0.87877953 1.277531
1.1499248 1.0870501 1.3137331 1.1997547 1.0614752 1.3435336 1.48544 1.3424553
1.1652294 1.4111255 1.210906 1.3467749 1.2416064 1.479428 1.3016769 1.292762
1.4526155 0.9673242 1.3934181 1.3767606 1.2633615 1.0891584 1.0064166 1.3030171

bn2.bias f4 [32]
00000000: 09b9 d8be 0e60 13be f986 08bf 0917 923e
00000010: 8386 453e 2df6 74be 6f91 42bd 409f a3bc
00000020: 3ef1 0fbf a117 ee3e 4f9e d8bd 3b84 cd3d
00000030: 1efc 663e f0e6 053e b06e 9ebe 8e22 e2be
00000040: 3d14 2a3e f23f 4a3e 9a49 f03e 0897 ddbe
00000050: 4ad4 4e3e b421 afbe cb56 e53c d37d 19be
00000060: 1557 aebe 3e18 9a3d 727f 1fbd ef9a b03c
00000070: 15cf e3be 24be bbbe 6e04 15bf 8fe4 d33e
-0.4232867 -0.1439211 -0.5333095 0.285332 0.19289593 -0.23922034 -0.047501978 -0.019973397
-0.5622748 0.46502402 -0.1057707 0.100349866 0.22557113 0.13076377 -0.30943823 -0.44166988
0.16609283 0.19750956 0.46931154 -0.4327929 0.2019817 -0.342054 0.027995488 -0.14989404
-0.34050813 0.07524155 -0.0389399 0.021558253 -0.4449393 -0.36668503 -0.58209884 0.41385314

bn2.running_mean f4 [32]
00000000: 274f 3f3f 900d e8bf c17f 013f 63b7 fbbe
00000010: ef7c dd3f 85e8 e0bf 9fc3 8ebf 3756 96be
00000020: d4a5 21bf 7c94 78bd 7779 eebe 44fe 633f
00000030: 0fca a8bf cd80 afbf e875 25bf d971 dcbe
00000040: 6c31 0c3f ea69 553f c19a c23d 6df7 2bbf
00000050: 7cfb 363e 9350 c0be d196 a53f f50e 1cbf
00000060: c70c a1bf c854 87bf 2ff2 15bf 83c9 76bf
00000070: 4215 8bbf 399f f9be 34f3 6abd 47d0 113f
0.7473015 -1.8129139 0.5058556 -0.4916335 1.7303752 -1.7570959 -1.1153449 -0.29362652
-0.6314366 -0.06068848 -0.46577045 0.89059854 -1.3186663 -1.3711182 -0.64633036 -0.4305561
0.5476291 0.8336474 0.09502173 -0.67174417 0.17869371 -0.37561473 1.293665 -0.6096032
-1.2582024 -1.0572748 -0.5857267 -0.9640123 -1.0865862 -0.4875429 -0.057360843 0.5695843

bn2.running_var f4 [32]
00000000: 64c2 bd3e b607 7f3f d142 cd3e 84e0 e03e
00000010: 2677 d83f 3003 a83f b56e e440 5b7c a03f
00000020: b7a5 883f 5053 493f adc6 a33e 776f da3f
00000030: ad7c 3440 3d88 393f 6aad 063f e4ae a53e
00000040: ba56 3f3f f0f8 a63e eaa1 093f b0db 0e3f
00000050: cb4a b33e fb51 c03e 0802 893f fd4d 7c3f
00000060: e984 293f 03e0 3a40 b9ff 9a3e 508b b43e
00000070: 3ca4 193f bb2a 1e3f 2d76 733e 4e82 b03e
0.3706237 0.9962114 0.4009004 0.43921292 1.6911361 1.3125973 7.138514 1.253795
1.0675572 0.7864275 0.31987515 1.7065266 2.8201096 0.7247351 0.5260836 0.32359993
0.7474171 0.326118 0.53762686 0.55803967 0.35018 0.37562546 1.0703745 0.985565
0.6621843 2.9199226 0.30273226 0.35262537 0.60016227 0.6178395 0.23775549 0.34474415

fc.weight f4 [2, 32]
00000000: 3e8a 8a3d cfee e03e 093c 633e bc3b d2be
00000010: 2fcf 7f3e 25c9 153f 1d7b d0bc 0d4b a2be
00000020: d289 143f ecfe fbbd 2382 ee3e 249b bebe
00000030: ff84 3ebe ef93 c43e d8b9 1e3f d521 163f
00000040: 42d1 bbbe 68d2 e1be e473 e3be d12a 3b3f
00000050: 7e97 d5be c19e 1c3f 42ba e93e b9af e8be
00000060: 3511 303f 35ee abbd e8b6 7c3e 989a 8e3e
00000070: ad12 203f b0bd 923e 02fa 18be 7b7a aebe
00000080: 3af0 9ebe 344f 00bf 562b f2be c728 8f3e
00000090: f649 c3be ebeb 24bf eec3 e53d 165a cc3e
000000a0: 463a dbbe a463 bf3e 7f2d 9dbe 881f 2f3e
000000b0: 62bb 0a3e 0fe2 b1be 13ef 37bf eca9 1ebf
000000c0: 4e9d 183e 27d9 023f e836 3a3e e33d 0ebf
000000d0: 07f1 783e 316e 2dbf 7199 e3be 6d12 e03e
000000e0: 27e0 39bf ba55 8a3e 4a0a 08bf ecf3 cfbe
000000f0: 06ea 17bf 8e0b ccbe 95ce 963e 8f2e fe3e
0.06764649 0.43932196 0.2219087 -0.410612 0.24981378 0.5851005 -0.02544933 -0.31697884
0.580228 -0.12304482 0.4658366 -0.37227738 -0.18605421 0.38394114 0.62002325 0.58645374
-0.3668309 -0.4410584 -0.44424355 0.7311221 -0.41717142 0.6117974 0.45649916 -0.45446566
0.68776256 -0.08395044 0.24679148 0.2785232 0.62528497 0.28660345 -0.1493912 -0.3407782
-0.31042653 -0.50120854 -0.47298688 0.27960798 -0.38142365 -0.6442248 0.11219011 0.3991248
-0.42817897 0.37380707 -0.30698773 0.17101872 0.13548043 -0.34742782 -0.71849173 -0.6197803
0.14903757 0.511126 0.18185008 -0.5556318 0.24310695 -0.67746264 -0.44453004 0.43764058
-0.72607654 0.2701853 -0.531407 -0.40615785 -0.59341466 -0.39852566 0.29454485 0.49644896

fc.bias f4 [2]
00000000: b1c1 e7be c28d bc3e
-0.45264962 0.36826903
