models/booster/best_models/3-4.pth (torch, 50042 bytes, 18 tensors)

conv1.att_src f4 [1, 1, 128]
000000 49 9d 18 3f 9e 93 40 3e 1b 53 76 3f ac 18 86 3e
       0.59615 0.18806311 0.9622056 0.26190698
000010 bb fa 9b 3e 1e bb c0 be 83 ca cb 3d 9c fe 84 be
       0.3046473 -0.3764276 0.099507354 -0.25975502
000020 71 a0 86 bf 9e 5f 6a 3e 92 44 ec bd 0e 75 98 3e
       -1.0517713 0.22888038 -0.11536516 0.29776806
000030 08 75 c2 bf 31 bd 2d bf 23 7b 2d bf d0 ed b4 3e
       -1.5191965 -0.6786681 -0.67766017 0.35337687
000040 f3 c3 1f bc 40 bc bb 3e dc ef fd be c3 46 06 bf
       -0.009751308 0.3666706 -0.4959706 -0.52451724
000050 c0 e3 f5 3e 4f ac bf bd 79 e6 e8 be e6 17 38 be
       0.48025322 -0.09359037 -0.45488337 -0.17977867
000060 7c b3 0e be d8 a6 a3 3e 17 d3 f0 3d c1 51 ae 3e
       -0.13935655 0.3196323 0.11759012 0.34046748
000070 9a 29 ac be 93 c5 04 40 86 29 ca 3e ae fa cc be
       -0.3362549 2.074559 0.39484805 -0.40035003
000080 ba 52 68 3e f0 3d c6 3e 1b db 18 be a7 ad 77 bd
       0.22687808 0.3871913 -0.14927332 -0.060468342
000090 40 29 8d be 5e 93 12 c0 4b f2 ac be 46 80 12 bf
       -0.27570534 -2.2902446 -0.33778605 -0.5722698
0000a0 2b 7c 03 be e0 99 03 bf 38 60 ec 3a b3 f3 e6 be
       -0.12840335 -0.5140667 0.0018034047 -0.45107803
0000b0 82 12 bd 3f 93 f4 9e 3e e0 e5 1a 3e ce 25 7c bd
       1.4771273 0.3104597 0.15126753 -0.06155949
0000c0 8d b0 88 3e 9d 19 1f c0 f5 9d 86 3f 80 fa a6 be
       0.26697198 -2.4859383 1.0516955 -0.3261299
0000d0 58 59 87 3e 11 9c 06 40 3d 17 88 3e 37 63 8e be
       0.2643535 2.1032755 0.2658023 -0.2781007
0000e0 d4 89 e4 3d 21 14 01 bf 90 2b c7 3d 63 72 3a 3e
       0.11159101 -0.5042134 0.09725106 0.18207698
0000f0 ac 21 1a bf 72 af 14 c0 f3 db 41 3f 4c 51 be 3e
       -0.6020763 -2.3232083 0.7572624 0.371714
000100 bb 43 36 bf be 3f 37 3e ea 6f 3a 3f d1 bb eb bd
       -0.711971 0.1789541 0.7282702 -0.115104325
000110 08 f2 f9 bc 7d c0 a9 3e 5f d4 de 3f 1d 7f 19 bf
       -0.030510917 0.3315467 1.740856 -0.59959584
000120 75 24 c9 3e af 38 9c 3f a7 05 a4 3d 0f bb e1 be
       0.39285627 1.2204798 0.080088906 -0.44088027
000130 be e7 e4 3e 86 66 1b 3e 88 5b f8 be 7b ce ac 3e
       0.44708055 0.15175828 -0.48507333 0.33751282
000140 f2 78 6c be 66 4f 12 3f 8d 65 03 be 2b bf 83 be
       -0.23093012 0.571524 -0.12831707 -0.25731787
000150 f6 e2 9a be 66 13 43 be aa 89 8e be 0e a8 9a be
       -0.30251282 -0.19050369 -0.27839404 -0.3020634
000160 63 47 89 bd 2a 4e a7 be c3 80 b8 bd ef 24 c2 3e
       -0.06703069 -0.32676822 -0.09008934 0.37918803
000170 bf af 92 3e 31 c2 5d 3f 4a 06 db 3e 36 34 57 be
       0.2864971 0.8662444 0.42778236 -0.2101601
000180 d3 3a bb 3d 5b c1 95 bd d9 3f 78 bd 6c b4 07 3e
       0.09142079 -0.0731227 -0.060607765 0.13252419
000190 c9 2e 31 be 14 46 ab 3f 99 fa 1e be 11 41 81 bf
       -0.17303003 1.3380761 -0.15525283 -1.0097982
0001a0 3d 73 9e 3f 77 03 9e be 79 d4 38 be c7 e3 b4 be
       1.2378918 -0.30862018 -0.18049802 -0.3533003
0001b0 db da 63 bf 4c 4d 69 be b6 10 91 3e 75 65 98 bd
       -0.8900582 -0.22783393 0.28333062 -0.074412264
0001c0 8d b9 b3 3e 6f 10 09 bf 75 0a 19 bd 19 69 a1 3e
       0.35102502 -0.535407 -0.03736349 0.31525496
0001d0 ce f1 15 3d cd 48 49 be b5 de 80 be 7f c8 23 bf
       0.036607556 -0.19656678 -0.25169912 -0.6397781
0001e0 89 a3 a6 be 1d eb 5f be c5 b5 e9 be fc cc 93 be
       -0.32546642 -0.21867032 -0.45646492 -0.28867328
0001f0 6c 90 4f bf 7c 85 89 be 0f 7b 3d bc a7 4e 88 3f
       -0.81079745 -0.26859653 -0.011564984 1.0649003

conv1.att_dst f4 [1, 1, 128]
000000 19 2e 85 bd 1e d9 0d 3e d4 dc 76 3e 73 97 92 3e
       -0.06502933 0.13852355 0.24107677 0.28631172
000010 92 f3 7d be d8 a7 10 3e 8a 75 88 be 89 35 9e 3e
       -0.24799946 0.14126527 -0.26652175 0.3090022
000020 09 5e 0b bb 4b 60 84 3d 9f 3c 4e bd 45 b8 02 be
       -0.0021265766 0.06463679 -0.05035078 -0.12765606
000030 c5 4d 2c be ba 43 aa bd f1 25 fb bd 79 05 aa bd
       -0.16826542 -0.08313699 -0.12263096 -0.08301825
000040 35 d5 8d 3d ef a3 a9 3e 8c 1d 75 3e 62 69 05 3e
       0.06925432 0.33132884 0.23937052 0.13028482
000050 bd e1 14 3e 0b b1 5f be 7e c9 47 be f9 9e 69 bb
       0.14539237 -0.2184488 -0.19510457 -0.0035647734
000060 32 8d 14 bd 9a 47 49 be ad 6d 38 bd f2 4b 56 be
       -0.036267467 -0.1965622 -0.04502647 -0.20927408
000070 ca 16 23 3e d1 45 f8 bd 07 d2 af 3c 81 a4 0a be
       0.15926662 -0.121226914 0.021462454 -0.13539316
000080 2d 77 1e bd 91 a7 3f 3e e0 d4 25 3e 6b b1 0c 3e
       -0.038687874 0.18716265 0.16194487 0.13739555
000090 9b 3b ea 3d b8 dd 14 3e 56 9c a7 3e 8c e7 29 3e
       0.1143715 0.14537704 0.32736462 0.16592234
0000a0 63 fc 3c bd 2b ee b9 3c 1d b8 d0 3d 1d 4a e8 3c
       -0.046139132 0.022696575 0.10191367 0.028355652
0000b0 20 53 11 3b 27 45 9a 3e 61 90 62 bb b1 b7 17 3d
       0.002217479 0.30130884 -0.003457092 0.037040416
0000c0 49 d0 b1 bd 3b f4 3b 3e 26 c6 a4 be 11 3d b7 bd
       -0.08682305 0.18354885 -0.32182425 -0.08947194
0000d0 5b ea 80 bc 49 92 1e 3e ee ac 5f bc 37 d0 3d 3e
       -0.01573675 0.15485491 -0.0136520695 0.18536459
0000e0 36 95 68 3e 8a 5b 5e be 99 4c ce bc 57 e5 cc bc
       0.2271317 -0.21714607 -0.025183009 -0.025011702
0000f0 43 7a aa 3d da 8e ad be d8 52 50 3e d0 3b 13 3e
       0.08324101 -0.3389805 0.20344102 0.14378285
000100 21 42 01 be 97 5f 3c 3e be 8f 68 3e c8 74 28 3e
       -0.12622882 0.1839584 0.22711083 0.16450799
000110 64 d4 b0 bd d0 35 fc bc b1 5a 56 3e f6 46 02 bd
       -0.0863426 -0.030787379 0.20933034 -0.031805955
000120 b7 4f 31 3d e7 03 05 3e 41 66 d3 be 06 ea 94 be
       0.043288913 0.1298977 -0.4128895 -0.29084796
000130 96 2f 9e 3d d7 5e 13 3e df 38 8e 3c ec fc de 3c
       0.0772392 0.14391647 0.017361103 0.027220212
000140 9d 20 9e bd fa db 0b be 95 03 ca 3d c2 12 10 be
       -0.07721064 -0.13658133 0.098639645 -0.14069656
000150 d9 33 8a 3d 70 02 89 be 16 20 13 3e 92 b5 54 3e
       0.067481704 -0.26759672 0.14367709 0.20772389
000160 21 ac 36 3e 19 6a 5b be a0 b6 51 3d 8a 4e 6c 3d
       0.178391 -0.21427192 0.051199555 0.05769209
000170 ef fa 52 3e 3f aa 7f be ca 28 90 3e 89 7e 63 3e
       0.20603536 -0.24967287 0.2815612 0.22216238
000180 fc dd eb 3d 7b 1f 2a bd e0 18 1d 3e 7d 76 32 3e
       0.115169495 -0.04153393 0.1534152 0.17428012
000190 4f 96 8b bc 75 f7 0e be 15 9f 58 3d eb da 16 be
       -0.017039446 -0.13961585 0.052886087 -0.14731948
0001a0 a7 eb 77 be e7 1e 87 be 63 0f 2a bd fb 08 30 bd
       -0.24210988 -0.26390764 -0.04151858 -0.042977314
0001b0 99 ff 8c be 9c e8 0a be bf ac a9 3d 2d 95 73 be
       -0.27538756 -0.13565296 0.08284902 -0.23787375
0001c0 0f 91 7e 3e b9 8f 80 bd 7e fb 53 3d 5c 3c 35 be
       0.24860023 -0.06277413 0.051753514 -0.17698807
0001d0 52 03 2c bd a9 7f 87 be b3 03 9a bd 06 34 97 3e
       -0.041995354 -0.26464584 -0.07520237 0.29531878
0001e0 6b cd 00 be f3 83 97 3e 71 b3 3e be fb 7d b9 3d
       -0.1257836 0.29592857 -0.18623139 0.09057232
0001f0 ac 64 02 3d bb e2 8d 3d 8a e7 8d 3e 43 98 37 bd
       0.03183429 0.06928011 0.27715713 -0.044822942

conv1.bias f4 [128]
000000 3c 7e 0a bb 95 33 0b 3b e5 9e 3d 3d 8a 82 40 bc
       -0.002113237 0.0021240462 0.04629411 -0.011749873
000010 19 21 49 3a 94 a4 90 3c 52 34 a8 ba 0f ef 08 bc
       0.00076724734 0.017656602 -0.0012832975 -0.008357777
000020 5e 03 19 3c 14 a0 34 bb ce c1 99 bb 71 02 8f bb
       0.009339182 -0.0027561234 -0.004692293 -0.0043643047
000030 ea eb 0f 3a 8c 4c 10 bc 87 97 13 3c 79 2c b8 3a
       0.0005490171 -0.008807313 0.009008295 0.001405134
000040 3a 79 1c 3c c3 15 51 bb 53 5a d2 bc 88 47 61 3a
       0.009550387 -0.003190384 -0.025677836 0.0008593728
000050 bd 14 58 3a 0f 59 45 bc 00 a0 34 3a c4 8d 5b 3a
       0.00082428363 -0.012045159 0.0006890297 0.0008375312
000060 d6 28 66 bc 98 ec 44 3d 98 c7 0b bb f3 e8 bf bb
       -0.014047822 0.048077196 -0.0021328684 -0.005856627
000070 f1 06 dd bb d5 5a d6 39 bd 7f bb bc a5 61 28 3a
       -0.0067452122 0.00040884936 -0.022888059 0.00064232416
000080 a1 fe 29 bc 5b 63 73 bb e2 fa 1b 3c 43 43 45 bd
       -0.01037565 -0.0037138078 0.009520264 -0.04815985
000090 9e 1e 01 bb 2a 21 92 b9 c4 72 2d 3a df 92 3f 3b
       -0.0019702087 -0.00027872 0.00066165277 0.002923183
0000a0 96 93 46 bd e0 51 af ba 3c be 7d bd ce c9 02 bb
       -0.048480593 -0.0013375841 -0.061949 -0.001995671
0000b0 65 9d 2d ba c1 1c c0 3b 53 1a 18 ba ba 8e 73 3c
       -0.000662288 0.0058628027 -0.00058022625 0.014865572
0000c0 17 98 4c bb 0b 69 db b8 7e 6d 37 39 0f 77 3d bb
       -0.0031218582 -0.000104622995 0.00017493029 -0.0028910076
0000d0 0e 67 1d bb c7 94 6a 3c 83 13 99 ba da 18 8c 3b
       -0.0024017724 0.014317698 -0.0011678789 0.0042754235
0000e0 e9 5e 14 3c 19 f1 81 3b 57 3d 29 ba db f3 55 bc
       0.0090558315 0.0039655087 -0.0006455979 -0.013058628
0000f0 98 03 90 3a e8 7e e4 3b ca 53 9f bb c0 4a 3a bb
       0.0010987399 0.006973136 -0.0048622834 -0.0028425902
000100 76 a1 28 3b 4f a2 03 3c 39 15 21 3c b6 4e 3f bc
       0.0025731004 0.008034303 0.00983172 -0.011676481
000110 cc ba 2d bd de ce 14 bc ee 32 1f 3b 1d 7c 2f bc
       -0.04241447 -0.009082524 0.002429183 -0.010710743
000120 09 fd b1 bb f7 7f 52 bb 32 f8 fd ba 4d 1d 96 3b
       -0.0054317755 -0.003211973 -0.0019376336 0.0045811296
000130 82 d0 e8 bb 2c 5e f0 3a be 9d 8f 3b 14 ff 2d bb
       -0.007104934 0.0018338612 0.004382818 -0.0026549743
000140 e7 b0 b3 3a 5a 34 74 bc 0a b6 fb 3c 91 47 01 bc
       0.0013709337 -0.01490506 0.030726451 -0.007890598
000150 83 d5 93 b8 46 42 8e 3c d8 26 07 3d df dc 69 bb
       -7.049276e-05 0.017365586 0.03299603 -0.0035684628
000160 89 0b 5a bd 48 59 14 bc 69 19 52 bd 22 b2 0b ba
       -0.053233657 -0.009054489 -0.051293764 -0.0005328973
000170 72 e8 9c b9 09 20 28 ba 10 71 52 b8 ab b8 97 3c
       -0.00029927824 -0.0006413465 -5.01732e-05 0.018520674
000180 af f0 82 bb a8 f9 b2 bb c8 e9 06 3d 1c fe 19 bc
       -0.003995977 -0.0054618903 0.032937795 -0.009398963
000190 95 37 ee 3b 60 79 9a 3b ee 75 c2 3b 4a 12 ab 3a
       0.0072698095 0.004714176 0.0059344685 0.0013051715
0001a0 56 37 f9 3b 78 16 88 3b 6a a4 f2 ba c4 47 66 bc
       0.0076054735 0.004153069 -0.0018512134 -0.014055196
0001b0 26 69 33 3a 4f 3a 2f bd 79 41 e0 b9 d0 43 ae bc
       0.00068439764 -0.042780217 -0.0004277339 -0.02127257
0001c0 14 e9 c8 39 b0 8b ce 3b cc ad 0f bc 9c a3 5f 39
       0.0003832063 0.006303273 -0.008769464 0.00021327886
0001d0 9e 61 97 bc 85 bc b6 3b 81 92 64 3b 4b 4a 7a ba
       -0.018479165 0.0055766725 0.0034877362 -0.00095478137
0001e0 a4 49 c1 3b 37 0f de 3a e1 2c 48 3a 62 78 99 3d
       0.005898671 0.001694179 0.0007636082 0.07493664
0001f0 6f 94 f4 39 1e 54 49 ba 28 53 5a bb 08 a5 e7 3a
       0.00046649898 -0.0007680076 -0.0033313725 0.0017673085

conv1.lin.weight f4 [128, 12]
000000 a9 37 42 3e 6b 7e 60 bc e5 2b 5c 3d 46 5c 05 3e
       0.18966545 -0.013702015 0.0537528 0.13023481
000010 85 10 f0 bd 38 31 99 be ad 08 da bd 80 71 74 bd
       -0.11721901 -0.29920363 -0.10646186 -0.059678555
000020 e0 c9 7a be 35 45 78 bf b8 36 f8 bc e3 c5 b7 40
       -0.24491072 -0.969806 -0.03029953 5.742906
000030 ff 2d dc 3c 04 41 8b be 0b af bc 3c bb 7c c5 bc
       0.026877401 -0.2719804 0.023032686 -0.024107328
000040 66 2a 43 3f f4 cc f9 be 03 0e 9a 3e c6 1a 1e bd
       0.7623657 -0.4878918 0.30088815 -0.038599752
000050 06 5c 68 3c ec 77 90 bf 8a 12 82 be 21 6f 97 40
       0.014182096 -1.1286597 -0.2540477 4.7323155
000060 96 7e 0b 3e 81 88 ca be 8b 40 c0 3d c1 25 17 bc
       0.13622507 -0.3955727 0.093873106 -0.00922531
000070 74 d7 6e 3e ce 8a ef 3f a3 26 cf bc 9d b3 f1 bc
       0.23324376 1.8714235 -0.025286978 -0.029504592
000080 82 4c 62 3e d9 ac a1 bf f4 4d 03 3d 19 52 de 40
       0.22099498 -1.2630874 0.032056764 6.9475217
000090 28 91 25 be b7 fc 38 be df c9 f1 bd 8c db 80 3c
       -0.16168654 -0.18065153 -0.11806082 0.015729688
0000a0 d3 e5 2f 3f df 56 8f be c1 3e cf 3e fe 3f 34 3e
       0.6871006 -0.27995965 0.40477565 0.17602536
0000b0 91 30 27 3e 8c 33 9e bf 29 73 9c be 1c 1a aa 40
       0.1632712 -1.2359481 -0.3055661 5.315687
0000c0 38 f9 ac bd 73 24 fc bc 9b 6a ac bd f8 ef c9 bd
       -0.08445972 -0.0307791 -0.08418771 -0.098602235
0000d0 8d 28 d9 be 6e 31 10 be 83 e7 d4 bd 90 71 04 be
       -0.4241375 -0.14081356 -0.1039572 -0.12933946
0000e0 73 78 76 3e 83 bf 76 bf 4d 18 4b 3e db 5b ad 40
       0.24069385 -0.96385974 0.19833489 5.417463
0000f0 f2 d1 03 be 49 7e 48 be a2 be c2 3c 71 91 b3 3c
       -0.12873057 -0.19579424 0.023772541 0.021919938
000100 7b e8 fb 3d 40 fd 06 40 bb 99 f5 3b c0 c5 2a 3e
       0.123002015 2.1092072 0.0074951327 0.16676998
000110 53 c9 2b bd c8 b4 99 3f 85 7b 2d be 26 f7 98 c0
       -0.041940045 1.2008295 -0.1694165 -4.7801695
000120 92 8d fe 3c 9f 40 e4 3e 52 26 30 bc 2c 5e 9a 3c
       0.031073365 0.44580552 -0.010751324 0.018843733
000130 77 76 2e bd a7 4d b1 3e 7e 36 af bd e7 7b 81 3e
       -0.042593446 0.34629557 -0.085553154 0.25289842
000140 01 a4 2b bc 5a 9d e5 be 39 60 84 3d 82 bb d4 3f
       -0.010476113 -0.44846612 0.064636655 1.6619723
000150 20 5e 47 be d1 df 14 bf 5d 8e ba be 78 96 62 3d
       -0.194695 -0.58154017 -0.3643674 0.05531928
000160 16 56 ba 3e 1b 30 99 3f 86 23 63 3e 56 d4 16 3b
       0.36393803 1.1967806 0.2218152 0.0023014746
000170 e6 6d e6 3e 7c e5 74 3f c5 8c 7f be 72 53 a9 c0
       0.4500572 0.95662665 -0.24956043 -5.291436
000180 87 76 02 3e f6 ab 4f 3e f7 9d c2 bc b5 ea 88 3c
       0.12740527 0.20280442 -0.023756964 0.01671348
000190 4c 86 66 3f 77 6f 1c bf 54 2e a8 3e b1 e3 0c bc
       0.9004867 -0.6110758 0.32847846 -0.008599208
0001a0 b2 a9 87 be 59 90 ac 3f 4c 87 47 be db f6 e1 c0
       -0.26496655 1.3481551 -0.19485205 -7.0613837
0001b0 ea a7 9f 3d f7 e9 05 3f 61 a0 92 3e 2c 22 85 3c
       0.07795699 0.5231013 0.28637984 0.016251646
0001c0 e7 d8 b8 3e e6 2e 8b bf 49 c0 51 3d ee 0b b5 3d
       0.36102983 -1.0873687 0.051208768 0.08840166
0001d0 6d fd 3f 3e e8 bb 51 bf 45 88 11 3e 14 b1 9e 40
       0.18749018 -0.8192735 0.14212139 4.959116
0001e0 82 5a 00 3e e6 34 fc bd 40 27 6d 3e 67 94 a8 3c
       0.12534526 -0.12314777 0.23159504 0.020578576
0001f0 06 3d d5 3d 80 47 18 be dd 3e 58 3e 85 d5 9c 3b
       0.1041203 -0.14871025 0.2111773 0.0047861957
000200 fd 19 28 3f ec 18 14 3f c0 1a 44 bf b9 ea e2 bf
       0.65664655 0.5785053 -0.7660332 -1.7727882
000210 88 ec 00 3e c3 ba b2 3d 22 f2 09 bd 46 07 b2 3d
       0.1259023 0.08727028 -0.03367818 0.086927935
000220 01 ef a2 3d 8e 0a e3 3d 07 37 89 be 07 cd 4f bc
       0.079557426 0.110859975 -0.26799795 -0.01268316
000230 a9 c0 94 3d ad ce 74 bf 70 0b ab 3b fc ca b1 40
       0.072633095 -0.9562786 0.0052198693 5.5560284
000240 d3 3a 8c 3d f5 62 9f 3e ae b3 aa bd 9d 2f 14 be
       0.06847157 0.31130186 -0.083350524 -0.14471288
000250 1d 2b 6e 3e 27 4b 14 bf 22 eb 78 3d ea cd 8d 3e
       0.23258634 -0.57927173 0.060771115 0.27696162
000260 de 51 bd be 20 3a a0 3f 1b c8 d4 bd c4 e5 eb c0
       -0.36976522 1.2517738 -0.103897296 -7.3717976
000270 21 46 3b bc 84 7d 05 3e 3a 86 da bd ca 1a b6 3d
       -0.011430294 0.13036162 -0.10670133 0.08891828
000280 3c 15 f6 be c6 91 8f 3f 04 c5 17 be cc 93 a4 3c
       -0.48063076 1.1216362 -0.14821249 0.020090006
000290 f0 48 e7 bc cf 6e a6 3f 91 4f 43 be cf d5 cf c0
       -0.028233021 1.3002566 -0.19073321 -6.4948497
0002a0 2c b0 2f 3d 91 d2 56 3e d6 05 d2 bd a3 cf 0c bd
       0.04289262 0.20978762 -0.10255019 -0.034377705
0002b0 0b e6 ef be 76 5a 6d be 89 ea 94 be 8e 9e 9e bd
       -0.46855196 -0.2317904 -0.29085186 -0.07745086
0002c0 f5 fc 9e 3c bc 95 92 3f 54 60 7c 3d 1b 78 d5 c0
       0.019407729 1.1451945 0.061615303 -6.6709113
0002d0 90 82 2e be 8a 54 ac be 88 0c d9 3d ed 83 b5 bd
       -0.17041993 -0.33658248 0.10598093 -0.088630535
0002e0 23 50 3e 3d d6 a8 39 3f 72 e3 81 bc 4e f3 08 be
       0.046463143 0.7252325 -0.015855525 -0.13374063
0002f0 99 cb a6 ba ba 4f a6 bf 0d 63 67 be f4 68 ab 40
       -0.0012725472 -1.2993081 -0.22596379 5.3565617
000300 3e 79 29 be f1 32 fe be f8 21 4f be 12 c7 8c 3c
       -0.16550156 -0.4964824 -0.20227802 0.017184768
000310 4c 95 a3 bd 45 06 13 bf 6e 0e 6e bf 5f 49 67 be
       -0.079874605 -0.5743144 -0.9299077 -0.22586583
000320 1c 9a ea be bc 3a 05 bf b3 da cb be 7b 73 71 3f
       -0.458207 -0.52042747 -0.39815292 0.94316834
000330 67 43 07 3e 70 fb 99 be 07 46 a7 bd 46 91 2c 3e
       0.13209306 -0.30074644 -0.081676535 0.16852292
000340 69 07 b3 be 83 56 f2 bb a2 c9 37 be cc 97 18 be
       -0.3496659 -0.007395567 -0.1794801 -0.14901656
000350 09 d5 80 bd 3f 7f a7 bf 47 c5 7a 3d 22 f7 c1 40
       -0.06290633 -1.3085707 0.061223295 6.0614176
000360 75 ab b3 3d a0 e3 14 be 65 f2 43 bd 2a 2a e8 3c
       0.08772937 -0.14539957 -0.047838587 0.028340418
000370 0f f3 d1 3d 8f 7c cd 3f a6 39 cf bc b8 3d 8f 3d
       0.10251438 1.6053637 -0.025296044 0.06994194
000380 8a 6f fb 3b fb c9 86 3f e2 09 b5 be ed 51 c5 c0
       0.0076732086 1.053039 -0.35359102 -6.1662507
000390 6f 34 67 be d2 8f 52 be 86 fa 5b bb 24 11 bb bd
       -0.22578596 -0.20562676 -0.0033566072 -0.09134129
0003a0 47 47 d5 3c a7 40 26 3f a6 93 51 3c e8 34 b9 3e
       0.026034964 0.649424 0.01279155 0.36173177
0003b0 b8 12 d5 bd d1 f5 7c 3f 8f af b8 bd 4e 3e af c0
       -0.10403961 0.98812586 -0.0901786 -5.4763556
0003c0 89 d6 87 3d dc 39 38 be 74 03 27 3d c9 ab c5 3d
       0.06632716 -0.17990822 0.040774778 0.09651906
0003d0 29 40 89 be e2 58 ec 3e a4 a5 66 be 90 8c 76 3e
       -0.26806763 0.46161562 -0.22524124 0.24077058
0003e0 e1 14 ec 3d 03 0b 77 bf 5a 22 79 3e 4d 07 c5 40
       0.1152742 -0.9650118 0.2432951 6.157141
0003f0 2b 95 07 bd dc 05 8f 3e bc 11 b1 be f5 00 97 bc
       -0.033101242 0.27934158 -0.34583843 -0.018433074

bn1.weight f4 [128]
000000 fb 90 49 3f 0f ef 27 3f 8a a3 3c 3f 79 6c 5a 3f
       0.7873685 0.6559915 0.7368704 0.85321766
000010 da 77 62 3f 32 88 57 3f 47 3d 2d 3f 4d 48 81 3f
       0.8846413 0.8419219 0.67671627 1.010019
000020 76 a7 15 3f 8e 7b 4f 3f ba 5d 6e 3f 32 48 5f 3f
       0.5845865 0.81047904 0.93111765 0.87219536
000030 98 35 2a 3f e6 60 5a 3f 4a af 35 3f 3f 3c 1d 3f
       0.6648803 0.85304105 0.70970595 0.61420053
000040 52 96 57 3f cc ec 60 3f 63 35 70 3f 78 21 20 3f
       0.84213746 0.87861323 0.9383146 0.6255107
000050 75 d6 4d 3f 08 1c 6e 3f f0 e3 26 3f 80 85 4a 3f
       0.8040536 0.9301152 0.65191555 0.79109955
000060 06 2c 5e 3f e2 3e 67 3f 92 4b 47 3f ba a2 0f 3f
       0.86785924 0.90330327 0.77849686 0.56107676
000070 82 37 56 3f 05 62 eb 3e 99 d2 2d 3f 70 c7 30 3f
       0.8367845 0.4597322 0.6789947 0.6905432
000080 64 5d 6c 3f 7b ed 31 3f 58 06 49 3f e7 0c 94 3f
       0.9233 0.6950299 0.78525305 1.1566437
000090 97 20 1d 3f 47 4d 6d 3f 52 c1 72 3f 62 9c 3f 3f
       0.61377853 0.9269604 0.94826233 0.74847996
0000a0 b9 dd 8c 3f 60 17 67 3f b4 84 b8 3f 80 1e 46 3f
       1.1005164 0.9027004 1.4415498 0.7739029
0000b0 1c d9 65 3f 1b e8 26 3f b2 64 3c 3f 58 62 46 3f
       0.8978441 0.65197915 0.7359115 0.7749381
0000c0 a5 6b 38 3f 23 28 5a 3f b6 f7 29 3f aa 34 4b 3f
       0.7203925 0.85217494 0.663936 0.79377234
0000d0 38 8c 2e 3f cc 95 53 3f 52 95 41 3f 7f c9 3f 3f
       0.68182707 0.82650447 0.7561847 0.74916834
0000e0 b2 af 2b 3f 7c f7 1c 3f 68 46 cb 3e a8 bf 58 3f
       0.67064965 0.6131513 0.39702153 0.84667444
0000f0 48 ce fd 3e 60 b5 52 3f 97 a9 65 3f 6e c1 31 3f
       0.49571443 0.82308006 0.897119 0.69435775
000100 fd 68 13 3f 6d e1 44 3f 75 07 57 3f e4 f5 78 3f
       0.57582074 0.7690647 0.83995754 0.972502
000110 69 7b 83 3f c5 e0 5b 3f 84 7f 62 3f 91 b4 3d 3f
       1.0272037 0.85889846 0.88475823 0.7410365
000120 e5 a8 52 3f 72 f8 5a 3f 82 f7 76 3f 9c ef 53 3f
       0.8228896 0.8553535 0.96471417 0.8278749
000130 ab d3 07 3f 66 4e 0f 3f 5a 20 fc 3e 1e 75 79 3f
       0.53057355 0.55979 0.49243432 0.9744433
000140 14 f0 45 3f 50 f2 44 3f 30 dc c7 3f 3a 09 58 3f
       0.77319455 0.7693224 1.5614071 0.8438908
000150 43 fe 52 3f c2 9e 67 3f c0 30 4f 3f 8e 09 63 3f
       0.8241922 0.9047662 0.8093376 0.88686454
000160 a1 a1 8f 3f e0 72 5e 3f c6 ac ac 3f a0 c2 32 3f
       1.12212 0.86894035 1.3490226 0.69828224
000170 17 fc 34 3f 7f 25 23 3f 35 d9 21 3f a1 88 77 3f
       0.7069716 0.6372909 0.63222057 0.96692854
000180 09 de 79 3f 90 e0 57 3f e9 35 db 3f 9d 3e 4a 3f
       0.97604424 0.8432703 1.7125827 0.7900179
000190 fa 09 88 3f 71 8e 2f 3f 58 d0 3e 3f 55 ad 5b 3f
       1.0628045 0.68576723 0.7453666 0.8581136
0001a0 ff ba 4c 3f bf e9 32 3f 21 fc 31 3f 6f b7 2d 3f
       0.79972833 0.6988792 0.69525343 0.6785802
0001b0 1b b7 4d 3f ea 5b 98 3f 8d 87 2a 3f cf 99 69 3f
       0.8035752 1.190305 0.66613084 0.9125032
0001c0 df a9 3d 3f c4 f1 ef 3e a2 86 86 3f b2 d1 0d 3f
       0.7408733 0.4686414 1.0509837 0.55398095
0001d0 c1 aa 6a 3f 71 6e 58 3f 44 e1 47 3f 8d 52 10 3f
       0.916668 0.8454352 0.78078103 0.5637596
0001e0 0f 84 24 3f 73 e8 95 3e ba fb 53 3f a7 44 ca 3f
       0.64264005 0.29278907 0.8280598 1.5802201
0001f0 1e 3c 5f 3f bf 9f e6 3e 3e 41 5b 3f 5d e6 3b 3f
       0.87201107 0.45043752 0.85646427 0.7339838

bn1.bias f4 [128]
000000 f3 66 bc be 50 59 4b be 77 00 76 be 54 a8 c0 3d
       -0.36797294 -0.19858289 -0.24023615 0.09407106
000010 14 1d 87 bf ad 95 85 bd e9 68 2f bf 48 59 fc 3d
       -1.0555749 -0.06522689 -0.68519455 0.123217165
000020 3a 1f ef be 2c 90 a7 be 6b ca 86 3d 86 4a 2b bf
       -0.4670351 -0.32727182 0.06581577 -0.6691059
000030 d3 28 29 bf bb 01 17 3e 5b e1 21 bf 56 26 89 bd
       -0.6607792 0.14746754 -0.6323449 -0.06696765
000040 8b 18 70 be 91 80 cd be 5f ad 50 3a 7b 37 97 be
       -0.23446862 -0.4013715 0.00079604046 -0.29534516
000050 33 4d 0b bf 1a be 06 bf 74 32 5f be 9f f4 67 bf
       -0.5441467 -0.5263382 -0.2179659 -0.9060764
000060 00 24 0c be a9 a5 48 bf 0a b0 fc be 32 97 08 bf
       -0.13685608 -0.7837778 -0.49353057 -0.53355706
000070 16 3e 23 be 22 ad 9a bd 44 0d 2c be 6c 2c d4 be
       -0.15941653 -0.07552554 -0.16801935 -0.4144014
000080 a3 13 cf 3d 36 fe 5b be 7b 92 19 bf cd 4b 21 bf
       0.10111167 -0.21483693 -0.59989136 -0.6300629
000090 e7 13 14 be aa 9a 9e be 42 f6 d8 3b f8 39 fe be
       -0.14460717 -0.30977374 0.006621153 -0.49653602
0000a0 61 75 7d 3e b7 6e 2c bf 9f 41 a3 3e e9 df 61 bf
       0.24751808 -0.6735644 0.31886002 -0.88232285
0000b0 2f 10 80 be d4 42 a3 be e0 91 38 bf d3 2e 7a be
       -0.25012347 -0.31886923 -0.7209759 -0.24431925
0000c0 a4 86 9c be 61 10 11 bf 86 86 8d 3d 7d 0a 1e 3e
       -0.30571473 -0.5666562 0.06910424 0.15433688
0000d0 da 7d f8 be c8 d0 d2 bd a0 78 36 3e 8b 00 93 be
       -0.48533517 -0.10293728 0.17819452 -0.28711352
0000e0 12 2c 20 3d e7 89 14 bf 2d 84 84 be 94 85 b0 3c
       0.03910453 -0.5802292 -0.25882092 0.02154807
0000f0 a5 b3 42 be d0 99 75 bf cd 36 a5 be d2 4a 66 bd
       -0.19013841 -0.95937824 -0.32268372 -0.056223698
000100 0f ab b9 be 3e 43 4d be 23 62 8a bd 5a d4 82 be
       -0.3626332 -0.20045182 -0.06756999 -0.25552636
000110 45 90 58 3d 7e 9d fe be 4e 33 12 bf a2 7e 00 bf
       0.05287196 -0.49729532 -0.57109535 -0.50193226
000120 b0 a0 11 bf 59 10 71 be 1b b4 e7 be d1 fa 04 3e
       -0.56885815 -0.23541392 -0.45254597 0.12986304
000130 35 2f 83 be f0 e6 ea bd df 85 e2 be a0 4d 04 3e
       -0.25621954 -0.11469829 -0.4424276 0.12920237
000140 97 9a 4a bf e4 02 da be b6 fe 17 bd 09 92 22 3e
       -0.79142135 -0.4258033 -0.037108146 0.1587602
000150 45 7e 36 bf 92 c0 15 bf b3 45 b7 bd be 95 1a bf
       -0.7128642 -0.58496964 -0.08948841 -0.6038474
000160 43 e3 c7 bd 57 68 10 bf 0e b3 5b be f1 c7 26 bf
       -0.097601436 -0.5640921 -0.21455023 -0.65148836
000170 0e b6 03 bf f5 64 40 3e 07 94 22 be 56 6f 55 be
       -0.5144967 0.18788512 -0.1587678 -0.20843253
000180 bf c3 14 3e c3 ff b8 be 87 6e 1a 3e a1 7b b8 be
       0.14527796 -0.3613263 0.15081225 -0.3603182
000190 79 e4 e7 3d 2e 2f a8 be 47 61 0e bf 52 62 84 3e
       0.113228746 -0.32848495 -0.55617183 0.25856262
0001a0 7c 49 0a bf 7a 10 ec be 68 cd 5e be 84 86 36 bf
       -0.5401838 -0.4610632 -0.21758044 -0.71299005
0001b0 01 67 c0 be e2 c7 ba 3c 47 e2 86 bd c9 f8 ca bd
       -0.37578586 0.02280039 -0.06586128 -0.09910733
0001c0 0a 05 26 bd d4 b4 6a 3e fa 14 ec bd 94 19 b5 be
       -0.04053215 0.22920543 -0.115274385 -0.35371077
0001d0 39 c5 14 be 5a 6d 59 be 0b 13 0c bf 6b 71 bf 3e
       -0.1452836 -0.2123312 -0.5471656 0.3739122
0001e0 c3 5e 93 be d5 db 9a be ab cd cd bc d7 fb 70 be
       -0.28783235 -0.30245844 -0.025122484 -0.2353357
0001f0 c1 84 2f bf ab 30 a5 bd 8b 5c b0 be 63 1b c5 be
       -0.6856194 -0.08065923 -0.34445605 -0.38497457

bn1.running_mean f4 [128]
000000 94 aa 93 41 f2 88 c5 bf b6 ff 04 41 7c bc db 40
       18.45829 -1.5432417 8.312429 6.8667583
000010 8c 7f 9a c1 82 f2 69 41 7a a9 88 40 df 04 89 41
       -19.312279 14.621706 4.270688 17.127378
000020 b0 a3 ae 40 2d 9b 5b be dc b7 8c 40 12 69 47 41
       5.4574814 -0.21445914 4.397444 12.463152
000030 9d 78 c8 c1 38 ae 87 41 5f 4f 32 c1 21 7e 39 c1
       -25.058893 16.960068 -11.144378 -11.593293
000040 cd e2 2f c1 74 42 c3 41 f7 11 42 41 3b c7 33 c1
       -10.992871 24.407448 12.129386 -11.23614
000050 58 97 80 41 c2 68 c8 c0 bd c4 45 c2 4a 3a ef c1
       16.073898 -6.262788 -49.442127 -29.903461
000060 df 33 3a c1 36 f9 6a 40 a1 46 1a 41 66 d3 1b c1
       -11.637664 3.6714606 9.642243 -9.739111
000070 df f5 e3 40 38 2e d4 c2 bb 4b b4 40 5b 44 a5 c1
       7.1237636 -106.09027 5.6342444 -20.658377
000080 59 76 c6 40 6e 17 1a 40 c2 c6 a9 40 d0 a6 02 c1
       6.2019467 2.40768 5.3055124 -8.165726
000090 17 8d b4 3f 11 4d cd 40 af d3 a3 41 f3 bc 61 c1
       1.4105557 6.4156575 20.478361 -14.10863
0000a0 ed 56 fe be 40 c1 3b 41 70 f9 89 40 14 d5 83 c2
       -0.49675694 11.73468 4.311699 -65.91617
0000b0 30 56 45 42 1e 54 19 41 f3 b9 27 40 ed cf d5 c0
       49.334167 9.583036 2.6207244 -6.6816316
0000c0 32 89 dd c0 67 04 11 42 c0 4d e8 c2 d1 07 69 41
       -6.9229975 36.2543 -116.151855 14.564408
0000d0 48 57 50 41 39 f4 10 41 c0 62 b0 c1 9a a7 0b 41
       13.021309 9.059625 -22.048218 8.728418
0000e0 d8 a0 51 41 ca 5d 37 c1 4d 15 62 bf 1f 3d c1 bf
       13.1017685 -11.460398 -0.8831375 -1.5096778
0000f0 e3 c9 50 c1 ae 29 0f c1 ac 62 06 41 20 0b c1 41
       -13.049289 -8.947676 8.39909 24.130432
000100 85 6d 33 c1 f7 02 1b bf 5e 9c 1d 41 95 2e cd 40
       -11.214238 -0.605514 9.850676 6.4119363
000110 2b 2e 14 c2 b5 48 2b 40 5b e4 65 41 90 8c 8f c0
       -37.045086 2.6763127 14.368251 -4.4859085
000120 3b a5 4d 41 0a b2 9d c0 4b fd 3e c0 7f 24 ed c1
       12.852839 -4.9279833 -2.9842098 -29.64282
000130 2e 22 4c be b0 0f 8d 41 93 7b 2b 41 9d f2 37 40
       -0.19934914 17.63266 10.7176695 2.874183
000140 b0 60 58 c1 c8 f4 bf bf 17 cd eb 40 bd e1 18 3f
       -13.523605 -1.4996576 7.3687854 0.5971945
000150 82 46 05 41 1b f5 2c c0 28 38 3d 41 aa 7e 47 41
       8.329714 -2.70246 11.82621 12.468424
000160 ac 76 94 bf 38 07 b6 c0 31 60 84 40 a5 68 9c 40
       -1.1598716 -5.688381 4.136742 4.887774
000170 7e 61 1f 41 e9 97 96 c1 9b 41 5c 41 95 52 55 41
       9.961302 -18.824175 13.766017 13.332662
000180 7c ef e4 3f be ca 7e bf 0f 99 95 40 1d bc da be
       1.7885585 -0.9952811 4.674934 -0.42721644
000190 0e d8 4f c0 51 15 72 41 97 a1 c7 c0 4a 44 09 c2
       -3.247562 15.130204 -6.2384753 -34.31669
0001a0 ca 2d 0e c1 10 0c 01 c0 4c 5b 58 c0 f4 ab 1b c1
       -8.886179 -2.0163612 -3.3805723 -9.729481
0001b0 cd c9 80 c2 0b 9f 33 bf e5 5d cf c1 35 8f 85 bf
       -64.39414 -0.70164555 -25.920847 -1.0434328
0001c0 b0 b9 6d 41 ef b5 66 c1 6b 37 13 41 91 d7 1f c2
       14.857834 -14.419417 9.20103 -39.960514
0001d0 e0 19 9a c0 b6 30 e8 c0 b6 ec 4d c1 e9 35 b3 41
       -4.8156586 -7.255946 -12.870291 22.401323
0001e0 74 30 9a 41 ec e7 a1 40 d6 e1 e4 c1 74 19 63 40
       19.273659 5.059561 -28.610271 3.5484285
0001f0 96 3a 43 41 eb f5 31 c2 20 62 07 41 b5 22 0f c1
       12.201803 -44.490154 8.461456 -8.945973

bn1.running_var f4 [128]
000000 3f 4b 62 43 42 9f e7 40 03 41 93 3f 05 0b 9a 40
       226.29393 7.2381907 1.1504215 4.813845
000010 c7 c1 03 43 51 9e e3 40 92 13 90 40 2b 1f 2a 42
       131.75694 7.1130757 4.502389 42.530437
000020 05 c2 95 40 95 af 7d 40 25 7c c8 40 a5 6e ca 42
       4.679934 3.9638417 6.2651544 101.2161
000030 49 d3 8b 43 eb 38 d4 42 f0 ad 87 41 d6 c6 d7 42
       279.65067 106.11117 16.95993 107.88835
000040 49 82 9d 40 28 7a bc 43 20 86 2d 41 88 99 e1 42
       4.922154 376.95435 10.845245 112.799866
000050 d2 a4 fe 42 68 9f c3 40 b2 2f 9b 44 6b d0 ad 43
       127.321915 6.113209 1241.4905 347.62827
000060 d2 58 9f 42 a6 c2 b3 40 a3 41 5a 42 45 6f 23 42
       79.67348 5.617511 54.5641 40.85866
000070 e0 3b d6 41 52 5e ab 45 f7 b4 03 41 1e 79 48 43
       26.779236 5483.79 8.231681 200.47311
000080 22 25 13 42 cb 17 f5 3e 0a 84 31 41 39 b6 ff 40
       36.786263 0.47869715 11.094736 7.990994
000090 b5 08 0c 41 8a 30 48 42 82 3d 9c 43 e4 50 e4 42
       8.752126 50.0474 312.48053 114.15799
0000a0 95 cd 2d 41 0c bf ee 42 6d 3d 6b 40 d8 a5 0a 45
       10.862691 119.37314 3.6756241 2218.3652
0000b0 12 94 a4 44 50 7a f3 41 c6 b8 cc 40 9e 35 21 40
       1316.6272 30.434723 6.3975554 2.5188975
0000c0 4a 95 57 42 fa dc 34 44 46 8b d1 45 a9 a4 15 42
       53.89579 723.45276 6705.409 37.4108
0000d0 fd 24 e2 40 6a 07 11 42 b1 1d 37 43 23 1b 65 40
       7.067015 36.25724 183.11598 3.5797813
0000e0 36 30 03 41 ba b7 6a 42 19 21 3a 41 dc 60 b9 40
       8.19927 58.67942 11.6330805 5.7930737
0000f0 80 59 70 42 4b 91 8e 41 37 83 7a 42 05 63 6c 43
       60.087402 17.820944 62.62814 236.3868
000100 d7 16 e1 41 b4 78 e1 3f 15 e6 26 41 2e 42 17 41
       28.136152 1.7614961 10.431172 9.453657
000110 3d 77 16 44 de 82 b4 40 89 23 98 42 05 8a 92 41
       601.8631 5.640975 76.069405 18.317392
000120 42 3b 4b 42 a6 f0 36 41 3a 0c b2 40 84 ef c9 43
       50.80787 11.433752 5.5639925 403.87122
000130 c2 1a 0c 41 7b e3 8c 42 98 00 5e 41 13 3a 3e 40
       8.756533 70.4443 13.875145 2.9722946
000140 fb 5c c5 42 20 e6 94 41 52 a1 32 40 38 42 1b 41
       98.6816 18.612366 2.7910962 9.703667
000150 74 ca 98 42 f2 29 44 40 85 9c 37 41 3c 7d 7a 42
       76.39542 3.0650601 11.475713 62.6223
000160 f2 fb 52 41 ea c9 8e 40 94 9c 22 40 e3 0d 29 41
       13.18651 4.4621477 2.5408068 10.56589
000170 c1 61 ab 41 21 c5 19 43 7e 82 59 41 37 b5 fb 40
       21.422731 153.77003 13.594358 7.865871
000180 6f eb 21 41 ad 01 6b 40 17 33 ce 3f 66 ef 07 40
       10.119979 3.6719773 1.6109341 2.1239867
000190 11 24 c1 40 b2 57 56 42 c6 98 14 42 40 dd 00 44
       6.0356526 53.58564 37.149193 515.45703
0001a0 7b ea 70 42 c7 06 d1 40 e7 94 23 41 ea 55 2f 42
       60.228985 6.5320773 10.223853 43.8339
0001b0 0d 47 11 45 c5 dc 2c 41 af fc 9d 43 c0 d7 35 40
       2324.4407 10.803899 315.9741 2.8412933
0001c0 a6 2b 5f 41 cc fe 48 43 4c 60 1c 41 65 b8 27 44
       13.948156 200.9953 9.77351 670.88116
0001d0 7c 8e 00 41 b0 6d 08 41 c0 ad 91 42 66 21 8d 42
       8.034786 8.526779 72.839355 70.56523
0001e0 e2 d7 7d 43 79 c6 56 40 03 e3 9d 43 5f 4c 9a 3f
       253.84329 3.3558638 315.77353 1.2054557
0001f0 d2 76 a5 42 0c 7a 79 44 02 46 00 40 ce b9 33 42
       82.73207 997.907 2.004273 44.93145

conv2.att_src f4 [1, 1, 64]
000000 15 ee 74 3e 2a 75 09 3c 84 1d b7 bd d3 93 c6 3e
       0.23918946 0.0083897505 -0.089411765 0.38784656
000010 11 5b 38 be 1f 07 ed 3d 43 03 da bc f5 2b cb 3e
       -0.18003489 0.11573624 -0.026612883 0.39681974
000020 a6 92 0e bf 67 d0 5f be 70 cf 1a 3d 77 48 90 be
       -0.5569252 -0.21856843 0.037795484 -0.28180286
000030 16 a5 c5 be 48 c5 2a 3e b0 a4 29 3e 11 ac fb be
       -0.38602513 0.1667682 0.1656673 -0.49154714
000040 56 c5 3f 3e 42 8e 84 3e f9 31 3a 3e 34 3f 06 3e
       0.18727621 0.25889784 0.18183126 0.13110048
000050 1a 67 1d bd 52 49 3c be 92 8e 46 bf dd ca b7 3e
       -0.038428403 -0.18387344 -0.77561295 0.3589696
000060 1f 21 49 3d 40 73 58 bf b2 32 10 be f5 13 31 3e
       0.049103852 -0.8455086 -0.14081839 0.17292769
000070 75 25 6b be 63 27 c7 3b fd 97 cf bd f8 d3 c0 3d
       -0.22963507 0.0060776933 -0.10136411 0.0941543
000080 83 ee f0 be b4 7f 27 be 8b 23 28 bf 86 d1 26 bf
       -0.4705697 -0.16357309 -0.65679234 -0.6516346
000090 47 12 1c 3d 40 0a 9e bd b8 e6 94 3c 7a ff c6 3e
       0.038103368 -0.07716799 0.018176422 0.38866788
0000a0 b9 03 0e bf f0 75 04 bf 87 3f fa 3e 87 93 2f bf
       -0.5547443 -0.5174246 0.48876593 -0.68584484
0000b0 c2 0f 94 be 7c 48 b5 3e 54 d0 d9 3d 0c ee 3f be
       -0.28918272 0.35406864 0.106354386 -0.18743151
0000c0 f0 ff 25 3f 19 14 2b 3e 01 e6 f3 bd c5 28 90 3e
       0.64843655 0.16706885 -0.11909104 0.28156105
0000d0 84 07 23 be 5d 57 81 3d d4 b7 42 be 58 21 11 be
       -0.15920836 0.06315491 -0.19015437 -0.14172876
0000e0 d8 ac e8 bd 2c 2e 56 bd d2 0f 20 bf 2b 34 32 3e
       -0.11361092 -0.052290127 -0.6252414 0.17402713
0000f0 21 1e 29 be 69 85 a4 be dc 54 0a 3e bf 70 8d 3d
       -0.165154 -0.32133034 0.13508934 0.0690627

conv2.att_dst f4 [1, 1, 64]
000000 64 ad 2c 3e 3f c9 d1 3e 39 57 56 be ec c5 fd 3c
       0.16863018 0.4097385 -0.2093171 0.030978166
000010 eb c8 49 be 24 05 c8 be 33 cf 88 3f 8e 10 ad bd
       -0.1970555 -0.39066422 1.0688232 -0.08450423
000020 d1 58 44 bd ef cc 9e 3d 25 d5 5a 3e 74 1e 5c 3d
       -0.047936264 0.07753932 0.2137037 0.05373998
000030 e1 6f 96 be 2d 87 13 be dc ab 6e 3e f8 b3 9a bb
       -0.29382232 -0.14407034 0.23307747 -0.004721161
000040 70 51 7d 3d 74 8a e0 3e 4b cb b6 bc 7a dc e1 bd
       0.061845243 0.4385563 -0.022313735 -0.11028381
000050 08 77 cd 3e 35 db 2d be 9e 38 81 be 4e 4d f5 3e
       0.40129876 -0.16978152 -0.25238508 0.4791054
000060 dd 6c bc be 42 46 c0 be aa 9e ad bc b6 0d 42 3d
       -0.36801806 -0.37553602 -0.021193821 0.047376357
000070 d7 b6 12 be b3 12 af 3e 93 bc a9 3e 14 4a 2e 3e
       -0.1432756 0.34193954 0.33151683 0.17020446
000080 52 44 84 be 46 b8 04 3d 04 61 22 bf a9 a4 00 be
       -0.25833374 0.0324023 -0.63429284 -0.12562813
000090 b5 45 23 3e c5 d9 33 3d da 4f da be ca 36 51 3c
       0.1594456 0.043908853 -0.42639047 0.01276941
0000a0 30 f3 87 be e3 46 c3 bc 9e 77 c9 3e ee b2 4b be
       -0.26552725 -0.023837512 0.39349073 -0.19892475
0000b0 bb 2e 45 be f1 8e c9 3e 69 68 ad 3d f9 38 32 3d
       -0.19256108 0.39366868 0.0846718 0.043511365
0000c0 d5 15 05 3e 30 f8 b5 3d 7e c7 bf 3e 33 aa 9b be
       0.1299661 0.08885229 0.37456888 -0.3040329
0000d0 46 d9 07 3e 8d d3 ec bb 85 c0 65 3d d4 3c 9c 3e
       0.13266477 -0.0072273673 0.056091804 0.30515158
0000e0 f8 48 be be ba bf ca 3e f5 cf 10 bd 29 c9 18 3c
       -0.37165046 0.395994 -0.035354573 0.009325304
0000f0 ad c9 06 3f 45 9b e2 be f6 5d 29 be 76 f8 88 bd
       0.5265148 -0.44259086 -0.1653975 -0.06688015

conv2.bias f4 [64]
000000 fc af 89 3c 09 57 07 3b 3e 29 b5 3d dc 23 dd bd
       0.016807549 0.0020651242 0.08845757 -0.10797855
000010 ab 24 40 3e bb 7e fc bc 2a e5 7d 3c bc ff fe b8
       0.18763988 -0.030822149 0.0154965315 -0.00012159298
000020 29 91 2d 3d 1f 49 32 3d 65 63 f3 3d c7 0b 43 3e
       0.042374764 0.043526765 0.118841924 0.19047461
000030 de 88 15 3d c7 51 9c 3a 31 2c 65 3d bb f6 34 3d
       0.03650748 0.0011926227 0.055950347 0.044180613
000040 d8 39 12 3e 27 99 68 3d 20 bc c9 3d 74 9d 1d 3d
       0.14279878 0.056786682 0.09850335 0.038480237
000050 b4 a0 0c 3e 53 29 dd bc de b8 0a 3e 26 d5 52 3d
       0.13733178 -0.026997244 0.13547084 0.051472805
000060 02 10 41 bd f8 6b b4 bb 64 23 28 bc 91 0a 3e bd
       -0.047134407 -0.005506035 -0.010262344 -0.046396796
000070 0d 73 ad 3d cb 95 c9 3b ad fd d6 3d 33 5c 71 3d
       0.0846921 0.00615189 0.104976036 0.05892582
000080 4d dc 75 3b 3e 6d 77 3d 0d c6 ba 3b 30 c3 89 bc
       0.0037515343 0.060406916 0.005699879 -0.016816705
000090 52 a4 2e bd c7 02 b4 3d e4 0f 87 3c 2b b4 13 3e
       -0.042637177 0.08789592 0.01648707 0.14424197
0000a0 3b e0 48 3d 1d 2b 19 3e fa 44 d2 bc 59 17 df 3d
       0.049041968 0.14957853 -0.025667656 0.10893125
0000b0 c4 f6 3a 3c 99 7c 2d bd 2a bb 8a 3c 31 b8 6e 3c
       0.011411373 -0.042355154 0.01693495 0.014570282
0000c0 63 70 d9 3c 39 fd 42 bd 5a ec 56 3c ca 18 1a 3d
       0.026542848 -0.047604773 0.013117874 0.037621297
0000d0 ee d4 63 3c 48 82 23 3d fb 8d 68 bd 5f 94 39 3e
       0.013905747 0.039919168 -0.056776028 0.18123005
0000e0 f1 ed 2f bb 7c 40 64 3c 9c e5 4a 3c 06 83 16 bd
       -0.0026844705 0.01393139 0.012383845 -0.036746047
0000f0 9a 34 97 3d c6 19 5b 3c 8d 17 af bc d2 db fc 3d
       0.0738308 0.013372844 -0.021373535 0.12346615

conv2.lin.weight f4 [64, 128]
000000 37 f3 2a be c2 1f 32 bd 58 2e 38 bd 30 53 68 bc
       -0.16694342 -0.043487318 -0.04496607 -0.01417999
000010 62 eb 50 be b2 ee 88 be ac 9a 4d bd 95 15 2f be
       -0.20402291 -0.2674461 -0.050196335 -0.17098077
000020 83 87 e6 bd 6c 82 c9 bd e1 34 72 3b 20 45 2e be
       -0.112563156 -0.09839329 0.0036957788 -0.17018557
000030 a1 30 0c bd e8 63 7b be 4d 0d 88 be 72 86 93 bd
       -0.034226064 -0.2454983 -0.26572648 -0.07203378
000040 88 51 02 bd 4d 7d 86 bd 54 b7 93 be 84 ab 05 be
       -0.031816036 -0.06566868 -0.28850806 -0.1305371
000050 3a 14 17 be 5d b6 4f 3e 52 7a 4a 3e d3 49 9e 3d
       -0.1475381 0.2028441 0.19773224 0.077289246
000060 37 b5 34 3e cb 40 90 be 4a d5 82 be e9 92 07 3e
       0.17647253 -0.28174433 -0.25553352 0.13239636
000070 95 94 15 bd b6 5b d0 bd ad f2 e3 bd 2b 33 6b bd
       -0.036518652 -0.101737425 -0.11130271 -0.057421844
000080 66 cc 3a bd ed 4b 7e 3d e6 0c 80 3d 38 85 72 bc
       -0.045605086 0.062084127 0.0625246 -0.01480227
000090 60 ee 48 bd d5 65 99 be 0e cf 42 be 3e 2f e1 bd
       -0.049055457 -0.29960504 -0.19024298 -0.10995339
0000a0 71 c8 52 be a4 67 53 be 54 b1 3a be c1 86 6f bd
       -0.20584275 -0.20645005 -0.18231708 -0.05847812
0000b0 43 af 12 be aa 6e 2b be 2f 3b 7c bd c6 9e 95 be
       -0.1432467 -0.16741434 -0.06157988 -0.29222697
0000c0 71 21 d9 bd b5 88 f2 bd 24 fc 3c 3e 6b 40 59 be
       -0.106020816 -0.11842481 0.18455559 -0.2121598
0000d0 31 17 88 3e 56 2d 9b bd 79 66 06 3e 15 d6 32 3d
       0.26580194 -0.075770065 0.13125028 0.043661196
0000e0 4b 0c 31 3d 6d f6 8b bc 4d 5b 0b be 5f 09 04 be
       0.043224614 -0.017085278 -0.13609047 -0.128942
0000f0 7e 25 31 bd c5 7b 93 3d 14 06 ac bd e3 a0 17 bc
       -0.043248646 0.072013415 -0.08399597 -0.009254667
000100 54 21 f4 bd 86 cc 37 be 73 78 a9 be 50 d0 6b bd
       -0.11920419 -0.17949113 -0.33099708 -0.05757171
000110 75 8e 9e 3d f4 f8 74 be 29 a2 27 bc 44 64 76 be
       0.07742015 -0.23923093 -0.010231533 -0.24061686
000120 fe 79 b4 bd ee 57 8c be 33 d4 9f be 05 f6 6f 3d
       -0.08812331 -0.27410835 -0.31216583 0.058584232
000130 7d 90 31 be 33 14 87 be ee e8 84 be 58 1d c2 3d
       -0.17340274 -0.26382598 -0.2595896 0.09478253
000140 be 3a 59 3d b7 4d 19 3d 38 88 20 bd b8 15 02 3d
       0.053034537 0.03742763 -0.03919241 0.031758994
000150 ad f9 5a be be 62 f7 be f9 51 32 be 0e 02 a2 be
       -0.21384306 -0.48317522 -0.17414083 -0.31642193
000160 e6 d3 fd bd f7 96 e8 3d 3b 26 98 be 80 dc 88 be
       -0.12393932 0.11356919 -0.29716668 -0.26730728
000170 74 54 bb bd 01 b1 9f bd 65 67 9d bc 2a f0 21 be
       -0.091469675 -0.07797433 -0.019214341 -0.15814272
000180 01 83 49 3c 90 35 2d 3d 82 de cd be 7b f8 d3 bd
       0.0122993 0.04228741 -0.40208822 -0.10350128
000190 90 a9 92 bd 05 81 88 3d 12 83 4f 3e 9b d5 00 3e
       -0.07161248 0.066652335 0.20264843 0.12581484
0001a0 19 56 e9 3d 7f 4f 03 bd f1 29 c4 3d 50 3f ba 3d
       0.11393375 -0.032058235 0.09578312 0.09094107
0001b0 d4 77 ee bd 66 bc 9a be ef b4 17 be 82 52 32 bd
       -0.11643949 -0.30221862 -0.14815114 -0.043535717
0001c0 18 d7 8b be de f4 08 be 74 68 9e be c9 98 b8 bd
       -0.2731254 -0.1337466 -0.30939066 -0.090135165
0001d0 f7 37 2b 3e e7 01 ab bc d9 0f e1 3d e9 31 9e 3d
       0.16720568 -0.02087493 0.10989351 0.07724363
0001e0 d2 e9 47 be 5f 36 99 3c 61 50 d1 3d e3 46 0a bf
       -0.19522789 0.018702684 0.10220409 -0.54014415
0001f0 5d dd b1 bd 02 7f d1 3d 66 ba ff bd 05 86 0b be
       -0.086848 0.10229303 -0.124867246 -0.13625343
000200 19 f4 3f 3e cd 08 02 be fb b0 18 3d f0 07 82 be
       0.1874546 -0.1269867 0.037278157 -0.2539668
000210 31 f8 4f be bd c4 1e be 9b e3 26 3d 5d 81 62 be
       -0.20309521 -0.15504737 0.040744405 -0.2211966
000220 90 a1 3e 3d 79 a4 9d bc 6e 21 15 bc ae 44 20 3e
       0.046540797 -0.019243466 -0.009102209 0.15651199
000230 14 59 28 be e9 4c 5d be c1 63 40 3e ea 23 bb bd
       -0.1644023 -0.2161137 0.18788053 -0.091377094
000240 67 f8 51 bd 24 ba 50 3e 49 ee 77 be 7e 09 f6 3d
       -0.051262286 0.20383507 -0.24211992 0.12013529
000250 b4 6e 4d 3e 30 89 73 3a d0 b3 86 3b 0f 9b 7f be
       0.20061761 0.0009290157 0.004110791 -0.24961494
000260 1b 72 38 3e 6d fb ff be 32 b7 c5 bc 23 eb 0a be
       0.18012278 -0.4999651 -0.024135206 -0.1356626
000270 ba 96 19 be de 1b d0 bd 26 df e7 bd d0 bd dc 3d
       -0.14998904 -0.10161565 -0.11321859 0.10778391
000280 f8 9a d8 bd 13 40 11 3e 6f 42 96 3e 21 13 c9 bd
       -0.10576433 0.14184599 0.2934756 -0.09818102
000290 c2 28 95 bd 2d f4 dc 3d 61 44 bd bc 51 f4 b3 bd
       -0.072831646 0.1078876 -0.023103895 -0.08786834
0002a0 9b 7c 43 be f1 a3 9f 3d b4 6a 08 bf 3e ea 20 bd
       -0.19090502 0.07794941 -0.53287816 -0.03928589
0002b0 8f 72 d9 bc c6 cf 58 3e 5d 64 d9 bc 92 fa 96 bd
       -0.026543884 0.2117301 -0.026537115 -0.07372011
0002c0 97 dd b4 3c 1d 12 23 3e 37 ff 35 3d aa 08 ca bd
       0.022078319 0.15924878 0.044432845 -0.09864934
0002d0 23 6f 2e 3c dd 53 c3 bd 47 2c 5e 3e 2c ee 9d 3e
       0.010646614 -0.0953748 0.21696578 0.30845773
0002e0 08 b0 b5 ba 47 48 16 bd c0 58 45 bd b6 3b a9 3b
       -0.0013861666 -0.036690023 -0.04818034 0.005164589
0002f0 27 bd 96 3d 47 50 79 be 5d 15 48 3e c4 2e 04 be
       0.07360297 -0.2434703 0.195394 -0.12908465
000300 04 33 0e bc 1e 24 aa bd 37 b6 3d be c4 d1 28 3d
       -0.008679155 -0.0830767 -0.1852654 0.041215673
000310 c5 21 89 3e 50 67 10 be 10 65 f7 bc 1c 7b 13 3d
       0.26783577 -0.1410191 -0.030199558 0.036006078
000320 68 4d 87 3d f6 49 02 bd 5c b2 d1 be 72 ac 5d 3e
       0.06606561 -0.031808816 -0.4095639 0.21647814
000330 32 24 34 3e f4 df 6b bd 65 f5 27 3e 04 9f 77 3e
       0.17591932 -0.057586625 0.16402204 0.24181753
000340 f5 46 72 3e 94 f6 cb bd 61 1e 97 be 74 fd 63 3e
       0.2365988 -0.099591404 -0.29515365 0.22264653
000350 83 52 5d 3e 0f ad 88 be 70 2d 1b be 34 b5 c3 3d
       0.21613507 -0.26694533 -0.15154052 0.09556046
000360 12 1c 86 be 48 5c f6 bd d6 72 86 3d 40 6d fc 3d
       -0.2619329 -0.1202932 0.06564872 0.12325525
000370 d2 53 f9 bd 1f 4c 3c 3e 93 7d dd bd 17 d1 19 3e
       -0.121741906 0.18388413 -0.10814967 0.15021168
000380 b8 34 09 be 41 c9 c9 3d a2 c2 26 be a9 c2 08 be
       -0.13399017 0.09852839 -0.16285184 -0.13355507
000390 0d 4c 32 be 51 d8 ad bb 66 e9 20 3e 72 26 a7 bc
       -0.17411824 -0.005305328 0.15714034 -0.020404074
0003a0 19 8a 0a be 02 09 e8 bd a7 f5 a8 3d 84 70 0c bd
       -0.13529243 -0.11329843 0.082499795 -0.03428699
0003b0 79 42 34 3c fc 95 17 bd d8 bb b2 3d 33 7e 1a be
       0.011002176 -0.03700827 0.087272346 -0.15087204
0003c0 1a 71 9a 3d 4e 47 3c 3d 30 c1 91 be 23 47 f0 3c
       0.07541104 0.04596644 -0.28467703 0.029330796
0003d0 90 f8 54 3e 4e 4a 4d 3e 73 91 cd bd 74 f9 62 be
       0.20797944 0.20047876 -0.10037508 -0.22165471
0003e0 af 44 7a 3d c5 9e 0d 3d 56 c5 50 3e 52 c3 d1 be
       0.061100658 0.034575243 0.20387778 -0.4096933
0003f0 9d ce 86 3e 7c e8 87 3c dd 39 d1 3d 0d c0 fa bc
       0.26329508 0.01659035 0.10216115 -0.030609155

bn2.weight f4 [64]
000000 45 5c a3 3f cb ad a6 3f 27 bf c2 3f 51 a4 9e 3f
       1.2762533 1.3021787 1.5214585 1.2393895
000010 7f 2b ca 3f ec f4 8f 3f 08 ca aa 3f e8 50 7c 3f
       1.5794524 1.1246619 1.3342905 0.98560953
000020 15 52 89 3f d0 55 92 3f 8b 26 9e 3f f5 62 91 3f
       1.0728174 1.1432438 1.2355512 1.1358324
000030 ec 96 8d 3f 10 d0 89 3f c1 18 a2 3f 14 6e 8b 3f
       1.1061683 1.0766621 1.2663804 1.0892968
000040 ea 4a 8b 3f d4 de b6 3f d6 cd ac 3f d7 b3 8e 3f
       1.0882237 1.4286752 1.3500316 1.1148633
000050 f1 43 88 3f f4 99 8c 3f 5a e4 b4 3f 64 03 91 3f
       1.0645734 1.0984483 1.4132187 1.132916
000060 e7 79 ae 3f ae cc 96 3f 12 e1 8e 3f 14 21 9c 3f
       1.3630952 1.1781213 1.1162436 1.2197595
000070 2b 16 c2 3f 15 3f 94 3f 48 91 91 3f db 6a a9 3f
       1.5163015 1.1581751 1.1372461 1.3235735
000080 68 13 80 3f 4a 39 c5 3f aa 90 6f 3f fd f9 b2 3f
       1.0005922 1.5408108 0.93580115 1.398254
000090 1d 2d 9f 3f d4 04 97 3f e6 62 8b 3f 48 5c 9d 3f
       1.2435642 1.1798348 1.0889556 1.2293787
0000a0 d2 c7 8d 3f d0 03 c2 3f a8 c0 a3 3f 96 aa b3 3f
       1.1076605 1.5157413 1.2793169 1.4036434
0000b0 54 2f 82 3f d4 df 9e 3f e2 23 96 3f 08 13 a0 3f
       1.0170693 1.2412057 1.17297 1.2505808
0000c0 eb 7c 88 3f 1f 03 9d 3f 44 d5 61 3f 44 4a 91 3f
       1.0663122 1.2266577 0.8821604 1.1350789
0000d0 0f df 63 3f 8d fb 89 3f f0 c9 bc 3f 24 29 b9 3f
       0.89012235 1.0779892 1.4749126 1.446568
0000e0 37 0d 88 3f e8 7a a8 3f df 8e 5d 3f c5 8f 8c 3f
       1.0629033 1.3162508 0.8654613 1.0981375
0000f0 8d f4 a1 3f 28 a6 6f 3f 8f 79 8b 3f 5c 0a c3 3f
       1.2652756 0.9361291 1.0896472 1.5237536

bn2.bias f4 [64]
000000 cd fd 1e be 4d 07 7c be b9 c5 50 3e 51 ca 47 3e
       -0.15526505 -0.2461216 0.20387925 0.19510771
000010 35 36 3d 3e 2a 51 89 3e d0 91 7b be 3c 6b 2b 3e
       0.1847771 0.26819736 -0.24567342 0.16740125
000020 43 7a 1b 3e 25 b4 8e 3e 1a 03 b9 3e 13 b3 ac 3e
       0.15183358 0.27871814 0.3613518 0.33730373
000030 3b ee 87 3e f7 39 82 3e 3b 53 43 be 7e 84 b6 3d
       0.26548943 0.2543485 -0.19074719 0.0891199
000040 7d 03 be 3e db 62 4d 3e a4 99 86 3e 94 50 70 be
       0.37112036 0.20057242 0.26289093 -0.23468238
000050 b7 da d2 3e 3f 5c 82 3e 71 cd 89 3e e9 00 b7 3d
       0.4118249 0.25461003 0.26914552 0.089357205
000060 ce 6c 6b 3e d8 73 46 ba 6c b9 8f 3e 8f b9 4f be
       0.22990724 -0.00075703626 0.28071153 -0.20285629
000070 8c 0d 55 3e 1e 56 a2 be 97 05 b9 3e b9 14 ae 3d
       0.20805949 -0.31706327 0.36137077 0.08500046
000080 f5 cb 8d 3d 5d 26 77 3e d6 33 98 bc 85 4e d0 bb
       0.06923667 0.24135728 -0.018579405 -0.0063570165
000090 37 3a 5a be db da 39 be 9a 37 cb bb 0d 58 ab 3e
       -0.2131127 -0.18149893 -0.0062016966 0.33465615
0000a0 8d 2a 1c 3e 1d 32 95 3e 1a 33 61 be dd b5 3a 3e
       0.15250607 0.29139796 -0.2199215 0.18233438
0000b0 9e 2d 55 3e f3 3e 6c be 9d 0b a5 bd d2 00 2e be
       0.20818183 -0.23070888 -0.08058856 -0.169925
0000c0 9e 47 f9 bb 73 ca 4c be f0 fb 80 3e 2d e9 74 be
       -0.0076074144 -0.19999103 0.25192213 -0.23917075
0000d0 e1 0f c0 3d 18 b6 6c 3e 5b 99 36 3e 7b 85 90 3e
       0.09378029 0.23116338 0.17831938 0.28226838
0000e0 af 3a 7a 3e 47 f6 88 be e0 aa cf bd 27 ed 7c 3e
       0.24436449 -0.26750395 -0.10140014 0.24699841
0000f0 74 54 0e be 39 1b b0 3d a4 91 85 3e ed f1 8b 3e
       -0.13899404 0.08598942 0.26087677 0.27333012

bn2.running_mean f4 [64]
000000 19 59 49 c0 72 d0 aa bf b5 85 87 bd f8 05 dc 3c
       -3.146063 -1.3344862 -0.066172995 0.026858315
000010 41 a8 10 3f ae c5 75 3f 69 ef d3 bf a1 f2 d0 3f
       0.56506735 0.9600476 -1.6557437 1.6324044
000020 e1 30 f3 be 25 b5 88 3f 7b fd 3f bf 68 ff 1b bf
       -0.4749823 1.0680281 -0.74996156 -0.60936594
000030 c4 ea 67 3f 49 00 91 3f 17 35 0b c0 f8 4b 0e c0
       0.905926 1.1328212 -2.1751153 -2.2233868
000040 df 2b 81 bf f5 db 02 bf c7 85 d1 be 3b 56 39 c0
       -1.0091513 -0.5111688 -0.40922377 -2.895888
000050 6a db 1f bf 90 a2 81 3f a2 3b a6 3f 98 d1 3b 40
       -0.62444174 1.0127735 1.2986948 2.9346676
000060 0b c8 b1 3e 12 62 c3 be 86 85 ad 3f 13 9f 4c c0
       0.34722933 -0.3816076 1.3556373 -3.1972091
000070 d1 2e 57 bf b6 3a b2 bf cb e2 72 bf 0a 46 0f bf
       -0.8405581 -1.3924167 -0.9487731 -0.55966246
000080 a0 b9 32 bf e9 0b b3 be dc 6b a7 be 05 c2 cc 3e
       -0.6981449 -0.34970024 -0.32699478 0.39991775
000090 20 64 25 c0 40 e8 49 c0 48 cd 16 3f 7f de 4e bf
       -2.5842361 -3.1548004 0.58906984 -0.8080825
0000a0 4b e0 ab be d8 21 d0 be 71 6f fd bf 44 06 56 3f
       -0.3356956 -0.4065082 -1.9799634 0.8360331
0000b0 b8 69 2b 3f a5 29 f0 bf ee 4e 5d 40 0f fe 15 c0
       0.6695819 -1.8762709 3.4579425 -2.3436315
0000c0 83 b4 1e 40 20 1c 42 c0 dc 2a 1b bf f0 66 68 40
       2.4797676 -3.0329666 -0.60612273 3.6312828
0000d0 38 07 45 3f ad 4e 78 3f 4a 2a d0 be 7c ce 31 be
       0.7696414 0.9699505 -0.40657264 -0.17363924
0000e0 d5 24 46 3f ff 36 f9 bf e5 71 cb 3f f1 81 67 3f
       0.7739995 -1.9469908 1.5894133 0.9043265
0000f0 2c 2a 3c c0 5c 1b b3 bf 9f c6 8c 3f e8 18 19 bf
       -2.940074 -1.3992724 1.0998114 -0.5980363

bn2.running_var f4 [64]
000000 9b a4 e0 40 39 8f c0 3f da 4f c2 3f a0 19 88 3f
       7.0200934 1.5043708 1.5180619 1.063282
000010 81 8b 91 3f 8d 93 82 40 b8 99 ff 3f 95 97 94 40
       1.1370698 4.0805116 1.9968786 4.6435037
000020 df d2 a7 40 1a 2c 6e 40 73 4d 80 3f 0e c5 85 3f
       5.244491 3.7214417 1.0023636 1.0450761
000030 43 2d a0 40 be 1d c0 40 32 f0 42 40 95 09 00 41
       5.005525 6.0036306 3.0459104 8.002339
000040 7c 24 8c 3f 88 13 4e 3f c7 5f 72 3f 19 69 8a 40
       1.0948634 0.8049855 0.94677395 4.3253293
000050 dc ec 97 3f d1 17 a6 40 4c 7b 6d 40 e4 8d c3 40
       1.1869159 5.1904073 3.7106504 6.1110706
000060 80 47 4b 3f d3 26 f2 40 40 d4 67 40 67 8a ce 40
       0.79405975 7.5672393 3.6223297 6.454395
000070 47 ba 66 3f e9 5d cc 3f 1a 5b 5b 3f 49 1e 99 3f
       0.90127987 1.5966159 0.85685885 1.1962367
000080 fa a7 d9 40 a8 48 c4 3f 21 49 8f 40 1a b9 2f 3f
       6.801755 1.5334673 4.477677 0.6864182
000090 dc 9b 8f 40 47 43 96 40 a9 b4 ab 3f 0d 16 54 3f
       4.487776 4.6957126 1.3414508 0.82846147
0000a0 02 a3 af 40 d0 9a ca 3f 41 45 65 40 47 42 5e 40
       5.4886484 1.5828495 3.582352 3.4727952
0000b0 45 a2 8c 40 92 04 3d 40 0e 0f ab 40 95 a8 43 40
       4.3948083 2.953404 5.3455877 3.0571644
0000c0 19 88 26 41 1b 40 b6 40 83 ad 42 3f de 98 c6 40
       10.408227 5.6953254 0.7604601 6.2061605
0000d0 12 58 d2 3f 31 e9 d7 40 16 b5 3d 3f ac 53 a6 3f
       1.6433127 6.7472157 0.7410444 1.2994285
0000e0 f2 c0 7f 40 c2 26 f3 3f b6 01 c4 40 a7 65 a3 40
       3.9961514 1.8996203 6.125209 5.1061587
0000f0 7c 55 bd 40 22 a7 12 41 bc 8d 9f 40 e1 18 81 3f
       5.916685 9.165804 4.9860516 1.0085717
