models/booster/1-1.pth (torch, 18938 bytes, 18 tensors)

conv1.att_src f4 [1, 1, 64]
0	0x3e8f6f07	0.28014395
1	0xbefe440c	-0.4966129
2	0xbf368fc6	-0.7131313
3	0xbea258bc	-0.31708324
4	0x3d772283	0.060335647
5	0xbdda0a39	-0.10646481
6	0xbe9c2746	-0.30498713
7	0xbebfdd51	-0.3747354
8	0xbf03d954	-0.5150349
9	0x3ec8410d	0.3911213
10	0x3f0b87c2	0.54504025
11	0xbd92ade5	-0.07162074
12	0x3ef2af0e	0.4739918
13	0x3d524a6e	0.051340513
14	0x3e8ff7c5	0.2811872
15	0x3ef7b090	0.48376894
16	0xbeffbeb3	-0.4995018
17	0xbd684dc1	-0.056714777
18	0x3eafdda9	0.343488
19	0xbe84982c	-0.25897348
20	0x3e992e62	0.299182
21	0xbe27f416	-0.16401705
22	0xbe75648f	-0.23964141
23	0x3e2ccdfd	0.16875453
24	0xbd88cc25	-0.066795625
25	0x3e5ea8b0	0.21744037
26	0xbd978f0b	-0.0740033
27	0x3e01adf3	0.12664013
28	0x3e85915f	0.26087472
29	0x3e5711ec	0.2100293
30	0x3ec41618	0.38298106
31	0x3f065997	0.52480453
32	0xbe2eb4a0	-0.1706109
33	0x3ecc332b	0.39882788
34	0xbeae380c	-0.34027135
35	0x3e04215b	0.12903349
36	0x3e1d1a1f	0.15341996
37	0x3ea1ad65	0.31577602
38	0x3edd83ac	0.4326452
39	0xbeb2f6db	-0.3495396
40	0x3e1f7253	0.15570955
41	0x3ef234df	0.47305962
42	0xbe2d80e3	-0.16943698
43	0xbf01215c	-0.5044153
44	0xbd3a25c1	-0.04544616
45	0x3e58eac5	0.21183307
46	0x3f2ee801	0.6832276
47	0xbe30a22d	-0.17249365
48	0xbe74af7b	-0.23895065
49	0x3ec002bc	0.37502086
50	0xbda78b4c	-0.08180866
51	0x3e9b396c	0.30317247
52	0x3ec4c571	0.38431886
53	0x3f6bd4ee	0.9212178
54	0xbf313af7	-0.692306
55	0xbeb2039c	-0.3476838
56	0x3dd1ae18	0.10238284
57	0x3f1b4f6d	0.6066807
58	0x3d24fcbc	0.04028009
59	0xbe846bef	-0.25863597
60	0x3ee855a3	0.45377836
61	0xbe51f122	-0.20502141
62	0x3d62a138	0.05532953
63	0x3eb88074	0.36035502

conv1.att_dst f4 [1, 1, 64]
0	0xbe487429	-0.19575562
1	0x3db7cd7b	0.08974739
2	0x3cedb8ec	0.029018842
3	0x3a3cbdda	0.0007199921
4	0x3dcf9f65	0.10137824
5	0x3e47ce85	0.19512375
6	0xbd9851e2	-0.07437493
7	0x3de40e54	0.111355454
8	0x3e6f3b07	0.23362361
9	0xbe62cbc1	-0.22148038
10	0x3da3eb69	0.08003885
11	0x3d082f95	0.033248503
12	0xbe1c1b95	-0.15244897
13	0xbe6dfd83	-0.23241238
14	0x3e3440b1	0.17602803
15	0x3e27498f	0.16336654
16	0xbe463b76	-0.1935862
17	0x3e391fe4	0.18078572
18	0x3e895410	0.26821947
19	0xbdf63821	-0.120224245
20	0x3dd66262	0.10467984
21	0xbe5b4e56	-0.21416602
22	0xbd705cbd	-0.058682192
23	0x3d4868e8	0.04892817
24	0x3d785002	0.060623176
25	0xbe26f25d	-0.16303392
26	0xbe8ff1e5	-0.28114238
27	0xbe4850b5	-0.19562037
28	0xbe0f38d0	-0.13986516
29	0x3cdc1e21	0.026869835
30	0xbd1341f9	-0.03595159
31	0xbe045afb	-0.12925331
32	0xbd8c7b16	-0.06859414
33	0x3d9e863a	0.077404454
34	0x3d08b19c	0.033372506
35	0x3de9429b	0.11389657
36	0x3e8971a6	0.2684452
37	0x3e660cfe	0.22465894
38	0xbe95554f	-0.29166648
39	0x3ccaa783	0.024738079
40	0xbe289cb8	-0.16466033
41	0x3d977bba	0.07396646
42	0x3e8a97bc	0.2706889
43	0xbe950fc3	-0.29113588
44	0x3ca8a962	0.02058858
45	0xbe14d2e2	-0.1453357
46	0xbe856308	-0.26052117
47	0x3da0e3fd	0.07855985
48	0xbe7e504d	-0.2483532
49	0x3d969c1d	0.07353995
50	0xbe894108	-0.26807427
51	0xbdce4539	-0.10071797
52	0xbd503a6b	-0.05083696
53	0x3d91b5fe	0.071147904
54	0x3dfda1a5	0.12384347
55	0xbd730303	-0.059329044
56	0xbea19b35	-0.31563726
57	0x3e628e05	0.22124489
58	0xbe6c007d	-0.23047061
59	0xbe165129	-0.14679398
60	0xbe623cad	-0.22093458
61	0x3d3ab945	0.045586843
62	0x3e84ba03	0.25923166
63	0x3e4ba676	0.19887719

conv1.bias f4 [64]
0	0x3b290869	0.0025792366
1	0xba235b4b	-0.000623156
2	0xbb180707	-0.0023197548
3	0x397962e9	0.00023783337
4	0x3ada1028	0.0016636895
5	0xba8f534c	-0.0010934859
6	0x37bfd778	2.286931e-05
7	0x3858737b	5.1605963e-05
8	0xb8bc45a8	-8.977513e-05
9	0x393f4efe	0.00018244606
10	0xb7c1bb45	-2.3094597e-05
11	0xbb5f1386	-0.0034038736
12	0xb91526f2	-0.00014224256
13	0x39d3fc9b	0.00040433262
14	0x3aba71cc	0.0014224588
15	0xb8ec2458	-0.000112601265
16	0x387cb3ca	6.0248924e-05
17	0xbc284ab2	-0.010271715
18	0x39928ba4	0.0002795133
19	0xba1db7f2	-0.00060164847
20	0xb8b60546	-8.6794185e-05
21	0x3b604722	0.0034222086
22	0xb8c6d6e4	-9.481402e-05
23	0xba0bb137	-0.0005328836
24	0xbb2feb17	-0.0026843005
25	0xb88d9c54	-6.752522e-05
26	0xb8a97a3d	-8.0813166e-05
27	0xb8ccba0a	-9.7621305e-05
28	0x3c1a1f5c	0.009406891
29	0x3896e145	7.194517e-05
30	0x397a52bf	0.00023872683
31	0x38167fe2	3.5881887e-05
32	0xb922f22d	-0.00015539741
33	0xb7e577c8	-2.7354705e-05
34	0xb6e7419b	-6.891974e-06
35	0x389a448b	7.356059e-05
36	0xba858a98	-0.0010188399
37	0x36dc4a62	6.56517e-06
38	0x3b083c52	0.0020787907
39	0x39dd3db8	0.0004219839
40	0x38e56404	0.000109382
41	0xb8e65542	-0.00010983135
42	0x3b18f4ea	0.002333934
43	0x3948e8db	0.00019160232
44	0xbb5966ef	-0.0033172925
45	0xbb1c563f	-0.0023855118
46	0x39043932	0.00012609808
47	0x3bc8e4f3	0.0061308085
48	0xbbc5fdbc	-0.0060422104
49	0x37b2c172	2.1309334e-05
50	0x3795e5ef	1.7869255e-05
51	0xbc15a718	-0.009134077
52	0xb872f9f1	-5.7930072e-05
53	0x365b5e7e	3.2688545e-06
54	0xb98ba75c	-0.00026636838
55	0xba435e12	-0.0007452677
56	0xb9ee9823	-0.00045508248
57	0x38a70719	7.9645026e-05
58	0x3b57cf33	0.0032929897
59	0xbc1ab8ad	-0.009443444
60	0x3a667830	0.0008791713
61	0xbb5e8dce	-0.0033959034
62	0xbac9c9df	-0.0015395245
63	0x3a263e36	0.00063416676

conv1.lin.weight f4 [64, 10]
0	0xbd83926e	-0.064244136
1	0xbe2d4175	-0.16919501
2	0xbebc25be	-0.36747545
3	0x3c55c40f	0.013047232
4	0xbe9ddf45	-0.30834404
5	0x3de8cc45	0.11367086
6	0xbe989a8e	-0.29805416
7	0x3d8c9f14	0.06866279
8	0xbdeb4dbd	-0.11489437
9	0xbe404bb1	-0.18778874
10	0xbe96a7d2	-0.29424912
11	0x3f77b4c5	0.9676021
12	0x3e6e00c6	0.23242483
13	0x3c5b7d6e	0.013396604
14	0x3f50fce6	0.8163589
15	0xbf45fc33	-0.7733795
16	0x3ea167e6	0.3152458
17	0x3f181bd3	0.59417456
18	0xbef9a98c	-0.48762167
19	0xbe006baf	-0.12541078
20	0x3e7655d6	0.24056181
21	0x3d3d81b9	0.04626629
22	0x3c117c95	0.0088798
23	0x3c7fafc9	0.015605875
24	0x3f39189e	0.7230319
25	0xbf2e6970	-0.68129635
26	0x3f113633	0.56723326
27	0x3ef55c26	0.47921866
28	0xbdb8f2c7	-0.09030681
29	0xbe57036c	-0.20997399
30	0xbe717571	-0.23579957
31	0x3e667585	0.22505768
32	0x3d6f1f64	0.058379546
33	0x3c854d35	0.016272167
34	0x3f17fa91	0.5936671
35	0xbee9825c	-0.4560727
36	0x3e1148bc	0.14187902
37	0x3ef26205	0.47340408
38	0xbe2fa782	-0.17153743
39	0x3df23afd	0.11827657
40	0x3e5bfda3	0.21483473
41	0x3e4ac26d	0.1980073
42	0x3f059a4f	0.5218858
43	0x3bd921aa	0.0066263275
44	0xbee7f9fd	-0.45307913
45	0x3f1407d2	0.5782443
46	0xbe209338	-0.1568116
47	0xbf21a3f7	-0.63140815
48	0x3f2ff585	0.6873401
49	0x3e5603a1	0.20899822
50	0x3eb3c303	0.3510972
51	0x3f3a7041	0.72827536
52	0x3e463472	0.19355944
53	0x3c05426b	0.008133511
54	0xbccb1a8d	-0.024792934
55	0x3e990997	0.2989013
56	0x3e2a1634	0.16610032
57	0x3e805d60	0.2507124
58	0x3ee5eaa7	0.44905588
59	0xbdf39047	-0.11892753
60	0xbc956a20	-0.01823908
61	0x3f1193cd	0.5686615
62	0x3e007478	0.1254443
63	0x3de31591	0.11088098
64	0x3f254d05	0.6457065
65	0xbec9a0b2	-0.39380413
66	0x3eab1e2b	0.33421454
67	0x3f0469b0	0.51723766
68	0xbe2ce4ef	-0.16884206
69	0xbc75158f	-0.014958753
70	0xbd348e3e	-0.044080965
71	0x3f4774a0	0.7791233
72	0x3e08feb9	0.13378419
73	0x3ddccd65	0.107813634
74	0x3f51e10c	0.8198402
75	0xbf1665fa	-0.58749354
76	0x3e29ac56	0.16569647
77	0x3ecb6031	0.39721826
78	0xbd94d9a5	-0.07268075
79	0xbd3d4a78	-0.046213597
80	0x3dadc7a4	0.08485344
81	0x3f9e6d06	1.2377021
82	0xbdcbd135	-0.099520124
83	0x3ceec2fd	0.029145712
84	0x3f6f186c	0.9339664
85	0xbef4b96c	-0.47797716
86	0x3f04aab9	0.51823
87	0x3ecbe33a	0.39821798
88	0xbf01bbc3	-0.50677127
89	0xbe83ba1b	-0.25727925
90	0x3d831796	0.06400983
91	0xbf4ff130	-0.812274
92	0x3d8714b9	0.065957494
93	0x3d2e0438	0.042484492
94	0xbf52c26a	-0.823279
95	0x3f4e9d27	0.80708545
96	0xbed0ed2c	-0.40805948
97	0xbeda07ac	-0.42583978
98	0x3e5a2179	0.21301831
99	0x3e9ae0cf	0.3024964
100	0xbde5f2bf	-0.11227941
101	0xbf9ce77e	-1.2258146
102	0xbdf47543	-0.119364284
103	0x3e76b49b	0.24092333
104	0xbee32120	-0.4436121
105	0x3eca78d9	0.39545324
106	0xbf1ca24b	-0.6118514
107	0xbec9c6d6	-0.39409512
108	0x3cb443f9	0.022005068
109	0xbde3b73e	-0.11118935
110	0xbdd01265	-0.101597585
111	0x3e175b11	0.14780833
112	0xbeb1e21a	-0.34742814
113	0x3c0c28be	0.008554636
114	0x3df05aa8	0.11736041
115	0xbf7933ae	-0.9734448
116	0x3e007eee	0.1254842
117	0x3e70aa63	0.23502497
118	0xbf14e8b6	-0.5816759
119	0x3c605908	0.013693102
120	0xbe9cf4a0	-0.30655384
121	0xbf3af5f9	-0.73031574
122	0xbc801b55	-0.015638033
123	0x3df69b41	0.12041331
124	0xbe41e70d	-0.18935795
125	0x3f11e79f	0.5699405
126	0xbe46a54f	-0.19398998
127	0xbec4b07e	-0.38415903
128	0x3d8b2ef2	0.067960635
129	0xbc8f88ee	-0.017521348
130	0x3e6f42c9	0.2336532
131	0xbd00f1d6	-0.031480633
132	0xbe221ad5	-0.15830548
133	0x3c620084	0.013794068
134	0xbe413feb	-0.18872039
135	0xbde94dd3	-0.11391797
136	0xbe5f2cba	-0.21794406
137	0x3e867ba9	0.2626622
138	0xbec33468	-0.3812592
139	0xbdb43ada	-0.088002875
140	0x3edc53eb	0.43032774
141	0x3e4c97f9	0.19979848
142	0x3ecb40a3	0.3969775
143	0x3c444de3	0.01198146
144	0xbef9bbc2	-0.4877606
145	0x3f5bdc50	0.85883045
146	0xbdd17537	-0.10227435
147	0xbe5e30c0	-0.21698284
148	0x3ef043ce	0.4692673
149	0x3e946373	0.28982124
150	0xbc50e84f	-0.012750699
151	0xbfc4bc1d	-1.5369908
152	0x3e2bd786	0.16781434
153	0xbe84fdc2	-0.25974852
154	0xbf54127f	-0.8284072
155	0x3f4dea22	0.80435383
156	0xbf2fa62a	-0.6861292
157	0xbf38ab5b	-0.7213647
158	0x3e2ad9ee	0.16684696
159	0xbe55bff2	-0.20874003
160	0x3a55384b	0.00081336935
161	0x3fadd76b	1.3581365
162	0x3da50581	0.080576904
163	0xbe733f10	-0.23754525
164	0x3ebc8abe	0.36824602
165	0xbed6ca25	-0.419511
166	0x3f1be6a4	0.60898805
167	0x3f1f7825	0.622927
168	0x3dcfbef3	0.101438425
169	0x3d535a5b	0.05159984
170	0xbe10f829	-0.14157166
171	0xbf2aadee	-0.66671646
172	0xbed2bd06	-0.41159838
173	0xbbd1935c	-0.0063957404
174	0xbd103922	-0.035210736
175	0xbfa2a913	-1.2707847
176	0x3936696a	0.00017396142
177	0x3f16fd3c	0.58980155
178	0xbf34b0b2	-0.70582116
179	0xbde429d1	-0.11140788
180	0x3d33722c	0.043810055
181	0xbf6c5485	-0.92316467
182	0x3e2163fe	0.157608
183	0xbe0e8b63	-0.1392036
184	0xbf50056a	-0.8125826
185	0x3f754e7e	0.95822895
186	0xbe002606	-0.12514505
187	0xbe812ad8	-0.25228
188	0x3e88985a	0.26678735
189	0x3ea759a6	0.32685584
190	0xbe65f03a	-0.2245492
191	0x3ed97e8e	0.42479366
192	0xbd98ecdb	-0.074670516
193	0xbc912085	-0.017715702
194	0x3f04c7ae	0.5186719
195	0xbef618d7	-0.48065826
196	0x3edfb34a	0.43691474
197	0xbd25de2e	-0.04049509
198	0xbb8d4ab0	-0.004311882
199	0x3db0b540	0.08628321
200	0xbcfb4014	-0.030670203
201	0xbe6faea0	-0.23406458
202	0x3e37db30	0.17954707
203	0x3c88aa50	0.016682774
204	0xbf3cd839	-0.7376743
205	0x3ee23401	0.441803
206	0xbee29b42	-0.44259077
207	0xbeb75b90	-0.35812044
208	0x3e3fde9f	0.18737267
209	0xbdd25dd1	-0.102718
210	0x3f02043b	0.50787705
211	0x3f3baf81	0.7331467
212	0x3f061a24	0.5238364
213	0xbb98378e	-0.0046452945
214	0xbda7e9ae	-0.08198868
215	0x3ea9165c	0.3302487
216	0x3e16cc7a	0.14726439
217	0x3e036900	0.12833023
218	0x3e9a1c88	0.30099893
219	0x3e95abbd	0.29232588
220	0x3d113e8a	0.035460033
221	0x3efa6abf	0.48909566
222	0x3e1764db	0.14784567
223	0x3dbc58a1	0.09196592
224	0x3eba5927	0.36396143
225	0xbea5f0c6	-0.32410258
226	0x3ed1599f	0.40888688
227	0x3d8e0f00	0.06936455
228	0x3e1e06fb	0.1543235
229	0x3e030086	0.12793168
230	0x3d802422	0.06256892
231	0xbe9c5a83	-0.30537805
232	0xbd956632	-0.07294883
233	0x3ca76430	0.020433515
234	0xbe959ef7	-0.29222843
235	0x3e03d053	0.12872438
236	0x3df488f3	0.119401835
237	0x3e411ccf	0.18858646
238	0x3d41609f	0.047211286
239	0x3e92aeab	0.28648886
240	0xbe7ea149	-0.24866213
241	0xbdd72f1c	-0.10507032
242	0xbef8c479	-0.48587397
243	0xbc6a1ea5	-0.014289533
244	0x3e445cb9	0.19175996
245	0xbf1cd0e9	-0.6125627
246	0x3e0cce5f	0.137506
247	0x3ead464e	0.338427
248	0xbf1578d2	-0.5838748
249	0xbeb045ef	-0.34428355
250	0xbe3a0110	-0.18164468
251	0xbf829a4c	-1.0203338
252	0x3e677100	0.226017
253	0x3ea430cd	0.32068482
254	0xbebfedfd	-0.37486258
255	0x3edfaed2	0.43688065

bn1.weight f4 [64]
0	0x3f7bf700	0.9842377
1	0x3f894f54	1.0727334
2	0x3f777791	0.9666682
3	0x3f71d9de	0.94473064
4	0x3f7cc502	0.9873811
5	0x3f6ae2cc	0.91752315
6	0x3f808f40	1.0043716
7	0x3f7a6a38	0.97818327
8	0x3f7d72b4	0.9900315
9	0x3f7c9196	0.98659647
10	0x3f7ecef7	0.99534553
11	0x3f7c0103	0.98439044
12	0x3f77592d	0.96620446
13	0x3f76c324	0.9639151
14	0x3f72b298	0.9480376
15	0x3f889d89	1.0673076
16	0x3f657fbe	0.89648044
17	0x3f81b3d9	1.013301
18	0x3f7ecca3	0.99531
19	0x3f70fbd9	0.9413429
20	0x3f73d7b3	0.95251006
21	0x3f7f1e77	0.9965586
22	0x3f783b31	0.9696532
23	0x3f75f7c2	0.96081173
24	0x3f7e8e74	0.99436116
25	0x3f7a56c3	0.9778864
26	0x3f6dc91a	0.9288498
27	0x3f73e1f5	0.9526666
28	0x3f84db65	1.0379454
29	0x3f773ff6	0.9658197
30	0x3f765e5b	0.96237725
31	0x3f74b8b3	0.9559433
32	0x3f7fc14d	0.9990433
33	0x3f76213d	0.9614447
34	0x3f780418	0.96881247
35	0x3f782e58	0.96945715
36	0x3f6fce0c	0.9367378
37	0x3f85316d	1.0405709
38	0x3f865dc9	1.0497371
39	0x3f8517cd	1.0397888
40	0x3f774524	0.96589875
41	0x3f7bda69	0.9838014
42	0x3f8a2e02	1.079529
43	0x3f85d1e5	1.045468
44	0x3f820ac9	1.0159541
45	0x3f86a849	1.0520107
46	0x3f82f883	1.023209
47	0x3f77b253	0.96756476
48	0x3fa33083	1.274918
49	0x3f824d0c	1.0179763
50	0x3f72dc1f	0.9486713
51	0x3f95ec5f	1.171276
52	0x3f73d45d	0.95245916
53	0x3f749710	0.95543003
54	0x3f707c88	0.9394002
55	0x3f813eeb	1.0097326
56	0x3f72e14f	0.94875044
57	0x3f7b05f9	0.9805599
58	0x3f6f8750	0.93565845
59	0x3f809357	1.0044965
60	0x3f76b6ca	0.96372664
61	0x3f826fd1	1.0190374
62	0x3f7d6620	0.98983955
63	0x3f72bb09	0.94816643

bn1.bias f4 [64]
0	0xbd901b7e	-0.07036494
1	0x3cd16d2f	0.025564758
2	0x3d80f74a	0.06297167
3	0xbd235bd9	-0.039882515
4	0x3dea17b9	0.11430306
5	0x3c989b79	0.018628823
6	0xbe0190b0	-0.1265285
7	0xbd20778d	-0.039176513
8	0xbdf1fc8f	-0.1181575
9	0x3d1ba46c	0.0379986
10	0xbd0e0cc9	-0.03468016
11	0xbd7db5bd	-0.061940897
12	0x3a9e12b6	0.001206002
13	0xbc06f252	-0.008236485
14	0x3d510674	0.051031545
15	0x3d09acef	0.033612188
16	0xbd87dfa4	-0.06634453
17	0xbcc757ec	-0.024333917
18	0xbd9dd2cc	-0.07706222
19	0xbd9ce33f	-0.07660531
20	0x3be518dc	0.006991489
21	0x3d3f6a49	0.04673222
22	0x3da013ff	0.07816314
23	0x3c744509	0.014909037
24	0x3d9c0b85	0.07619385
25	0x3d2f2a91	0.042765204
26	0xbd304c10	-0.04304129
27	0x3d084987	0.033273246
28	0x3c2021b1	0.009773658
29	0xbd66ffad	-0.056396175
30	0xbdd14c02	-0.102195755
31	0xbc49ccfb	-0.012316938
32	0xbdb18d26	-0.086695
33	0x3d9589f1	0.07301701
34	0x3cc62131	0.024185749
35	0xbdb0a421	-0.08625055
36	0x3cb46b90	0.022023946
37	0xb857503e	-5.1334726e-05
38	0x3cc1fd84	0.023680456
39	0x3bd7ed00	0.006589532
40	0x3c914169	0.017731385
41	0x3bb87752	0.0056294585
42	0xbcfdc1cb	-0.030976197
43	0x3d29dda0	0.041471124
44	0x3c86e8e4	0.016468473
45	0x3d2c1975	0.042016465
46	0x3d7bec9a	0.061504938
47	0xbd11bf50	-0.03558284
48	0x3e178049	0.1479503
49	0xbc22016d	-0.009888035
50	0xbd6b37d1	-0.057426278
51	0x3d948af2	0.07253064
52	0xbd24db43	-0.040248167
53	0xbd76b11c	-0.0602275
54	0xbdee14e9	-0.11625082
55	0x3d3a275c	0.045447692
56	0xbdf60ed7	-0.12014549
57	0xbcc8b479	-0.024500119
58	0xb9915684	-0.00027721014
59	0xbd2e900a	-0.042617835
60	0xbd45c7f5	-0.048286397
61	0x3cd1740b	0.025568029
62	0x3d74b713	0.059744906
63	0x3c88f6e7	0.016719295

bn1.running_mean f4 [64]
0	0x41b851f1	23.04001
1	0x41c304a9	24.377275
2	0x41e356f9	28.417467
3	0x41ec730a	29.556171
4	0x4157a1f8	13.477043
5	0x4178e05f	15.554778
6	0x434a190b	202.09782
7	0x43447eeb	196.49577
8	0x42560df4	53.513626
9	0x429ae313	77.443504
10	0x43db2daa	438.35675
11	0x416bcfba	14.7382145
12	0x435ba8c2	219.65921
13	0x41c309ff	24.37988
14	0x41b8516b	23.039755
15	0xc3ec42e7	-472.52267
16	0xc3d75e87	-430.7385
17	0xc15aad6e	-13.667341
18	0xc37bf82c	-251.96942
19	0xc2010d6d	-32.26311
20	0x41f6bb87	30.841566
21	0xc0cced73	-6.4039855
22	0x43277b7f	167.4824
23	0x42151eb1	37.279972
24	0xc1dbab4e	-27.458645
25	0x44123ca0	584.94727
26	0x41d236e3	26.2768
27	0xc1907baa	-18.060383
28	0x41b0166e	22.010952
29	0x43b56290	362.77002
30	0x41df2393	27.89237
31	0x4399bc63	307.47177
32	0x433fa82f	191.65697
33	0xc40890b3	-546.2609
34	0x4311bd28	145.73889
35	0x4182c800	16.347656
36	0x41a425ac	20.518394
37	0x43f71ae1	494.21
38	0xc1b85fdc	-23.046806
39	0x42021579	32.52097
40	0x41e2e777	28.36302
41	0xc3a2190a	-324.19562
42	0xc1bfab66	-23.95869
43	0xc3c8c91c	-401.57117
44	0x41806db4	16.053566
45	0x414d6f14	12.839619
46	0x43e59cac	459.224
47	0x4159802d	13.593793
48	0xc0297cb2	-2.6482358
49	0x441fc5bc	639.0896
50	0x430a2f54	138.18488
51	0xc098d7f6	-4.7763624
52	0x4382372c	260.43103
53	0x433d39f9	189.22646
54	0xc1f09b7e	-30.075924
55	0x420b5573	34.833447
56	0xc1fafe11	-31.374056
57	0x438603ee	268.0307
58	0x41e255b1	28.291842
59	0x412542d9	10.32882
60	0xc2005d88	-32.09134
61	0x41c8508f	25.039335
62	0xc1a235fb	-20.276358
63	0x4230af7b	44.171368

bn1.running_var f4 [64]
0	0x44762ebb	984.73016
1	0x448215eb	1040.6849
2	0x44afa8c5	1405.274
3	0x44bef20a	1527.5637
4	0x4374ee18	244.93005
5	0x43b8171f	368.18063
6	0x478a9556	70954.67
7	0x4782d172	66978.89
8	0x459ed888	5083.0664
9	0x462221dd	10376.466
10	0x48a37e4a	334834.3
11	0x43de406b	444.50327
12	0x47a409a3	83987.27
13	0x4488f700	1095.7188
14	0x444ef6f7	827.8588
15	0x48bdb559	388522.78
16	0x489df005	323456.16
17	0x437e52e6	254.32382
18	0x47d8620a	110788.08
19	0x44e1e558	1807.167
20	0x44c96ecf	1611.4628
21	0x42d3bee9	105.87287
22	0x473d5a8a	48474.54
23	0x4517a10b	2426.0652
24	0x44930755	1176.2291
25	0x49111983	594328.2
26	0x449707f8	1208.249
27	0x4413b279	590.78864
28	0x44326750	713.61426
29	0x486063d8	229775.38
30	0x44a390d9	1308.5265
31	0x4820e84e	164769.22
32	0x47789828	63640.156
33	0x48fdb493	519588.6
34	0x470f0a1e	36618.117
35	0x440aa18c	554.5242
36	0x4432e120	715.5176
37	0x48cfaba0	425309.0
38	0x444c4800	817.125
39	0x44e6adca	1845.4309
40	0x44ae680b	1395.2513
41	0x483236f8	182491.88
42	0x446e15d3	952.341
43	0x4888b486	279972.2
44	0x44019089	518.25836
45	0x43503270	208.19702
46	0x48b2ee38	366449.75
47	0x43b5d165	363.6359
48	0x422dd179	43.454563
49	0x492d0317	708657.44
50	0x47025b8e	33371.555
51	0x42b7c09e	91.876205
52	0x47e5fa92	117749.14
53	0x47737e95	62334.582
54	0x44c96198	1611.0498
55	0x45034ffb	2100.9988
56	0x44d2e551	1687.1661
57	0x47f4a331	125254.38
58	0x44a48773	1316.2328
59	0x436bd3d0	235.8274
60	0x44db931e	1756.5974
61	0x44939074	1180.5142
62	0x443fa1f0	766.5303
63	0x455a52e7	3493.1814

conv2.att_src f4 [1, 1, 32]
0	0xbd9e32fc	-0.07724568
1	0x3cdebf2a	0.027190764
2	0x3eade78d	0.33965722
3	0xbef24d83	-0.47324762
4	0x3eb0b7f1	0.34515336
5	0xbebac719	-0.36480024
6	0x3e8bc906	0.27301806
7	0x3ef3a269	0.47584847
8	0xbb6d87c9	-0.0036244264
9	0xbe368a8e	-0.17826292
10	0x3f2222e0	0.63334465
11	0x3ed83f02	0.4223557
12	0xbe0ffd03	-0.1406136
13	0xbef3e49d	-0.47635356
14	0xbef7f9e9	-0.48432854
15	0x3e1fa26e	0.15589306
16	0x3ecf5101	0.4049149
17	0x3e829a1f	0.2550821
18	0x3e41440d	0.18873616
19	0x3e6b2468	0.22963107
20	0x3ed4925b	0.4151791
21	0xbf220f02	-0.6330415
22	0xbe325c4b	-0.1741802
23	0x3dc63289	0.096776076
24	0x3d69796a	0.057000555
25	0x3e5a1e32	0.21300581
26	0x3efd2b75	0.49447218
27	0xbeef92fe	-0.46791834
28	0x3f337de8	0.7011399
29	0xbd08e80a	-0.033424415
30	0xbec9049b	-0.39261326
31	0xbd3bc300	-0.045840263

conv2.att_dst f4 [1, 1, 32]
0	0xbdc9d592	-0.098551884
1	0xbe25587a	-0.16147032
2	0x3ea2a7bf	0.31768605
3	0x3d11904a	0.035537995
4	0xbdcb2e90	-0.099209905
5	0x3ec6cc8e	0.38827938
6	0x3e806191	0.25074437
7	0xbefc574a	-0.49285346
8	0x3e8138b6	0.2523858
9	0xbeca4ec0	-0.39513206
10	0x3d361f94	0.04446371
11	0xbe9acf12	-0.30236107
12	0x3e3967be	0.18105981
13	0xbc5b8138	-0.013397507
14	0x3e09374f	0.13400005
15	0xbea25180	-0.31702805
16	0x3c48c0b7	0.012252978
17	0xbe000ddb	-0.12505285
18	0xbe842505	-0.25809494
19	0xbed2ec39	-0.4119585
20	0x3eae09b8	0.3399179
21	0x3e7852a4	0.24250275
22	0xbe9950eb	-0.29944548
23	0x3ebccd82	0.3687554
24	0xbe3e0743	-0.18557458
25	0xbcdc9f2a	-0.026931364
26	0x3e67ff35	0.22655948
27	0x3e9ec289	0.31007794
28	0x3d48ad1c	0.048993215
29	0x3d95ef27	0.07321005
30	0x3ec4bfee	0.3842768
31	0xbdb72da3	-0.089442514

conv2.bias f4 [32]
0	0x3d34901b	0.044082742
1	0x3be77fa1	0.007064775
2	0x3cd5a8a2	0.026081387
3	0xbc8d9378	-0.017282233
4	0x3ce121ab	0.027481874
5	0xba9843df	-0.0011616907
6	0xbdf3055b	-0.11866256
7	0xbd3ba354	-0.04581006
8	0x3acb50e1	0.0015511775
9	0x3c120ca1	0.008914144
10	0x374e06d8	1.228015e-05
11	0xbc2df4d1	-0.010617451
12	0xbc448ede	-0.011996953
13	0x3cf03dca	0.029326338
14	0xbbb7d906	-0.005610588
15	0x3d19cc13	0.037548136
16	0x3d6148c3	0.05500103
17	0x3bbaf328	0.005705256
18	0x3d128c4c	0.03577833
19	0xbc332f9d	-0.010936645
20	0x3c4a9678	0.012364976
21	0x3c90b1aa	0.017662842
22	0xbd7a1efd	-0.06106471
23	0x3bacf237	0.0052778977
24	0xbcc0bfc4	-0.023528941
25	0xbd41aa63	-0.047281634
26	0xbcea1078	-0.028572306
27	0x3d6a77e0	0.057243228
28	0x3b90f682	0.0044239173
29	0x3a884743	0.0010397214
30	0xbbcd58e9	-0.0062667024
31	0x3c8de10f	0.01731923

conv2.lin.weight f4 [32, 64]
0	0xbe0baa81	-0.13639261
1	0x3ca08432	0.019594286
2	0xbd0ba9e3	-0.034097563
3	0xbd911725	-0.070844926
4	0x3ccb8c6a	0.024847228
5	0x3e45ccae	0.1931636
6	0xbe1f6626	-0.1556631
7	0x3e16c45a	0.1472334
8	0x3e1ebbc7	0.15501319
9	0xbccef7e7	-0.025264693
10	0xbe335afa	-0.17515174
11	0x3e161c6a	0.14659277
12	0x3e702ca9	0.23454536
13	0x3d7eedae	0.062238388
14	0xbdfbda1f	-0.12297463
15	0xbe1380ca	-0.14404598
16	0x3d76b83a	0.060234286
17	0xbe81c005	-0.25341812
18	0xb9cdb819	-0.0003923781
19	0x3e18a6e0	0.14907408
20	0xbe3849f8	-0.17996967
21	0x3e591e93	0.2120307
22	0x3e322eea	0.17400709
23	0x3d628290	0.055300295
24	0xbd6728f2	-0.056435533
25	0xbe285e70	-0.16442275
26	0xbe52b953	-0.20578508
27	0x3e07b8e2	0.13254121
28	0x3d820182	0.06347944
29	0xbd891c7c	-0.06694886
30	0x3c92ee9b	0.017936042
31	0xbdcb8950	-0.099383
32	0x3d9e962c	0.07743487
33	0x3dddb7ed	0.10826097
34	0x3cce4e62	0.02518386
35	0x3d4bf956	0.049798332
36	0x3e8363a1	0.25661948
37	0x3e314e79	0.17315091
38	0xbe56d157	-0.20978294
39	0x3db01b38	0.085989416
40	0xbd603c55	-0.054745037
41	0xbe8fb385	-0.2806665
42	0xbe857e79	-0.26073053
43	0xbe4fa37e	-0.20277211
44	0xbdb5f14e	-0.08883916
45	0x3d7d8c7b	0.06190155
46	0x3d48b6a4	0.049002305
47	0xbc7732c1	-0.015087784
48	0x3ed77d04	0.42087567
49	0x3e6508ad	0.22366591
50	0x3e466fcf	0.19378589
51	0x3d822d8d	0.06356344
52	0xbde3f347	-0.11130386
53	0xbe1a054e	-0.15041086
54	0x3e892890	0.2678876
55	0xbe1a879f	-0.15090798
56	0x3d8850a1	0.06656004
57	0xbd6193e8	-0.055072695
58	0xbde2b49d	-0.110696055
59	0xbd8a9a4a	-0.067677096
60	0xbe38ba60	-0.18039846
61	0x3e447f67	0.19189225
62	0x3da568ec	0.08076653
63	0xbd8fc892	-0.070206776
64	0xbd436453	-0.0477031
65	0x3e256419	0.16151465
66	0x3e731414	0.23738128
67	0xbdee0dfd	-0.11623762
68	0xbe049f91	-0.12951495
69	0xbdb885e0	-0.0900991
70	0x3e683f31	0.22680356
71	0x3dbbb3d8	0.09165162
72	0xbe623a6b	-0.22092597
73	0x3d246fd8	0.040145725
74	0xbdfe1abb	-0.12407442
75	0x3db83f19	0.0899641
76	0x3e6f8dab	0.23393886
77	0xbd341ebb	-0.04397462
78	0xbe023df6	-0.12718949
79	0x3d4eb445	0.050464887
80	0xbdb56c43	-0.0885854
81	0xbe6b2722	-0.22964147
82	0xbd7ef614	-0.062246397
83	0x3e10c713	0.14138441
84	0xbd84778a	-0.06468113
85	0xbe198e63	-0.14995722
86	0x3e197250	0.14985013
87	0x3c93266f	0.017962663
88	0x3e8eb453	0.2787195
89	0xbd9c45fc	-0.07630536
90	0xbd845f90	-0.064635396
91	0x3e11f6a6	0.14254245
92	0x3e63a390	0.22230363
93	0xbe1ec09c	-0.15503162
94	0x3e69301b	0.22772257
95	0xbe1dce35	-0.15410693
96	0xbe3e22ef	-0.18568014
97	0x3dffd955	0.12492625
98	0xbd2424db	-0.04007421
99	0xbd1ccdf5	-0.038282353
100	0x3d0b526b	0.034014147
101	0x3db82ccf	0.089929216
102	0xbd0dd4a7	-0.03462663
103	0x3e64a12a	0.22327104
104	0xbdb50b75	-0.08840076
105	0x3e6719a4	0.22568375
106	0x3e3abc1a	0.18235818
107	0xbba859ac	-0.005137643
108	0x3e398316	0.18116412
109	0x3d39866c	0.04529421
110	0xbe1d3b5d	-0.15354677
111	0xbda03a45	-0.07823614
112	0x3d447332	0.04796142
113	0xbdb40dbc	-0.08791682
114	0xbd8c2f03	-0.06844904
115	0x3eadea39	0.3396776
116	0xbd9ced19	-0.0766241
117	0x3e607bd1	0.21922232
118	0xbe1e0ab1	-0.15433766
119	0x3d3ca784	0.046058193
120	0xbddb8732	-0.10719146
121	0x3cde6778	0.027148947
122	0x3ea910ae	0.33020538
123	0x3e4542ee	0.19263813
124	0xbda55376	-0.080725595
125	0x3e8338e7	0.2562935
126	0x3e593235	0.21210559
127	0xbe115bea	-0.14195219
128	0x3dbf8a9f	0.09352612
129	0x3d5c0cfc	0.05372332
130	0xbd58c441	-0.052921537
131	0xbe473072	-0.19452074
132	0x3e197277	0.14985071
133	0xbe53333b	-0.20625012
134	0xbd86836f	-0.06568038
135	0x3e666984	0.22501189
136	0x3e39fa9a	0.18162003
137	0xbc429922	-0.01187733
138	0xbe160814	-0.14651519
139	0x3e0cf2d6	0.1376451
140	0x3e8d16e1	0.27556518
141	0xbe43f062	-0.19134668
142	0xbe9412b9	-0.28920534
143	0xbdb26179	-0.08709998
144	0xbd681036	-0.056656085
145	0x3e12c469	0.14332737
146	0xbec0b36b	-0.37636885
147	0xbcb322f7	-0.021867258
148	0x3cd1a036	0.02558909
149	0x3d1722a1	0.03689826
150	0x3e4e7ae8	0.20164073
151	0xbdd53514	-0.104105145
152	0x3e85aedf	0.2610998
153	0x3e1e9baf	0.15489076
154	0xbe6a2392	-0.22865131
155	0x3e153818	0.1457218
156	0xbdf2cafc	-0.118551224
157	0x3e602623	0.21889548
158	0xbd1c89ec	-0.03821747
159	0xbd9f7e63	-0.07787778
160	0x3d296635	0.041357238
161	0xbe247130	-0.16058803
162	0xbdd91053	-0.10598817
163	0x3d76146b	0.060078066
164	0xbda50e10	-0.08059323
165	0x3e875e81	0.26439288
166	0xbeaad327	-0.3336422
167	0xbe869c93	-0.26291332
168	0x3e541d4b	0.207143
169	0x3dc2b035	0.09506265
170	0xbe09eea2	-0.13469937
171	0x3cdab954	0.0266997
172	0xbcd7de02	-0.026350979
173	0xbe8827bd	-0.26592818
174	0xbdfc31c4	-0.123141795
175	0x3e3ce462	0.18446496
176	0xbe8bac9e	-0.27280134
177	0x3e3e5dcd	0.1859047
178	0xbdd88602	-0.10572435
179	0x3d65299a	0.055947877
180	0xbd9ab0e9	-0.07553274
181	0x3d65672a	0.056006588
182	0xbda2e214	-0.07953277
183	0x3e49bc67	0.19700776
184	0x3e0fdc36	0.14048848
185	0x3deb68e0	0.11494613
186	0x3e067b68	0.13133013
187	0x3df2927d	0.11844347
188	0x3e70979f	0.23495339
189	0xbda45297	-0.08023565
190	0xbe160e4a	-0.14653888
191	0xbdb38aa2	-0.087666765
192	0xbe621285	-0.22077377
193	0x3e2b8a39	0.16751947
194	0xbd3e7b27	-0.046504166
195	0xbe892a2d	-0.2678999
196	0xbe0582ac	-0.13038129
197	0x3e39c6d4	0.18142253
198	0x3e305267	0.17218934
199	0xbd287bb7	-0.04113361
200	0xbe267c0e	-0.1625826
201	0xbe64501a	-0.22296181
202	0x3e462312	0.19349316
203	0x3d812138	0.06305164
204	0xbde3512e	-0.11099468
205	0xbd2aa9ce	-0.041665845
206	0x3e18cd43	0.14922051
207	0xbcb39def	-0.021925895
208	0xbe5597b6	-0.20858654
209	0xbe173caf	-0.14769243
210	0xbdbe239b	-0.09284135
211	0xbdfa5941	-0.12224055
212	0xbe22abc2	-0.15885833
213	0x3e27d1ee	0.16388676
214	0xbdd523e4	-0.10407236
215	0xbe193e88	-0.1496526
216	0xbe31a247	-0.1734706
217	0xbdd81c30	-0.10552251
218	0xbd9f3f0d	-0.07775698
219	0xbddb94a2	-0.10721709
220	0x3e521acf	0.20518039
221	0x3e275a97	0.16343151
222	0xbe03df4e	-0.12878153
223	0x3e66c0cb	0.22534482
224	0x3cca6f21	0.024711194
225	0xbe1244de	-0.14284083
226	0xbe06ec9b	-0.13176195
227	0xbe8f1d64	-0.2795211
228	0x3d6b4431	0.05743808
229	0xbe48c085	-0.1960469
230	0xbb210c7b	-0.002457409
231	0x3e528e27	0.2056204
232	0x3dd6beb0	0.104855895
233	0x3e5dd245	0.21662243
234	0x3e19b30c	0.15009707
235	0x3e26c8be	0.16287515
236	0x3db86b64	0.09004858
237	0x3e8dd49b	0.27701268
238	0x3d4ec396	0.050479494
239	0xbd299342	-0.0414002
240	0xbc80f3f8	-0.015741333
241	0x3e06508f	0.13116668
242	0xbe2a6287	-0.16639148
243	0x3b694b0b	0.0035597708
244	0x3e26c8f8	0.16287601
245	0x3cad4266	0.021149825
246	0x3d859a92	0.065236226
247	0xbbc9135f	-0.0061363424
248	0xbc34ce0e	-0.011035455
249	0xbda19e96	-0.07891576
250	0xbe64c75c	-0.22341675
251	0xbe307599	-0.1723236
252	0x3e54628c	0.20740718
253	0xbe2aa664	-0.16665035
254	0x3e5263cd	0.20545883
255	0xbe418500	-0.18898392

bn2.weight f4 [32]
0	0x3f928136	1.1445682
1	0x3f87fd92	1.0624259
2	0x3f9d08ea	1.2268345
3	0x3f70c561	0.94051176
4	0x3f94d698	1.1627989
5	0x3f6826b4	0.90684056
6	0x3fa4ceb6	1.2875583
7	0x3f9f949d	1.2467228
8	0x3fa1d5bc	1.2643352
9	0x3f958f71	1.16844
10	0x3f865d03	1.0497135
11	0x3f7c7c9f	0.98627657
12	0x3fa68585	1.3009497
13	0x3f9350aa	1.1508992
14	0x3f72fcac	0.94916797
15	0x3f9d32da	1.2281144
16	0x3fa12161	1.2588311
17	0x3f9df772	1.2341139
18	0x3f8ff30a	1.1246045
19	0x3f9ad3cb	1.2095884
20	0x3f9d61cb	1.2295469
21	0x3f9103d0	1.1329288
22	0x3f9a88ff	1.2073058
23	0x3f724db5	0.9464982
24	0x3f861d4d	1.0477692
25	0x3f9c91d5	1.2232004
26	0x3f990a58	1.1956282
27	0x3fa11f77	1.2587727
28	0x3f80e301	1.0069276
29	0x3f9cfe77	1.2265157
30	0x3fa5ea50	1.2962132
31	0x3f86593d	1.0495983

bn2.bias f4 [32]
0	0x3e7ac618	0.2448963
1	0x3d813892	0.06309618
2	0x3deed2e2	0.116613165
3	0xbd32ba97	-0.043634977
4	0x3db9356d	0.09043393
5	0xbda8afd2	-0.0823666
6	0x3e278e61	0.16362907
7	0x3e3757b3	0.17904548
8	0x3e81707b	0.25281128
9	0x3d9e4756	0.0772845
10	0xbb7bbf6a	-0.0038413652
11	0x3d81b070	0.06332481
12	0x3ea2e68d	0.3181652
13	0x3d9f1c2f	0.077690475
14	0xbc6ac902	-0.014330151
15	0x3e2993fb	0.16560356
16	0x3e1b68b6	0.15176663
17	0x3dcf8d56	0.101343796
18	0x3d38dee1	0.04513443
19	0x3e0c716b	0.1371514
20	0x3e08d115	0.13361008
21	0x3d5ce923	0.053933274
22	0x3df99beb	0.12187942
23	0xbe1295cd	-0.14314957
24	0xbd611526	-0.05495181
25	0x3ddda810	0.10823071
26	0x3dc669c6	0.096881434
27	0x3e84e571	0.259563
28	0xbdda44ef	-0.10657679
29	0x3e7c14b6	0.24617276
30	0x3e9bdc49	0.30441502
31	0x3ccf4a4b	0.02530398

bn2.running_mean f4 [32]
0	0x3e70cc84	0.23515517
1	0x3f555b6a	0.8334261
2	0xbdca1746	-0.0986772
3	0xbe909ff9	-0.2824705
4	0xbe6494f3	-0.22322445
5	0x3f88233c	1.0635753
6	0xbe33ca91	-0.17557742
7	0xbe4b27c9	-0.19839396
8	0x3e62d8b2	0.22152975
9	0xbee3fa71	-0.4452701
10	0xbee70b81	-0.45125964
11	0xbe32f705	-0.17477043
12	0x3ddcbde4	0.10778406
13	0x3f89ba75	1.0760027
14	0x3ef325d2	0.47489792
15	0xbd830371	-0.06397141
16	0xbe4a3843	-0.19748025
17	0xbed8e39c	-0.42361152
18	0x3e0a0523	0.13478522
19	0xbea49c26	-0.32150382
20	0xbe581098	-0.2110008
21	0x3fa738f2	1.3064253
22	0xbdbac549	-0.091196604
23	0xbf9427b4	-1.1574616
24	0xbf65823d	-0.8965185
25	0xbe9fd48c	-0.31216848
26	0x3e629b67	0.22129594
27	0x3e7df82b	0.248017
28	0xbf5b07c2	-0.8555871
29	0x3ecdaebe	0.4017238
30	0x3d6ac809	0.057319675
31	0x3f99d7f3	1.2019027

bn2.running_var f4 [32]
0	0x3e0d95b3	0.13826637
1	0x3ed48ba5	0.4151279
2	0x3e3f7fce	0.18701097
3	0x3f03271a	0.5123154
4	0x3eb3da1b	0.3512734
5	0x3f4cfe4b	0.8007552
6	0x3ce33771	0.027736397
7	0x3d030fcc	0.031997487
8	0x3cf523b3	0.02992425
9	0x3f5b84bf	0.8574943
10	0x3ea4b446	0.32168788
11	0x3da62699	0.08112831
12	0x3d8a48a4	0.06752136
13	0x3ecdb9cd	0.40180817
14	0x3f5b3ea7	0.85642475
15	0x3d2a3b2a	0.04156033
16	0x3da1a0bb	0.07891985
17	0x3f194ddc	0.5988443
18	0x3e5433e9	0.20722927
19	0x3ed1af2c	0.40953958
20	0x3e9a9a54	0.30195868
21	0x3f97073c	1.1799083
22	0x3ceecc52	0.029150162
23	0x40caa0f0	6.3321457
24	0x3f6846bd	0.9073294
25	0x3ec9692d	0.39338055
26	0x3edae679	0.42753962
27	0x3d42c86e	0.047554426
28	0x3f7542af	0.95804876
29	0x3dbb00bf	0.09131002
30	0x3d91c19b	0.071170054
31	0x406d73c4	3.7101908

fc.weight f4 [2, 32]
0	0xbe3cc8e6	-0.18436012
1	0xbe41653f	-0.18886279
2	0x3eb15b17	0.3463981
3	0xbd92a4a6	-0.071603104
4	0x3e75de55	0.24010594
5	0xbd40e501	-0.047093395
6	0x3edd21da	0.4318989
7	0x3e90a9b8	0.28254485
8	0xbec1485c	-0.37750518
9	0x3e84eff3	0.25964317
10	0x3da9697d	0.082720734
11	0xbded376d	-0.11582837
12	0xbebd661d	-0.3699197
13	0xbe502b3e	-0.20328996
14	0xbdb4a997	-0.08821409
15	0x3ec5f3a3	0.38662443
16	0x3ec1a1a2	0.3781863
17	0xbb842a53	-0.0040333658
18	0x3e901d41	0.2814732
19	0x3e2aa3f6	0.16664109
20	0x3e97bb0a	0.29634887
21	0x3e4e813c	0.20166487
22	0x3e71c170	0.23608947
23	0x3df56487	0.11982065
24	0x3e19a59c	0.15004581
25	0x3e847ddc	0.25877273
26	0x3eaa93f7	0.33316013
27	0xbea35347	-0.31899473
28	0x3d2e60cd	0.042572785
29	0xbe9a500f	-0.30139205
30	0xbea48e7b	-0.32139954
31	0x3d2d9011	0.04237372
32	0x3e5ee827	0.21768247
33	0x3e2f89e8	0.17142451
34	0xbe971b22	-0.29512888
35	0x3dc50d02	0.09621622
36	0xbe99439d	-0.29934397
37	0xbd52f817	-0.05150613
38	0xbeb2dce2	-0.34934145
39	0xbe2f5a3c	-0.17124265
40	0x3e34fd90	0.17674851
41	0xbd251828	-0.04030624
42	0xbda6bc25	-0.081413545
43	0xbcb4bec3	-0.022063619
44	0x3eb1b36f	0.3470721
45	0x3e86e456	0.26346081
46	0x3d3b4ed3	0.04572947
47	0xbec16ef2	-0.37779957
48	0xbe6a9b07	-0.229107
49	0xbea2e03b	-0.318117
50	0xbe09f9cb	-0.13474195
51	0xbe8cde75	-0.2751347
52	0xbdc14fc3	-0.094390415
53	0xbe1ef5c1	-0.15523435
54	0xbeaec00b	-0.34130892
55	0x3d2f8e0c	0.042860076
56	0xbdfbd631	-0.12296713
57	0xbe83d025	-0.2574474
58	0xbea7c4ab	-0.32767233
59	0x3ebba8ea	0.3665231
60	0xbdbc1430	-0.09183538
61	0x3ea52916	0.3225791
62	0x3ed1825b	0.40919766
63	0x3e5b4070	0.214113

fc.bias f4 [2]
0	0xbd20f864	-0.039299384
1	0x3b5b3211	0.003344659
