models/booster/2-1.pth (torch, 7354 bytes, 18 tensors)

conv1.att_src f4 [1, 1, 16]
000000 29 d9 81 bf 59 2a 9e c0 49 30 94 3e cb 00 6e 3d
       -1.0144397 -4.9426694 0.2894309 0.058106225
000010 fb db 0a bf 32 8c 24 bf e0 c4 dc 3f 30 f1 f3 bf
       -0.54241914 -0.6427642 1.7247581 -1.905798
000020 83 c6 78 bd 70 a8 67 bf ee 08 df bf d8 5b b4 3f
       -0.06073619 -0.9049139 -1.74246 1.4090528
000030 71 43 f5 3f 9a 32 24 c0 b5 02 08 bf 75 5c a9 bf
       1.9161206 -2.5655885 -0.5312913 -1.3231341

conv1.att_dst f4 [1, 1, 16]
000000 8d e1 30 bd b9 d6 ac 3e 15 e8 00 3e 5f ca 89 3e
       -0.043183852 0.3375757 0.12588532 0.2691221
000010 fe e9 b6 3e 5a fe 04 bf 81 8f 12 3f a0 9d 02 3e
       0.35725397 -0.5195061 0.5725022 0.12755442
000020 c2 09 04 3f bf d0 77 3e 84 a6 34 3e 05 56 26 bf
       0.5157739 0.24200724 0.17641646 -0.64975005
000030 cb c3 7a 3c 06 08 c2 be 69 e1 b8 be 0f 6b c2 3e
       0.01530547 -0.37896746 -0.36109474 0.37972304

conv1.bias f4 [16]
000000 dc 80 ac bc 82 1a a0 b9 81 01 f7 bb 54 a9 da 3c
       -0.021057539 -0.00030537328 -0.007538021 0.02669207
000010 02 f9 04 bc 37 0c 15 bc 10 e9 54 3d 28 77 14 ba
       -0.008116009 -0.0090971505 0.05198008 -0.00056635076
000020 31 1b 1a bd ba df fa 3c a2 b0 03 3a 25 5e f0 bb
       -0.037623588 0.03062426 0.0005023574 -0.0073354417
000030 01 1a bf 3b b5 0c 81 3b 5b d4 ed 3c cf 89 c5 b9
       0.0058319573 0.0039382824 0.029031923 -0.00037677443

conv1.lin.weight f4 [16, 10]
000000 16 e6 88 bf ea bf 40 3f cb b2 ef bd d5 7a 65 bc
       -1.0695217 0.7529284 -0.11704024 -0.014006336
000010 11 82 fb 40 9c 0d d6 c0 38 98 17 bc 19 d0 e4 3f
       7.8596272 -6.6891613 -0.0092526 1.7876006
000020 cf 21 ac 3f 73 a4 96 40 28 a1 88 3f 0e 29 3d 40
       1.3447818 4.7075744 1.0674181 2.9556308
000030 75 af 86 3e 22 86 ed be 03 c5 38 41 27 a4 ce c0
       0.26305738 -0.46391398 11.548099 -6.457538
000040 3a 21 6b bf aa f2 15 40 63 be ae be f9 6d ba 40
       -0.91847575 2.342936 -0.3412963 5.8259244
000050 39 2e a6 3e 29 dc 2b be d5 bc a6 3e e4 65 41 bc
       0.3245714 -0.16783203 0.32565942 -0.011804078
000060 25 01 fe bf 52 13 77 40 1e fb 7f bf 10 16 0f c0
       -1.9844099 3.8605542 -0.9999255 -2.2357216
000070 81 ac ef be 17 68 f4 bf 6b 64 33 c0 24 da 4f c0
       -0.46811298 -1.9094266 -2.803004 -3.2476892
000080 87 31 44 c0 91 91 02 3c 8f 45 0e 40 26 c5 ed c0
       -3.065523 0.007969276 2.2229955 -7.430316
000090 37 51 80 bf b0 ee 55 3c 74 6d 21 c0 a6 63 d1 be
       -1.0024785 0.013057396 -2.5223055 -0.40896338
0000a0 de d2 ac 3f 25 b2 6c 40 60 0e 96 3f fc 97 f8 bb
       1.3501852 3.698373 1.1723137 -0.0075864773
0000b0 26 cb cd 40 a7 fd b2 40 94 70 5f bf 10 d9 cc be
       6.4310484 5.5934634 -0.87281156 -0.40009356
0000c0 f0 b8 45 bf d8 1c 8c 40 60 5a 83 bf ef 0b dd bb
       -0.7723532 4.378521 -1.0261955 -0.0067458074
0000d0 d0 59 a4 bf bf 72 6e 3c 0c 68 13 41 22 b6 c2 c0
       -1.2839909 0.014553725 9.212902 -6.084733
0000e0 68 1b b5 3d 58 22 f3 3f 12 c8 8c bf a3 75 b8 40
       0.08843118 1.8994856 -1.0998557 5.76436
0000f0 09 fa 38 3f 62 b2 8a 3f 05 4e e8 3e 71 84 80 bc
       0.72256523 1.0835688 0.45372024 -0.015688153
000100 b2 2b 27 c1 4c d3 16 41 02 6a 47 be f0 69 27 c0
       -10.448168 9.426586 -0.19474033 -2.615841
000110 9e c4 67 be 0b 92 5a c0 b1 bb 16 3f 1e 6d 39 40
       -0.22633597 -3.4151638 0.58880144 2.897285
000120 b1 67 0d 3f 67 b8 5f bc a0 ff 26 41 ce 10 bd c0
       0.55236346 -0.013654805 10.437408 -5.9083014
000130 c8 19 8b bf 53 75 cb 3f 68 b4 59 c0 43 c1 b1 40
       -1.0867243 1.589518 -3.4016361 5.5548415
000140 06 fd c4 3f 17 d2 c2 3f 6b 81 ce 3f a7 8e 23 3c
       1.5389717 1.5220364 1.6133245 0.009982741
000150 ee 7e 88 bf 58 4a 08 41 05 ff 23 c0 c3 12 52 c0
       -1.0663736 8.51815 -2.5624402 -3.2823951
000160 75 40 b4 3f d1 26 c5 bd 37 47 42 bd ec 9e 95 bf
       1.4082171 -0.09626544 -0.047431197 -1.1689124
000170 17 e0 48 bf 88 e7 a2 bb 62 c0 19 41 3a 95 14 c1
       -0.78466934 -0.0049714483 9.609468 -9.286432
000180 74 71 a6 3f 67 ff 27 40 9b 11 35 3f ad f9 4f 40
       1.3003373 2.6249635 0.7072999 3.249614
000190 52 f2 6b 3f 9f 54 4a 40 25 3d ee 3e d1 66 ef 3d
       0.92166626 3.1614149 0.46531025 0.116895325
0001a0 be 89 2c 41 77 3b 99 c0 2d 9b a8 bf 3d 99 c2 3f
       10.783628 -4.788509 -1.3172356 1.5203015
0001b0 72 ae 00 c0 24 ec a5 40 35 d0 46 bf f0 e3 a0 c0
       -2.0106473 5.1850758 -0.7766145 -5.0278244
0001c0 3e b7 34 bf cf c9 b6 3c 13 83 2c c1 bc 13 6d 40
       -0.70592105 0.022313027 -10.782001 3.7043295
0001d0 c4 39 00 3f 72 1a e1 bf a0 d4 32 40 52 d2 bc c0
       0.50088143 -1.7586195 2.7942276 -5.900674
0001e0 65 13 a3 3c 10 9a 9d bf 60 17 f0 be c6 b2 69 bd
       0.019906709 -1.2312641 -0.46892834 -0.057055257
0001f0 9a 25 1c c1 2c 96 ae 40 2e 16 e3 3d 87 00 ff bf
       -9.75918 5.4558315 0.11088215 -1.9922036
000200 42 79 a5 be c1 34 ad c0 7b 36 b2 3e 1e a7 c2 3f
       -0.32319075 -5.4126897 0.3480719 1.520725
000210 32 fb ce 3e 97 91 04 bd 53 86 23 41 5f 91 bd c0
       0.40426022 -0.032365408 10.220294 -5.9239955
000220 03 1d c0 bf 3c 23 e9 3f 3e c5 b0 be 41 64 b7 40
       -1.5008854 1.8213878 -0.34525484 5.730988
000230 31 88 b2 bf 82 9e 07 bf 2f 51 de bf a2 c4 83 3c
       -1.3947812 -0.5297624 -1.7368525 0.016084973
000240 15 9f 56 41 63 54 a0 c0 3c 1d 46 bf 7a cc 0c 3f
       13.413838 -5.010301 -0.7738836 0.54999506
000250 a3 a5 32 c0 a5 9a a9 40 02 c0 87 3f 54 1b 8a 40
       -2.7913597 5.3001275 1.0605471 4.315836
000260 c5 55 14 3f 47 fc 5d 3f d5 d1 1f 41 7c fe a0 c0
       0.57943374 0.8671307 9.988729 -5.031065
000270 31 2e 78 bf 26 cf 1f 40 b2 43 13 c0 f2 01 b1 40
       -0.9694548 2.4970183 -2.3010068 5.5314875

bn1.weight f4 [16]
000000 62 16 e6 3e 2f 0a 81 3f 1f c6 14 3f 7b 94 62 3f
       0.44938952 1.0081233 0.5811481 0.88507813
000010 3f 9e 83 3f e6 46 72 3f 4b 57 95 3f 5b 5b 21 3f
       1.0282668 0.9463943 1.1667265 0.6303002
000020 a8 8e 89 3f 75 85 a6 3f 55 cc 51 3f a3 fa 4e 3f
       1.074666 1.3009478 0.8195241 0.8085119
000030 78 50 3d 3f 2a be 3f 3f 73 fe 7b 3f 3a 12 83 3f
       0.7395091 0.7489954 0.98435134 1.0239937

bn1.bias f4 [16]
000000 44 a6 c2 be 21 9d ac be 11 6a 80 be 81 69 3b 3f
       -0.38017476 -0.3371363 -0.25080922 0.7320786
000010 ee 21 01 be 9c 12 36 3c 2a 99 c7 3d 6f 8c bd be
       -0.126106 0.011112835 0.097460106 -0.37021205
000020 c3 29 17 3f 81 d0 c8 ba 2a d2 f0 3c d2 2f c4 bd
       0.590481 -0.0015320928 0.029397089 -0.095794335
000030 8d ea 09 bf 2b 52 ec bd a8 0d 68 3e 90 a8 4b bc
       -0.5387352 -0.1153911 0.2266146 -0.012430325

bn1.running_mean f4 [16]
000000 f5 d8 1e c2 00 bd ac c4 c2 50 0d c2 5f 08 50 41
       -39.711872 -1381.9062 -35.328865 13.002044
000010 16 13 ad c1 5f 8d 19 42 aa 2d 36 c2 81 d6 2f c2
       -21.63432 38.388058 -45.544594 -43.959476
000020 07 c1 07 42 a9 99 8b c1 e2 de ae 43 ef 99 88 42
       33.938503 -17.45003 349.74127 68.30065
000030 22 94 2b c3 97 0e c2 c2 17 32 21 42 5d a7 21 45
       -171.57864 -97.028496 40.298916 2586.4602

bn1.running_var f4 [16]
000000 72 5a c1 44 08 d1 d9 49 75 91 91 44 15 f0 06 44
       1546.8264 1.784353e+06 1164.5455 539.7513
000010 c1 23 02 44 ac 7d d0 44 c8 ff fe 44 9c f0 c6 44
       520.55865 1667.9272 2039.9932 1591.519
000020 de 8c 50 44 c8 57 81 43 ae c3 e0 47 36 20 83 45
       834.20105 258.6858 115079.36 4196.0264
000030 dc 3d d4 46 6d 4b 09 46 c2 27 02 45 de e4 be 4a
       27166.93 8786.856 2082.4849 6.255215e+06

conv2.att_src f4 [1, 1, 8]
000000 98 85 dd bf e8 0f f8 c0 3c 57 e9 c0 8d d4 ba 40
       -1.7306395 -7.7519417 -7.2918987 5.838446
000010 c4 f2 f5 c0 6c 13 e5 40 6b 0c df c0 a3 0b 2d c0
       -7.6858845 7.158621 -6.970266 -2.7038352

conv2.att_dst f4 [1, 1, 8]
000000 e7 44 16 c0 33 9e 86 bc a9 5b 5f bf 0d 27 96 bf
       -2.3479555 -0.016432857 -0.8724924 -1.1730667
000010 e1 0b a5 3e d8 84 ca bf 97 05 24 3e a4 f4 a3 3f
       0.32235625 -1.5821791 0.16017757 1.2809033

conv2.bias f4 [8]
000000 f0 46 0b be 4d 5b 2c bb a8 34 88 3d 1f 56 0a be
       -0.1360128 -0.0026299537 0.066506684 -0.13509415
000010 f2 68 2a 3c e1 33 6f bd b8 30 c2 3d 2f e1 4d bd
       0.0104009975 -0.058399085 0.094819486 -0.05026358

conv2.lin.weight f4 [8, 16]
000000 af 99 67 3e 10 54 ca 3c df f1 48 3e cf c6 10 bf
       0.2261722 0.024698287 0.19623516 -0.5655336
000010 1e 49 72 bd cc af 82 bb 42 bd ba be 67 9d 09 be
       -0.05915176 -0.003988242 -0.36472517 -0.1343895
000020 62 ce 80 bd 0d f5 9a be 35 40 aa bc d8 e8 e9 3d
       -0.062893644 -0.30265084 -0.02078257 0.114213645
000030 1e f3 31 bf 65 e0 ff 3e 4b 52 6b be 13 a0 02 3f
       -0.6951159 0.49975887 -0.22980611 0.51025504
000040 b7 fe 63 3e 40 5f 4c bd 2e 6f bd 3d c8 56 89 3e
       0.22265135 -0.049895525 0.092497215 0.2682402
000050 7d 79 bf 3d 70 d1 e1 3e 30 b7 92 be a3 18 a8 be
       0.09349344 0.441051 -0.28655386 -0.32831296
000060 d1 06 12 bf 74 c3 a3 be 49 9c 04 3e fe 48 4e 3e
       -0.5704165 -0.31985056 0.12950243 0.20145032
000070 a2 c9 49 3f f9 5b c6 3d 70 32 16 3e aa f1 f0 be
       0.7882329 0.09685511 0.14667678 -0.47059375
000080 05 fc 06 be aa 45 7b be f3 39 ca bd 57 63 26 3e
       -0.13182075 -0.24538293 -0.09874334 0.16248833
000090 9b aa 60 3d 67 f2 eb ba 78 f2 0e bf 4f ac bf 3e
       0.054850202 -0.0018001319 -0.5583873 0.3743615
0000a0 73 39 ed be 75 b3 1b 3f 30 64 25 3e e2 14 7b be
       -0.46332893 0.60820705 0.161515 -0.24519685
0000b0 97 51 c2 bc e3 aa a1 bd 97 a9 81 3e 85 2a 62 3e
       -0.023720546 -0.07893922 0.253247 0.22086532
0000c0 d9 60 ed bd 63 48 d1 be c4 52 de bc 86 0a 64 bd
       -0.11590738 -0.4087554 -0.027139075 -0.0556741
0000d0 df f0 de 3e 5a 3a 41 be 09 0f 2b 3f 83 bd d5 3d
       0.43543145 -0.18869916 0.66819817 0.10436537
0000e0 9d bf 93 3e f3 12 02 bf 0b 2c 1d 3d 32 8a 92 be
       0.28857127 -0.50810164 0.03837208 -0.2862106
0000f0 6f 10 63 3d ee e4 84 be 48 72 05 bb 62 98 26 3d
       0.055435594 -0.2595591 -0.0020362306 0.040672667
000100 f2 26 b8 bd f2 29 87 be 28 c3 26 3e a2 4c e4 3e
       -0.08991803 -0.2639919 0.16285384 0.44589716
000110 90 40 30 bb f5 65 d8 3d 0a 9d 6b bd 66 bb 53 3e
       -0.002689395 0.10566322 -0.05752281 0.20676956
000120 1d 44 d5 be 63 80 06 3e f8 2b e5 be 8e 6f 04 bd
       -0.4165353 0.13134913 -0.44760108 -0.03233295
000130 68 c2 50 3e 86 e1 31 be 67 b0 09 3f 37 fd ef bd
       0.2038666 -0.17371187 0.53784794 -0.11718219
000140 cd 4f dd bd 27 1e 3e be f3 b6 d9 3d 47 7c 7e be
       -0.108062364 -0.1856619 0.10630598 -0.24852096
000150 8e 52 05 3e 5c 1a b2 be 99 ba 0b 3f a0 9b cf bc
       0.13019773 -0.34785736 0.545816 -0.025342762
000160 89 da 85 3e 9e 0a 12 bf ed b3 97 3e 5d ba 95 be
       0.26143292 -0.5704745 0.2962946 -0.29243746
000170 3a a3 82 3d f8 75 6a 3b 27 a0 92 bb 87 f6 72 3e
       0.06378789 0.0035775881 -0.004474658 0.23726855
000180 c2 63 ac 3b 4d 65 13 be d0 6a 35 be e8 35 30 3e
       0.0052609155 -0.14394112 -0.17716527 0.17208064
000190 79 48 12 bf dc 2d f0 3d f5 65 78 be 29 1c 02 3e
       -0.57141834 0.11727497 -0.24257644 0.12706055
0001a0 8b dd 2e bf 08 d2 24 3f 3c 98 cb 3e 2a 95 69 be
       -0.683068 0.6438298 0.39764583 -0.22810808
0001b0 4a 46 96 3e 43 27 d4 3d a5 28 f8 3e e5 f7 8b bd
       0.293505 0.10359051 0.4846851 -0.068343915
0001c0 3c 1e 9d 3e 13 db d3 3e bf d0 26 be c7 39 d2 3c
       0.3068713 0.41378078 -0.16290568 0.025662316
0001d0 f6 68 88 3d 10 04 c0 3e da d5 f8 bc 64 52 b9 3e
       0.06660645 0.375031 -0.03037541 0.36195672
0001e0 24 1b 86 be 6d 2c 54 bd b0 e2 d4 be ac 40 49 3e
       -0.26192582 -0.05180018 -0.415792 0.19653577
0001f0 e3 c2 dd 3f 28 44 19 be 6f cd 07 3f fe 9c 04 bf
       1.73251 -0.14967406 0.5304784 -0.5180205

bn2.weight f4 [8]
000000 70 5c 9f 3f 9d 9b c6 3f 7c 5e a3 3f cd f0 cd 3f
       1.2450085 1.551624 1.2763209 1.6089112
000010 76 ed 96 3f 02 fd 9e 3f 3d 7b a4 3f 91 0f d2 3f
       1.1791217 1.2420962 1.2850109 1.6411

bn2.bias f4 [8]
000000 01 97 02 3f 45 9b 70 3e f8 1f e6 3e 52 4d 50 3f
       0.51011664 0.2349673 0.44946265 0.8136798
000010 4e f7 aa 3e 89 f1 72 3f 5d 1e 08 3f b4 5a 84 be
       0.33391804 0.94899803 0.5317133 -0.2585045

bn2.running_mean f4 [8]
000000 ae 25 3d bf e4 b7 ac be b5 15 f7 bb c7 c6 02 3d
       -0.7388562 -0.33734047 -0.0075404295 0.03192785
000010 ad fb a3 3d dd 13 17 bd 0a e3 fd 3b 1b 75 9f b9
       0.08006988 -0.036884177 0.0077480124 -0.00030414094

bn2.running_var f4 [8]
000000 b1 03 81 3d 2a d8 6e 3d 50 28 32 3d 9f fd 01 3d
       0.06299532 0.05831162 0.043495476 0.031736013
000010 43 1d b0 3d 34 d9 2a 3d 59 27 c1 3d 62 03 cd 3d
       0.08599331 0.041711047 0.09431333 0.10010411

fc.weight f4 [2, 8]
000000 a3 92 81 be e8 94 cf 3e cf c4 e2 3e b5 41 65 bf
       -0.25307187 0.40543294 0.44290778 -0.89553386
000010 23 cd 0d 3f 20 48 25 bf be 2c 21 3f e4 c1 5d bf
       0.5539114 -0.6456318 0.62958896 -0.8662398
000020 63 8c f6 3e 03 d0 0c bf 14 ee 0e bf 10 77 25 3f
       0.48153982 -0.550049 -0.5583203 0.646348
000030 56 1f 00 bf 68 f5 55 3f 36 8d f8 be 63 ae 84 3e
       -0.50047815 0.83577585 -0.48545235 0.25914297

fc.bias f4 [2]
000000 11 a7 60 be 19 97 2a 3f
       -0.21938731 0.66636807
