models/booster/2-1.pth (torch, 7482 bytes, 18 tensors)

conv1.att_src f4 [1, 1, 16]
00000000: 8454 05bf 4f44 1abf e09d 2a3e 1d75 0bbf
00000010: 0f92 9b3c 2e0a ce3d c6b6 983f 81dc 163f
00000020: a448 3c3e f414 f83e 9491 823e 1571 28bf
00000030: 81fe 133f 6b78 20bf 37e0 fdbe de69 18bf
-0.52082086 -0.6026048 0.16661787 -0.54475576 0.018990545 0.10060535 1.1930778 0.5893021
0.18387085 0.48453486 0.25501692 -0.6579755 0.5781022 -0.62683743 -0.49585125 -0.5953654

conv1.att_dst f4 [1, 1, 16]
00000000: 7cfb 743e aad3 3ebd 404a 2e3e 132a f8be
00000010: 69a1 f3be 17b6 f23e 652a 283f aba1 423f
00000020: 1962 223f 2e6c f9be 4aa8 703d 486d 193f
00000030: b5cf fcbe 1c8c d13e f66a f23e ae95 acbe
0.23924059 -0.046588577 0.17020512 -0.484696 -0.47584084 0.4740455 0.6568969 0.76027936
0.63430935 -0.48715347 0.058754243 0.59932375 -0.49377218 0.40927207 0.4734723 -0.33707947

conv1.bias f4 [16]
00000000: 30ff c8ba de06 1dbc b9ce a9bc 7f18 2ebd
00000010: e510 b63c e344 32bc 1989 37bb 0d64 35ba
00000020: 31aa 003b ae10 4a3c 10bd 4b3c f82b 91b9
00000030: 7ce9 5738 03e4 5a3b af59 66b9 eaee cc38
-0.0015334841 -0.009584157 -0.020728456 -0.04250383 0.022224853 -0.010880682 -0.00280053 -0.0006919511
0.0019632692 0.012333078 0.012435213 -0.00027689314 5.1477444e-05 0.0033400066 -0.00021967919 9.771979e-05

conv1.lin.weight f4 [16, 12]
00000000: 41f0 4dbd b63c 013f 506d 17bf 336c 1cbd
00000010: e746 c1be 77c7 8ebe 4a78 cbbe 4df0 01bf
00000020: 4acd 9f3f 4817 53c0 2728 afbf 8239 ba3e
00000030: e2fa 3c3e f389 41be e0c4 8e3d 111d 07bd
00000040: b0db 1ebe f2ce d03f bb20 e1be ed5b 73bf
00000050: e367 e53f bce6 dfbf 88b2 77bf cb1d 493f
00000060: 44b5 c4bf 0614 dcbf 1e58 adbf 039c 07bc
00000070: d51c 243f 7abe fbbf f971 a53e 13d4 ba3e
00000080: 6edb 9c3e 3065 97bf 2904 eabf 6aff 8fbe
00000090: 3cd6 b4bf 6c06 d8bf a33f cabf e9d7 8d3b
000000a0: 6ff7 bf3f b916 9cc0 ec11 8fbe 1d9b ad3e
000000b0: e1f7 993f a4e7 5dc0 8f56 febf 84cb 63c0
000000c0: d742 a0bf 68b5 35bf 3138 a7bf 47e6 2abc
000000d0: eb1a 853f e0e6 88c0 34dc d63d a43b a53e
000000e0: c78c 4b3f 23c1 1bc0 d23e 9ebf 0d8f 02c0
000000f0: 1645 3040 be6f 2440 bcea f33f 91c0 29bb
00000100: 7b52 a5bf 4687 7140 fc7b 743e cee1 073e
00000110: c6ff bebf 7143 3240 88de 6240 5819 cf3f
00000120: 24d0 c63e 49cb 81bf 9c0d 8dbe 6a33 a2bc
00000130: 55bf 953e 069d 0b40 d71d a1be 1cee 6dbf
00000140: 3981 e5bf ffd0 2840 61df 653e 0696 333e
00000150: dec2 063e 7afd d13e 5a90 6b3f 63aa e33b
00000160: 946e 99be 80b5 1c40 0c50 633f ab0e 8abe
00000170: 57f7 c1bf 3523 5340 7671 d93f 3d25 02bd
00000180: 0576 073f af5c 653d 3b3b 0abc e113 e33c
00000190: 8008 a2be e240 0d40 057b 363f 909c e2be
000001a0: 7a9e 7abe 7e86 e13f 7ad4 1a3f 2a21 663e
000001b0: 3ebd 55bd 3584 8cbf d488 4bbe b585 c0bc
000001c0: 4025 083f d984 72be 16f8 64bf 5354 78bf
000001d0: 7edc 55bf 7751 0a40 cc0d 9d3f 59f1 69be
000001e0: dfe6 ec3e 52dd 2c3f 8732 6d3f 77c6 cfbc
000001f0: 64fb 15bf f274 2840 cfe4 513d 141b a4be
00000200: 11f4 4ebf 50a8 1740 474b da3f c988 ca3e
00000210: 476a 2dbd 35f2 263f b147 15bf 518b d3bc
00000220: f4e3 0fbd d4ae c3bf 1a26 923f dda5 093f
00000230: f103 943f 3836 5ac0 1b05 8fbf 5903 0ebf
00000240: 56a7 70be 59bf 77bf 596c 323d c8f1 5abd
00000250: 5ac7 d43e 631d 553e 381c 7b3e 3c71 8e3d
00000260: 4227 c9bf 2fc6 2940 1813 4c3f fe20 fbbe
00000270: 3a35 7e3f 2743 e83f 5372 893f 3340 83bc
00000280: 4dc7 0ebf 0c1d f73f 8d09 983d 47b1 293d
00000290: c3eb 1d3f 0c68 b2bf 68c3 e83f d495 023f
000002a0: e5e4 2a3c 28b5 b43f b40b 9bbc e580 e6bc
000002b0: 52f9 55bc 55dd 3fbf 00c6 8ebe cb31 1abd
000002c0: 91fe ac3f 6afc 41c0 a897 f6bf 2215 2a3e
000002d0: c720 cd3e 56fa c33e 929a 9d3c 9acb a73e
000002e0: 37c0 62be ff2c 48bf ef9a 24bf a6b6 2d3f
000002f0: 6ccd aa3f a1b2 45c0 99a2 2abf 07ae 6d3e
-0.050277952 0.5048326 -0.5915117 -0.038189124 -0.37749407 -0.27886555 -0.3974021 -0.50757295
1.2484524 -3.298296 -1.3684129 0.36372 0.18455079 -0.1890028 0.06971145 -0.032986704
-0.15513492 1.6313155 -0.43970284 -0.9506214 1.7922329 -1.749229 -0.9675679 0.78561085
-1.5367818 -1.7193611 -1.3542516 -0.008276942 0.64106494 -1.9667504 0.32313517 0.36489925
0.30636162 -1.1827755 -1.828252 -0.28124553 -1.4127879 -1.687696 -1.580067 0.004328717
1.4997386 -4.877774 -0.2794336 0.33907405 1.2028772 -3.4672632 -1.9870166 -3.5592966
-1.2520398 -0.7097993 -1.3064023 -0.010430879 1.039884 -4.278183 0.10491219 0.32272065
0.79511684 -2.4336631 -1.2362921 -2.0399811 2.7542167 2.5693202 1.905601 -0.0025902132
-1.2915796 3.7738814 0.23875421 0.13269731 -1.4921806 2.7853663 3.5448322 1.6179609
0.38830674 -1.0140163 -0.27549446 -0.019799907 0.29247537 2.181459 -0.31468078 -0.9294145
-1.7930061 2.637756 0.22448494 0.17537698 0.13160273 0.410137 0.9201714 0.006947802
-0.29967177 2.448578 0.88794017 -0.26964316 -1.5153607 3.2990239 1.698775 -0.031773794
0.5291446 0.055996593 -0.008436973 0.02771944 -0.3164711 2.2070851 0.7128146 -0.44260073
-0.24474517 1.7619169 0.60480464 0.22473589 -0.05218243 -1.0977846 -0.19876415 -0.023501256
0.5318184 -0.2368349 -0.8944105 -0.9700367 -0.8353957 2.1612222 1.2269835 -0.22845973
0.4626989 0.6752521 0.92655224 -0.02536319 -0.58586717 2.6321378 0.0512436 -0.3205191
-0.80841166 2.369648 1.7054223 0.39557484 -0.042337682 0.6521333 -0.5831252 -0.025823267
-0.035129502 -1.5287728 1.1417878 0.5376871 1.1563703 -3.4095592 -1.1173433 -0.5547386
-0.23501334 -0.9677635 0.04356036 -0.053453237 0.41558343 0.20811991 0.24522483 0.069551915
-1.5715106 2.6527212 0.79716635 -0.4904861 0.9929997 1.8145493 1.0738014 -0.016021824
-0.5577286 1.9305739 0.07423697 0.04142883 0.6168787 -1.3938003 1.8184633 0.5100987
0.010430549 1.4117785 -0.018926479 -0.028137634 -0.013059931 -0.749471 -0.27885437 -0.037645143
1.3515188 -3.0310311 -1.9265032 0.16609624 0.4006407 0.3827693 0.019238744 0.32772523
-0.22143637 -0.7819366 -0.6429891 0.67856824 1.334394 -3.0890276 -0.66654354 0.23210917

bn1.weight f4 [16]
00000000: d703 2d3f 9979 7f3f 4e43 753f 10e5 9a3f
00000010: ff75 943f 22fc 643f 48b1 4f3f da76 8d3f
00000020: beb1 403f 253b 8a3f c71d 7b3f c538 6e3f
00000030: 5efc 783f d4dd 853f dd05 373f f477 233f
0.67583984 0.9979492 0.95805824 1.2101154 1.159851 0.89447224 0.81129885 1.1051896
0.75271213 1.07993 0.9809231 0.93055373 0.9726008 1.0458322 0.7149332 0.6385491

bn1.bias f4 [16]
00000000: 4c2e 00bf 3a64 5bbf 52f8 18bd 47da 333f
00000010: f8eb 3a3d 4d9d 443f 8054 bdbe ea64 8ebe
00000020: e089 35bf 124b 3bbf 4d3d 19be 7848 14bd
00000030: cf73 073e 6da7 07bd 385d 82be e70a 13bf
-0.50070643 -0.8569981 -0.03734619 0.7025494 0.045635194 0.7680252 -0.3697853 -0.27811366
-0.70913506 -0.73161423 -0.1496479 -0.036201924 0.13227771 -0.033118654 -0.25461745 -0.5743851

bn1.running_mean f4 [16]
00000000: 995b d3c2 b92e a8c2 b435 eec1 9a93 5ac1
00000010: e328 33c2 0ab3 8141 53df 2cc2 03d7 1742
00000020: 7049 a942 cff1 82c2 3313 4ac2 2102 82c2
00000030: d60b 00c3 464b e9c1 4c37 99c2 92f7 4c44
-105.6789 -84.091255 -29.776222 -13.661036 -44.78993 16.212421 -43.21809 37.959972
84.64343 -65.47228 -50.51875 -65.00416 -128.04623 -29.161755 -76.608 819.8683

bn1.running_var f4 [16]
00000000: 6bc5 fa45 2530 bf45 f013 cb43 429c ef42
00000010: 9c27 2144 40ea b642 4dd4 0145 b279 a743
00000020: 4e74 8645 66f4 3a45 3095 5545 b909 5f45
00000030: 29f7 6a46 5842 ad44 0b6a 8145 b0c5 0d49
8024.6772 6118.018 406.15576 119.80519 644.6189 91.45752 2077.2688 334.95074
4302.538 2991.275 3417.3242 3568.6077 15037.79 1386.0732 4141.2554 580699.0

conv2.att_src f4 [1, 1, 8]
00000000: 71ab 24c0 57c6 a63d aad7 9a3f 3bc8 2f40
00000010: 6e53 413e 82b0 c43f abaf d1be c567 8a40
-2.572964 0.08143299 1.2097065 2.746596 0.18879482 1.5366366 -0.40954337 4.325167

conv2.att_dst f4 [1, 1, 8]
00000000: af43 77bd 9731 11bf 1a7b 88bf 4d7b a7bf
00000010: f573 61bf c102 20c0 1fc3 663f 524d f43e
-0.060367282 -0.56716293 -1.0662568 -1.3084503 -0.8806756 -2.500168 0.9014148 0.4771524

conv2.bias f4 [8]
00000000: 56f3 aa3d e3cc a23d b160 233d 37e5 acbd
00000010: 1632 a33c 54c7 9abc 6ca5 9cbd dc2b a93d
0.08347194 0.07949235 0.039887134 -0.08442157 0.019921344 -0.018893875 -0.07648739 0.08260319

conv2.lin.weight f4 [8, 16]
00000000: 7195 df3c 38df 69be cccf 873e a971 b13e
00000010: f2be da3e 71bf b9be 870b a8be be6f 33be
00000020: 3d4f b2bd 2fb1 053f 0cc0 acbe b78a 093f
00000030: 82cd 163d 396f e6be 0ff0 c53d 237e 863d
00000040: ee14 2e3f d46f 1c40 2eb8 953b 9325 3e3b
00000050: 806c 0b3d a126 4dbd b955 983e 2d4b 913d
00000060: c594 ea3d b9db 863f 3222 503e 6ca0 ca3d
00000070: 5d98 92be 75e1 173e 10be 743e 2ad0 9bbe
00000080: 59b4 d1be 5595 203e 46f1 c0be be11 e0be
00000090: 3755 b1be 1357 ed3e 4d60 50be 2751 b1be
000000a0: 27d1 febc b6ab 1cbe 6ca7 013e 5417 0bbe
000000b0: a956 b73e 0071 07be 2d2a 023f afa1 b03e
000000c0: ff88 9abe 430a c9be 5aeb 8cbe f391 f0be
000000d0: 3b1b 19bf 42fd cf3e 51a5 3c3e f520 2e3e
000000e0: c2c0 9d3d 4713 fc3e 989e 5c3d 273a 023d
000000f0: e00f 88be a459 1dbe 0be9 8e3e dbb1 063f
00000100: 90ba 1bbd 5f51 97be 89ed 3cbe 7b68 acbe
00000110: c13c 93be 0d3b 283f af31 c33e cd7b 32be
00000120: 655a 7ebe 885f b9bd edd5 1f3f 60bc c3be
00000130: f52b 75be 0b08 7fbe b194 05bf 512c 553e
00000140: 5df0 5d3e 096e febd c2fa 8bbe 449e fcbe
00000150: 9fdc 3fbf 45e0 553e 9159 0b3f 4827 9c3d
00000160: a732 083d 3b16 da3b 875b d23e 3435 60be
00000170: ed48 9c3e 33b6 833e 2987 1c3e 38ee 23bf
00000180: fa67 0d3d 0306 2dbe f16c ec3e 89be 073f
00000190: ba8d 853e 9707 9bbe e6cc 743d 4346 15bf
000001a0: b64a a0be 416d a9bd fd72 d7bc 9133 f0be
000001b0: 7fd9 c73e dd78 8c3c e48c 423e 718c 7e3e
000001c0: de52 5fbc 0790 b3bc eab2 8dbe 1d3a febe
000001d0: bc87 1ebf 339a 613e 200a 5f3d 3f57 0a3f
000001e0: 739b 91bc dd0f 80be 55e7 663e d9ef 94be
000001f0: df19 9b3e 2c9a ce3e 5648 9ebe abae 623e
0.027292939 -0.22839057 0.26525724 0.34657028 0.42723805 -0.3627887 -0.32821295 -0.17523095
-0.0870652 0.52223486 -0.3374027 0.5372729 0.03681708 -0.4500673 0.09664928 0.065670274
0.68000686 2.4443254 0.004569075 0.0029014095 0.03403902 -0.050085668 0.297529 0.07094417
0.11454157 1.0535804 0.20325544 0.09893879 -0.2863187 0.14832099 0.23900628 -0.30432254
-0.40957907 0.15681966 -0.37684077 -0.43763536 -0.34635326 0.46355495 -0.20349236 -0.34632227
-0.031105591 -0.15299878 0.12661523 -0.13583118 0.35808304 -0.132267 0.50845605 0.34498355
-0.30182645 -0.39265642 -0.2752331 -0.4698635 -0.59807175 0.40622908 0.18422438 0.1700476
0.07702781 0.49233457 0.053862184 0.03179374 -0.26574612 -0.15366226 0.27912173 0.52615136
-0.038019717 -0.2955427 -0.18449987 -0.33673462 -0.2875729 0.65715104 0.38123843 -0.17430039
-0.2483917 -0.09051424 0.624358 -0.38229656 -0.2394255 -0.24905412 -0.5218001 0.20817687
0.21673723 -0.12423331 -0.2733975 -0.49339497 -0.74946016 0.20886333 0.5443354 0.0762468
0.03325143 0.006655482 0.41085455 -0.21895295 0.30524388 0.25724944 0.15285935 -0.6403537
0.034522988 -0.16896825 0.46176866 0.5302511 0.2608469 -0.30279228 0.05976572 -0.58310336
-0.31307 -0.08272792 -0.026299948 -0.46914342 0.39033124 0.017147476 0.18999058 0.24858262
-0.013630597 -0.021919264 -0.27675563 -0.49653712 -0.61925864 0.22031479 0.054453015 0.54039377
-0.01777432 -0.25012103 0.22549184 -0.2908924 0.30293176 0.40352 -0.30914563 0.22136943

bn2.weight f4 [8]
00000000: 72bb a93f 90bc c03f 99c6 b03f 63e6 bf3f
00000010: 9485 bd3f 8a4e d13f 41a5 983f b63d be3f
1.3260329 1.5057545 1.3810607 1.4992183 1.480639 1.6352093 1.1925431 1.4862583

bn2.bias f4 [8]
00000000: 32c0 033f 766e b3be aa0e 9a3e 3916 ca3e
00000010: 8ec0 403d b64a b93e 4b1b c83e 3212 ee3e
0.5146514 -0.35045213 0.30089313 0.3947008 0.047058634 0.36189812 0.39083323 0.46498257

bn2.running_mean f4 [8]
00000000: 3193 353e 7bba b73e 5e38 02be 1390 d8be
00000010: 56ac c0bd d57f a3be d875 3d3e 47c7 a7bd
0.1773193 0.3588446 -0.12716815 -0.4229742 -0.094078705 -0.31933466 0.18501985 -0.08192306

bn2.running_var f4 [8]
00000000: 1cc7 e03e 2ab8 da3e 8329 393f 56a1 083f
00000010: 476b 3f3f 3cac 2a3f a3cd f83e eb4d f23e
0.43901908 0.4271863 0.72328967 0.5337118 0.7477307 0.6666906 0.48594388 0.47325072

fc.weight f4 [2, 8]
00000000: 1818 0d3f 147f 45bf d5b6 adbe d61b d4be
00000010: 8df1 32bf 6a5f 27be 2a92 113f 17d1 3bbf
00000020: b3dd f4be ec64 5b3f 8b84 cf3e 38b9 053f
00000030: 406e a43e 20c3 373f bf79 b6be 9f1f 003f
0.5511489 -0.7714703 -0.33928552 -0.41427487 -0.6989983 -0.16344991 0.56863654 -0.7336592
-0.47825393 0.8570087 0.4053081 0.52235746 0.32115364 0.7178211 -0.3563976 0.5004825

fc.bias f4 [2]
00000000: ff2c a63e d963 603d
0.32456204 0.054782722
