models/booster/2-1.pth (torch, 7354 bytes, 18 tensors)

conv1.att_src f4 [1, 1, 16]
00000000: 7fe2 99bf 1248 64bf 91ec 0bc1 b486 9f40
00000010: f639 78c0 13c4 82bf 65be eb40 1b67 bbc0
00000020: b576 c4be 7e19 15c0 4959 03c1 0e41 1741
00000030: 2f58 22bf 776d 1f40 de47 7bc0 5019 67bf
-1.2022246 -0.8917247 -8.745255 4.9851933 -3.8785377 -1.0216087 7.3669915 -5.856336
-0.38371816 -2.329681 -8.209298 9.4533825 -0.6341581 2.4910562 -3.9262614 -0.90273

conv1.att_dst f4 [1, 1, 16]
00000000: 09e0 0bbf bab9 fabe 85b0 80be a405 a33d
00000010: bbfc b33d d662 79be 4cb5 19bf 6144 d0be
00000020: acdc 753e 3f4b 1dbf 276f 8ebe 7654 ab3e
00000030: 1a00 98be 3078 85bd 08f6 763d bf3b 8f3d
-0.54638726 -0.48969823 -0.25134674 0.0796006 0.08788439 -0.24354109 -0.6004226 -0.4067717
0.24009961 -0.6144294 -0.27819178 0.33462876 -0.29687577 -0.065170646 0.060293227 0.069938175

conv1.bias f4 [16]
00000000: 1029 4abc 15b6 df3b 9819 8b39 a7d0 9bba
00000010: 4ade a939 5347 81bd fe21 b3b9 4494 86b6
00000020: 4765 793d 9ba7 a8b9 7fef 9a39 db84 14bb
00000030: c50e ac3c 074d 3dba 48b0 e8bb dc4d 183d
-0.012338892 0.006827126 0.00026531215 -0.0011887745 0.0003239981 -0.06312432 -0.00034166867 -4.0107716e-06
0.0608876 -0.00032168333 0.00029551607 -0.0022662196 0.021003136 -0.0007221256 -0.0071010925 0.037183627

conv1.lin.weight f4 [16, 10]
00000000: 5c94 82bf d7c7 453f 7806 ddbe e005 b7bc
00000010: 8fe2 2241 f26b b7c0 9229 8abf 0295 983f
00000020: 01fc ddbe b5a7 5b40 9769 76bf 918e 5ebf
00000030: 7156 a8bf dcf1 233c b948 1941 e2b7 d4c0
00000040: 57c3 31be ff54 2540 9100 d9bf 5e7a 6140
00000050: b486 3fbd fc0c 5440 96ad 883e ba20 92be
00000060: 6c3c 5041 7539 aec0 8d1a 74bf c036 fb3f
00000070: b0a3 30be d32f 8740 e344 a03e bb8f f2bf
00000080: 7f59 dfbe 6834 a9be 66a9 42c1 3bde bc40
00000090: cd6e fb3e 925a edbf bd40 0c3f 556d 95c0
000000a0: ab50 283f 7ac1 4040 2d97 793e bbb2 a2be
000000b0: da99 4041 e89b 95c0 52cf 8cbe 0749 1f40
000000c0: f492 82be ba79 8d40 62c7 1740 cc82 8740
000000d0: 9668 2840 4727 39bc 71f8 0841 476a bf3f
000000e0: f45a 2b3f 1095 3a40 0802 073f eb44 a53f
000000f0: 4369 013e fe74 30c0 2fb0 8ebe c792 213f
00000100: 466f 4ac1 89a0 b840 a119 3a3f c97a ebbf
00000110: 8b79 653e f1d8 96c0 e547 6c3f 262e 3f40
00000120: fdc3 4a3e c496 583f 588d 4b41 5407 a6c0
00000130: c8c0 20bf be17 de3f f940 36be d28c 9440
00000140: 2364 10c0 debf 4bc0 a51b 17c0 df38 083c
00000150: 848b 9140 0324 e7c0 8fa9 ad3e fa88 1740
00000160: 6501 8fbf f563 a340 2abe 7a3e e9e7 0440
00000170: e2ce f4bd ea46 353f b536 3341 d77d aec0
00000180: 9ab6 66bf a6a3 e83f 87b8 623e ec70 7540
00000190: 7768 2c3e b31c 0240 6a2e 3e3e 3f42 883e
000001a0: c357 4c41 3d97 92c0 aacb 58bf fae7 f93f
000001b0: 52e9 6fbd 3a3f 9f40 8ba7 9bbe 4d59 02c0
000001c0: 8251 37be a7a8 133c ccd4 50c1 ff8e b040
000001d0: fb9e 0e3f 70f0 d8bf c77b 86be ba39 9cc0
000001e0: 6d21 a2bf f9dd 1ac0 5131 bdbf aa07 123c
000001f0: 11d2 1741 84f9 d7c0 282b 86bf 3987 9d3f
00000200: 2065 2cc0 4545 4440 1d52 f53d 7aa9 c2bf
00000210: ec82 8abe bf95 a53e 483a 1fc1 3704 8640
00000220: d6dc 2d3f 2994 dcbf 7e06 c1be 2684 48c0
00000230: c162 d4bc a48a 2140 0994 fb3e 5ce5 5bbe
00000240: 4d91 4341 a371 b2c0 de5d 22bf 2d22 1740
00000250: e1f9 a23e 548d 8a40 f728 6abf 4d4c fdbe
00000260: 833b c3bf 7456 07bc 8f72 b740 18eb 0fc1
00000270: dd09 2c3f 5f5c c73f ea31 a13f 7d7a 3f40
-1.0201526 0.77258056 -0.43168998 -0.022341669 10.180312 -5.731927 -1.0793936 1.1920474
-0.43356326 3.432111 -0.9625487 -0.8693629 -1.315138 0.010006394 9.580255 -6.6474466
-0.17359672 2.5833127 -1.6953298 3.5230937 -0.046759322 3.3132925 0.26694936 -0.28540593
13.014751 -5.444514 -0.95353013 1.9626083 -0.17249942 4.224588 0.31302556 -1.8950113
-0.43622968 -0.33047795 -12.166357 5.9021277 0.49107972 -1.8543265 0.5478628 -4.669596
0.6574809 3.0118089 0.24374075 -0.31776986 12.037561 -4.6752815 -0.27501923 2.4888322
-0.2550274 4.421109 2.3715444 4.2347164 2.6313834 -0.011300868 8.560655 1.4954308
0.6693566 2.915348 0.52737474 1.2911657 0.1263781 -2.7571406 -0.27868792 0.6311459
-12.652166 5.7695966 0.72695357 -1.8396846 0.22409646 -4.713982 0.922972 2.9871917
0.19801326 0.8460505 12.722008 -5.1883945 -0.6279416 1.7350996 -0.17798223 4.64219
-2.2561119 -3.1835856 -2.3610623 0.00831434 4.5482807 -7.223146 0.33918425 2.3677354
-1.11723 5.105952 0.24486604 2.0766547 -0.11953522 0.7081133 11.200856 -5.4528613
-0.9012238 1.8174942 0.22140704 3.8350172 0.16836725 2.0330017 0.18572393 0.26613042
12.771426 -4.5809617 -0.84685767 1.9523919 -0.05857212 4.976468 -0.30401263 -2.0367005
-0.17902187 0.009012378 -13.051952 5.5174556 0.55711335 -1.6948376 -0.2626631 -4.8820467
-1.2666451 -2.4197981 -1.4780675 0.00891296 9.488786 -6.7492085 -1.048192 1.2306892
-2.6936722 3.0667279 0.119785525 -1.520797 -0.2705301 0.3234081 -9.951729 4.1880145
0.67915094 -1.7232715 -0.37700266 -3.1330657 -0.025925996 2.524087 0.4913638 -0.21474212
12.222974 -5.5763717 -0.6342448 2.361461 0.31831267 4.329752 -0.9146876 -0.49472275
-1.5252537 -0.008260358 5.732734 -8.994896 0.6720255 1.5575064 1.2593358 2.991851

bn1.weight f4 [16]
00000000: 50c4 fd3e 8f05 6a3f f536 613f 99aa 593f
00000010: 6745 4e3f 50a4 ad3f 4db8 613f 20f2 6c3f
00000020: 239b 903f 58e1 6a3f ed8f 833f 2841 f93e
00000030: 794a 643f 16f0 6f3f d5e4 613f 910d a43f
0.49563837 0.9141473 0.8797448 0.85025936 0.8057465 1.3565769 0.88171846 0.92556953
1.1297344 0.917501 1.0278298 0.48682523 0.89176136 0.9372572 0.88239795 1.281664

bn1.bias f4 [16]
00000000: 2c4f afbe 0e93 f83e 6f4f 2b3d d3b6 36bf
00000010: d406 11be 0668 b23d 0806 bf3d 6f2c 80bd
00000020: e271 a23d b2a8 14bd 4d26 c23d 9884 e9bd
00000030: 2031 c43d 4ecb 07be 181f e1be ef42 193e
-0.3424009 0.48549694 0.0418238 -0.7137272 -0.14162761 0.08711247 0.09327322 -0.06258475
0.07931878 -0.036293693 0.094799615 -0.114022434 0.09579682 -0.13261148 -0.43969035 0.1496694

bn1.running_mean f4 [16]
00000000: eef6 7ec2 6aa4 b441 1d8c 49c4 e7d6 69c4
00000010: f77e 60c4 d8eb bdc1 3a1b df44 339e 1545
00000020: b977 8f41 855a fa44 8242 3c44 865d d941
00000030: cfc4 8741 da3d 6444 8763 16c4 ba79 a6c1
-63.741142 22.58028 -806.1893 -935.35785 -897.9838 -23.740158 1784.8508 2393.8875
17.933458 2002.8287 753.0392 27.170666 16.971098 912.96643 -601.5551 -20.809437

bn1.running_var f4 [16]
00000000: 8ef0 5645 71bb 2544 2532 0d49 d6e9 3d49
00000010: ca30 2f49 ea0b 4b44 d5ed 2c4a fe77 9b4a
00000020: 7c1e 0544 65b4 594a 4c11 f648 166a 2b44
00000030: 7238 fe43 8a3b 3549 19b0 9d48 faa3 b143
3439.0347 662.9288 578338.3 777885.4 717580.6 812.18616 2.8332692e+06 5.094399e+06
532.4763 3.5668732e+06 503946.38 685.6576 508.44098 742328.6 322944.78 355.28107

conv2.att_src f4 [1, 1, 8]
00000000: 3d3a d140 cfd1 4240 ce3f 3540 bc1e 7740
00000010: 8a59 c9c0 5a51 be40 d284 ac3f 13f2 a540
6.538359 3.0440557 2.8320193 3.8612509 -6.29218 5.9474306 1.3478034 5.1858

conv2.att_dst f4 [1, 1, 8]
00000000: 7f0c a4bf 2c76 45bf 9712 dabe 44fe 1fbf
00000010: eb12 90bf 72c2 0bc0 c09e f4bf 5dc3 0b40
-1.2816314 -0.7713344 -0.42592308 -0.62497354 -1.1255773 -2.183743 -1.9110947 2.183799

conv2.bias f4 [8]
00000000: 6000 b1bd 8fc5 f23d 3740 96bd 0a4a f9bb
00000010: 978f 60be c055 a7bd 72b1 c7bc b79d c13d
-0.0864265 0.118540876 -0.07336467 -0.007607703 -0.21929775 -0.081706524 -0.024376605 0.0945391

conv2.lin.weight f4 [8, 16]
00000000: b4d8 bdbd 98ec 42be e88f 8cbc 6909 2c3e
00000010: c964 d73e c5e1 933e 8f91 96be ee67 fc3e
00000020: 2bd9 14bf 88e9 173e 221e 013f 5c2e b6bc
00000030: 6d29 29be 7c2b 063e 7426 27be d548 2fbf
00000040: 5a1f aabd dac7 95be 09d8 cf3e 541e 01be
00000050: 436c f23b 9023 9e3e a341 713e 30a8 863d
00000060: 404d 623d a82e b03d e04f 52be b1e4 453e
00000070: bdac 02be 89db 933d 8c2f e03e 3756 4ebf
00000080: fa6c 28be b583 ec3e 7c61 e5be 2914 99be
00000090: 0077 f13d f070 633f 8af2 eabb 773c 78bd
000000a0: 2c50 b2b9 59ac 52be 4ad4 b9bc a436 bc3b
000000b0: 09d0 9c3e 9b5c abbd aa96 bb3e 47ed 8dbf
000000c0: ff93 773e 7e17 6cbd 290d 813e b6e5 4a40
000000d0: d14b f83d bc96 19be 934b e63e e88c 2e3e
000000e0: 9fdc 2fbe ad4d aabe 5c9f f0bd 7254 863d
000000f0: adf6 303e 89e4 1fbe 350d 6b3f ad1c f8bd
00000100: b5a5 f83d df3c 2dbe 16fc b3be 6719 483e
00000110: 3f78 a33e a713 0bbf 1619 bbbe 04ef afbb
00000120: b78b 0e3f 1f3f ffbe dcb9 f33d 58df 413e
00000130: 31ec b63e 90e0 93be 5610 babe 3ed3 0e3f
00000140: d093 8a3e a56e 27be 35bb acbe 4b46 98be
00000150: f39e e0be 9ad6 4d3f 5682 873e 606c 8f3d
00000160: ce4a 0fbf f937 b83c eb18 1fbe e25f 013e
00000170: ba68 373e b19e 853e 5f61 203e a8db 0dbf
00000180: 077a a7be 454f 10bf b49b 9ebe adf8 133f
00000190: fd3b f93c cc8e 67bd 666f 89bf 0ab0 3ebf
000001a0: e66a d2bf ff94 13bf e9ce 91bf 72c0 3abf
000001b0: 7033 cebf a875 9dbf 2f93 a63e 8b21 72be
000001c0: 10df 6e3f a5d3 3bbe 4fab 0c3f ef4f 9f40
000001d0: 835f 293e 1883 2abe 5f03 7dbd 7347 153e
000001e0: 3fa1 13bf 2718 a63e 54ac 223f 2d29 843d
000001f0: 2a58 aa3d 06e0 a6be aecf 1040 0b9e 013e
-0.092698485 -0.19035566 -0.017158464 0.16800465 0.4206908 0.28883186 -0.29407927 0.49298042
-0.5814387 0.14835179 0.50436604 -0.022238903 -0.16519709 0.13102525 -0.16323262 -0.6847051
-0.08306761 -0.29254037 0.4059451 -0.12609226 0.0073981597 0.30886507 0.23560195 0.06575048
0.055249453 0.08602649 -0.20538282 0.1932552 -0.12761207 0.072196074 0.43786275 -0.80600303
-0.16447821 0.46194234 -0.44800937 -0.29898193 0.117902756 0.88844204 -0.007170026 -0.06060454
-0.00034010538 -0.20573558 -0.022684235 0.0057438184 0.30627468 -0.083672725 0.36638385 -1.1088036
0.2417755 -0.05763959 0.25205353 3.1702704 0.12123836 -0.14998907 0.44979534 0.17045939
-0.17174004 -0.33262387 -0.117491454 0.065590754 0.172816 -0.15614523 0.9181703 -0.121148445
0.12140981 -0.16917752 -0.35153264 0.1954094 0.31927678 -0.5432686 -0.36542577 -0.005369069
0.5568194 -0.49852845 0.11900684 0.18932855 0.35727075 -0.28882265 -0.36340588 0.5579108
0.27065897 -0.16350801 -0.33736578 -0.2974113 -0.4387127 0.8040558 0.26466626 0.07003093
-0.5597352 0.022487627 -0.15536849 0.12634233 0.17911044 0.26097634 0.15662144 -0.55413294
-0.32710287 -0.56370956 -0.30978167 0.57801324 0.030424112 -0.056532666 -1.0737121 -0.74487364
-1.6438873 -0.57649225 -1.1391269 -0.729499 -1.6109447 -1.2301531 0.32534167 -0.23645608
0.93309116 -0.18342455 0.54948896 4.9785075 0.16540341 -0.16651571 -0.061770793 0.14578037
-0.57667917 0.32440302 0.635442 0.06453166 0.08317597 -0.3259279 2.2626758 0.12657945

bn2.weight f4 [8]
00000000: d62e d53f 6cb5 ce3f ad07 c13f 5fbe 9e3f
00000010: 4994 d83f 7a7d dc3f 3dbb ae3f 0d46 7a3f
1.6654918 1.6149116 1.5080467 1.2401847 1.6920253 1.7225792 1.365089 0.9776314

bn2.bias f4 [8]
00000000: 1d6c 8d3f 3ef0 9e3e 85b2 b8be 262e 97be
00000010: 7bed 653e 6611 143f 8fa2 c8bd 09f0 57bf
1.1048619 0.31042665 -0.360737 -0.29527396 0.22453873 0.5783905 -0.097966306 -0.8435064

bn2.running_mean f4 [8]
00000000: 3ac1 90be 206b cdbc aa5c 393c aa75 1c3e
00000010: 1848 c4be fce3 5abe eba4 77c0 a179 493f
-0.2827242 -0.025075495 0.011313597 0.1527926 -0.38336253 -0.21376032 -3.8694408 0.78701216

bn2.running_var f4 [8]
00000000: 6297 c03d 0141 723d 19d0 d03e b483 233e
00000010: b11f d03d 1d07 123e f63a 0f42 8298 893f
0.09403874 0.059144024 0.40783766 0.1596821 0.10162295 0.14260526 35.80758 1.0749667

fc.weight f4 [2, 8]
00000000: a932 98bf 0da1 48bf b2ea 3f3f 7dbd c1be
00000010: af38 483f 80d7 80bf f48b 243f 040a 36bf
00000020: c4af 4e3f 3c03 0b3f 9378 1abf 912a f33e
00000030: e112 48bf a836 f43e 045a ebbe 9fbd 9f3e
-1.189046 -0.78370744 0.7496749 -0.3783988 0.7821149 -1.0065765 0.6427605 -0.7110903
0.8073695 0.5430181 -0.6034023 0.47493413 -0.78153807 0.4769795 -0.45967114 0.31199357

fc.bias f4 [2]
00000000: f5c7 243e 12a5 42bf
0.16091903 -0.7603313
