models/booster/2-2.pth (torch, 9658 bytes, 18 tensors)

conv1.att_src f4 [1, 1, 28]
000000 9a 13 59 be fd c3 0b bf 08 d6 2e 3f d3 05 ab be
       -0.21198884 -0.5459593 0.68295336 -0.3340288
000010 4e 09 92 3e e5 5c e6 3e e8 f4 5c be aa 6b ef bd
       0.28522724 0.44992748 -0.215778 -0.11690457
000020 9a 0b e2 3e 30 ae 0a 3f 89 d1 04 3f 81 c2 24 be
       0.44149476 0.5417204 0.51882225 -0.16089822
000030 1c 24 84 3e 35 c2 c6 3e 6b 55 e6 3e db 04 02 3f
       0.258088 0.38820043 0.44987044 0.5078866
000040 cc 17 62 3d 54 b1 91 3e b8 b8 da bc 6a 9a a9 3e
       0.055198476 0.28455603 -0.026699409 0.3312562
000050 c8 73 06 bf 43 4b d8 be 28 27 e3 3e 52 b7 89 3e
       -0.5252042 -0.4224492 0.4436581 0.26897675
000060 d1 a7 2f be 95 43 bc 3f 31 9a 91 be 49 7d f0 3e
       -0.1715386 1.4708124 -0.2843795 0.46970585

conv1.att_dst f4 [1, 1, 28]
000000 24 4e 2e be e5 34 b7 3e 1c e4 58 be 26 b6 00 3f
       -0.17021996 0.35782543 -0.21180767 0.50277936
000010 13 75 d7 3e 40 3a 96 be a0 c2 91 be 8a 6d ed bd
       0.42081508 -0.29341316 -0.284688 -0.115931585
000020 2d cd ba 3e 0c 65 09 3e 48 3d 58 3b 5c a2 a8 3e
       0.36484662 0.13417453 0.003299551 0.3293637
000030 32 cd 51 3e 45 58 54 be bf bc 23 be c2 8c 06 3e
       0.20488432 -0.20736797 -0.1598997 0.13139632
000040 7f 7b da be a0 46 18 bd 31 5a 96 be 7d fa cd 3d
       -0.42672345 -0.03717673 -0.29365686 0.100575425
000050 7d dc b4 3e 93 6e 3a bd 19 ef b4 be d2 31 23 be
       0.3532447 -0.045515608 -0.35338667 -0.15936974
000060 34 ca d1 3e fe 98 89 3e 2b b1 51 3d 3d 90 0c bd
       0.4097458 0.26874536 0.05119435 -0.034317244

conv1.bias f4 [28]
000000 14 1c 12 3e c5 18 2a bc 42 3a 35 3c 2c 71 a8 bb
       0.14268523 -0.010381882 0.011061253 -0.0051404443
000010 ab 4f 91 3c a1 e5 f8 ba da 2c 7e bb 57 63 cf bb
       0.017738184 -0.0018989333 -0.0038784058 -0.006328981
000020 50 f9 0e bb b9 00 13 3b 4f 13 03 ba 40 ac 1e 3d
       -0.0021816082 0.002243085 -0.00050001306 0.03873849
000030 cd f3 45 3a ff 8d 03 bd 49 7b 19 3e a8 fc 2d 3b
       0.0007551283 -0.03211784 0.14988436 0.00265483
000040 58 6c bd 3d 94 53 a3 bd 98 67 5f bd ee 64 a4 bd
       0.092491806 -0.07974926 -0.054542154 -0.08027063
000050 c9 8e d7 3c c3 e0 7a bc 6c c5 89 bc 4b fc 37 3c
       0.026313202 -0.015312376 -0.01681777 0.011229585
000060 0a a8 e0 bb 82 36 17 bc a1 58 85 3c c0 82 8f ba
       -0.0068559693 -0.009229304 0.016277613 -0.0010949001

conv1.lin.weight f4 [28, 12]
000000 70 2c a4 3e c2 d1 d1 3f e4 dd ce 3e 2a 5e e3 bb
       0.32065153 1.6392138 0.40403664 -0.0069387155
000010 ac 54 40 be fd 4d 9d 3f 1a a0 59 3c 81 de e6 3c
       -0.187823 1.2289425 0.0132828 0.02818227
000020 79 ef 8e bf 90 9c d4 bf a4 1a d0 3f b6 90 df 3e
       -1.1166831 -1.6610279 1.625813 0.43665093
000030 d7 e0 86 be 02 ca 91 be 9f dc b6 3e e5 dc e8 bc
       -0.26343414 -0.28474432 0.35715196 -0.028425643
000040 c2 c0 10 3f 35 4f db be 0d dd 0f 3f 47 ce 28 3b
       0.56544125 -0.42833868 0.5619667 0.0025757717
000050 e1 fd fb be 5f 6a a9 bf 2c 83 d2 3e d4 5a 65 3f
       -0.49217132 -1.3235587 0.411157 0.8959172
000060 79 7f b1 be 0b a7 05 3f f9 cf 8a be 7c 42 b7 3c
       -0.34667566 0.5220801 -0.27111796 0.02237057
000070 d1 15 63 bd da af 55 bf ce af e6 be 92 5a 60 3e
       -0.055440728 -0.83471453 -0.45056003 0.2190955
000080 89 06 94 3f d6 c0 55 3f 47 78 c6 3e ae 12 7d bf
       1.1564494 0.8349737 0.3876364 -0.9885663
000090 86 ba 24 be 40 3c e0 3d 42 1f 0a 3f b1 3e b6 3d
       -0.16086778 0.10948992 0.53953946 0.08898676
0000a0 30 2b ff 3d df 19 c3 3f 32 a1 dc 3e 50 ef 22 be
       0.12459409 1.524227 0.43091732 -0.15911603
0000b0 b4 b6 80 bf ef 0a 78 bf 57 23 ee bd a0 0d c5 3e
       -1.0055757 -0.96891683 -0.11627834 0.38486958
0000c0 0b 86 d3 3e 57 73 43 3e 6a a0 89 3e 0a d1 e2 3c
       0.41313204 0.19086967 0.268802 0.027687568
0000d0 49 d5 f0 bd d7 38 ab 3d 51 32 14 be 4c 4a c3 3b
       -0.11759431 0.08360451 -0.14472319 0.0059597846
0000e0 6a 92 4e 3f cd e3 79 3f d6 23 0c 3f 18 e4 a8 be
       0.8069216 0.9761322 0.5474218 -0.32986522
0000f0 f3 18 0d bf eb c8 89 3e fe 5c 48 be 22 c5 ba 3e
       -0.55116194 0.269111 -0.19566724 0.36478525
000100 08 89 04 3f 2d a9 78 bf 3e bd a6 3b 51 6a 69 be
       0.51771593 -0.9713314 0.0050884774 -0.22794463
000110 62 a0 ff 3e 8e ff 57 3f 2f a0 d2 3e 86 34 4c bf
       0.4992705 0.8437432 0.41137835 -0.79767644
000120 79 41 b1 3a 90 1a 7b be 36 93 68 bd ce df 73 3d
       0.0013523541 -0.24521852 -0.056781016 0.05953961
000130 84 da bc 3d 31 40 6c bf d9 88 0d bf fc 74 f0 3d
       0.09221366 -0.9228545 -0.5528694 0.11741063
000140 fd cf 49 bf 3c 49 11 bf 8d 17 37 be ab 7a 43 3f
       -0.7883299 -0.5675237 -0.17880078 0.7635905
000150 b3 1d 27 3e 49 66 55 3e a0 d6 75 be 9c 52 90 bc
       0.16319923 0.208398 -0.24007654 -0.017617516
000160 2c 17 51 3e 78 b9 e9 be 40 65 33 3e 6a 67 97 be
       0.20418996 -0.45649314 0.17519093 -0.29571086
000170 2f 1c 9c be 9a 9a 6a bf 9b 04 0e bd f3 cc 27 3f
       -0.30490252 -0.91642153 -0.03467236 0.655471
000180 46 e7 c5 bd df 0e d2 3e be 44 57 3e 91 78 b3 3e
       -0.096632525 0.4102697 0.21022317 0.35052922
000190 30 c5 03 3e cf 5d 06 3f d0 3c 55 3e a8 30 d7 3e
       0.1286819 0.5248689 0.2082398 0.4202931
0001a0 b0 ab 21 3f 7a 42 62 3f 91 2b 10 3f 4a 3b 3d bf
       0.631526 0.88382685 0.5631648 -0.7391859
0001b0 9c c3 04 3e 25 b7 a8 3d 85 3d 8f bd e0 2f f6 bc
       0.12965244 0.08238057 -0.06994156 -0.030052125
0001c0 15 49 9b 3d 33 1e 5f bf 39 03 51 be bf bc 47 3d
       0.07582299 -0.87155455 -0.20411386 0.048763987
0001d0 e3 d3 b7 3e 83 0a 6b 3f 23 70 6c 3d c5 b6 5e be
       0.35903844 0.91812915 0.05772413 -0.21749409
0001e0 2e 39 f3 3d ba 88 b9 3c 6f 4b 02 3e 98 87 02 3f
       0.118761405 0.022648204 0.12724088 0.5098815
0001f0 1a ee b2 3d aa 87 33 be 47 3e 55 be 88 4a 94 be
       0.087368205 -0.1753222 -0.20824538 -0.28963113
000200 c6 d6 8f 3f 08 23 8b 3f ef 38 00 3e 8f 4e 46 bf
       1.1237419 1.0870066 0.12521718 -0.7746362
000210 66 4b 16 3f 17 cf b1 be 9a 2a d1 3e 7b 77 9c 3c
       0.587088 -0.3472831 0.40852815 0.019099941
000220 4b 6b ad be 2d b1 35 3f bb 33 53 be 9e 39 13 be
       -0.3387092 0.70973474 -0.20625202 -0.14377448
000230 db 47 04 bf ba 07 98 3e 5d 09 8d be fd 48 d3 3f
       -0.5167214 0.29693395 -0.27546206 1.6506649
000240 59 26 ac be 5d 52 3c 3e e8 dc fb be df 64 91 bc
       -0.33623007 0.18390794 -0.49191976 -0.017748294
000250 44 68 2f be f5 c7 7a 3e 6a 93 fa bd 6b 32 ae 3e
       -0.17129618 0.2449034 -0.12235148 0.3402284
000260 3c 52 2b 3f 69 4d 32 3f a2 99 9e bd 7d b8 af be
       0.66922355 0.6964937 -0.07744147 -0.3432044
000270 bf 2e 80 bd 2c fe 97 3e fb af 03 be 8d 62 8b bd
       -0.06258916 0.29686105 -0.128601 -0.068059064
000280 75 f6 6d be 18 f0 ab 3e 94 1a d8 be 41 d3 09 3e
       -0.23238547 0.33581614 -0.42207778 0.13459493
000290 d7 9f 32 3f 39 c9 54 3f 03 28 92 bc 72 b9 fa bc
       0.69775146 0.8311954 -0.017841345 -0.030606005
0002a0 ba c4 a8 3e 61 48 c6 be eb e1 02 3f 17 51 03 bb
       0.3296259 -0.38727096 0.51125973 -0.0020037347
0002b0 3c 81 a7 3e e5 da de be ea 2b 16 be ec f4 83 be
       0.32715786 -0.43526378 -0.1466519 -0.25772798
0002c0 60 c6 c4 3e 37 2a 18 40 88 f1 67 bf 03 d2 9f 3f
       0.38432598 2.3775766 -0.9060292 1.2485965
0002d0 65 08 bd be 61 e5 1a 3e 44 d7 42 be 6e 27 81 3e
       -0.36920467 0.15126564 -0.1902743 0.25225395
0002e0 87 cd 48 3e f7 97 7e 3d 15 01 0d be 7c cd a1 3e
       0.19609652 0.062156644 -0.13769944 0.31602085
0002f0 88 a8 1e 3f 9b 2b 81 3f 94 d9 f7 3e 2d fc 2c bf
       0.6197591 1.0091432 0.48408186 -0.6757229
000300 df 6d 41 bf a3 95 15 3e f6 56 4b bf 9d fb c3 bb
       -0.75558275 0.14607863 -0.79429567 -0.0059809224
000310 ca 5b 5a 3d e8 f3 c7 3e 3c 96 3f 39 34 77 96 3c
       0.053310193 0.39053273 0.00018271146 0.018367387
000320 7d 2b d3 3e 73 af 34 c0 80 7c 5c 3f b9 62 6f bf
       0.41244116 -2.8232086 0.8612747 -0.93510014
000330 fb 23 2f bf 74 36 66 3f 54 11 ff be a2 82 c1 bc
       -0.68414277 0.8992684 -0.49817908 -0.02362186
000340 e4 a5 91 be c3 e7 0a 3c 4d 21 bf be 23 3a b2 3e
       -0.28446877 0.008478108 -0.37330094 0.3480998
000350 a8 bf a0 3f 97 8b 97 3d 9c 5f 3a 3f 4d ef 97 be
       1.2558489 0.073996715 0.7280214 -0.2967476
000360 4f 0e 06 be 08 09 12 3e be 1b bd be fc a6 4f ba
       -0.13091396 0.14261258 -0.36935228 -0.0007921306
000370 16 a5 82 be 94 9f f9 bf 49 28 65 3e f6 19 c9 3e
       -0.25516576 -1.9501824 0.22378649 0.3927762
000380 e8 6a 2b 3d 4b 8c 02 bf 60 79 c6 be 4d 43 4d 3e
       0.04185 -0.5099532 -0.38764477 0.20045204
000390 62 62 0e 3f 1b 89 9e 3e f0 6f 00 3f 50 5b cb 3b
       0.5561887 0.30963978 0.50170803 0.0062059537
0003a0 1c de 03 3e fd ed d8 be d4 57 80 bd bc 1b c3 bd
       0.12877697 -0.4236907 -0.06266752 -0.09526774
0003b0 ad 6e 1a 3f 93 0b ff 3f 96 c4 4e bf b7 55 79 3f
       0.6032513 1.9925407 -0.80768716 0.97396415
0003c0 d3 9a 28 3e 05 84 b8 be 43 f1 be 3e 82 4f 9a bc
       0.16465311 -0.36038223 0.37293443 -0.01883674
0003d0 cb d6 91 3e ad e1 49 bc c5 8c d1 3d 73 71 cb be
       0.28484187 -0.012321872 0.10231928 -0.39734992
0003e0 ba d6 86 bf 5e b2 42 bf 0c 93 15 bf b2 a7 96 3e
       -1.0534279 -0.76053417 -0.584275 0.29424816
0003f0 a1 d1 cd be cf 60 81 bf 83 a0 80 be 5e 90 2d 3c
       -0.40198997 -1.0107669 -0.2512246 0.010593502

bn1.weight f4 [28]
000000 c9 12 b6 3f 84 96 7f 3f 0c db 35 3f a1 6d 79 3f
       1.4224483 0.99839044 0.71037364 0.97432905
000010 d5 d3 56 3f 3e 75 6c 3f dd 92 6f 3f da d4 76 3f
       0.8391698 0.923664 0.9358347 0.96418536
000020 56 04 79 3f 49 b8 51 3f 06 4a 66 3f 2c 34 66 3f
       0.9727224 0.8192182 0.899567 0.8992336
000030 48 18 29 3f e8 13 66 3f e1 5c 97 3f 81 8a 72 3f
       0.66052675 0.89874125 1.1825219 0.9474259
000040 f2 e6 9c 3f 27 f8 63 3f 81 1e 84 3f d1 df 74 3f
       1.2257979 0.89050525 1.0321809 0.95654017
000050 c7 a2 47 3f e1 a5 62 3f 40 21 70 3f 89 87 80 3f
       0.77982754 0.8853436 0.93800735 1.0041362
000060 7a c5 5b 3f 65 29 82 3f 1f 16 95 3f 28 f1 72 3f
       0.858482 1.0168883 1.1647376 0.94899225

bn1.bias f4 [28]
000000 28 84 fc bd 51 80 ec 3d 42 4e bb bd 3d 58 90 3e
       -0.12329894 0.11547912 -0.09145786 0.2819232
000010 b3 5d 92 bd 74 5e 0e 3c 16 96 06 3c e7 a6 7f 3d
       -0.07146778 0.008689512 0.008214494 0.06241503
000020 10 cb eb bc a1 c2 f8 bc 6c 68 7a bd 1e cc 10 be
       -0.028783351 -0.030366244 -0.06113474 -0.14140365
000030 10 66 94 be dd c1 69 bd 9f e9 34 3e 2b 58 8c 3d
       -0.28984118 -0.057069648 0.17667244 0.06852754
000040 ee 23 03 3f ce 83 98 3d 33 7f d6 bd e6 d5 9a 3d
       0.512267 0.07447015 -0.1047348 0.07560329
000050 c5 4d 83 be c3 57 38 3e e1 ba 1a bb c5 9d 31 3d
       -0.2564527 0.18002228 -0.0023609924 0.04336335
000060 78 f3 37 bc 7b b7 1f be 33 2c f3 3c 6f da 02 bc
       -0.011227481 -0.15597336 0.029684162 -0.007986649

bn1.running_mean f4 [28]
000000 b5 91 d5 40 d6 28 76 c0 d3 96 0c bf ab b7 2c 42
       6.6740365 -3.8462424 -0.5491764 43.179363
000010 6f a8 1c 41 49 ab f7 42 8d e6 2b 41 a8 1a fa c0
       9.7911215 123.83454 10.743787 -7.815754
000020 fa c7 00 43 8d 2d 85 c1 69 0e 2f 43 4c de e9 40
       128.78116 -16.647242 175.05629 7.308386
000030 5c 76 da c0 50 d9 d6 c1 3b 8e 64 c0 94 9d b0 42
       -6.826948 -26.85611 -3.571181 88.30777
000040 59 54 f9 be d0 a5 38 c1 f1 4e 0c c1 5f 3f 10 bf
       -0.48697165 -11.540482 -8.769273 -0.56346697
000050 aa 03 b2 c0 60 a4 14 40 02 ee 5a c2 cc 48 25 40
       -5.5629473 2.3225327 -54.73243 2.5825682
000060 53 b9 93 c0 e4 b1 4d c1 65 ed 15 41 13 ad 01 43
       -4.6163726 -12.85593 9.370458 129.67607

bn1.running_var f4 [28]
000000 17 bd f1 40 58 61 a8 42 11 7f 37 42 3a 45 61 44
       7.5543323 84.190125 45.87409 901.08167
000010 73 ff ae 42 a3 40 66 46 8e a2 b5 43 4f 4b 37 42
       87.498924 14736.159 363.26996 45.823544
000020 9e 86 55 46 1d 39 e4 42 de 03 e1 46 27 79 22 42
       13665.654 114.11155 28801.934 40.618313
000030 eb 32 03 42 e7 44 04 44 8f f8 4a 3f 62 6b dc 45
       32.799725 529.0766 0.7928552 7053.423
000040 ff 63 93 40 b7 6d 6e 42 9a d2 9f 3f c0 8a 41 40
       4.6059566 59.607143 1.2486145 3.0240936
000050 a1 bd 1a 42 fe 25 79 41 27 58 38 45 6b 00 c7 41
       38.685184 15.571775 2949.5095 24.875204
000060 0b 33 11 42 4e 05 e1 42 37 4f 80 41 9a 0f 5f 46
       36.299847 112.51036 16.03868 14275.9

conv2.att_src f4 [1, 1, 14]
000000 e4 0f 7c 3e 8c 03 3c be ef a4 8d 3e ca e9 b9 bf
       0.24615437 -0.18360728 0.27664897 -1.4524472
000010 4d f3 7a 3e 2b 30 62 bf 4f 50 fb be 30 08 80 3f
       0.24506874 -0.8835475 -0.49084708 1.0002499
000020 39 de c9 3f 0d 36 5f be a9 a3 3a 3e ad 97 90 bf
       1.5770942 -0.21797962 0.18226494 -1.1296288
000030 d4 e3 52 3f e8 38 8f 3c
       0.8237889 0.01748319

conv2.att_dst f4 [1, 1, 14]
000000 0c cd 49 bf fa 77 f9 be 6c 5d 1e 3e f0 ca 0c 3f
       -0.788285 -0.48724347 0.15465325 0.5499716
000010 65 c8 59 be 22 b0 10 3f 6d 97 2c bd 57 2b 20 be
       -0.2126785 0.5651876 -0.0421366 -0.15641533
000020 9e 3e 25 3f 17 17 97 3d c0 63 20 3f 83 3a db 3e
       0.6454867 0.07377451 0.62652206 0.42818078
000030 47 86 03 3e 50 fc a2 3d
       0.12844191 0.07958281

conv2.bias f4 [14]
000000 a0 37 61 bd 8d 86 e2 bd 3d 78 c0 3d a0 bf a0 3c
       -0.05498469 -0.1106082 0.09397934 0.019622624
000010 88 3d 27 bd e1 32 5b bd 71 4c 86 be 63 44 5a 3e
       -0.040830165 -0.05351532 -0.26230195 0.2131515
000020 ff ee 19 bd 0c 34 48 bd a6 3e 3a bd 2b c4 d1 bc
       -0.03758144 -0.04887776 -0.045469902 -0.025606235
000030 b7 65 ef bb 98 8a bd 3c
       -0.0073058265 0.023137376

conv2.lin.weight f4 [14, 28]
000000 3a 1c 06 3f b4 8f 47 bd 10 75 da bd 58 89 49 bd
       0.5238682 -0.04872103 -0.10666859 -0.049203247
000010 09 76 c7 3e b8 26 6a 3e a2 2c ba 3c 49 13 e6 bc
       0.3895724 0.22866333 0.02272636 -0.028085368
000020 95 db be 3e 4d 25 e9 bc 81 6e 9c 3e 2d 1b ba bd
       0.37276903 -0.02846017 0.30553058 -0.090872146
000030 65 6b 94 3e 8a 3a 2f bc c0 a8 98 be e7 6d ae be
       0.28988186 -0.010695109 -0.29816246 -0.34068224
000040 17 ac 36 3e 60 2c 2e 3e 0b 7f 7c be 25 8a 1b be
       0.17839085 0.17009115 -0.24657838 -0.15189417
000050 63 e2 a3 bd 8f 8f df 3d 8b c8 d3 be af b4 9c be
       -0.08002164 0.109160535 -0.4136394 -0.306066
000060 c1 22 0d 3e 3c 80 20 be db d6 b1 bd b1 cf 65 be
       0.13782789 -0.15673918 -0.086835586 -0.22442509
000070 33 b5 87 3d a3 67 aa be 98 1f 14 3e d2 5c 0f be
       0.06626358 -0.33282194 0.14465177 -0.14000252
000080 19 f0 d7 be 24 f9 41 3e 29 5b 85 3e b5 5c d0 3d
       -0.42175367 0.18942696 0.26046112 0.101739325
000090 73 b4 45 be 51 89 50 bd a1 ff 88 3e fb f3 cf bd
       -0.19307117 -0.050912205 0.2675753 -0.101539575
0000a0 fd 0f 6e be 74 2a 60 3e c2 26 8b 3e f2 52 75 3e
       -0.23248287 0.21891195 0.27178007 0.23957422
0000b0 62 fc e7 be 13 38 f3 3d 64 ef 30 3e 5a 66 79 3c
       -0.4530974 0.1187593 0.1727882 0.015222156
0000c0 36 98 01 be 28 a1 93 be a3 02 8d be 14 35 67 be
       -0.1265572 -0.2883389 -0.27541074 -0.22578841
0000d0 83 5a 58 be 32 e1 8d 3e e1 59 97 be 2c e7 84 3e
       -0.21128277 0.27710873 -0.2956076 0.2595762
0000e0 f0 ae 1a 3b 32 84 5c be 31 d6 6e be 11 26 63 3d
       0.0023602806 -0.21534804 -0.23323895 0.055456225
0000f0 dc 5d 84 3d 5b 12 bc bc e5 4f 59 3e 1e ba 71 be
       0.06463215 -0.022957971 0.21221884 -0.23606154
000100 35 57 8a bd 60 7c 93 bd 04 57 95 bd ad fc a4 3e
       -0.06754915 -0.07201457 -0.072919875 0.32224026
000110 7b 73 ab bd cb 7e 90 3e 58 4b fe 3e f8 d5 63 be
       -0.083716355 0.28221735 0.49666858 -0.22249591
000120 74 03 ca 3d 73 4a 82 be 22 8c e8 be 95 b3 6b 3e
       0.0986394 -0.25447425 -0.45419413 0.23017724
000130 83 c6 5b 3e ba 18 72 bc 4a c8 59 be 19 a0 16 bd
       0.21462445 -0.014776403 -0.2126781 -0.036773775
000140 7d 80 85 3d 17 81 84 bd 3e 93 62 be 33 9b 1f be
       0.06518648 -0.064699344 -0.22126481 -0.15586548
000150 e2 e4 59 bf c5 13 bc 3d ae ad 1e 3e a8 fc c8 bd
       -0.8511487 0.09183458 0.15495941 -0.09813815
000160 99 05 03 be 81 e9 8b 3e 00 83 85 3e 56 e2 fa 3e
       -0.12795104 0.27326587 0.26076508 0.49000806
000170 0a 32 65 be 74 3b 11 3e 0a d0 98 3e 7d d2 b5 3e
       -0.2238237 0.14182836 0.2984622 0.35512152
000180 f0 3e 49 3e 9d af 83 3e 11 3c a7 be a4 62 21 be
       0.19652915 0.2571992 -0.32663015 -0.15760285
000190 aa f1 5c be b2 74 7e bd 60 16 db be a9 10 1e be
       -0.21576563 -0.062123008 -0.42790508 -0.15436043
0001a0 56 36 fd bd 4f 11 b4 be 36 c6 30 be 95 77 d7 3d
       -0.123638794 -0.35169455 -0.17263111 0.10520855
0001b0 40 40 d0 3e 50 8c 21 be 80 61 56 be d9 6c 2b 3d
       0.4067402 -0.15776181 -0.20935631 0.041851852
0001c0 4b 2b 05 3f d4 04 d1 3c 14 df af bc dd 26 81 be
       0.52019185 0.025514998 -0.021468677 -0.25224963
0001d0 09 21 5c be 0b 74 03 be cf b2 8a bd 5c f3 d4 be
       -0.21496977 -0.12837236 -0.06772386 -0.41591918
0001e0 20 22 06 3e f6 4f 64 3e f1 d8 95 bd b9 2c 1c 3e
       0.13098955 0.22296128 -0.07316769 0.15251435
0001f0 a0 d9 01 3e d9 c3 8b bc b8 01 d7 be 11 78 70 3e
       0.12680674 -0.01706116 -0.419935 0.23483302
000200 5e d4 23 3e 96 6b 57 3e 14 73 a0 be 23 4d e5 bd
       0.1599898 0.21037135 -0.31337798 -0.11196353
000210 1d 03 9d be bd e9 11 be f1 79 75 3d 83 5a 66 bd
       -0.30666438 -0.1424932 0.059930746 -0.056238662
000220 38 24 59 3e 2b 47 ea be e6 17 b3 3e 34 70 5b 3d
       0.21205223 -0.45757422 0.3497917 0.053573802
000230 3d bd a0 be eb c6 0f 3e 78 f2 df bc 69 4a a5 be
       -0.31394377 0.14040725 -0.027337298 -0.32283333
000240 5d 28 ca 3e 45 77 6e be e5 a0 7d be ae f7 3c be
       0.3948392 -0.23287685 -0.24768408 -0.18453857
000250 df d9 58 be 4d b4 6b 3e 02 2b de bd ce 23 a1 3d
       -0.21176861 0.23017998 -0.10848047 0.07868157
000260 19 c5 3b be 36 e0 f4 3d 00 cf 15 3d bc b1 e0 bd
       -0.18336906 0.11956827 0.036574364 -0.109714
000270 2c 0f 18 bf 49 11 e7 bd e4 3c 3d 3e 56 fa 72 3e
       -0.5939815 -0.11282594 0.18480259 0.23728308
000280 af 6b d6 bc e6 10 87 3d e1 e1 6b bd 5e 7a 8e 3e
       -0.026174394 0.0659502 -0.05758846 0.27827734
000290 2d 62 2c 3e 29 67 53 3e 65 1d db be 09 ea 04 3e
       0.16834326 0.20644821 -0.42795864 0.12979902
0002a0 3f 33 90 be 0e f0 74 3d 5e e6 51 3e 64 e0 b9 be
       -0.28164098 0.059799246 0.20498034 -0.3630401
0002b0 b0 15 06 bd 66 60 b7 bd 7e a1 8a 3e e1 c8 a2 3c
       -0.032735527 -0.089539334 0.27076334 0.019871177
0002c0 3e 1d 35 3d ce 16 54 3e fb cc 74 3d 5f 46 7c be
       0.04421734 0.20711824 0.059765797 -0.2463622
0002d0 0d e8 06 3d f1 0e ba be 7b 73 c1 3d a3 be 11 be
       0.032936145 -0.36339524 0.09445854 -0.14232878
0002e0 68 11 bf be 48 43 5c 3e b7 df c5 3d af c7 64 3e
       -0.37317967 0.21510041 0.09661811 0.22341798
0002f0 f9 38 ad 3d fe de 7a be cc 36 be 3e 90 50 7d 3e
       0.08458132 -0.24499127 0.37151182 0.24737763
000300 9b 18 76 3b 42 e6 31 be fe bc 5e be b4 52 c8 bc
       0.0037551287 -0.17372993 -0.21751782 -0.024453498
000310 86 60 2b 3e b5 7c a7 be 99 48 8d bd 1f 34 8a be
       0.1673604 -0.3271233 -0.068986125 -0.2699289
000320 0e 74 7a bd e8 2d f6 3c 24 cc 21 3e 45 1c 8e bd
       -0.061145835 0.030051187 0.1580053 -0.06938986
000330 5f 2c 17 3e f6 79 70 3e d2 f4 40 be 5e 89 99 3e
       0.1476302 0.23484024 -0.18843392 0.29987615
000340 2c c5 75 bc 94 5d af 3e 8d 5e 5b 3e ca 0f 3c 3e
       -0.015000623 0.34251082 0.21422787 0.18365398
000350 df d4 11 bf c0 98 28 be a7 4b 61 3d b3 3f 20 3e
       -0.5696544 -0.1646452 0.05500379 0.156493
000360 80 67 66 bd ff b0 27 3d 95 f1 50 be 2e 75 58 be
       -0.05625105 0.04094028 -0.20404656 -0.2113845
000370 40 f7 f6 bd 10 88 a4 3e c2 97 45 be 27 50 79 be
       -0.12058878 0.32135057 -0.19296172 -0.24346982
000380 dd 7c 6a 3f 63 36 98 3e 13 3e 7a 3d 2b f7 e2 3e
       0.91596776 0.29728994 0.061094355 0.443292
000390 b5 7b 8d 3e 92 55 9b 3d d8 64 1c be a4 04 f1 bd
       0.27633443 0.075846806 -0.15272844 -0.11768463
0003a0 c7 e7 57 be aa 48 51 bd c7 3e 3a bb 91 f7 b2 3e
       -0.2108451 -0.05109469 -0.0028418766 0.34954503
0003b0 4e b2 28 be df 7a f7 3e b5 1b a6 3e f9 55 3f be
       -0.16474268 0.4833593 0.32443014 -0.1868514
0003c0 88 90 9f 3e 9f 06 d6 3e a6 d1 80 3d 46 86 e4 bd
       0.31164956 0.41801926 0.06289987 -0.11158423
0003d0 94 71 d0 3d 9a d9 92 be 87 43 6a 3e af a9 07 3e
       0.10177913 -0.28681642 0.22877322 0.13248323
0003e0 4e 4e a4 bd 91 29 37 3f b7 fc aa bc 11 50 a8 3e
       -0.08022748 0.715478 -0.020872457 0.32873586
0003f0 a4 cc 49 3e 41 65 39 be ab a5 02 3e 94 88 39 3b
       0.1970697 -0.18105032 0.1275851 0.0028310167

bn2.weight f4 [14]
000000 ca 5f b4 3f 76 5b c0 3f cf 0e c9 3f 2d 22 ae 3f
       1.4091733 1.5027912 1.5707644 1.360418
000010 6e d5 b6 3f d1 55 b3 3f 33 46 bc 3f 35 23 c5 3f
       1.4283884 1.4010564 1.4708923 1.5401369
000020 cf 4d a7 3f 3c 7c d5 3f d1 3e cf 3f 2c de c6 3f
       1.307062 1.6678538 1.6191045 1.5536551
000030 c0 a8 9d 3f e0 f8 be 3f
       1.2317123 1.4919701

bn2.bias f4 [14]
000000 7c 83 49 3e f1 cd 06 3e 8e 5c 62 3d f3 83 8b bc
       0.19679064 0.13164498 0.05526405 -0.017030692
000010 d0 68 40 3e ff cb 12 3e de 98 48 3e bd 69 87 be
       0.18789983 0.14335631 0.19589564 -0.2644786
000020 94 dd 91 be 3a 8f 42 bd 89 18 41 3e c4 84 30 be
       -0.28489363 -0.047499873 0.18857016 -0.17238146
000030 5b ad 91 be df 8a 1e be
       -0.28452572 -0.15482663

bn2.running_mean f4 [14]
000000 43 50 23 bd 3f 18 01 bf 27 7a de bc 90 9f 2c bf
       -0.039871465 -0.5042762 -0.027157856 -0.67430973
000010 58 b3 12 be e8 a9 40 bf 24 25 26 bf 73 b9 60 be
       -0.14326227 -0.75259256 -0.6490042 -0.21945743
000020 9d f0 e6 3f f6 d2 9a be ad 29 09 be 7b 1f fe be
       1.8042179 -0.30239075 -0.13394804 -0.49633393
000030 a2 a1 c0 3f 29 c9 7d 3e
       1.5049326 0.24783768

bn2.running_var f4 [14]
000000 32 d7 52 3e 01 be 05 3e dc 3f 1e 3e 9e ca 0f 3e
       0.20589903 0.13060762 0.15454048 0.14042136
000010 b3 2b aa 3e 20 aa 28 3e c1 57 c2 3d 57 f2 dd 3d
       0.33236465 0.16471148 0.09489394 0.10837238
000020 40 b4 b3 3f 60 80 4a 3e ec ad 60 3e 70 86 06 3e
       1.4039383 0.19775534 0.21941346 0.13137221
000030 9d c7 3b 3f 8b 3f 8c 3e
       0.7335146 0.2739223

fc.weight f4 [2, 14]
000000 12 73 0b bf 2c 46 d0 3e a3 41 27 3f 12 a8 d8 3e
       -0.5447246 0.40678537 0.6533453 0.42315727
000010 e9 af 47 be 2d 3d a0 3e bb 29 91 3e e5 3f 2e 3f
       -0.19500698 0.31296673 0.2835215 0.68066245
000020 d0 d9 9a be b9 1f e8 3e 26 ce fe be e9 d2 d8 3e
       -0.30244303 0.45336702 -0.49766654 0.42348412
000030 52 02 65 be 73 31 92 3e 45 d3 8d 3e 04 47 57 be
       -0.22364166 0.28553352 0.27700248 -0.21023184
000040 7c 52 46 be 8a 96 0e bf 29 ab 16 3f 6f 38 1b bf
       -0.19367403 -0.55698454 0.5885492 -0.60632986
000050 8f b1 ba be d7 67 2b bf b0 bb a6 3e 41 e4 07 bf
       -0.3646359 -0.6695532 0.3256507 -0.5308266
000060 e8 fa ea 3e c5 a9 16 bf 20 1c 01 3f 21 c9 c8 be
       0.4589455 -0.588528 0.5043354 -0.3921595

fc.bias f4 [2]
000000 26 0d e7 bd 87 94 42 3e
       -0.11281805 0.19001971
