models/booster/2-2.pth (torch, 9466 bytes, 18 tensors)

conv1.att_src f4 [1, 1, 28]
0	0x3f86f330	1.0542965
1	0xbf9df12e	-1.2339227
2	0xc0527af0	-3.2887535
3	0xbf501558	-0.8128257
4	0x4014c324	2.3244104
5	0xbf822e1c	-1.0170321
6	0xbf33ccd7	-0.70234436
7	0x3ec3cc01	0.3824158
8	0xbfd99d30	-1.7001095
9	0x3ec601d8	0.38673282
10	0x4007aa81	2.1197817
11	0xbfb63f79	-1.423812
12	0x4057c074	3.3711214
13	0x4044ea5e	3.0768046
14	0xc03b3b58	-2.925497
15	0x40387aad	2.8824875
16	0x4003fb83	2.062226
17	0xbf78b937	-0.97157615
18	0xbf9a0bdc	-1.2034869
19	0x400196fb	2.02484
20	0x403160f5	2.7715428
21	0xbef15555	-0.47135416
22	0xbffdee3c	-1.9838328
23	0xbeca6a6a	-0.39534312
24	0x40336270	2.8028831
25	0x3f51a99e	0.8189944
26	0xbf134aa1	-0.5753575
27	0xbfe59ebe	-1.7939069

conv1.att_dst f4 [1, 1, 28]
0	0xbeb2798e	-0.34858364
1	0xbde3c46d	-0.111214496
2	0xbed5e0d9	-0.41773108
3	0x3e39e159	0.1815237
4	0xbeac83a5	-0.33694187
5	0x3da777ef	0.081771724
6	0x3d94ef6b	0.07272228
7	0xbed94e13	-0.42442378
8	0xbe97ca63	-0.29646596
9	0x3c882e0e	0.016623523
10	0x3da0c196	0.078494236
11	0xbe362c81	-0.17790414
12	0x3dcb49ad	0.09926162
13	0x3f100cf5	0.5626977
14	0x3d4be889	0.04978231
15	0xbddda0b5	-0.10821668
16	0x3cf88791	0.03033808
17	0xbf13a4b3	-0.57673186
18	0x3d9b626e	0.07587133
19	0xbe07c30d	-0.13258
20	0x3ed571ff	0.41688535
21	0x3d17176d	0.036887575
22	0xbd97129f	-0.073765986
23	0xbd41cba4	-0.047313347
24	0xbbce00dc	-0.0062867235
25	0xbf0316ba	-0.51206553
26	0x3e97f78c	0.2968105
27	0xbe24c1ec	-0.160896

conv1.bias f4 [28]
0	0x3b23eb70	0.0025012158
1	0x3ddd8a9a	0.10817452
2	0x3c34a400	0.011025429
3	0xbb04dbb2	-0.002027255
4	0xbb3607aa	-0.0027775564
5	0x3d8013be	0.062537655
6	0xbd13663e	-0.035986178
7	0x3e15cb65	0.1462837
8	0xbbc5df1c	-0.0060385596
9	0x3c5dc06b	0.013534646
10	0xbaa92bd0	-0.0012906734
11	0x3da98593	0.082774304
12	0x3d8cb1f9	0.06869883
13	0xbb84d023	-0.004053132
14	0xbe019201	-0.12653352
15	0x3cf648f8	0.030064091
16	0xbd6ac9d0	-0.05732137
17	0xbbc432ff	-0.0059875245
18	0x3d48b3ef	0.048999723
19	0x3dbad6ac	0.09122977
20	0x3be7fe35	0.0070798644
21	0x3c8d5801	0.017253878
22	0xba3cf954	-0.00072087836
23	0xbc77cfdf	-0.015125244
24	0x3cc8b64e	0.024500992
25	0x3dce3928	0.100694954
26	0xbd5f0f1c	-0.05445777
27	0xbdd86e0f	-0.10567867

conv1.lin.weight f4 [28, 10]
0	0x3f293ce3	0.6610853
1	0xc0046bc2	-2.069077
2	0x3e9749d7	0.29548523
3	0x3f40d4f8	0.75324965
4	0xbf6ac82f	-0.91711706
5	0xbec08d60	-0.3760786
6	0x3f37d1a9	0.7180429
7	0x3eb5da63	0.35518178
8	0xbee4183f	-0.44549748
9	0xbf3d2dcf	-0.73898023
10	0x3e0e50c0	0.13897991
11	0x4023ffde	2.562492
12	0xbed485cd	-0.41508332
13	0xbbb7f500	-0.005613923
14	0x3dac41bc	0.08410975
15	0x40095617	2.1458795
16	0x3fa7ab0a	1.3099072
17	0xc0259dc2	-2.5877538
18	0x3fa38364	1.2774472
19	0x40156977	2.334562
20	0xbead3842	-0.33831984
21	0x400cb271	2.1983912
22	0xbf09d199	-0.53835446
23	0x3c880b91	0.016607078
24	0x3e497e32	0.19677046
25	0x4027cff5	2.6220677
26	0xbeac0907	-0.33600637
27	0xbfbdeb7e	-1.4837492
28	0x3ef4af41	0.47789958
29	0x3fb0509c	1.37746
30	0xbdeb3fb3	-0.11486759
31	0x3fa9494b	1.3225492
32	0xbeec2168	-0.46119237
33	0x3e1ad1ab	0.15119044
34	0xbf17ba88	-0.59269
35	0x401dae9b	2.463782
36	0x3e970c60	0.2950163
37	0xbef9ce42	-0.48790175
38	0x3ed1be36	0.40965432
39	0x3f823aa2	1.0174143
40	0x3f221e85	0.6332782
41	0xc00fe5cc	-2.2484007
42	0x3f5689ef	0.8380422
43	0x3ce07f93	0.027404582
44	0xc002b433	-2.0422485
45	0x3ee40a32	0.44539028
46	0x3f39c975	0.72573024
47	0x3f51ca97	0.8194975
48	0xbf2b8967	-0.67006534
49	0xbf0234b6	-0.5086168
50	0xbf16480c	-0.58703685
51	0x3fd22da1	1.6420175
52	0xbeac14fc	-0.3360976
53	0x3bd8eed3	0.006620267
54	0xbfb97264	-1.4488034
55	0x40b84bd8	5.7592583
56	0xbd509cc5	-0.050930757
57	0xc06f18f8	-3.735899
58	0x3f07918e	0.52956474
59	0x3f9d88ab	1.2307333
60	0x3e44b9cc	0.19211501
61	0xbf8fe110	-1.1240559
62	0xbe3af67c	-0.18258089
63	0x3cb0b1cb	0.021569153
64	0xbfe34b73	-1.77574
65	0x3da9c937	0.08290332
66	0x3ebfef07	0.3748705
67	0x3fddfa19	1.7341949
68	0xbfbff167	-1.4995545
69	0x3f41ef1f	0.75755495
70	0x3c338047	0.010955877
71	0x3fdf20a1	1.7431833
72	0x3e83b0c1	0.2572079
73	0xbc8e102a	-0.017341692
74	0xc08e0db4	-4.4391727
75	0x3d0b68c4	0.03403546
76	0x3f2c1820	0.6722431
77	0xc060017d	-3.5000908
78	0x40148a92	2.3209577
79	0x4066a185	3.6036084
80	0xbeb79142	-0.3585301
81	0x3fd947e2	1.6975062
82	0xbf3adcb1	-0.72993
83	0x3ecb1df2	0.39671284
84	0x3f9ac2bd	1.209068
85	0x3f11d814	0.56970334
86	0xbde9c6ee	-0.11414896
87	0xbec76e37	-0.38951275
88	0x3e841286	0.25795382
89	0x3f173d53	0.5907795
90	0xbf32ad4b	-0.69795674
91	0xbfa0e941	-1.2571183
92	0xbea2b166	-0.3177597
93	0x3d59d76a	0.05318395
94	0xbfddafa5	-1.7319227
95	0xbf9cdbe2	-1.2254603
96	0xbf531e28	-0.8246789
97	0xbf791007	-0.9729008
98	0xbea37c88	-0.31930947
99	0xbede832d	-0.43459454
100	0xbdc4985e	-0.09599374
101	0xc002b90f	-2.042545
102	0x3ecab667	0.39592287
103	0x3f87dd6b	1.0614446
104	0xbf9688ee	-1.1760538
105	0xbf899504	-1.0748601
106	0xbe8515df	-0.2599325
107	0x3d415a0a	0.04720501
108	0xbd2e42cb	-0.042544167
109	0xbe1456eb	-0.14486282
110	0xbf257748	-0.64635134
111	0x3fec031f	1.8438452
112	0xbed27dbc	-0.41111553
113	0xbc979c6d	-0.018507207
114	0xbfe08c4c	-1.7542815
115	0x3f024811	0.50891215
116	0x3e322f1b	0.17400782
117	0xc00b6f09	-2.178652
118	0x3f2803ba	0.65630686
119	0x3fdc1793	1.7194694
120	0xbebac0e1	-0.3647528
121	0xbef79701	-0.48357394
122	0x3e45e708	0.19326413
123	0xbc9c416f	-0.01907417
124	0x3d98c4e7	0.07459431
125	0xc06de29d	-3.7169564
126	0x3f554192	0.8330318
127	0x3f8c5f84	1.0966649
128	0x3cc31897	0.023815436
129	0xbf567239	-0.8376804
130	0x3f31c75a	0.6944481
131	0xc01ce8cd	-2.451709
132	0x3e9eeb01	0.3103867
133	0xbcd5a7bd	-0.02608096
134	0xbfbedf28	-1.4911852
135	0xbf8ff0a2	-1.124531
136	0x3ee02f7f	0.43786237
137	0x3f4029b9	0.75063664
138	0xbea337b1	-0.31878427
139	0xbeeb734b	-0.459864
140	0x3ee166c8	0.44023728
141	0x3ffc1fe3	1.9697231
142	0xbeac9f86	-0.33715457
143	0x3c2da89f	0.010599284
144	0xbfb00a42	-1.375313
145	0x40a65445	5.197787
146	0x3e1b477c	0.15163988
147	0xc031f911	-2.7808268
148	0x3e2ff5ab	0.17183559
149	0x3fadd5b1	1.3580838
150	0x3e11bb53	0.14231615
151	0xbf8bdfd5	-1.0927683
152	0x3ec602d0	0.3867402
153	0xbd666e0d	-0.056257296
154	0x3f904070	1.1269665
155	0xbfe9540e	-1.8228776
156	0x3ef44e3a	0.47715932
157	0x3f0c7032	0.54858696
158	0xbe3a114c	-0.1817066
159	0xbf1a3dcb	-0.6025054
160	0x3f064491	0.52448374
161	0xbf8c1918	-1.0945158
162	0x3ea1cd93	0.31602153
163	0x3c88d732	0.016704176
164	0x4089a84d	4.3017945
165	0xc0950a71	-4.6575246
166	0x3f275782	0.653679
167	0x40241460	2.5637436
168	0xbe8e174b	-0.27752146
169	0xbff63da9	-1.9237567
170	0xbe68a847	-0.22720443
171	0x3fb76c14	1.4329858
172	0xbe6ca974	-0.23111516
173	0x3cb5b7b4	0.022182323
174	0xbf25d9fd	-0.6478575
175	0x40378263	2.8673332
176	0x3e8728bb	0.26398262
177	0xbe92b923	-0.28656873
178	0x3f161b28	0.5863519
179	0x3fa80f65	1.3129698
180	0xbf0188c1	-0.50599295
181	0x3ff0bd2d	1.8807732
182	0xbed5242d	-0.41629162
183	0xbcaebdda	-0.021330763
184	0xbeb872aa	-0.36024982
185	0x406e4d61	3.7234728
186	0x3e14cd31	0.145314
187	0xc00c8780	-2.1957703
188	0x3f612399	0.8794494
189	0x3fcfe0a1	1.6240426
190	0xbe4a40d4	-0.19751292
191	0xbf382501	-0.71931463
192	0x3e28eed5	0.16497357
193	0xbc4be55f	-0.012444823
194	0x3fde727d	1.7378689
195	0xc05b5640	-3.4271393
196	0x3f38b1f6	0.72146547
197	0x3f974dda	1.1820633
198	0xbe9da34a	-0.30788642
199	0x3ed4c152	0.41553742
200	0x3f1343bd	0.57525235
201	0xbffafafe	-1.9607847
202	0x3f35d2be	0.7102469
203	0xbee76391	-0.4519315
204	0xbfb01435	-1.3756167
205	0xbf819d7a	-1.0126183
206	0x3ea21088	0.31653237
207	0x3e5b9862	0.21444848
208	0xbf177607	-0.5916447
209	0xbe6d55cc	-0.2317726
210	0xbe4ded47	-0.20110045
211	0xbec30ce3	-0.3809577
212	0xbe865649	-0.26237705
213	0xbcd055a8	-0.02543147
214	0x3fb4fac0	1.4139023
215	0xc01d811b	-2.461005
216	0xbf14af41	-0.58079916
217	0x3fb852f0	1.440031
218	0xbf23bdfe	-0.6396178
219	0xbebd37ad	-0.3695654
220	0xbc9b3932	-0.018948171
221	0x3ffd7915	1.9802576
222	0xbeaeeec9	-0.34166554
223	0x3f0942d9	0.53617626
224	0x3f5ff116	0.8747724
225	0x3ed05dd8	0.40696597
226	0xbf11d0a2	-0.56958973
227	0xbd86a433	-0.06574287
228	0x3e0c497b	0.13699906
229	0x3f6aa3d6	0.91656244
230	0x3cc437ed	0.023952449
231	0x3fa2163d	1.2663037
232	0xbeb2e816	-0.34942693
233	0x3c656c0f	0.014002814
234	0xbee8e978	-0.45490623
235	0xbf05965e	-0.5218257
236	0x3e61ed96	0.22063288
237	0xbf004ea5	-0.5012
238	0x3f449b6a	0.76799643
239	0x3f14d896	0.58142984
240	0x3f39b097	0.7253508
241	0xbeff78ee	-0.4989695
242	0x3ecc4c3f	0.3990192
243	0xbd5009a7	-0.050790455
244	0xc032fe06	-2.7967544
245	0xc0152ab6	-2.3307319
246	0x3ec21023	0.37902936
247	0x3de9bc14	0.11412826
248	0x3c1f348f	0.009717121
249	0xbe13d3a2	-0.144362
250	0xbf17fad1	-0.5936709
251	0xc061a5f4	-3.525754
252	0xbdb4b53f	-0.088236324
253	0xbaa68b6b	-0.0012706345
254	0xc0112b40	-2.2682648
255	0x40ecae6a	7.396291

bn1.weight f4 [28]
0	0x3f4a78cc	0.7909057
1	0x3f719d12	0.94380295
2	0x3f4c5314	0.7981427
3	0x3f2ff6cc	0.6873596
4	0x3f100f9b	0.5627381
5	0x3f47f462	0.78107274
6	0x3f9f3a9f	1.2439765
7	0x3fc1a364	1.5127988
8	0x3f305a21	0.68887526
9	0x3f8aa5bf	1.0831832
10	0x3f70df71	0.94090945
11	0x3f3149e6	0.69253385
12	0x3f160263	0.5859739
13	0x3f6a2ace	0.91471565
14	0x3f5ec2ea	0.87016165
15	0x3f507e6e	0.81442916
16	0x3f7ce980	0.9879379
17	0x3f1cfd87	0.6132435
18	0x3f3987b7	0.7247271
19	0x3f8285da	1.0197098
20	0x3f66e9df	0.9020061
21	0x3f399d6b	0.72505826
22	0x3f57ca1b	0.84292763
23	0x3f5b9ce5	0.8578628
24	0x3f49d20d	0.7883614
25	0x3fc2b478	1.5211325
26	0x3fc5c2a3	1.5450023
27	0x3fded23d	1.740791

bn1.bias f4 [28]
0	0x3e6080dd	0.21924157
1	0x3d8ee4eb	0.069772564
2	0x3c511e41	0.012763561
3	0xbe3700c7	-0.1787139
4	0x3ce4d018	0.027931258
5	0x3ef2e87f	0.47443005
6	0x3e89f4d3	0.269446
7	0x3f4114b0	0.7542219
8	0xbf3a72d2	-0.7283145
9	0xbe4c0d2f	-0.19926904
10	0x3e0f606b	0.14001624
11	0xbe26f785	-0.16305359
12	0x3e6b1cfc	0.22960275
13	0x3d8fcefd	0.07021902
14	0x3df18b8b	0.11794194
15	0xbddf2cfd	-0.10897253
16	0x3e0f3967	0.13986741
17	0xbe563e34	-0.20922166
18	0xbd02eac4	-0.03196217
19	0x3ea0d031	0.31408837
20	0xbecf6633	-0.4050766
21	0xbe6b285b	-0.22964613
22	0xbe1db9ca	-0.15402904
23	0x3e902e8a	0.28160506
24	0xbe20bdac	-0.15697354
25	0xbd9c24dd	-0.076242186
26	0xbdd85853	-0.105637215
27	0x3e86dada	0.26338845

bn1.running_mean f4 [28]
0	0x438faee1	287.36624
1	0xbf359371	-0.709281
2	0x40c48608	6.141361
3	0x42691d8e	58.278862
4	0x4139d19f	11.613677
5	0x403f2a91	2.986973
6	0x40aaafe2	5.33397
7	0xc00ea4a0	-2.228798
8	0x4316e6f6	150.90219
9	0x419285a7	18.31526
10	0x43cacbc4	405.59192
11	0xc0d95b33	-6.7923827
12	0xc0e5d6e3	-7.1824813
13	0xc122243e	-10.133848
14	0x40832d31	4.0992665
15	0xc1ab15a7	-21.385572
16	0x40cf92e0	6.486679
17	0x4114b485	9.294072
18	0xc0ef4701	-7.4774175
19	0xc09eb5af	-4.959678
20	0xc32c8e39	-172.55556
21	0xc1406415	-12.024434
22	0x434d21d1	205.1321
23	0x40b085cf	5.516334
24	0xc1962bbc	-18.771355
25	0x3f06ebb7	0.5270342
26	0xc106b2fb	-8.418696
27	0xbeeca94a	-0.46222907

bn1.running_var f4 [28]
0	0x47b2bb69	91510.82
1	0x40d13cb0	6.538658
2	0x423ad8d1	46.711735
3	0x456d2385	3794.22
4	0x42f256ec	121.16977
5	0x40ea8508	7.328739
6	0x428c8a01	70.26954
7	0x42528896	52.633385
8	0x46c8cad3	25701.412
9	0x43e3c7af	455.56003
10	0x4831afa5	181950.58
11	0x4252c829	52.69547
12	0x427e139e	63.519157
13	0x42e710b0	115.53259
14	0x41965b95	18.794718
15	0x4406489c	537.1345
16	0x42342f24	45.046036
17	0x42a3d7d6	81.921555
18	0x429379ac	73.73764
19	0x41cf8812	25.94144
20	0x47023184	33329.516
21	0x42e9501c	116.65646
22	0x47371b87	46875.527
23	0x41f4954f	30.572905
24	0x43d8155f	432.16696
25	0x3f25656c	0.6460788
26	0x41b8089f	23.00421
27	0x3ec18a8c	0.37801015

conv2.att_src f4 [1, 1, 14]
0	0x3f223f1a	0.63377535
1	0x3ef845d2	0.4849077
2	0xbf348027	-0.70508045
3	0xbf7d15d3	-0.98861426
4	0xc0286b15	-2.6315358
5	0xbe0a9c1c	-0.13536114
6	0xbdc05609	-0.0939141
7	0x3f57a509	0.842362
8	0xbea2e0b3	-0.31812057
9	0x3f4c4fc8	0.79809237
10	0xbf696d1f	-0.9118213
11	0xbf5a5a4b	-0.85294026
12	0x3ffbde2e	1.9677179
13	0xbe7a0d24	-0.24419075

conv2.att_dst f4 [1, 1, 14]
0	0xbdbec451	-0.09314788
1	0x3f9503c9	1.164178
2	0x3f63b3c6	0.8894619
3	0xbe8bf1c5	-0.27332893
4	0xbeec8c7d	-0.46200934
5	0x40092a49	2.143206
6	0x3eb5a000	0.35473633
7	0xbf8c9ff5	-1.0986315
8	0xbf87310f	-1.0561846
9	0xbfda45ec	-1.7052588
10	0xbea9c82b	-0.3316053
11	0x4002c5c8	2.0433216
12	0x3fc81ceb	1.5633825
13	0x3ee7c0d1	0.45264295

conv2.bias f4 [14]
0	0x3c9b4c9b	0.018957427
1	0x3d8d223f	0.068912975
2	0xbdbafff9	-0.09130854
3	0xbd867e06	-0.06567006
4	0x3d19d769	0.037558947
5	0x3e05c480	0.1306324
6	0x3e26b1bd	0.1627874
7	0xbe800948	-0.2500708
8	0xbe059210	-0.13044
9	0xbe0a94f8	-0.1353339
10	0xbc51a649	-0.012795993
11	0x3cad9acf	0.021191983
12	0xbd19400d	-0.0374146
13	0xbdea03f5	-0.11426536

conv2.lin.weight f4 [14, 28]
0	0xbe66efc8	-0.22552407
1	0x3e46d166	0.19415817
2	0x3eb046ac	0.34428918
3	0xbcb0b41a	-0.021570254
4	0xbeb6bb0a	-0.35689574
5	0x3b9a631c	0.004711522
6	0x3c9844af	0.018587438
7	0xbe98d841	-0.2985249
8	0x3e8f912f	0.28040454
9	0x3b20feb9	0.002456589
10	0xbe3e6aae	-0.18595383
11	0x3c506a76	0.012720695
12	0xbd88796f	-0.066637866
13	0xbe50f44d	-0.20405693
14	0x3e6a9d2b	0.22911517
15	0xbe81da26	-0.25361747
16	0xbd0fbea0	-0.035093904
17	0x3e3d0b19	0.18461265
18	0xbdadba70	-0.08482826
19	0x3e74ae7c	0.23894686
20	0xbd9a0b21	-0.07521654
21	0xbdc45c3d	-0.095879056
22	0x3e943a20	0.28950596
23	0xbdca168e	-0.09867583
24	0xbccab54f	-0.024744658
25	0xbf170753	-0.5899555
26	0xbedd99f0	-0.43281507
27	0x3f3c6c4c	0.7360275
28	0x3ec9cb7f	0.39413068
29	0x3e14f91b	0.14548151
30	0x3eb86199	0.3601196
31	0xbe85f740	-0.261652
32	0xbd936a33	-0.0719799
33	0x3eb2f1f4	0.3495022
34	0xbefb1414	-0.49038756
35	0x3e86d709	0.26335934
36	0xbe1124e2	-0.14174226
37	0xbf017493	-0.50568503
38	0xbab5c584	-0.0013868068
39	0xbe539c05	-0.20664985
40	0xbea47bf4	-0.3212582
41	0xbd69e6b2	-0.057104774
42	0x3e7c0d90	0.24614549
43	0xbdb802e3	-0.089849256
44	0xbd92931f	-0.07156967
45	0x3e18dd1d	0.14928098
46	0x3ea2ac77	0.31772205
47	0xbe078061	-0.13232566
48	0x3e7f6aef	0.24943136
49	0xbdab0daf	-0.08352219
50	0x3e8f0f75	0.2794148
51	0x3eab37c9	0.33440998
52	0x3e45759f	0.1928315
53	0x3f06f83f	0.52722543
54	0xbe61b9d2	-0.22043541
55	0x3f17a34a	0.59233534
56	0xbda6b218	-0.081394374
57	0x3e871632	0.2638412
58	0xbd0a0510	-0.033696234
59	0x3e4759d3	0.19467859
60	0xbe045ed2	-0.12926796
61	0x3eb74631	0.3579574
62	0xbe84a986	-0.25910586
63	0x3c9b6bef	0.018972365
64	0xbdcfb693	-0.10142245
65	0xbdba25e7	-0.090892605
66	0x3e700dc8	0.23442757
67	0xbc7097e2	-0.014684649
68	0xbe97f37e	-0.29677957
69	0x3d5bb4f4	0.053639367
70	0x3efd2e4d	0.49449387
71	0xbdf475a8	-0.11936504
72	0xbeb108e9	-0.3457711
73	0x3d9e8d48	0.07741791
74	0x3eabba1f	0.33540437
75	0xbefc96e0	-0.49333858
76	0x3e3a31fe	0.18183133
77	0x3e0d173e	0.13778397
78	0xbce63ca8	-0.028105095
79	0xbe2ae86c	-0.16690224
80	0xbe9ffc76	-0.312473
81	0x3edc9afe	0.43087
82	0xbbff1a10	-0.0077850893
83	0x3e98d7eb	0.29852232
84	0xbb8e181a	-0.004336369
85	0xbeae39a5	-0.34028354
86	0x3e58de7f	0.21178626
87	0xbdb1d818	-0.08683795
88	0x3d0a3d96	0.03375014
89	0x3e503afe	0.20335004
90	0x3d7c0e5b	0.061537128
91	0xbf326526	-0.6968559
92	0xbe281139	-0.1641282
93	0xbeb3cf77	-0.3511922
94	0xbe186fc9	-0.14886393
95	0xbdccb066	-0.09994583
96	0xbdd2ac12	-0.10286726
97	0x3d9c07b5	0.076186575
98	0x3ecbda8c	0.39815176
99	0x3e489618	0.19588506
100	0x3de0ed34	0.10982743
101	0xbe1f6215	-0.15564759
102	0xbc910b37	-0.017705543
103	0xbd25663e	-0.04038071
104	0xbefabbc1	-0.4897137
105	0x3eb2c764	0.34917748
106	0x3cfa87c2	0.030582312
107	0xbe9e43c4	-0.30911076
108	0xbe6b150c	-0.22957247
109	0x3ead4fa0	0.33849812
110	0x3ecf786e	0.40521568
111	0x3f16e1c5	0.58938247
112	0xbcc0aed6	-0.023520868
113	0xbe47c5e2	-0.1950908
114	0xbeffbdf7	-0.4994962
115	0x3dd840ef	0.1055926
116	0x3e849bae	0.25900024
117	0x3da0097f	0.07814311
118	0xbe57587a	-0.21029845
119	0xbf77c7cb	-0.96789235
120	0x3e932bfd	0.28744498
121	0xbe2455f4	-0.16048414
122	0xbec7325e	-0.38905615
123	0xbee756cd	-0.4518341
124	0xbe992155	-0.29908243
125	0xbe82dae0	-0.25557613
126	0x3e0e9915	0.13925584
127	0xbebeedfc	-0.37290943
128	0xbe9244fd	-0.2856826
129	0xbcee1eef	-0.029067485
130	0x3dad37f5	0.084579386
131	0xbea9bc42	-0.33151442
132	0xbf161e7b	-0.5864026
133	0xbc4ab34b	-0.012371848
134	0xbcc15c3c	-0.023603551
135	0xbe92ca9e	-0.2867021
136	0xbea4a116	-0.3215415
137	0x3ee74567	0.45170137
138	0x3f871f5e	1.0556448
139	0x3dcd29d4	0.10017744
140	0xbe192052	-0.14953735
141	0x3e780b9a	0.24223176
142	0xbea7eded	-0.3279871
143	0x3db11799	0.08647079
144	0x3e65a879	0.22427548
145	0x3e940d34	0.28916323
146	0xbe8e4ef4	-0.2779461
147	0xbc5b0c43	-0.013369623
148	0xbedd26b5	-0.43193594
149	0xbe9f279a	-0.310849
150	0x3e862123	0.26197156
151	0xbe5fbd99	-0.2184967
152	0xbe2eeb32	-0.17081907
153	0xbe9e5617	-0.30925056
154	0x3eb11b52	0.34591156
155	0xbe8bdbe3	-0.27316198
156	0xbe615b81	-0.22007562
157	0x3e08243c	0.13295072
158	0x3e07926f	0.13239454
159	0xbecb8b59	-0.3975475
160	0x3d9a92a1	0.075474985
161	0xbd9b0e90	-0.07571137
162	0x3ea53b4d	0.32271805
163	0x3dbdb374	0.092627436
164	0xbe671598	-0.22566831
165	0x3e792876	0.24331841
166	0x3dcc3f3a	0.09972997
167	0x3f08ba2e	0.5340909
168	0x3e981bd5	0.29708734
169	0xbe801c60	-0.25021648
170	0x3dd69260	0.104771376
171	0xbe4e3be9	-0.20140041
172	0x3e919125	0.2843105
173	0x3dd9e57b	0.10639473
174	0x3c91fa67	0.017819596
175	0xbf2b4dff	-0.6691589
176	0x3eb093bc	0.34487712
177	0xbba580a7	-0.005050737
178	0xbeb10eb1	-0.3458152
179	0x3c2c1e3f	0.010505258
180	0x3c13acce	0.009013368
181	0x3e70925a	0.23493329
182	0x3e87fd29	0.26560333
183	0x3de4ff67	0.11181527
184	0xbd6c6a80	-0.057718754
185	0xbece4b77	-0.4029195
186	0xbc40b271	-0.011761294
187	0x3e0bff9b	0.13671724
188	0xbf11d5a7	-0.5696663
189	0x3dd0de9e	0.10198711
190	0xbdc8f19f	-0.098117106
191	0xbdf78b58	-0.120871246
192	0xbebdbabc	-0.3705653
193	0x3e8f0fef	0.27941844
194	0x3e9b9260	0.30385113
195	0x3f068e01	0.5256043
196	0xbeacb0a3	-0.33728513
197	0xbeadb8d5	-0.33930078
198	0xbecdb1c4	-0.40174687
199	0xbd2ecb38	-0.042674273
200	0xbe0cfb87	-0.13767825
201	0xbf0fce7e	-0.5617446
202	0x3eb968cd	0.3621277
203	0xbeeefa3b	-0.46675286
204	0x3d08b2b8	0.033373564
205	0xbddf7125	-0.109102525
206	0xbde4497c	-0.111468285
207	0xbe42ff03	-0.19042592
208	0x3d45ac29	0.048259888
209	0xbeba2c9e	-0.36362165
210	0xbe5c761c	-0.2152943
211	0xbe9ff110	-0.31238604
212	0x3cc9d11d	0.024635846
213	0xbe573c3c	-0.21019071
214	0xbe8d0196	-0.27540272
215	0x3de7dbcb	0.11321219
216	0xbdadc0c7	-0.08484035
217	0x3e23fa83	0.16013531
218	0xbd530a55	-0.051523525
219	0xbe3a7868	-0.18209994
220	0xbe3c3687	-0.18380176
221	0xbf273828	-0.6532006
222	0x3f56b559	0.83870465
223	0x3da12fb2	0.07870425
224	0xbdc6d4d1	-0.0970856
225	0x3e538f2e	0.20660087
226	0x3ec25027	0.37951776
227	0xbd98be44	-0.07458165
228	0xbdb1ae5e	-0.08675836
229	0x3e8c73e5	0.2743217
230	0xbe5d05b0	-0.21584201
231	0xbe303884	-0.17209059
232	0xbe9d4dcc	-0.30723417
233	0x3e9f5862	0.31122118
234	0xbe0c87de	-0.13723704
235	0x3e8d767d	0.27629462
236	0x3c572bd5	0.013133009
237	0xbe909455	-0.28238168
238	0x3e94c960	0.29059887
239	0xbe1f0258	-0.15528238
240	0xbea871a8	-0.32899213
241	0x3e2e9431	0.17048718
242	0x3e918e35	0.28428808
243	0xbeeb0ed5	-0.45909753
244	0x3d8a34da	0.06748362
245	0x3e6a37f6	0.2287291
246	0x3e36d48b	0.17854516
247	0xbe6a5f84	-0.22887999
248	0x3cb93416	0.022607844
249	0xbf4acb30	-0.7921629
250	0xbead7fbd	-0.3388652
251	0x3f004a21	0.5011311
252	0xbefc6b14	-0.49300444
253	0x3e2f172d	0.17098685
254	0x3d1c47c5	0.038154382
255	0xbd7411c3	-0.05958725

bn2.weight f4 [14]
0	0x3fbdaa15	1.481753
1	0x3fa452a3	1.2837719
2	0x3fb85c48	1.4403162
3	0x3fcc7747	1.59739
4	0x3fc4aabb	1.5364603
5	0x3fb26000	1.3935547
6	0x3fbc0530	1.4689083
7	0x3fc445a4	1.5333753
8	0x3fcac49d	1.5841252
9	0x4005e097	2.0918329
10	0x3fb75f8c	1.4326034
11	0x3fb20c3a	1.3909981
12	0x3f9203dc	1.1407428
13	0x3fd3ee04	1.6557012

bn2.bias f4 [14]
0	0x3d5aca02	0.053415306
1	0x3f05f66d	0.5232914
2	0x3e9bce9d	0.3043107
3	0x3f02b93d	0.510639
4	0x3e2a67f8	0.16641223
5	0x3f081715	0.5316022
6	0x3ee3a2a7	0.4446003
7	0x3e7bc639	0.24587335
8	0xbdd383c0	-0.10327864
9	0xbf711438	-0.94171476
10	0x3e2781cb	0.16358106
11	0x3ef60a49	0.48054722
12	0x3f1573ba	0.5837971
13	0x3ecb656b	0.39725813

bn2.running_mean f4 [14]
0	0xbcbdb504	-0.023157604
1	0x3f89dae6	1.0769928
2	0x3e095921	0.13412906
3	0xbde6aa8b	-0.11262997
4	0xbfbe81f6	-1.4883411
5	0x3eb262fa	0.34841138
6	0x3e52dbea	0.20591703
7	0xbfbe301d	-1.4858433
8	0xbee7003e	-0.45117372
9	0xbf9170f1	-1.1362592
10	0xbf6551d5	-0.8957799
11	0x3ee59132	0.44837338
12	0x3fd75391	1.6822377
13	0x3ea8244d	0.32840195

bn2.running_var f4 [14]
0	0x3ed90337	0.42385265
1	0x3f7dea7b	0.99185914
2	0x3e5c9654	0.2154172
3	0x3ecc1e63	0.39866933
4	0x4025d8d5	2.5913594
5	0x3e6a6be1	0.22892715
6	0x3e8940fd	0.26807395
7	0x4028b86f	2.636257
8	0x3eb75162	0.35804278
9	0x3eba35a3	0.36369047
10	0x3f1a1d4f	0.6020097
11	0x3e8a16b8	0.26970458
12	0x4030333b	2.7531269
13	0x3ec7248c	0.3889507

fc.weight f4 [2, 14]
0	0xbf34d953	-0.7064411
1	0xbeb7694a	-0.35822517
2	0xbeb05581	-0.34440234
3	0x3f2a6b86	0.6657032
4	0x3edf3942	0.43598372
5	0xbf160d6b	-0.58614224
6	0x3f09047b	0.5352246
7	0x3f1606eb	0.58604306
8	0xbf3fef59	-0.7497459
9	0x3ff76f53	1.9330848
10	0x3f199d39	0.6000553
11	0xbed725fd	-0.4202117
12	0xbeb694e2	-0.35660464
13	0x3ed9a644	0.42509663
14	0x3f0a2322	0.5395986
15	0x3f00d91b	0.50331277
16	0x3f055600	0.5208435
17	0xbe739ff4	-0.23791486
18	0xbefd0336	-0.49416512
19	0x3ed48133	0.4150482
20	0xbef28b9b	-0.47372136
21	0xbeaf16d9	-0.3419712
22	0x3f32e7b7	0.6988482
23	0xbff40646	-1.9064415
24	0xbf149363	-0.58037394
25	0x3effdf95	0.49975267
26	0x3eaead6c	0.34116685
27	0xbf2d6fcc	-0.67748713

fc.bias f4 [2]
0	0x3d8cabec	0.06868729
1	0xbe2b5d81	-0.16734888
