models/booster/2-2.pth (torch, 9466 bytes, 18 tensors)

conv1.att_src f4 [1, 1, 28]
0.2958684 -0.36908063 0.12644763 -0.46732062 -0.99624723 0.45122942 0.9141872 0.18529724
-0.9841457 -1.3852184 0.36274382 -0.37851217 0.38200682 2.1266453 -1.2692982 0.44735056
0.78864723 0.24574322 -0.13527638 0.7557985 -0.42143804 -1.2832012 0.6625648 0.5388893
-0.72532517 0.46590006 -1.5797611 -0.038826253
00000000: 107c 973e 23f8 bcbe 7d7b 013e a644 efbe
00000010: 0f0a 7fbf 8b07 e73e 2c08 6a3f 8fbe 3d3e
00000020: f9f0 7bbf d64e b1bf 8fb9 b93e 59cc c1be
00000030: 6696 c33e f51a 0840 5d78 a2bf 220b e53e
00000040: c9e4 493f 1ca4 7b3e e485 0abe 037c 413f
00000050: bac6 d7be f03f a4bf d99d 293f a6f4 093f
00000060: e9ae 39bf 748a ee3e 9d35 cabf 4708 1fbd

conv1.att_dst f4 [1, 1, 28]
0.1732744 0.23828301 0.3289578 -0.21870804 0.006989113 -0.27350602 0.080650754 0.325212
0.07693336 -0.15210609 -0.17607391 0.18934225 0.115556054 -0.359045 0.32179385 -0.13056545
0.21217595 0.1894736 -0.43549523 -0.5136656 -0.15439112 0.5137948 0.25223178 0.08297163
-0.51776844 -0.20779745 0.15974084 0.27451077
00000000: d86e 313e 7600 743e 286d a83e 00f5 5fbe
00000010: ee04 e53b fb08 8cbe 392c a53d 3082 a63e
00000020: 3d8f 9d3d b3c1 1bbe b84c 34be efe2 413e
00000030: a7a8 ec3d bfd4 b7be 2ac2 a43e f3b2 05be
00000040: a744 593e 5e05 423e 3bf9 debe 977f 03bf
00000050: b518 1ebe 0e88 033f 8624 813e 08ed a93d
00000060: 798c 04bf dbc8 54be 1a93 233e ad8c 8c3e

conv1.bias f4 [28]
0.026490044 -0.0002778927 0.01454262 0.0043053646 -0.0011186212 0.0055757742 -0.012828145 -0.10466379
-0.0637167 -6.099035e-06 0.002491287 0.00092589884 0.1156798 0.0011772622 -0.020093823 -0.0006833232
-0.0028426496 -0.02506329 0.0013362132 0.0001583804 -0.01299422 0.0005559913 -0.0072467322 0.016931871
0.00052490475 -0.032487404 -0.0032441597 0.03263504
00000000: a601 d93c 20b2 91b9 2b44 6e3c 0414 8d3b
00000010: b39e 92ba fcb4 b63b 242d 52bc f859 d6bd
00000020: e77d 82bd 50a6 ccb6 dc44 233b 05b8 723a
00000030: 88e9 ec3d 5d4e 9a3a cd9b a4bc 0b21 33ba
00000040: bf4b 3abb 8751 cdbc e023 af3a ea12 2639
00000050: b5e5 54bc f2bf 113a ff75 edbb b5b4 8a3c
00000060: c399 093a 8311 05bd f89b 54bb 52ac 053d

conv1.lin.weight f4 [28, 10]
-0.11163736 -0.03488235 0.013452944 0.037073493 -0.13158284 -0.8669631 -0.06200339 -1.4771856
0.78385615 0.97140235 0.42924994 0.06250947 -0.2774821 -0.7134003 2.7949104 0.13746217
0.65327775 1.333269 -0.21124217 -2.6131823 -0.24441719 0.0017153776 -0.5315765 0.17796268
1.4166548 -0.91644025 0.39249536 -0.5947891 -0.14301 1.0785233 0.26167387 0.8093255
0.25596893 0.014563446 2.5605106 0.57318985 0.6238119 1.4269695 -0.18901728 -2.6769495
0.40968385 0.23573025 0.08993382 -0.24625334 3.0306768 0.5363381 0.082957596 0.90829545
-0.5456826 -3.3784204 -0.4394816 -0.1776932 -0.11117743 -0.15402181 -2.478937 -0.6284789
0.016543755 -1.2781051 0.30832335 2.654811 -0.45270196 0.7041242 -0.40725315 0.012826501
-1.7409825 -0.09986438 -0.24225523 -1.7158028 1.1005505 2.3994522 0.17087184 0.73781234
0.74006134 -0.0060131317 2.4686408 0.0374509 -0.60926753 -1.5385548 2.3450007 1.4698958
-0.38943094 -0.9430981 0.15439592 0.012403366 3.5081284 0.3927852 0.41842324 1.5611173
-1.2269794 -1.4890074 -0.023148812 0.3700311 0.10954146 0.57668513 3.3695514 0.38989267
-0.10942348 1.59296 -0.5030882 -4.3828344 -0.0064085284 -0.6289207 -0.40028337 -0.3587214
-2.775235 -0.43883932 -0.6655606 -1.6935706 0.22540148 2.5306895 0.3099323 0.6185203
-0.26065943 0.68063843 2.4820735 0.59217256 0.46414837 1.4791224 -0.51903373 -2.2119412
0.043914102 1.5813836 0.4925267 -0.011053453 6.201812 2.7004256 -1.0456245 -2.2664669
1.2044344 -0.22707884 -0.38340795 -0.35006282 -0.1285409 -0.0541811 -2.940226 -0.07058294
-0.53866774 -1.5424982 0.8703886 4.9479117 0.2202844 -0.15733132 0.16098319 -0.11356037
3.0134954 -0.16181228 0.63722605 1.1186075 -0.5943472 -3.6648402 -0.25815877 -0.49061415
0.1773881 -0.097522035 -3.1572006 -0.0731929 -0.11917726 -1.660701 0.39310566 2.6687999
0.24383122 -0.051594235 -0.17555037 -0.024616871 -2.8828888 -0.2293406 -0.1795029 -1.2708986
0.51071423 2.1000607 -0.33385527 1.1142547 0.2626565 0.0072962055 0.51636106 -0.5752715
-0.38549754 -0.89992565 1.1725197 0.8938242 -0.52469003 -0.91306823 -0.29442975 0.02139255
2.0491936 0.90994674 0.50963706 0.9367062 -0.94396794 -0.3441289 -0.037628617 -0.25071737
0.038067907 -0.3848584 -3.0612211 -0.29021183 -0.4684636 -1.5917063 0.40033314 2.9810126
0.0684776 0.60513014 0.13546765 -0.15323706 2.6896238 0.22781657 0.3014131 1.4658853
0.052140262 -2.3317924 -0.3779979 0.17012092 0.017004265 0.40197498 2.5797915 0.33203793
0.051518504 1.4370788 -0.23604813 -3.426325 -0.11329452 -0.45384982 -0.39300185 -0.040433504
-3.4821694 -0.15603371 -0.6621393 -1.2437322 0.57295156 2.48262 0.10480391 0.18713221
0.10218283 -0.0102811875 -2.2492638 -0.5553653 0.08332688 -1.5063019 0.9315133 2.592537
-0.26318046 -0.0075890413 0.1863823 -1.0549054 3.0154748 0.3273028 -0.059257116 1.6575086
-0.33952528 -3.2867696 -0.09595335 1.4145901 0.38524193 -0.010634075 2.3466396 1.3756453
00000000: 21a2 e4bd cce0 0ebd bd69 5c3c 60da 173d
00000010: a7bd 06be 4bf1 5dbf 44f7 7dbd 6b14 bdbf
00000020: ccaa 483f d3ad 783f a6c6 db3e f704 803d
00000030: 2212 8ebe 67a1 36bf d0df 3240 e2c2 0c3e
00000040: 363d 273f 8fa8 aa3f de4f 58be 613e 27c0
00000050: 8048 7abe 85d6 e03a 6615 08bf d93b 363e
00000060: f254 b53f d49b 6abf 27f5 c83e 1944 18bf
00000070: 3771 12be 0d0d 8a3f 1efa 853e f52f 4f3f
00000080: 5c0e 833e 859b 6e3c 68df 2340 92bc 123f
00000090: 23b2 1f3f f0a6 b63f bf8d 41be 2453 2bc0
000000a0: 15c2 d13e 4563 713e 392f b83d d629 7cbe
000000b0: 9cf6 4140 744d 093f ace5 a93d 0d86 683f
000000c0: dbb1 0bbf 0a38 58c0 bb03 e1be 35f5 35be
000000d0: feb0 e3bd e5b7 1dbe e7a6 1ec0 fee3 20bf
000000e0: c586 873c f398 a3bf 8fdc 9d3e 6ce8 2940
000000f0: 8dc8 e7be 7c41 343f 7c83 d0be 3f26 523c
00000100: 84d8 debf b285 ccbd c111 78be 6d9f dbbf
00000110: d7de 8c3f a090 1940 07f9 2e3e 45e1 3c3f
00000120: a974 3d3f ce09 c5bb 36fe 1d40 1d66 193d
00000130: f5f8 1bbf 5def c4bf 7e14 1640 8c25 bc3f
00000140: 7e63 c7be e16e 71bf f719 1e3e 7d37 4b3c
00000150: 2d85 6040 241b c93e 923b d63e b1d2 c73f
00000160: a90d 9dbf cb97 bebf 94a2 bdbc b774 bd3e
00000170: 4657 e03d a3a1 133f bba6 5740 03a0 c73e
00000180: 6b19 e0bd 1de6 cb3f 63ca 00bf 2e40 8cc0
00000190: a2fe d1bb f200 21bf f1f1 ccbe 55aa b7be
000001a0: 739d 31c0 8caf e0be 2e62 2abf ecc6 d8bf
000001b0: a5cf 663e d1f6 2140 72af 9e3e 5957 1e3f
000001c0: 2775 85be 523e 2e3f 4bda 1e40 9f98 173f
000001d0: dba4 ed3e e253 bd3f 65df 04bf 7290 0dc0
000001e0: 46df 333d c76a ca3f 762c fc3e 8b19 35bc
000001f0: 3e75 c640 c6d3 2c40 06d7 85bf cb0d 11c0
00000200: e82a 9a3f 5b87 68be 0c4e c4be 6f3b b3be
00000210: 3aa0 03be 00ed 5dbd aa2c 3cc0 ca8d 90bd
00000220: 21e6 09bf 9570 c5bf cad1 5e3f 4b55 9e40
00000230: 3c92 613e 761b 21be c7d8 243e 5792 e8bd
00000240: 1cdd 4040 1eb2 25be 3f21 233f 882e 8f3f
00000250: 2327 18bf be8c 6ac0 632d 84be c731 fbbe
00000260: 3aa5 353e a2b9 c7bd 930f 4ac0 29e6 95bd
00000270: 3513 f4bd da91 d4bf 2545 c93e 9ecd 2a40
00000280: e4ae 793e 7a54 53bd 7ac3 33be 52a9 c9bc
00000290: 4081 38c0 43d8 6abe 9ccf 37be ceac a2bf
000002a0: 2bbe 023f 6567 0640 14ef aabe e69f 8e3f
000002b0: ea7a 863e 0215 ef3b 3d30 043f fe44 13bf
000002c0: ef5f c5be 8761 66bf 2015 963f aad1 643f
000002d0: 1652 06bf d7be 69bf 7fbf 96be 6e3f af3c
000002e0: fd25 0340 45f2 683f 9377 023f facb 6f3f
000002f0: e2a7 71bf aa31 b0be 7720 1abd 075e 80be
00000300: 18ed 1b3d 290c c5be 0ceb 43c0 a596 94be
00000310: 76da efbe 08bd cbbf 77f8 cc3e e9c8 3e40
00000320: fc3d 8c3d cfe9 1a3f 08b8 0a3e 2dea 1cbe
00000330: cc22 2c40 bf48 693e d152 9a3e 21a2 bb3f
00000340: 0791 553d 163c 15c0 f188 c1be 2e34 2e3e
00000350: 874c 8b3c aacf cd3e 4e1b 2540 e000 aa3e
00000360: 1105 533d 33f2 b73f 9ab6 71be e948 5bc0
00000370: f506 e8bd 015f e8be 8a37 c9be 9a9d 25bd
00000380: dddb 5ec0 4dc7 1fbe f681 29bf 9e32 9fbf
00000390: f4ac 123f 3fe3 1e40 6fa3 d63d 969f 3f3e
000003a0: 3b45 d13d 6d72 28bc f0f3 0fc0 6c2c 0ebf
000003b0: 49a7 aa3d 80ce c0bf a877 6e3f 20ec 2540
000003c0: 97bf 86be 7ead f8bb 00db 3e3e 2407 87bf
000003d0: 8afd 4040 3c94 a73e 97b7 72bd 3e29 d43f
000003e0: 42d6 adbe 6f5a 52c0 3183 c4bd 4a11 b53f
000003f0: 6e3e c53e 8b3a 2ebc 582f 1640 2515 b03f

bn1.weight f4 [28]
1.0467124 0.8447761 0.7974756 0.6753056 1.0886093 0.6903552 0.7112963 1.4647518
1.0894337 0.9756086 0.8849989 0.93052435 1.3277149 0.7937594 0.88972193 0.8585708
0.871724 0.97582793 0.9929445 0.94390583 0.7518691 0.95978683 0.96984655 0.8337619
0.99878675 1.0276192 0.88870096 1.0956033
00000000: acfa 853f 3f43 583f 5c27 4c3f d4e0 2c3f
00000010: 8d57 8b3f 1ebb 303f 8417 363f fd7c bb3f
00000020: 9072 8b3f 7cc1 793f 4a8f 623f d836 6e3f
00000030: 90f2 a93f d133 4b3f d1c4 633f 4ccb 5b3f
00000040: 4e29 5f3f dccf 793f 9c31 7e3f d0a3 713f
00000050: 7e7a 403f 97b4 753f dd47 783f 6b71 553f
00000060: 7db0 7f3f 0789 833f e881 633f bb3c 8c3f

bn1.bias f4 [28]
-0.028132066 -0.32997733 -0.030060394 -0.52237153 0.028478894 -0.19416726 0.121751025 0.38589773
0.29946417 0.6089042 -0.064850025 -0.078382745 0.5555399 -0.1376803 0.05661729 -0.21015474
0.024977116 0.013274201 0.10563045 -0.14225781 -0.31571352 -0.12073321 -0.011961121 0.08022709
0.022801368 0.33621582 -0.42537194 0.15589383
00000000: 3875 e6bc caf2 a8be 3741 f6bc 24ba 05bf
00000010: 924c e93c c8d3 46be 9a58 f93d 6394 c53e
00000020: 5e53 993e 25e1 1b3f 17d0 84bd 2287 a0bd
00000030: dd37 0e3f 11fc 0cbe 88e7 673d ce32 57be
00000040: cf9c cc3c 097c 593c c754 d83d 08ac 11be
00000050: 34a5 a1be f942 f7bd 94f8 43bc 1a4e a43d
00000060: efc9 ba3c 7b24 ac3e 5aca d9be a2a2 1f3e

bn1.running_mean f4 [28]
13.908844 -251.18048 61.278618 5.8582144 -87.12917 -54.18706 5.465571 2.1889808
2.9899774 202.28528 -126.79875 238.3521 -1.2517743 -18.449848 -40.580692 -33.336918
-8.647258 4.779207 5.86691 -135.03957 -53.472412 141.08063 -14.771614 -2.2611623
-370.90543 -1.7876948 -12.14758 -6.067055
00000000: a08a 5e41 342e 7bc3 4e1d 7542 7e76 bb40
00000010: 2342 aec2 8dbf 58c2 f5e5 ae40 4318 0c40
00000020: ca5b 3f40 0849 4a43 f698 fdc2 235a 6e43
00000030: 243a a0bf 4a99 93c1 a152 22c2 0159 05c2
00000040: 2b5b 0ac1 44ef 9840 babd bb40 210a 07c3
00000050: c0e3 55c2 a414 0d43 8858 6cc1 e2b6 10c0
00000060: e573 b9c3 2fd3 e4bf 7d5c 42c1 5125 c2c0

bn1.running_var f4 [28]
168.8471 63259.227 3897.3418 30.01777 7561.219 2970.6255 22.046429 11.309273
21.260004 41351.24 16048.275 57576.34 16.98554 371.32312 1620.6881 1160.3445
81.52503 9.978886 58.98672 18469.377 2927.1426 20096.396 218.90334 13.987444
138390.28 13.176488 121.61983 23.77069
00000000: dcd8 2843 3a1b 7747 7895 7345 6524 f041
00000010: c149 ec45 02aa 3945 165f b041 c8f2 3441
00000020: 7d14 aa41 3d87 2147 1ac1 7a46 57e8 6047
00000030: 63e2 8741 5ca9 b943 0596 ca44 060b 9144
00000040: d10c a342 84a9 1f41 67f2 6b42 c14a 9046
00000050: 48f2 3645 cb00 9d46 41e7 5a43 92cc 5f41
00000060: 9225 0748 e5d2 5241 5a3d f342 602a be41

conv2.att_src f4 [1, 1, 14]
0.369661 -0.01306472 -0.7488967 -0.4049504 -0.3356901 -0.6232015 -1.3124458 -0.0993694
0.28517464 0.44719338 -0.500328 0.35296687 -0.30966532 -0.25240654
00000000: 3544 bd3e 680d 56bc b2b7 3fbf a955 cfbe
00000010: 93df abbe 228a 1fbf 39fe a7bf 2f82 cbbd
00000020: 6902 923e 88f6 e43e 7f15 00bf 13b8 b43e
00000030: 748c 9ebe 6e3b 81be

conv2.att_dst f4 [1, 1, 14]
0.5661784 -0.95145905 0.16023324 -0.0529436 -0.081848934 -0.9057906 -1.2518585 -0.33769763
-0.5328282 -0.038528364 0.272803 0.20177622 0.41968602 0.5383276
00000000: 11f1 103f d292 73bf 2f14 243e 63db 58bd
00000010: 6aa0 a7bd e5e1 67bf e63c a0bf b4e6 acbe
00000020: 6e67 08bf ebcf 1dbd d6ac 8b3e 6d9e 4e3e
00000030: 16e1 d63e d6cf 093f

conv2.bias f4 [14]
0.041217346 0.08195709 0.003092232 0.13680235 -0.13688648 0.14367603 -0.042877838 0.041856676
0.035082966 0.043963592 0.19862127 -0.1585098 -0.050935626 -0.115758605
00000000: 85d3 283d 1ed9 a73d 0ba7 4a3b ea15 0c3e
00000010: f82b 0cbe cf1f 133e aca0 2fbd e871 2b3d
00000020: 28b3 0f3d 2b13 343d 6063 4b3e 6550 22be
00000030: e0a1 50bd d912 edbd

conv2.lin.weight f4 [14, 28]
0.17968644 -0.14957546 0.18666263 0.03762787 0.17289975 0.032500133 -0.013571077 -0.2057145
0.23154607 -0.47139618 0.37113824 -0.06445182 -0.4800502 -0.11487546 0.14914884 0.30641973
0.16508268 -0.10925489 -0.07341555 -0.1970312 0.041661408 -0.3597841 -0.09826658 0.07316947
0.020308038 -0.36202192 -0.43041542 0.089718565 0.026685776 -0.3131151 -0.036532745 -0.10651953
0.033685833 -0.09642491 -0.034898967 -0.76047266 0.044730462 0.26510063 0.11181965 -0.041905608
0.1720821 0.008572984 0.13115534 0.25290635 0.054431997 -0.4697856 0.24548283 -0.26641694
-0.09993771 0.29850012 -0.22252466 0.26582453 -0.08627319 0.45460057 -0.071426876 -0.11951979
-0.082903765 -0.21268927 0.106544785 -0.1973645 0.20877089 0.06738826 0.15000573 -0.41571045
0.3803569 0.21073425 0.19886358 0.31676456 -0.032937184 -0.08862661 0.17555626 0.16343653
0.19430609 0.5415096 0.04245344 -0.20480232 0.015190191 -0.00013866025 0.24920316 -0.3183476
-0.1744405 -0.25790355 -0.23113512 0.49088293 -0.52867424 0.18798666 0.25987527 -0.44401956
-0.009992111 0.31995517 -0.1531515 -0.4455813 0.3179635 0.05751658 0.19731157 -0.254073
0.23194464 0.023208886 -0.21889952 -0.006862334 -0.3378551 -0.3668059 0.3084234 -0.0352674
-0.27989823 -0.07607756 -0.38264638 -0.052383464 0.105132826 -0.25912568 -0.0028197002 0.2778984
-0.31356993 0.11441316 0.07617118 0.35912544 0.35617378 -0.16250058 0.0008113392 -0.08605062
0.13792077 -0.15785211 0.053061727 0.310735 -0.30426636 -0.2948399 -0.14080918 0.17570043
-0.030746222 -0.037089907 -0.25756705 0.3855234 0.122010395 -0.39803514 -0.23299955 -0.24052738
0.3730504 -0.4677087 -0.26971444 0.109472856 -0.124508455 -1.006309 -0.10711234 -0.021805523
-0.45288908 -0.2524976 0.3849246 -0.021205127 -0.35576454 -0.10621288 -0.36901972 -0.022112824
0.44503397 -0.12175462 -0.46774393 -0.04659329 0.38596472 0.21598616 0.26707265 -0.5716674
-0.4645893 -0.101866215 0.3125716 -0.2522293 -0.32863453 -0.20039013 0.31585914 -0.10758723
-0.121860504 -0.2461482 0.02808096 -0.68553126 0.04641314 -0.32034743 0.21102476 0.022970324
0.2691049 0.93207306 -0.1289383 -0.013350286 -0.23821558 -0.203861 -0.006812351 -0.3581821
0.15554777 0.2788766 -0.2322548 -0.09023852 -0.5629468 -0.1513617 -0.028548041 0.39430466
0.19326629 0.08994548 -0.096533574 0.7188127 -0.23563127 0.044721335 0.061537903 0.15052086
0.04352902 -0.20411852 0.035710853 -0.73200876 -0.08010584 0.04036322 0.2730148 -0.45770475
0.22897857 -0.11615817 0.2197077 -0.22301641 -0.1805873 -0.19249538 -0.028949192 -0.032304954
0.010594215 0.012305239 -0.34033176 -0.24388964 0.13564268 0.2569444 0.081504084 0.14537418
0.123457864 -0.070538096 0.09611937 -0.096593454 0.019796314 0.033410344 0.030589372 -0.0978735
-0.23736292 -0.019139003 -0.14813206 0.22243206 0.64253473 0.022698428 0.18125571 -0.13462645
0.122604035 0.31480178 -0.28128898 0.39759037 -0.13144828 0.23534638 0.00035027612 -0.107959054
-0.27765888 0.24509335 -0.29458156 -0.33666784 -0.03164081 0.050047297 -0.16044986 -0.05967927
00000000: b9ff 373e 4f2a 19be 7d24 3f3e ae1f 1a3d
00000010: a20c 313e dc1e 053d 3959 5ebc d2a6 52be
00000020: 6a1a 6d3e d75a f1be d505 be3e 51ff 83bd
00000030: 24c9 f5be d343 ebbd 79ba 183e 0ce3 9c3e
00000040: 6f0b 293e 07c1 dfbd e45a 96bd 8cc2 49be
00000050: 27a5 2a3d 9f35 b8be fd3f c9bd e0d9 953d
00000060: 0b5d a63c f05a b9be 695f dcbe 5ebe b73d
00000070: 219c da3c 9f50 a0be 5ca3 15bd e926 dabd
00000080: 28fa 093d 6c7a c5bd 38f2 0ebd 56ae 42bf
00000090: 4a37 373d 45bb 873e b301 e53d 37a5 2bbd
000000a0: 4a36 303e b375 0c3c 964d 063e f17c 813e
000000b0: 16f4 5e3d bd87 f0be da5f 7b3e cd67 88be
000000c0: 24ac ccbd 02d5 983e 81dd 63be 271a 883e
000000d0: 00b0 b0bd 68c1 e83e 4148 92bd cbc6 f4bd
000000e0: 73c9 a9bd 37cb 59be 2734 da3d eb19 4abe
000000f0: 09c8 553e db02 8a3d 1a9b 193e 00d8 d4be
00000100: 24be c23e b8ca 573e e5a2 4b3e f72e a23e
00000110: 24e9 06bd de81 b5bd 05c5 333e e85b 273e
00000120: 2df8 463e 60a0 0a3f a9e3 2d3d b3b7 51be
00000130: 47e0 783c 5465 11b9 1d2f 7f3e 75fe a2be
00000140: 88a0 32be ef0b 84be afae 6cbe 0255 fb3e
00000150: 3257 07bf 937f 403e 5f0e 853e 8856 e3be
00000160: f3b5 23bc 2ad1 a33e bfd3 1cbe 3b23 e4be
00000170: 1dcc a23e 8196 6b3d 0b0c 4a3e db15 82be
00000180: e582 6d3e 9020 be3c 3227 60be 6edd e0bb
00000190: 58fb acbe fccd bbbe ace9 9d3e 8d74 10bd
000001a0: d24e 8fbe 8dce 9bbd 3aea c3be 0b90 56bd
000001b0: e14f d73d 1fac 84be b8ca 38bb b348 8e3e
000001c0: 3d8c a0be 7251 ea3d a3ff 9b3d 4adf b73e
000001d0: 695c b63e 8d66 26be 0db0 543a 4f3b b0bd
000001e0: 1a3b 0d3e fca3 21be 4157 593d a818 9f3e
000001f0: cdc8 9bbe 41f5 96be 4830 10be d0ea 333e
00000200: 80df fbbc 96eb 17bd d4df 83be 5363 c53e
00000210: 96e0 f93d 43cb cbbe 6f97 6ebe cf4c 76be
00000220: 7600 bf3e 8477 efbe 0318 8abe 4e33 e03d
00000230: 4afe febd bcce 80bf b75d dbbd 7fa1 b2bc
00000240: 14e1 e7be 5e47 81be d614 c53e 60b6 adbc
00000250: c526 b6be 2386 d9bd 27f0 bcbe f425 b5bc
00000260: 7edb e33e 7c5a f9bd 227c efbe 9bd8 3ebd
00000270: 2b9d c53e 7a2b 5d3e bfbd 883e cb58 12bf
00000280: a6de edbe 3c9f d0bd 6209 a03e 3324 81be
00000290: c942 a8be 1233 4dbe 4ab8 a13e b256 dcbd
000002a0: 0092 f9bd 460e 7cbe 0b0a e63c fa7e 2fbf
000002b0: b41b 3e3d 9404 a4be e016 583e 432c bc3c
000002c0: 1ec8 893e 579c 6e3f 6708 04be 28bb 5abc
000002d0: c9ee 73be f0c0 50be 243a dfbb a563 b7be
000002e0: ea47 1f3e eac8 8e3e 34d4 6dbe f9ce b8bd
000002f0: 481d 10bf 90fe 1abe 95dd e9bc 4de2 c93e
00000300: 99e7 453e 5635 b83d 65b3 c5bd 1c04 383f
00000310: 5349 71be b82d 373d 2b0f 7c3d 2422 1a3e
00000320: 7c4b 323d 7204 51be 8b45 123d ed64 3bbf
00000330: 880e a4bd e753 253d 99c8 8b3e 4758 eabe
00000340: 5c79 6a3e 56e4 edbd 0efb 603e 6a5e 64be
00000350: e1eb 38be 821d 45be db26 edbc 3352 04bd
00000360: 5c93 2d3c ea9b 493c f73f aebe 35be 79be
00000370: eae5 0a3e 378e 833e 9deb a63d f8dc 143e
00000380: 7ad7 fc3d 4776 90bd 3bda c43d cad2 c5bd
00000390: e12b a23c 49d9 083d 9096 fa3c e771 c8bd
000003a0: 440f 73be 66c9 9cbc eeaf 17be 3bc5 633e
000003b0: 287d 243f 0ef2 b93c 199b 393e 84db 09be
000003c0: d317 fb3d b32d a13e 1c05 90be f790 cb3e
000003d0: 619a 06be a4fe 703e 44a5 b739 a319 ddbd
000003e0: 4e29 8ebe c0f9 7a3e 65d3 96be ba5f acbe
000003f0: cb99 01bd 65fe 4c3d f84c 24be 4072 74bd

bn2.weight f4 [14]
1.5062362 1.5484403 1.0054067 1.4602876 1.3300564 1.2300377 1.0443629 1.3492064
1.3764832 1.4380239 1.3268299 1.2906128 1.4284253 1.4558393
00000000: 59cc c03f 4b33 c63f 2bb1 803f b4ea ba3f
00000010: 4a3f aa3f e071 9d3f afad 853f ccb2 ac3f
00000020: 9a30 b03f 2b11 b83f 90d5 a93f cd32 a53f
00000030: a4d6 b63f f158 ba3f

bn2.bias f4 [14]
0.43181384 0.49267474 -0.8520579 0.2224443 0.25734553 0.11145298 -0.7251942 -0.17080605
0.6094593 -0.044825822 0.5155357 0.636983 0.47691146 0.2870902
00000000: b416 dd3e dd3f fc3e 7720 5abf 70c8 633e
00000010: cbc2 833e 7641 e43d 54a6 39bf c8e7 2ebe
00000020: 8605 1c3f 489b 37bd 26fa 033f 5111 233f
00000030: bd2d f43e 7dfd 923e

bn2.running_mean f4 [14]
-0.834714 -0.03508062 0.44927168 -0.43809906 -0.83883536 -0.5383116 0.80746585 -0.59531015
0.5444217 -0.6292412 0.89386344 0.37345326 -0.8611843 -1.1561862
00000000: d1af 55bf b2b0 0fbd f006 e63e 854e e0be
00000010: eabd 56bf cace 09bf 15b6 4e3f 3f66 18bf
00000020: 385f 0b3f f415 21bf 3cd4 643f 4435 bf3e
00000030: 9376 5cbf e9fd 93bf

bn2.running_var f4 [14]
0.27314606 0.2508029 1.7149802 0.32372332 0.21357286 0.7469668 0.53573143 0.36646026
0.25795233 0.24726306 0.31363875 0.25979227 0.5678355 0.38718042
00000000: cdd9 8b3e 3d69 803e 7984 db3f 10bf a53e
00000010: d8b2 5a3e 3739 3f3f b225 093f aea0 bb3e
00000020: 5412 843e 8732 7d3e 4295 a03e 7e03 853e
00000030: ab5d 113f 833c c63e

fc.weight f4 [2, 14]
0.38250482 0.50695217 0.46666914 0.6146907 0.38950798 -0.4585294 0.34007996 0.48514414
-0.54964745 0.6142138 -0.59418774 -0.6443059 0.4430239 0.26491985 -0.39687693 -0.63303286
-0.51766586 -0.30004504 -0.5580329 0.2686373 -0.4665355 -0.42708406 0.5661352 -0.32927024
0.47159544 0.47739166 -0.49043646 -0.57310635
00000000: acd7 c33e 9ec7 013f 42ef ee3e 5f5c 1d3f
00000010: 976d c73e 5ec4 eabe f61e ae3e d064 f83e
00000020: b2b5 0cbf 1e3d 1d3f b01c 18bf 3bf1 24bf
00000030: 07d4 e23e 93a3 873e 7433 cbbe 710e 22bf
00000040: c085 04bf 819f 99be 3edb 0ebf d48a 893e
00000050: bedd eebe c3aa dabe 3dee 103f 1c96 a8be
00000060: f574 f13e ae6c f43e 7d1a fbbe 19b7 12bf

fc.bias f4 [2]
-0.46092987 0.16933306
00000000: 00ff ebbe a565 2d3e
