models/booster/3-1.pth (torch, 27130 bytes, 18 tensors)

conv1.att_src f4 [1, 1, 82]
000000 5c aa 7d be 5b 25 c1 3e 53 10 d5 ba 12 44 0c be
       -0.24772018 0.37723812 -0.0016255475 -0.13697842
000010 28 a6 b3 3d 39 56 ee bd 5d eb 83 3e 67 6a 2e bc
       0.08771926 -0.116375394 0.25765505 -0.0106454855
000020 36 85 22 3e 2d 3c 2b 3e b2 0b 99 3e 65 d8 c1 3e
       0.15871128 0.16722174 0.29891735 0.37860408
000030 c5 bc 53 3e c9 02 31 bd 51 1a b6 3d 6d 31 60 3f
       0.20677479 -0.043215547 0.08891738 0.8757542
000040 bf f3 32 3e 67 bd ce be 16 11 fb 3d fc 94 cf 3d
       0.17475794 -0.40378878 0.12259118 0.101358384
000050 62 91 1e 3e 82 0c aa 3e 2d 75 72 bd 16 76 a0 be
       0.15485147 0.33212668 -0.05919378 -0.31340092
000060 a2 31 3f be f6 db 1a be 26 0b 4e be 4f 31 cd be
       -0.18671277 -0.15122971 -0.2012144 -0.40076682
000070 2d 36 36 3e a9 c6 56 3e a6 3b 16 3e de c6 c8 3e
       0.17794104 0.2097422 0.14671192 0.39214224
000080 86 1f 9d be 57 e4 d6 bd b3 67 52 3f 1d 72 49 bf
       -0.30688113 -0.10492771 0.8218948 -0.7868975
000090 e2 0f 84 3e b8 b2 6c bf ee 36 15 be 54 5c 4b 3e
       0.25793368 -0.92460203 -0.14571735 0.19859439
0000a0 e6 b4 35 3e e7 0b ec 3d 47 40 95 be bd 79 3f 3d
       0.17744789 0.11525708 -0.29150602 0.046746958
0000b0 5b d2 d3 bc 72 32 15 3f 17 c7 bf 3d 34 30 23 be
       -0.025857141 0.582801 0.09364145 -0.15936357
0000c0 9e 00 d9 39 e9 b3 3c 3e 4e d2 9c 3e 63 aa 43 3f
       0.00041389925 0.18428005 0.306292 0.76431865
0000d0 a2 8c 0a 3c 1c ec c9 3e dc d4 7e 3e a2 2e 61 bf
       0.008456381 0.3943795 0.24885887 -0.8796178
0000e0 3a af 82 3d c1 06 55 3e 4a e6 98 3e c2 56 ec 3d
       0.06381078 0.20803358 0.29863197 0.11539985
0000f0 9f 71 85 bd 07 c3 bb 3d f2 37 24 3e 27 b1 9c be
       -0.06515812 0.09168058 0.16036966 -0.30603907
000100 c9 d5 0e bd ce 65 62 3e 19 3b 57 3b 9b 78 97 be
       -0.03487185 0.22109148 0.0032841621 -0.29584202
000110 6e 5e e4 bd 8e bb 1b 3e b8 ac 28 3e 82 f5 ae b9
       -0.111508235 0.15208265 0.16472137 -0.00033370784
000120 b0 55 48 3b c0 38 d6 3c a4 ff f9 be 70 35 88 bd
       0.0030568652 0.026150107 -0.4882785 -0.066508174
000130 e0 f0 9c bd 59 2e a3 bd 63 d6 19 be 71 5f 3e 3d
       -0.07663131 -0.079678245 -0.15023188 0.04647774
000140 d2 89 8e be 1d ab 77 3e
       -0.27839524 0.24186368

conv1.att_dst f4 [1, 1, 82]
000000 c7 1c 8f be 66 6c 1d be 94 20 2d 3e a4 da 93 be
       -0.27951643 -0.15373382 0.16906959 -0.28877747
000010 95 5e d6 bd b7 9c 85 3d 19 9d 3f bd 31 73 04 3d
       -0.10467259 0.065240316 -0.04678068 0.032336418
000020 b8 78 a2 3d 7e 2a e6 bc 6c b8 e6 3c 0c 3d dc 3d
       0.079331815 -0.028096434 0.028164111 0.10753831
000030 4e 8f 4c 3e f2 0e 3b bc 12 f5 fa 3d 9f 99 3e 3e
       0.19976541 -0.011417137 0.12253775 0.1861329
000040 30 fd 08 be 0c b0 0e be 4b 66 83 3e e7 3f 52 3e
       -0.13377833 -0.13934344 0.2566398 0.2053219
000050 bc 86 23 3e f1 ac 99 3d 62 02 09 3e 30 8b 33 be
       0.15969366 0.07503689 0.13379815 -0.17533565
000060 80 ab e6 bd 0e b8 82 bd 85 59 74 bd f6 7f db bd
       -0.1126318 -0.06382762 -0.059655685 -0.10717766
000070 d5 8d 86 bd 54 7b 0f 3d 1a 5b 1c 3d 20 24 0f be
       -0.06570021 0.035029724 0.03817282 -0.13978624
000080 4b 61 b3 bd 64 4a ea 3d 99 86 1a be 8b c7 8d be
       -0.087587915 0.1143997 -0.15090407 -0.27691302
000090 50 04 99 bc dc 24 b7 bd bc e8 21 bd 3a a5 49 3e
       -0.018678814 -0.08942577 -0.039528593 0.19691935
0000a0 4b e5 50 be a3 20 1c 3e c0 2d 2e be 26 fb 34 be
       -0.20399968 0.15246825 -0.1700964 -0.1767393
0000b0 7a 18 85 3e 9a bb 40 3e 1b 83 c4 3b 6e 9b f5 3d
       0.25995237 0.18821564 0.0059970743 0.119925365
0000c0 d5 76 65 be c2 db 3a be a7 9f 81 bd 4e 67 5e be
       -0.22408612 -0.18247893 -0.063292794 -0.21719095
0000d0 8a 63 46 be fb e8 2f be b9 81 e3 bd 3e ff 95 be
       -0.19373909 -0.17178719 -0.11108727 -0.29296297
0000e0 4d e0 84 bc f8 2c cc 3c c4 71 6f be 43 7d 8a 3d
       -0.016220236 0.024923787 -0.23383242 0.06762173
0000f0 1f 3f ae 3d c5 4f e9 3c 1a ee 4a 3e 2a f3 f9 bd
       0.08508133 0.02848042 0.19817391 -0.12204583
000100 eb 54 18 bd 3e ef 47 be a0 c2 f1 bc 7a d7 48 3e
       -0.03719036 -0.19524857 -0.02951175 0.19613448
000110 a5 56 b8 bd 4e 5a 8c be 64 2c d9 bb 3b 6e b5 3c
       -0.09000901 -0.27412647 -0.006627606 0.022147289
000120 b2 92 3e be bd b6 29 be 3d d2 6d 3e e5 3d 87 bc
       -0.18610647 -0.16573615 0.23224731 -0.016509006
000130 da dd fd 3d 7f 49 a5 bd e4 92 7d 3e 09 15 2f be
       0.123958305 -0.08070659 0.24763066 -0.17097868
000140 8d 8c c1 3c 99 00 8c 3c
       0.02362659 0.017090129

conv1.bias f4 [82]
000000 7c 35 0b ba f6 e7 3d 39 0e 88 b5 bb f4 95 4f 38
       -0.0005310399 0.00018110857 -0.0055399006 4.94923e-05
000010 78 61 9d 3a 14 40 66 3c 79 d0 b0 ba 6e 12 9b 38
       0.0012007197 0.014053363 -0.0013489864 7.394409e-05
000020 7c c4 81 3b c5 65 60 3b be f3 23 3b 88 4a af 3a
       0.0039601903 0.0034240347 0.0025017108 0.0013373652
000030 e8 ed 9f b3 c8 81 4c b8 96 91 76 3b 26 09 8c b8
       -7.4472894e-08 -4.875826e-05 0.0037623397 -6.677424e-05
000040 18 00 d5 ba 03 f3 dc 36 a0 96 f3 3a d1 03 32 bb
       -0.0016250638 6.584801e-06 0.0018584318 -0.002716292
000050 1f 1b 4f 3c c8 be ac 37 70 42 0f 39 54 c4 38 b9
       0.0126407435 2.0592837e-05 0.00013662293 -0.00017620745
000060 eb 15 28 bb 30 5a 5e 3c ab 76 17 bb b6 f7 14 b7
       -0.002564783 0.013571307 -0.0023111503 -8.879162e-06
000070 57 12 9d 3a 6b d6 bf 3a 0b 7f 9e b8 fb 87 df 3b
       0.0011983615 0.0014636045 -7.557691e-05 0.00682163
000080 1a d7 86 3a 85 71 b0 38 66 58 27 b9 a6 4c 92 bb
       0.0010287494 8.413479e-05 -0.00015959292 -0.0044647036
000090 a1 6a 88 bb 5c a3 ee ba 0b 4b 0a ba 9d a1 03 39
       -0.004163102 -0.0018206644 -0.00052754645 0.00012553339
0000a0 86 57 ab bb 7a 7c 23 3b 91 0a a5 ba bd 4c ac bc
       -0.0052289395 0.002494602 -0.001259165 -0.021032685
0000b0 4d 3c 3d 3a 17 38 e6 39 db 42 2b bb 54 07 8b bb
       0.00072187633 0.0004391081 -0.0026132378 -0.004242817
0000c0 7a 05 67 bb b6 60 02 bc be a3 ed 37 4c 8e 8f 3a
       -0.0035251067 -0.007957628 2.832885e-05 0.0010952442
0000d0 1f cc b8 3a ce 89 b0 3b 7a 79 75 bb 27 3f 50 bb
       0.0014098919 0.0053875213 -0.003745644 -0.0031775923
0000e0 64 7a 50 39 2f 51 5c 3c cf c9 7c b9 a8 aa 28 ba
       0.0001988202 0.01344709 -0.00024107772 -0.0006434121
0000f0 48 e0 6f b8 af 54 58 ba 2f a0 16 bb d5 f1 a7 ba
       -5.719092e-05 -0.0008252365 -0.002298366 -0.001281316
000100 0e f8 95 3a 8c 2e e7 bc 2c 34 56 bb 3c 27 d8 b9
       0.0011441724 -0.028220437 -0.0032684905 -0.00041227962
000110 1b 0f 92 3b 3d 16 86 3b 87 1c 7e 38 6e 7e d8 b7
       0.004457367 0.0040920065 6.0584887e-05 -2.580808e-05
000120 fd 20 b1 39 b4 8b 83 bb 7e 12 0a 3c 5a b8 0c 39
       0.0003378465 -0.0040144566 0.00842726 0.00013420117
000130 7e 39 76 ba 6b c6 37 3a eb 6f 15 bb eb 6a 8a b8
       -0.0009392722 0.00070104626 -0.0022802304 -6.600268e-05
000140 66 52 4e 3a 77 56 5a b9
       0.00078705547 -0.00020822311

conv1.lin.weight f4 [82, 12]
000000 e4 d4 4b 3d e5 60 c9 3e b3 16 9a 3c 76 1c 27 bc
       0.049763575 0.39331737 0.018809652 -0.010199657
000010 df d4 4b 3d eb 25 2b 3f 8c f1 ec 3e 29 de 6a bd
       0.049763557 0.66854733 0.46278036 -0.057340775
000020 b4 9c 1a 3d 78 87 45 be bc c2 60 3e 37 ef 0e 3e
       0.0377471 -0.19289958 0.21949285 0.1395844
000030 50 bb 5e 3e 6e 98 80 3d 30 1d bd bd d2 85 e7 bd
       0.21751142 0.06279074 -0.09234083 -0.11304821
000040 7c 72 3f be f5 d7 43 be ec 65 8a 3e 60 34 b7 bd
       -0.18696016 -0.1912535 0.27030885 -0.089455366
000050 8e 36 9c be 42 a4 1d 3f 67 9c 9c 3e b2 d3 42 3e
       -0.30510372 0.6157876 0.30588076 0.19026068
000060 2b 2f f1 be c6 c9 b3 be a3 7f e3 be df 9c 93 bb
       -0.471063 -0.35114878 -0.44433317 -0.0045047845
000070 32 18 e3 3e fe e4 42 bf 87 fb dc be 06 4f 21 bc
       0.44354397 -0.76130664 -0.4316065 -0.009845501
000080 8a 0d ca 3d d9 7b 81 be 56 83 5f be c0 e0 03 3e
       0.098658636 -0.252898 -0.21827444 0.12878704
000090 af d2 3c 3e b5 be 4c bd b9 9c 49 be c5 06 b5 bd
       0.18439744 -0.04998656 -0.19688691 -0.08839182
0000a0 5a 20 6f 3d 3f 6f b9 bd 3e 12 97 3e 61 d6 8d bd
       0.058380462 -0.09054422 0.29506105 -0.06925655
0000b0 45 2b d7 3d d9 c4 66 bf e9 d8 81 be fd 88 3d 3e
       0.105063 -0.90144116 -0.25360802 0.18509288
0000c0 c4 98 dc be 49 87 87 be eb 67 83 3d d1 8b 76 bc
       -0.430853 -0.26470402 0.06416305 -0.015047983
0000d0 9a 7b 2f bd 10 cf 61 bf 42 29 25 be 51 e6 71 bd
       -0.042842485 -0.8820658 -0.1612902 -0.059057537
0000e0 fa e1 2a bd da 24 68 bd 98 ac 37 bd 3f 55 5b be
       -0.041719414 -0.05667577 -0.044842333 -0.21419238
0000f0 59 ca 09 be 61 28 90 be ba b3 c4 be b3 49 1f bc
       -0.13456096 -0.28155807 -0.3841837 -0.009722161
000100 4a a8 00 3f 06 03 df bf 4a 20 09 be e4 f3 85 bd
       0.5025679 -1.7422798 -0.13391224 -0.06540659
000110 59 3f ff 3d 40 7d 4a bf 0c 12 15 3b fa 12 a7 be
       0.124632545 -0.79097366 0.0022746352 -0.32631665
000120 30 a7 9d be 54 09 91 be cf 05 fd 3d fa 7b 54 bc
       -0.30791616 -0.2832743 0.123546235 -0.012969011
000130 ed 00 99 be 50 d4 0c 3f 62 fb 8b be b6 7a b8 bd
       -0.2988352 0.55011463 -0.27340227 -0.0900778
000140 2c b2 5d be e3 ea 17 3f 2b ac 31 3e cf e8 ea bd
       -0.21649998 0.59342784 0.17350833 -0.11470186
000150 e6 c1 fe bd 8e 0a 5d bd 3b f9 2a be 61 5f 96 3c
       -0.12439327 -0.053965144 -0.16696636 0.018356027
000160 8a 6d c5 bd 21 4f 73 be 36 a6 c0 bd c7 29 a3 bd
       -0.096400335 -0.23760654 -0.09406702 -0.07966953
000170 25 e7 0f be 24 d7 ab bd 00 97 91 be 7c 97 a1 3d
       -0.14053018 -0.08390644 -0.28435516 0.078902215
000180 68 e6 18 be f7 c1 64 be 24 08 51 be b7 70 5a 3c
       -0.14931643 -0.22339617 -0.20413262 0.013332537
000190 7c 85 70 3e d6 57 8a bf 4c dc 8e be 90 75 a0 3d
       0.2348842 -1.0808055 -0.27902448 0.07834923
0001a0 46 ca 51 be 57 61 eb be 2b df 84 be c2 d1 1c be
       -0.20487317 -0.45972702 -0.25951514 -0.15314391
0001b0 59 e7 b8 bd f6 2d 8b be 07 9f c0 bd 77 46 33 bc
       -0.09028501 -0.27183503 -0.09405332 -0.010942093
0001c0 6d 94 ae 3e 06 8a f5 be 57 3a 8c be d8 ed 38 3e
       0.34097615 -0.47956866 -0.2738826 0.1805948
0001d0 d2 ba a5 3c a6 a3 13 3f bd 18 4a bd 7c cf 72 3e
       0.020230684 0.5767158 -0.04934 0.23711962
0001e0 0b e3 a7 3d 9a 2d 41 be 88 b8 06 be c6 11 83 3c
       0.08197602 -0.18865052 -0.1315633 0.015999686
0001f0 2e 6b 84 3e e5 7a 06 bf dc 58 38 3e d8 f0 ef bd
       0.25863022 -0.5253127 0.18002647 -0.11715859
000200 af b4 1f bd 67 96 7e 3e 8b 8f 6c bd 02 f1 9a 3d
       -0.038990673 0.24862061 -0.05775408 0.075655
000210 e8 b8 f7 3d fd 39 44 be b6 e0 91 3d 84 e9 85 3c
       0.12095815 -0.19162746 0.07122938 0.0163467
000220 d2 52 23 3d 25 ac c7 be da d0 66 3e 48 57 b6 be
       0.039873905 -0.38998523 0.22540608 -0.35613465
000230 0f 38 a6 3d 8b 86 6a 3f f0 6f df 3e 07 51 27 be
       0.08116161 0.91611546 0.4364009 -0.16339503
000240 ec 9a c7 3d 60 1f e6 3d 93 3d 8a 3d b1 2d a5 bc
       0.09746346 0.11236453 0.067500256 -0.020163389
000250 d2 c7 a6 be 8e ae 80 3d 0c 0f a5 3e 0e 72 66 3d
       -0.32574326 0.06283294 0.32238042 0.056261115
000260 71 b0 1a 3e 68 6c 1b 3f 66 83 db bd b5 17 1d be
       0.1510637 0.6071229 -0.10718422 -0.15341075
000270 f5 05 02 3f 58 c5 86 3e 54 bd 17 3e b3 c4 39 3c
       0.5079034 0.26322436 0.14818317 0.011338401
000280 f7 0f a8 be f4 ea 68 3f 8a 55 ac 3e 76 3f 55 3e
       -0.3282468 0.9098351 0.3365901 0.2082499
000290 9e ab 05 3e 38 e3 65 3e 5b fa fa 3e ed 90 51 3c
       0.13053748 0.22449958 0.4901913 0.012790901
0002a0 cc c5 c1 bd 54 10 f2 be 81 80 85 be de 5c 46 3c
       -0.09461555 -0.47278082 -0.26074603 0.012107102
0002b0 d5 cb a4 bc 6d c6 0f be f0 4e 14 bf ac 67 2d be
       -0.020116726 -0.14040537 -0.5793295 -0.16934079
0002c0 2e 15 5e 3c a2 86 ed bd 48 fe 99 be 45 6a 95 3c
       0.013554854 -0.11597945 -0.30076814 0.01823915
0002d0 c2 8f 24 be ad 04 a0 be 3d a7 62 bc 3c b9 ae bd
       -0.16070464 -0.31253567 -0.013833818 -0.085314244
0002e0 f2 33 a1 3d c4 85 76 3e 0a c8 2d be 2f af fa bc
       0.07871236 0.24074465 -0.1697084 -0.030601112
0002f0 a1 8a 56 bd 79 6d 3e 3f 9c 9b f4 3e 5e 9d 22 3e
       -0.0523783 0.7438579 0.4777497 0.15880343
000300 98 94 0f 3e 42 29 b2 3e e6 b7 7e 3e b5 f7 0c 3b
       0.14021528 0.34797102 0.24874839 0.002150995
000310 da 66 b2 be df b0 78 3f c6 41 d4 3e bf aa 75 3d
       -0.34844095 0.97144884 0.4145643 0.05997729
000320 56 a2 fd 3d 43 39 0b 3f d5 7e 6d 3e b0 83 c1 3e
       0.12384479 0.5438425 0.23192914 0.37795782
000330 7c 53 f1 3d 0d 87 7f 3d d6 70 01 3e fe 0c 83 be
       0.117835015 0.062384654 0.126407 -0.2559585
000340 72 83 41 bd 50 c1 c4 3e 43 c4 1e 3e a8 3b 1e be
       -0.047244497 0.38428736 0.15504555 -0.15452445
000350 ef 38 99 3e 2a c0 54 bf 6b d7 16 bf c5 dd 96 be
       0.2992625 -0.8310572 -0.5892245 -0.29466072
000360 16 8c 2b bd 19 6d b9 3e 47 b4 9a 3e 6b 88 94 bc
       -0.041881643 0.36216047 0.30215666 -0.018131455
000370 23 de e5 bd 74 f3 bf 3e 96 10 0d 3b 29 7b 1d be
       -0.1122401 0.37490427 0.0021524779 -0.15379013
000380 70 9e 57 3e b7 33 3f 3f 7d 4e 5f ba ed 29 22 3e
       0.21056533 0.74688286 -0.00085184706 0.15836306
000390 c8 48 68 3e 26 1e 4b bd 76 e7 25 be c5 f5 7d bc
       0.22684014 -0.0495893 -0.16201577 -0.015500491
0003a0 3d 20 33 bd 01 49 e5 3e 44 30 6b 3c 66 b1 5f be
       -0.043731917 0.4478226 0.014354769 -0.21845016
0003b0 a7 00 1f be 2e 2a ec 3e 88 e6 2b 3e 6b 57 06 be
       -0.15527593 0.4612593 0.1678716 -0.13119285
0003c0 d8 6e 12 3e 49 c5 18 3e 75 11 d2 3d 7c b2 e9 3b
       0.14300096 0.14919008 0.10257236 0.0071318727
0003d0 38 90 1f be dd cb c9 3f e2 51 81 3e 7c e7 4d be
       -0.15582359 1.5765339 0.25257784 -0.20107836
0003e0 78 82 4a 3e 76 b6 8d 3f e8 eb 50 bc 2f 26 95 3e
       0.19776332 1.1071308 -0.012751557 0.29130694
0003f0 a0 4c f1 3d 2c 5b 1a 3e fe ed 4f 3e 94 d4 d4 bc
       0.11782193 0.15073842 0.2030563 -0.025980271

bn1.weight f4 [82]
000000 14 bf 80 3f 49 3a 72 3f 09 4b 7b 3f 60 47 80 3f
       1.0058312 0.94620186 0.9816137 1.0021782
000010 4c 3c 7c 3f 6b 7d 8e 3f 67 67 8d 3f d5 07 72 3f
       0.98529506 1.1132025 1.1047181 0.945432
000020 39 16 83 3f 9b 96 6a 3f 9f 08 6e 3f ac e5 65 3f
       1.0241157 0.91636056 0.92981905 0.89803576
000030 00 6f 78 3f 7d 2e 73 3f 75 77 6d 3f 63 d4 67 3f
       0.9704437 0.9499281 0.927604 0.9055845
000040 39 eb 83 3f 98 d9 71 3f 96 c8 6a 3f 6b fb 76 3f
       1.0306159 0.94472647 0.9171232 0.96477383
000050 75 32 86 3f b1 34 7b 3f 5f eb 68 3f 89 26 6a 3f
       1.0484148 0.98127276 0.9098415 0.9146505
000060 ad a7 82 3f 1a fb 86 3f 6e 6b 70 3f b4 04 7a 3f
       1.020742 1.054538 0.93913925 0.97663426
000070 80 77 7f 3f 8d 72 73 3f ca 24 65 3f 23 d2 75 3f
       0.9979172 0.95096666 0.8950926 0.9602377
000080 54 06 72 3f 65 7e 77 3f cc b5 4d 3f d1 c4 68 3f
       0.94540906 0.9667724 0.80355525 0.9092532
000090 f6 d8 7f 3f 44 63 7c 3f 15 65 71 3f c6 47 79 3f
       0.9994043 0.9858897 0.94294864 0.9737514
0000a0 8c 76 87 3f 4a b1 70 3f d8 a9 6c 3f 85 e1 88 3f
       1.0583053 0.9402052 0.9244666 1.0693823
0000b0 d1 06 71 3f 7f 77 6b 3f cc fb 7d 3f b7 b9 87 3f
       0.94151026 0.9197921 0.99212337 1.0603551
0000c0 24 0b 79 3f c5 88 6f 3f c7 d6 67 3f 5e 84 6f 3f
       0.97282624 0.9356807 0.905621 0.9356135
0000d0 0d 81 71 3f bb 45 81 3f 81 9c 7e 3f 0d 75 70 3f
       0.9433754 1.0099405 0.99457556 0.93928605
0000e0 99 8e 88 3f ae dd 89 3f 91 d0 75 3f 01 70 61 3f
       1.0668517 1.0770776 0.9602137 0.8806153
0000f0 af 4b 73 3f 50 07 6e 3f 5e e5 7c 3f cb 81 76 3f
       0.9503736 0.9297991 0.98787487 0.962918
000100 89 f1 84 3f fe b3 a3 3f 06 2c 77 3f b7 14 6c 3f
       1.0386211 1.2789304 0.9655155 0.9221911
000110 03 cc 77 3f 25 86 7b 3f 17 cf 70 3f e8 5a 6e 3f
       0.9679567 0.98251563 0.94065994 0.9310746
000120 4b ec 6b 3f d6 fd 66 3f a0 e4 63 3f 1c 59 71 3f
       0.9215743 0.9023107 0.8902073 0.94276595
000130 40 de 64 3f ae e2 70 3f af fd 6f 3f dd a7 80 3f
       0.89401627 0.94095886 0.93746465 1.0051228
000140 2c d5 7a 3f 12 40 5c 3f
       0.97981524 0.86035264

bn1.bias f4 [82]
000000 fd b1 9a bc 11 eb a4 bc e7 ee 3f bd f1 25 1b 3d
       -0.0188837 -0.02013162 -0.046858694 0.03787798
000010 d8 be 4d 3c 9b 44 13 3e ea a8 43 3b 7b 84 20 bd
       0.012557708 0.1438164 0.002985532 -0.039188843
000020 08 34 4b 3c 75 7b 73 bd 71 ef 03 3e ff d5 db 3a
       0.012402542 -0.05944391 0.12884308 0.001677215
000030 8b 1b 83 3d 4e c8 85 bd 13 84 53 bd 24 07 f5 bd
       0.06401738 -0.06532346 -0.051639628 -0.119642526
000040 38 99 10 3c 0b ad 60 bd 11 d4 d2 bd 39 d8 3a bd
       0.008825593 -0.054852527 -0.10294355 -0.045616362
000050 ef 17 a1 bc d4 be 3d 3d 0a 81 16 bd ef 2f f0 bd
       -0.019664733 0.046324566 -0.036744155 -0.117278926
000060 3b 30 0e 3d 4f b8 ad 3d 57 72 a5 bd ec b2 ca bc
       0.034713965 0.0848242 -0.08078449 -0.02474352
000070 00 b2 85 3d a0 a2 21 3d 19 0f 7d 3d 6d 24 9d bd
       0.065280914 0.039461732 0.061781976 -0.07672963
000080 b0 30 79 bc 95 73 c7 bc 76 ee a9 bd 8e 31 ac bd
       -0.015209362 -0.024347106 -0.08297436 -0.08407889
000090 d6 68 07 bd 39 93 0c bd 56 27 e1 bd 8a e4 09 3c
       -0.033058964 -0.03432009 -0.10993831 0.008416304
0000a0 12 bc 3c 3d 65 35 27 3d a8 8e 50 bd dd 05 00 3e
       0.046077795 0.040822405 -0.050917298 0.12502237
0000b0 e1 ad be bd 3a f9 d6 bd 9b 07 85 bd 93 15 97 bd
       -0.093105085 -0.10496755 -0.06495591 -0.07377162
0000c0 2c 96 59 bb ea ae bb bc d1 e9 8e bd cb 05 7d bc
       -0.0033201082 -0.022910554 -0.06978191 -0.015443276
0000d0 07 06 60 bd 71 7a 67 3d f2 28 df bc 19 22 ea bb
       -0.054693248 0.056513254 -0.027241204 -0.007145178
0000e0 35 ca 21 3e 5e 68 10 3e a7 71 ac bd ca b5 42 be
       0.15799792 0.14102313 -0.08420115 -0.1901466
0000f0 b8 cb 01 be 0a 2f 2a bd 6b eb 53 bc c1 4d 22 bd
       -0.12675369 -0.041548766 -0.012934546 -0.039624933
000100 a7 e2 22 3d c9 b4 71 3e aa 41 42 bd 87 41 18 bd
       0.039766934 0.2360412 -0.047425903 -0.037171867
000110 97 e7 1c bd b3 0c 73 bd 6b 3d 9d bb ea de 19 bd
       -0.0383068 -0.059338283 -0.0047985814 -0.037566103
000120 91 bc 54 bd dd 5b d2 bc 91 9d 93 bd 72 6c 02 bd
       -0.051937643 -0.02567857 -0.07207788 -0.031841703
000130 73 e0 c4 bd b6 92 4d 3c 09 3a bb 3b 11 5c c7 3b
       -0.09613123 0.012547186 0.0057137054 0.006083973
000140 90 51 1e 3d 79 dc 29 be
       0.038652003 -0.1658801

bn1.running_mean f4 [82]
000000 6f 4f f8 c1 38 32 c6 c3 4e 49 ae c1 06 7d 9a c3
       -31.038786 -396.39233 -21.785793 -308.97675
000010 e8 09 65 c2 e0 2b 22 c2 0f a6 37 c2 c4 ee 77 42
       -57.259674 -40.542847 -45.912167 61.98317
000020 0f 49 26 42 28 46 24 c2 7a 0b 5f 42 8f 32 66 42
       41.571346 -41.068512 55.761208 57.549374
000030 47 bc 8d c2 6f f5 35 42 dc c3 18 42 fb 1b 97 c3
       -70.86773 45.48968 38.19127 -302.2186
000040 08 9e 29 41 51 4a 60 c4 17 a8 7a c2 39 98 55 c2
       10.601082 -897.1612 -62.66415 -53.398655
000050 94 01 ff 41 a6 b4 b1 c2 ed d2 67 c2 94 9c 9c c2
       31.87577 -88.85283 -57.955982 -78.30582
000060 cf cc 60 c2 2d 62 a6 c1 75 a5 d8 41 fd a3 8d c4
       -56.20001 -20.797937 27.08079 -1133.1246
000070 52 97 2d 42 f3 b1 a3 c2 be bc bf c3 0f 13 86 42
       43.397774 -81.84756 -383.47455 67.037224
000080 85 30 55 c3 42 b1 ab c3 7b be f1 43 2d 47 07 42
       -213.18953 -343.38483 483.48813 33.819508
000090 b9 94 14 c1 ce c1 17 c2 a7 62 49 c2 fe 99 4b 42
       -9.286309 -37.939262 -50.34634 50.900383
0000a0 f5 83 a8 3e b8 18 17 c2 7d 2d 51 c2 7c 5e 93 c1
       0.32913175 -37.77414 -52.294422 -18.421135
0000b0 08 ee 22 c2 5a 03 72 c2 78 16 47 c2 a6 4e 45 c2
       -40.732452 -60.503273 -49.771942 -49.326805
0000c0 0e 0a 42 42 f4 51 0d c2 af ef ce c1 7b eb 4c 42
       48.50982 -35.330032 -25.867033 51.22996
0000d0 03 e3 87 c2 28 e2 3e c2 eb 3f f6 c1 87 84 03 43
       -67.94338 -47.720856 -30.78121 131.51768
0000e0 f8 e8 12 42 22 3b f8 c1 d5 5b 86 c2 c5 64 a4 42
       36.72751 -31.028873 -67.17936 82.196815
0000f0 2e d8 0e c3 d8 d5 3e c2 61 af 65 42 c8 20 93 c2
       -142.84445 -47.70883 57.42127 -73.564026
000100 6e 1d 64 c2 2f 6a df c0 84 27 ea 41 6f 74 91 42
       -57.02874 -6.981712 29.269295 72.72741
000110 2a 34 39 42 98 10 88 41 ff f3 42 c4 4c b7 0d c4
       46.30094 17.008102 -779.81244 -566.864
000120 db 6e 55 42 cb 4b 6f c2 b2 d3 08 c2 56 2c 57 c3
       53.358257 -59.824017 -34.206734 -215.17319
000130 64 67 76 42 cf 4e 1e c3 b2 81 54 c2 80 ce 27 c2
       61.600967 -158.30785 -53.126656 -41.95166
000140 f5 7e 5e c2 df da 09 c3
       -55.62398 -137.85497

bn1.running_var f4 [82]
000000 dc c5 2b 44 7d 0c a4 47 23 8a 26 43 80 2e 48 47
       687.09155 83992.98 166.5396 51246.5
000010 c3 de be 44 99 5a 27 44 38 22 89 44 f2 19 09 45
       1526.9613 669.4156 1097.0693 2193.6216
000020 ed a3 8d 44 37 a0 4d 44 ed 5a d1 44 b4 5f dc 44
       1133.1227 822.50336 1674.8414 1762.9907
000030 69 9e 2c 45 a1 85 5e 44 31 2b 74 44 67 b9 3e 47
       2761.9006 890.08795 976.67487 48825.402
000040 1c 20 c3 41 b7 39 d2 48 58 20 07 45 8e 77 c4 44
       24.390678 430541.72 2162.0215 1571.7361
000050 5a cc b9 43 45 c7 89 45 d7 67 ed 44 09 3d 52 45
       371.5965 4408.9087 1899.245 3363.8147
000060 d8 7e c8 44 18 82 a3 43 b5 9d 9b 43 75 e0 26 49
       1603.9639 327.01636 311.2321 683527.3
000070 f6 9c 4b 44 88 99 60 45 c5 b1 97 47 bf fc 07 45
       814.4525 3593.5957 77667.54 2175.7966
000080 a7 94 ba 46 9a fb 74 47 d2 54 f1 47 2a e2 ee 43
       23882.326 62715.6 123561.64 477.7669
000090 a6 70 bc 42 3a ee 17 44 73 9a a8 44 aa 40 a5 44
       94.22002 607.7223 1348.8265 1322.0208
0000a0 7c ce 95 41 a5 12 64 44 d8 ce c7 44 14 e5 88 43
       18.725822 912.2913 1598.4639 273.78967
0000b0 ae 71 77 44 2a 54 f7 44 f8 6c 90 44 17 b9 b6 44
       989.77625 1978.6301 1155.4053 1461.784
0000c0 46 3f af 44 5f 8b 43 44 30 b8 b7 43 e8 1d a2 44
       1401.9773 782.1777 367.43896 1296.9346
0000d0 51 32 19 45 ad 99 b2 44 dc c2 15 44 b0 62 12 46
       2451.1448 1428.8024 599.0447 9368.672
0000e0 6a df 7e 44 4e c2 29 44 63 6b 16 45 6c 2a 60 45
       1019.49084 679.036 2406.7117 3586.6514
0000f0 c0 65 2c 46 d4 7e 9e 44 e5 f3 bb 44 be e3 37 45
       11033.4375 1267.9634 1503.6217 2942.234
000100 64 60 c7 44 67 53 b1 40 4a 36 21 44 d7 ad 35 45
       1595.0122 5.541431 644.84827 2906.865
000110 1a 53 80 44 a3 b5 b5 42 84 77 9e 48 88 a5 27 48
       1026.5969 90.85476 324540.12 171670.12
000120 2a 1a c2 44 48 db c9 44 5a 49 45 44 b5 98 c4 46
       1552.8176 1614.8525 789.1461 25164.354
000130 a2 6d f2 44 a8 c8 4e 46 43 26 c7 44 98 ca 74 44
       1939.426 13234.164 1593.1957 979.1655
000140 7e b4 d9 44 63 68 18 46
       1741.6404 9754.097

conv2.att_src f4 [1, 1, 41]
000000 48 a8 da be 66 07 10 3d 2a c3 65 3e 20 32 b0 3e
       -0.42706513 0.035163306 0.2243773 0.34413242
000010 b0 b1 49 3f 07 22 0b bf ad f5 3d be 6b cd 6a bf
       0.78786755 -0.54348797 -0.18550749 -0.9171969
000020 3a f6 16 be c4 c8 b1 be 03 68 ee be 8e e3 ef 3e
       -0.14742365 -0.34723485 -0.4656373 0.46853298
000030 39 c6 a2 be 49 fb a1 3d 1c a3 5b bf b8 84 d7 3e
       -0.31791857 0.07909257 -0.8579576 0.42093444
000040 9b ef 7a be 2c cb 52 be 1f 32 16 3f e0 e3 09 bd
       -0.24505465 -0.20585316 0.5867023 -0.033664584
000050 77 e0 79 3e d4 14 1b bf 93 c5 1c 3f d1 d8 07 3e
       0.24402033 -0.60578656 0.61238974 0.13266303
000060 bd a3 32 3f ae 63 46 3e b9 30 63 3e 4d f4 ce 3e
       0.69781095 0.19373962 0.22186555 0.40420762
000070 88 da cc 3e 06 66 f9 3d 1f 34 7b 3b 19 7c d7 3e
       0.40010476 0.121776626 0.0038330627 0.42086866
000080 a7 16 30 3f 86 ea 36 bf 43 58 98 3e 16 49 d0 bd
       0.68784565 -0.71451604 0.29754838 -0.1017019
000090 3b 71 1b 3f 60 a1 03 3c 3d cc c1 3e 45 3c 88 3e
       0.6071965 0.00803408 0.37851134 0.26608482
0000a0 04 f6 c0 3e
       0.37687695

conv2.att_dst f4 [1, 1, 41]
000000 2f d0 89 be c1 b1 f8 3d 70 80 bb be 78 26 6f 3e
       -0.26916644 0.12143279 -0.36621428 0.23354518
000010 7e 58 05 3b 8e 1f fd bd de de 50 be 2e 19 c3 be
       0.0020346935 -0.12359534 -0.20397517 -0.38105148
000020 e1 3a 68 be 69 20 e5 3c e7 8f 03 bf 32 ab 4d 3e
       -0.2267871 0.027969556 -0.5139145 0.20084837
000030 51 81 1a be d6 dc 1b bf 01 74 00 bf 2c 9a 88 3e
       -0.15088393 -0.60883844 -0.5017701 0.26680124
000040 f6 fc c3 bd 1d 19 40 3e 90 ac d0 bc e8 58 e6 bd
       -0.09569733 0.1875958 -0.02547291 -0.11247426
000050 bb 6a 8c 3d 69 53 3d be de 86 86 3e 83 84 2f be
       0.06856295 -0.1848885 0.2627477 -0.17140393
000060 d9 52 cc 3e 23 93 d7 bc 39 05 d1 3e 09 61 8e be
       0.39906958 -0.026315277 0.40824297 -0.27808407
000070 cd 25 04 3e d9 e8 98 3d d6 a0 e8 bd a0 42 70 3c
       0.12905045 0.07466287 -0.11358802 0.014664322
000080 64 4a 07 be a9 89 73 3e 44 6d 83 be 8e f8 c4 bd
       -0.13211972 0.23782982 -0.256693 -0.096177205
000090 98 b9 8d be c5 d7 62 3b f4 63 2b be 74 22 a1 bd
       -0.2768066 0.0034613472 -0.16737348 -0.078678995
0000a0 7d 4f 96 be
       -0.2935752

conv2.bias f4 [41]
000000 35 4e 47 bc 77 23 4e 3c 6c 48 b5 bc 15 fa e9 bc
       -0.012164642 0.012581698 -0.02212926 -0.028561631
000010 7a dc fc 3b 39 58 d8 3b f1 8b 0c bd 45 a6 37 3b
       0.0077167125 0.006602314 -0.034313146 0.0028022688
000020 62 42 17 bc 9e a4 b4 3c 25 02 7b 3c 64 7a b5 3c
       -0.0092321355 0.022051152 0.0153203355 0.022153087
000030 a1 f6 be bc 58 91 e6 bc 37 92 ca bb cf b3 58 3c
       -0.023310961 -0.028145477 -0.006181981 0.013226463
000040 19 53 a5 3c 93 ee 61 bd 07 35 b3 3b a0 6b 82 bb
       0.020181226 -0.055159163 0.005468968 -0.003980115
000050 d6 05 ea 3c e3 87 99 3c d5 2a 38 3b 0a 35 91 3b
       0.028567236 0.018741554 0.0028101702 0.0044313716
000060 b8 95 95 3b cc c8 3a bd 0a f0 e9 3b ae 35 4e 3d
       0.004564967 -0.04560165 0.0071392106 0.05034416
000070 2a 4d a2 3d d6 ed 4b 3b 08 04 82 3c 0c 4a ff 3c
       0.07924874 0.0031117103 0.015871063 0.031163238
000080 ec 0d 56 bd 15 6a 1f 3d 81 18 e8 bc 8d aa ae bc
       -0.05225937 0.038919527 -0.028331997 -0.02132156
000090 cf 64 72 bb 4b 9f 79 bb 75 1a 7c 3c ab 33 75 bc
       -0.0036986356 -0.003808933 0.015387167 -0.014965932
0000a0 6e ca 21 3c
       0.009874923

conv2.lin.weight f4 [41, 82]
000000 1b d3 45 3e 88 7d 72 be 4f f7 03 be 6a dd b9 bd
       0.19318812 -0.23680699 -0.1288731 -0.090754345
000010 de 0f 5c be c8 1d 94 bd 73 7a e8 3d 6a 8b b7 3c
       -0.21490428 -0.07232243 0.1135148 0.022405345
000020 f5 56 8b 3d 1a f8 83 bd 54 c7 10 3d 36 5e 13 bd
       0.06803695 -0.06443806 0.035346344 -0.03597852
000030 d1 0d 39 be 62 11 9e be 11 ca 1b be f9 71 9b be
       -0.18071677 -0.30872637 -0.15213801 -0.30360392
000040 89 b9 d0 bd 09 ed 8d be b5 d8 8f bd 2c f3 09 be
       -0.10191638 -0.27719906 -0.070237555 -0.13471669
000050 cb b9 aa be ed 65 33 3e ca 2e 3a bd b0 f5 c4 be
       -0.33344874 0.1751935 -0.045454778 -0.38468695
000060 7c bf 06 be 59 ee 0a 3e f7 0e 40 3d 3c 30 e9 3d
       -0.13158983 0.13567485 0.04688927 0.11386153
000070 f0 df ae bd 85 f0 6a 3e b4 6f 1e 3e 10 a6 4f be
       -0.085388064 0.22943313 0.15472299 -0.20278192
000080 55 40 aa bd c2 fd c0 3d ba 7e 24 3e fb f9 9c be
       -0.083130516 0.094234005 0.16063967 -0.3065947
000090 36 86 d4 3d b0 39 15 be cf 18 bf bb 32 1a 02 3e
       0.10377161 -0.14572787 -0.005831815 0.12705305
0000a0 b8 ab 2a be 0f 07 31 be 69 30 e3 bc 2e 2f b8 3d
       -0.16667068 -0.17287849 -0.027733045 0.08993374
0000b0 f9 72 78 be 1e a9 34 3d 32 7a 62 be 46 77 2c be
       -0.24262609 0.044106595 -0.22116926 -0.16842374
0000c0 d6 a9 25 be 4d f5 c7 bd 46 3d 62 be b7 e1 b9 3d
       -0.16178069 -0.09763584 -0.22093686 0.09076255
0000d0 d3 1f 3e be b2 cb ef bc a3 a0 dc 3d 16 01 30 be
       -0.18566827 -0.029271934 0.107728265 -0.17187914
0000e0 61 19 c3 3d d6 5d 08 bc 44 34 8c be 8b 37 96 be
       0.09526325 -0.0083231535 -0.27383626 -0.2933925
0000f0 7c 6e ed bd 5b 8b 45 bd 51 ca 5a bc 3c 08 33 be
       -0.11593339 -0.048228603 -0.0133539 -0.1748361
000100 f9 42 47 3d 2a 17 3d be 1c 31 8b bc 71 45 5b be
       0.048647854 -0.18465868 -0.01699119 -0.21413209
000110 ef f8 13 3d d1 ae 69 be 2d a6 f9 bd 01 7c 6e 3b
       0.036126073 -0.22820593 -0.12189899 0.003638983
000120 a2 fc 06 3d 91 58 24 3d c4 4d 1c be d3 b0 1c 3c
       0.032955773 0.040123526 -0.1526404 0.009563643
000130 cb 7b 46 be 7b f1 eb bd d3 7c 18 be 44 0b a8 be
       -0.19383161 -0.11520668 -0.14891367 -0.32821095
000140 6a 8b 02 be 2a 6b c2 bd f3 bb ee 3c 7b 2f 16 3e
       -0.12748495 -0.09493096 0.029142356 0.1466655
000150 56 f3 22 bd 43 82 eb 3d 2f f3 a5 3d 61 09 08 be
       -0.039782844 0.11499455 0.08103024 -0.13284828
000160 96 a5 df bc 6b b5 36 be 08 4b 09 3d f6 ca 92 bd
       -0.027300637 -0.17842643 0.03351882 -0.07167618
000170 eb 67 0f 3e 3b 33 25 bd 33 f0 bf bc bd d2 35 3e
       0.14004485 -0.04033206 -0.023429966 0.17756172
000180 79 80 22 be cd 66 7f bd 75 3f 7c 3c 92 3a 4d 3e
       -0.15869321 -0.062353898 0.015395989 0.20041874
000190 48 b9 dc bd a3 22 f0 3d ea 32 b4 3d d3 c8 db 39
       -0.10777527 0.117253564 0.087987736 0.0004192056
0001a0 93 d0 bb bd 39 61 7f bd 92 a6 1a 3e 90 a9 24 3e
       -0.09170642 -0.062348578 0.15102604 0.16080308
0001b0 ff 60 0b 3e 27 8a 5d 3c 44 e9 2d be ac 24 b4 bc
       0.1361122 0.013521708 -0.16983515 -0.021990143
0001c0 04 9e f4 3c 5e c4 40 3d 40 d1 bb bd d0 d4 a8 bd
       0.029860504 0.04706227 -0.09170771 -0.08243716
0001d0 1d dd 9f be 8a ff 41 be 92 32 60 bd 2f 6c 9a bd
       -0.31223384 -0.18945137 -0.054735728 -0.07540166
0001e0 d0 e4 ea bd b8 13 7d bc b0 73 18 3e df 37 dd 3d
       -0.11469424 -0.015446596 0.14887881 0.10801672
0001f0 bc eb ac 3a 42 42 6a 3e b9 e4 67 3d 86 3b 00 bd
       0.0013192813 0.22876838 0.05661461 -0.031306766
000200 43 f7 26 3d 6c 7b bf bd 80 4b fa 3d 85 0a 83 3d
       0.04076315 -0.09349713 0.12221432 0.06398491
000210 1e e2 58 3c 02 a5 83 bc 72 40 59 3d 95 88 97 3d
       0.013237504 -0.016069893 0.053039975 0.07399098
000220 c8 f9 2a 3e dd 71 2a 3c 50 ae f9 3d 6d 0a 1a 3e
       0.16696846 0.010403124 0.121914506 0.1504304
000230 4a d1 48 be ed e0 8c 3d 02 b3 7d bb d5 61 84 3e
       -0.19611087 0.06878839 -0.0038711433 0.2585589
000240 a7 e1 c5 bd 56 06 6b 3e 45 71 ce 3d ad 6a 89 3e
       -0.096621804 0.22951636 0.10080198 0.268392
000250 37 32 97 bd 92 ce 3c be 14 e0 2a bd 91 34 de 3a
       -0.073826246 -0.18438175 -0.041717604 0.0016952922
000260 db 57 e0 3d 33 7c 26 be 0e ff 3a 3e 50 5e 20 be
       0.10954257 -0.16258316 0.18261358 -0.15660977
000270 b5 96 85 3d 1e c8 82 3e 05 db 49 be e4 69 a8 bb
       0.06522886 0.25543302 -0.19712456 -0.0051395763
000280 e8 e8 e5 3d 86 ed 52 be 16 80 65 3d b6 ee fc 3d
       0.11226064 -0.2059842 0.056030355 0.12350218
000290 46 69 a2 bc c1 6f 8f bc 60 03 3e be 19 20 ca bd
       -0.019825589 -0.017509343 -0.18555975 -0.098694034
0002a0 bb 28 ab 3c 8f dd 60 bd 04 65 4c be a0 34 39 be
       0.020893445 -0.054898795 -0.1996041 -0.18086481
0002b0 84 1a d8 3c 56 f0 86 3d 67 6b 4f 3e 62 d6 85 3d
       0.026379831 0.06588809 0.20255814 0.06535031
0002c0 fc c3 0d 3e 72 04 8a 3e 6a 5d 61 be 14 38 ba bd
       0.13844293 0.26956517 -0.22008291 -0.09092727
0002d0 b6 fd 76 3e c0 11 c1 bd 39 55 d7 bb a6 b1 0e be
       0.2412022 -0.09427214 -0.0065714386 -0.13934955
0002e0 93 2b 43 3e 4f 0d 24 3e 59 62 df bd ea 54 42 3e
       0.19059591 0.16020702 -0.1090743 0.18977705
0002f0 9f 81 8c 3c d4 9a 8b 3e 34 ab 86 3e 11 3b 43 3d
       0.017151652 0.27266562 0.26302493 0.047663752
000300 0a 55 a3 bd e0 7a 57 3e 84 39 85 3d 86 31 53 3c
       -0.07975204 0.21042967 0.06505111 0.012890225
000310 44 ee e5 bd 6a 58 4e 3c dc 33 16 3e a4 58 04 be
       -0.11227086 0.012594322 0.1466822 -0.12924439
000320 e3 39 7a 3e 16 d7 bd bd 5f 61 19 3e 4d fe 22 3e
       0.24436145 -0.0926954 0.1497855 0.1591732
000330 f6 9c 8e be 6e f0 04 be 4d 5c 0c 3d a0 98 da 3d
       -0.27854127 -0.12982342 0.034267712 0.10673642
000340 36 32 d8 bd af c9 f1 bc 0b 05 e2 bc 87 24 29 be
       -0.10556452 -0.029515116 -0.027590295 -0.1651784
000350 70 2d 6d bd 57 41 e5 bc 89 1c 65 bd fc 3a d6 bd
       -0.05790466 -0.027985258 -0.055935416 -0.10460469
000360 2b a5 09 be 1a b3 fe 3d c8 46 b4 3d be 10 7e 3d
       -0.13441913 0.12436505 0.08802563 0.062027685
000370 91 7f f6 3d b4 a6 b7 3d c5 eb 82 3e 3f 16 8d bc
       0.1203605 0.08967343 0.25570503 -0.017222522
000380 1a 25 30 bd 9b 81 19 be 3e e7 b2 bd cf 62 4d bd
       -0.043004133 -0.14990847 -0.08735512 -0.05014306
000390 a5 68 18 be 3a 75 37 be bc 9a 61 be 13 e5 57 3e
       -0.14883669 -0.17915812 -0.22031683 0.21083479
0003a0 8a ed 45 3e 30 14 78 3e 59 2f 09 be 68 16 4d bd
       0.19328895 0.24226451 -0.13396968 -0.050070196
0003b0 20 9a fb bd 1f c4 2b be 49 10 32 be ee 9f e1 bc
       -0.122852564 -0.16774033 -0.17389025 -0.02754208
0003c0 1c f8 40 3d 92 cc 3c 3e b7 68 43 ba 25 96 f1 3c
       0.047111616 0.18437412 -0.00074542634 0.02949054
0003d0 bc a7 71 ba 2a eb 4b 3e 53 bd a1 3d c5 91 0b 3e
       -0.0009218415 0.19913927 0.07897439 0.13629825
0003e0 16 a9 02 3e 64 d0 37 be 01 71 18 3e 75 cf 09 be
       0.12759814 -0.17950588 0.14886858 -0.13458045
0003f0 0b a7 0a 3e ba 3d 9d 3d 5c 0e 95 3d 6c 8c 03 3e
       0.13540284 0.07677789 0.072781295 0.12846535

bn2.weight f4 [41]
000000 82 6a 84 3f 97 75 8a 3f 4d 8c 98 3f 62 78 87 3f
       1.0345004 1.0817136 1.1917816 1.0583613
000010 31 bd 9a 3f 1d 14 94 3f 10 9d 79 3f 3b 43 94 3f
       1.2088987 1.1568638 0.97505283 1.1583017
000020 59 1d 81 3f 63 4f 9a 3f cc 0b 9f 3f e1 f9 90 3f
       1.0087081 1.2055477 1.2425475 1.1326257
000030 3c 41 99 3f 4e 5b a0 3f 37 7d a4 3f bd 04 9c 3f
       1.1973033 1.2527864 1.2850713 1.2188946
000040 79 31 83 3f 2b ca 95 3f 7e 6c b2 3f 36 ff 80 3f
       1.0249473 1.1702322 1.3939359 1.0077884
000050 ad 70 a5 3f c9 7c 94 3f 62 96 85 3f b9 30 92 3f
       1.2925011 1.1600581 1.0436518 1.1421119
000060 c1 63 b2 3f cf 54 a5 3f a1 3e 81 3f 4b f6 91 3f
       1.3936692 1.2916507 1.0097238 1.1403288
000070 67 3f a1 3f ad 45 93 3f 94 52 93 3f 26 31 93 3f
       1.2597474 1.1505638 1.1509576 1.1499374
000080 92 af be 3f f3 f2 86 3f e4 3e a1 3f 22 20 9f 3f
       1.489733 1.0542892 1.2597318 1.2431681
000090 fb 47 96 3f f4 7a 93 3f d8 62 b6 3f 03 24 8e 3f
       1.1740717 1.1521897 1.4248915 1.110474
0000a0 79 32 97 3f
       1.1812278

bn2.bias f4 [41]
000000 d5 03 28 3d 3a 6f 31 3e d4 08 b0 3d 71 55 8b bd
       0.04101928 0.17327586 0.08595434 -0.06803406
000010 38 be 31 3d ac 2c e2 3c f4 2d 32 be cd c8 27 bd
       0.043394297 0.027609192 -0.17400342 -0.040962983
000020 bd 11 2a bd 31 2c 60 3e 1f b0 55 3e 8c 07 d3 3d
       -0.041520823 0.21891858 0.20867966 0.10304174
000030 bb f2 5a 3e a2 9d 85 3e 3a 1f a7 ba 47 da b5 3d
       0.21381657 0.26096827 -0.0012750395 0.08879524
000040 33 01 3f bd 4f a0 fd 3a 89 99 62 3e 46 74 94 3c
       -0.046632003 0.0019350144 0.22128882 0.01812185
000050 3e 34 0a 3e 63 74 3b bd 04 34 fc bc 40 3e ee 3d
       0.13496491 -0.045765292 -0.030786522 0.11632967
000060 ac 39 5a 3e ae fb 6c 3e 7b a0 bb 3d a2 b5 d3 3d
       0.21311063 0.23142883 0.091614686 0.10337378
000070 52 34 33 3e af 01 05 3e 1f 90 14 3e 6e 1a 73 3e
       0.17500427 0.12988923 0.14508103 0.23740551
000080 f1 41 8c 3e f8 e1 5e bd a1 54 37 3e cb f5 55 3e
       0.2739406 -0.05441472 0.17903377 0.20894544
000090 8a 74 eb 3d 84 cb a7 bb 6a 7c 56 3e cb 13 0c be
       0.114968374 -0.0051206965 0.20945898 -0.13679425
0000a0 7b b3 e6 3d
       0.11264702

bn2.running_mean f4 [41]
000000 2c 5a 1e c0 7d 4e 37 3f 8a 3d 81 3e c4 e9 e6 3e
       -2.4742537 0.7160414 0.25242263 0.45100224
000010 2e bd b0 be 2b 9b 7d 3f ee 96 80 3a 19 20 05 bd
       -0.34519333 0.9906489 0.0009810606 -0.032501314
000020 e4 3f 78 3f 46 6f 0b 3f c4 6c e4 bf 49 61 83 3f
       0.9697249 0.54466665 -1.7845693 1.0264064
000030 b6 17 fd 3e 98 39 fd 3e 18 18 a0 be bd 5f 0e 3f
       0.49432153 0.49458003 -0.31268382 0.55614835
000040 68 1e 31 3e a8 6b a5 3d 27 82 c3 be 2d a9 4e 3f
       0.17296755 0.080771744 -0.38185236 0.8072689
000050 39 f2 07 3f b5 a0 9a be e8 76 87 3f 6a b5 37 be
       0.5310398 -0.30200735 1.0583162 -0.17940298
000060 dc 5d 87 be b5 9e 45 bd 59 f4 02 40 b4 7f 5a bf
       -0.26438797 -0.048247058 2.0461638 -0.8535111
000070 e7 f7 0c be 6d 82 1f 3f 93 77 b8 3e 09 f1 dc 3e
       -0.13766442 0.6230839 0.36028728 0.43152645
000080 38 98 92 be ae 3b a1 3d 37 55 74 be ac 3c f1 3e
       -0.2863176 0.07872711 -0.23860632 0.471166
000090 80 12 17 be b1 77 89 be 90 00 f6 bd b4 19 23 bf
       -0.14753151 -0.2684913 -0.12011826 -0.63711095
0000a0 f6 a5 00 bf
       -0.50253236

bn2.running_var f4 [41]
000000 46 0d fb 3f 00 42 08 3f 08 d6 e4 3e 29 b9 d6 3e
       1.9613426 0.5322571 0.44694543 0.4193814
000010 f5 bd 4e 3e d2 d9 14 3f 12 61 37 3f 8b 52 0f 3f
       0.2018965 0.5814487 0.7163249 0.55985326
000020 33 70 bd 3f 18 8e ed 3e 37 47 07 40 82 b5 bf 3f
       1.4799865 0.4639747 2.1137216 1.4977267
000030 ca 1b 8a 3f df f6 c2 3e 82 76 45 3e 11 90 11 3f
       1.078973 0.38078973 0.19283488 0.5686045
000040 ed d9 88 3e dd 1a 94 3e a5 b7 e8 3d a1 f0 e8 3f
       0.26728764 0.28926745 0.113631524 1.8198434
000050 a7 ac 00 3f 7d a0 f8 3e b3 ad 92 3f af d2 27 3e
       0.50263447 0.48559943 1.1459259 0.16388963
000060 ee 79 09 3e a2 d3 94 3e 31 b1 d9 3f 5f 82 b5 3e
       0.13425419 0.29067713 1.70072 0.35451028
000070 5f d7 a8 3e 49 48 f7 3e 2a 2f 88 3f 1b 52 39 3f
       0.32976815 0.48297337 1.0639393 0.7239091
000080 47 b2 d2 3e 9f fa 4f 3f ac 8b 85 3e 26 91 f1 3e
       0.4115164 0.8124179 0.26083124 0.47181052
000090 b3 dd 1a 3f ba 55 33 3e 70 84 58 3e 2f c1 5c 3f
       0.60494536 0.17513171 0.21144271 0.86232275
0000a0 64 5c 12 3e
       0.14293057

fc.weight f4 [2, 41]
000000 ae a6 b8 bb 7e b2 5a be 5a 69 29 be 4b d3 20 3e
       -0.005635104 -0.21357152 -0.16544095 0.15705602
000010 87 00 94 be 68 69 74 3e 64 bf f5 3d b4 39 43 3e
       -0.28906652 0.23868334 0.119993955 0.19064981
000020 b5 1b 14 3e 95 8d a8 be 8c ad 02 be 99 c5 bb bd
       0.14463694 -0.3292052 -0.12761515 -0.09168548
000030 51 10 aa be bd c0 6f be cc 97 c4 3e 31 90 83 be
       -0.33215573 -0.23413368 0.38397062 -0.25695947
000040 2a 5b b6 bb 15 52 7a 3e 88 56 c2 be cc 15 ee bd
       -0.005565067 0.24445374 -0.37956643 -0.11625251
000050 a6 83 37 be 13 10 27 3e 43 af 99 3c cf fb 91 bd
       -0.17921314 0.16314726 0.01876033 -0.07128107
000060 6f f4 a1 be 48 13 5b be bc ad 6a 3d 36 c7 95 bd
       -0.316318 -0.21394074 0.057294592 -0.07313387
000070 98 bb a7 be 8b ba 78 be d9 36 29 bd 72 c1 8b be
       -0.3276031 -0.2428991 -0.041312072 -0.27296025
000080 22 65 8f be 15 95 e4 3d 00 96 a7 bd 79 7a 9d be
       -0.28006846 0.11161248 -0.08182907 -0.30757502
000090 3a 1c 82 be 3b f2 26 3e e7 97 8d be 8f 81 82 3e
       -0.2541216 0.16303341 -0.27654955 0.2548947
0000a0 e4 47 60 be 79 5e 20 3e a7 ce 2b 3e 0c a3 f2 3d
       -0.21902424 0.15661038 0.1677805 0.11847505
0000b0 40 dc 6c bd e6 9d a9 3d 04 38 09 be 6e 78 95 bd
       -0.057827234 0.0828207 -0.13400275 -0.07298361
0000c0 09 47 5e be 44 1d b2 bd 9c ae a1 3d 72 1b 80 3e
       -0.21706785 -0.08696988 0.07894632 0.2502094
0000d0 94 1e a2 3d fe 73 af 3e 31 5e b6 3e 7b 71 49 be
       0.079159886 0.34268183 0.35618737 -0.19672196
0000e0 52 6a 87 3b a2 88 14 be c9 4d 87 be 33 d3 3a 3e
       0.0041325474 -0.14505246 -0.26426533 0.18244629
0000f0 8a 4a 92 bd 77 ba 50 3e c1 9c 7e be 99 b8 b4 3d
       -0.071431234 0.2038363 -0.24864484 0.08824272
000100 d7 92 78 3e e5 40 83 3e 2c dc b7 3e 08 cf 22 be
       0.24274765 0.25635448 0.35910165 -0.15899289
000110 e3 58 8c 3e f6 de b9 3e ec 65 77 3e d9 38 26 3e
       0.27411565 0.36302918 0.24159974 0.16232623
000120 25 af 55 3e 0e db 00 3f 8f 4d 40 be b7 4a ab 3e
       0.20867594 0.5033425 -0.18779586 0.3345544
000130 57 03 8d 3e 30 3b a9 3d 95 e2 6d be c3 f4 82 3e
       0.2754161 0.08263242 -0.23230965 0.25577363
000140 f5 eb 36 be 1d 75 98 3e
       -0.17863448 0.2977685

fc.bias f4 [2]
000000 fd 94 d1 bd 62 92 c0 bd
       -0.102334954 -0.0940292
