models/booster/3-1.pth (torch, 26490 bytes, 18 tensors)

conv1.att_src f4 [1, 1, 82]
-0.47739366 -0.45117062 0.19519098 -0.16649713 0.17828706 -1.6338795 -0.26192114 0.4617702
0.78991026 0.03915621 -0.42771667 -0.27580386 -0.2938436 0.26522362 0.47086525 -0.33608785
0.044568896 -0.02467924 -0.98585737 0.64723885 -0.50687075 0.3605932 -0.24505314 0.24640125
0.37332618 -0.2783534 -0.22416732 0.35111725 -0.26931566 0.27076507 -0.42880186 0.28070128
-0.21567924 -0.11448654 -0.74785084 -0.84374195 0.24027617 0.4409656 0.037839655 1.3081343
-1.0806338 -0.17743795 -0.28296632 0.3263942 0.7595364 0.2518177 0.16084552 -0.5284015
-0.5128898 -0.6469664 0.28552768 -0.6935975 -0.52976024 0.35376284 0.4433046 0.05892107
-0.5876679 -0.22001897 0.30888152 0.25298545 -0.85980725 0.657666 0.017334556 -0.3769962
1.1773952 0.6610045 0.2705948 1.1962104 0.4066089 0.31792834 0.55003446 -0.2799983
-0.6018913 -0.76825935 -0.98550415 0.20132327 -1.7566134 -0.2739449 -0.49757436 1.0224376
-0.44430304 -0.03513042
00000000: f16c f4be d6ff e6be 25e0 473e 397e 2abe
00000010: e290 363e f722 d1bf 871a 86be 256d ec3e
00000020: 8f37 4a3f 4362 203d aefd dabe 2a36 8dbe
00000030: ab72 96be 64cb 873e 4015 f13e b513 acbe
00000040: e08d 363d 1e2c cabc 2661 7cbf 72b1 253f
00000050: 48c2 01bf ac9f b83e 36ef 7abe 9c50 7c3e
00000060: 9c24 bf3e 5684 8ebe 1e8c 65be a4c5 b33e
00000070: bee3 89be b8a1 8a3e eb8b dbbe 14b8 8f3e
00000080: 05db 5cbe eb77 eabd 2773 3fbf 79ff 57bf
00000090: f50a 763e 3ec6 e13e c1fd 1a3d f270 a73f
000000a0: 3552 8abf 4bb2 35be f6e0 90be 241d a73e
000000b0: fa70 423f 40ee 803e b0b4 243e 5245 07bf
000000c0: bf4c 03bf 979f 25bf af30 923e 9b8f 31bf
000000d0: 5e9e 07bf 6720 b53e d2f8 e23e 3857 713d
000000e0: 6771 16bf a74c 61be b825 9e3e 4f87 813e
000000f0: 541c 5cbf cd5c 283f 3301 8e3c a505 c1be
00000100: e3b4 963f 9737 293f 678b 8a3e 6c1d 993f
00000110: 0b2f d03e 81c7 a23e 0fcf 0c3f f05b 8fbe
00000120: 8c15 1abf a5ac 44bf 004a 7cbf b027 4e3e
00000130: b5d8 e0bf 8242 8cbe 11c2 febe 3cdf 823f
00000140: b07b e3be eae4 0fbd

conv1.att_dst f4 [1, 1, 82]
-0.1525384 -0.0630296 0.034693472 0.22765198 -0.16041765 -0.12345466 -0.11689782 -0.15676464
0.11519687 0.2462729 0.06512506 -0.08940498 0.16828173 0.25222826 -0.2629142 -0.27687302
-0.29187462 -0.017630441 -0.06880845 -0.15525807 0.049418475 0.13307637 0.1879165 -0.119601615
-0.16068102 0.078331076 -0.14477584 0.160286 -0.188291 -0.1251042 0.05873167 0.22709131
-0.14113563 -0.14296868 -0.17119184 -0.009695758 -0.17936093 -0.20231082 0.12747179 -0.22051284
0.040290203 0.099944554 0.054405443 0.09812044 0.033773255 -0.029449126 -0.12276211 0.1856465
0.10771093 -0.18584143 -0.2180769 0.13459775 -0.1415926 0.18225574 -0.19716069 -0.035266522
0.17354827 -0.16998729 0.22063172 0.09822883 -0.17523046 0.19486861 -0.077197395 0.22454031
0.092364386 -0.14440118 0.25063065 -0.18756168 -0.05511509 -0.17106614 -0.23924561 -0.09332403
-0.050249018 0.058420513 -0.041216765 -0.05696609 0.066603385 0.1381355 0.2028525 0.18209796
0.12938842 0.0794637
00000000: 0733 1cbe aa15 81bd be1a 0e3d 9a1d 693e
00000010: 8644 24be ccd5 fcbd 2068 efbd e986 20be
00000020: 56ec eb3d f72e 7c3e 4a60 853d f519 b7bd
00000030: 0c52 2c3e 1024 813e b19c 86be 4dc2 8dbe
00000040: 9770 95be b76d 90bc 72eb 8cbd f9fb 1ebe
00000050: 076b 4a3d 2c45 083e 2f6d 403e b1f1 f4bd
00000060: 9189 24be 0b6c a03d 1e40 14be 0322 243e
00000070: 5bcf 40be 511b 00be 9f90 703d a08a 683e
00000080: dc85 10be 6266 12be ea4c 2fbe f5da 1ebc
00000090: 64aa 37be 912a 4fbe f787 023e 1ece 61be
000000a0: 5707 253d bbaf cc3d 3ed8 5e3d 5ff3 c83d
000000b0: d355 0a3d 4b3f f1bc b36a fbbd 1e1a 3e3e
000000c0: 8c97 dc3d 374d 3ebe 8d4f 5fbe fed3 093e
000000d0: a7fd 10be 40a1 3a3e 7ee4 49be a173 10bd
000000e0: a3b6 313e 2611 2ebe 48ed 613e 322c c93d
000000f0: 9d6f 33be a38b 473e ab19 9ebd e5ed 653e
00000100: 8a29 bd3d e7dd 13be a952 803e 2b10 40be
00000110: 5cc0 61bd f62b 2fbe cdfc 74be ab20 bfbd
00000120: ead1 4dbd 594a 6f3d e9d2 28bd 4655 69bd
00000130: 5b67 883d 6473 0d3e 91b8 4f3e e377 3a3e
00000140: 667e 043e ddbd a23d

conv1.bias f4 [82]
0.0011460393 0.00053767685 0.0011633581 -7.681695e-06 -0.00030298746 -3.2340733e-05 -0.02861616 0.00026223063
-3.4279372e-05 0.00198159 0.00010876541 0.0009671601 0.0003819197 -8.840975e-06 -8.623743e-05 -0.004823975
0.0046053156 0.0055187508 -5.4850743e-06 -6.6749985e-06 0.000427396 0.00019031425 0.00020585023 0.0013356983
-0.00024063702 0.0008777023 -0.00043939278 -0.0027627288 8.7906985e-05 -0.0008430823 7.068684e-05 -0.000310938
-0.0032699534 -0.0023560422 7.0122864e-05 7.893319e-05 0.0010479755 0.00043533804 0.0011837224 2.253363e-05
3.229707e-05 0.0002491381 0.00342901 -6.74111e-05 0.00013779679 -0.00065858575 -0.000108534776 3.389139e-06
0.00069943356 5.9312533e-06 -0.0006033688 0.0010739331 -0.00025903492 4.5430043e-05 -0.00041594022 0.0011470967
-6.3294374e-06 -0.003820735 -0.0007410345 0.00075239246 2.4626139e-05 -1.7034241e-05 -0.00012210307 -0.0005514233
1.7500945e-05 8.8444895e-06 -0.002161607 1.2442258e-05 -6.2122985e-05 -0.0009605579 -2.1966212e-05 0.0045642946
-1.6781645e-05 -1.6564221e-05 2.438271e-05 -0.0023591782 -1.2402417e-06 -8.742251e-05 -3.9266684e-05 -5.4873626e-06
0.00029690607 0.0016625521
00000000: b336 963a e2f2 0c3a d27b 983a a1e0 00b7
00000010: 4ada 9eb9 99a5 07b8 706c eabc 007c 8939
00000020: 32c7 0fb8 90dd 013b fc18 e438 0489 7d3a
00000030: 653c c839 b353 14b7 5eda b4b8 6f12 9ebb
00000040: 30e8 963b a3d6 b43b 6e0c b8b6 cdf9 dfb6
00000050: 1f14 e039 188f 4739 80d9 5739 9912 af3a
00000060: 8253 7cb9 9b15 663a 4d5e e6b9 e60e 35bb
00000070: b45a b838 4c02 5dba b53d 9438 6405 a3b9
00000080: b74c 56bb d467 1abb ed0e 9338 ef88 a538
00000090: 395c 893a 153e e439 2227 9b3a 9a06 bd37
000000a0: b776 0738 c09e 8239 3eb9 603b 0f5f 8db8
000000b0: 8b7d 1039 f1a4 2cba 2a9d e3b8 f770 6336
000000c0: 315a 373a 1405 c736 652b 1eba 37c3 8c3a
000000d0: 14cf 87b9 238c 3e38 8d12 dab9 2e5a 963a
000000e0: 7461 d4b6 4c65 7abb fc41 42ba 343c 453a
000000f0: 3b94 ce37 c1e4 8eb7 cb08 00b9 648d 10ba
00000100: fece 9237 cb62 1437 bfa9 0dbb 17bf 5037
00000110: 0648 82b8 f3cd 7bba 1544 b8b7 1490 953b
00000120: 4fc6 8cb7 65f3 8ab7 7989 cc37 719c 1abb
00000130: 6176 a6b5 9a56 b7b8 48b2 24b8 1620 b8b6
00000140: 0faa 9b39 fee9 d93a

conv1.lin.weight f4 [82, 10]
-0.1539726 -0.30563608 -0.16246971 0.016041717 1.3080527 -2.2611754 -0.5086242 0.1702973
-0.040774696 0.17763713 -0.008725924 0.16719045 0.36431888 -0.015284615 1.0754867 -1.5245464
-0.078910865 0.6279446 0.009142828 0.19783306 -0.82178783 -0.6389526 -0.656387 -0.017044231
-0.748299 0.23175524 0.13592735 -0.35694858 -0.26667455 -0.37470818 0.55607766 0.6937709
0.37624314 0.3916597 0.9740219 -1.4064827 0.5127048 0.99507105 0.15842234 -0.058649942
0.42319775 0.28165424 0.65350497 0.02018514 -0.91640466 1.9858173 0.6945181 -0.006786162
0.35914886 -0.2075036 0.06741745 0.8418991 0.04147621 -0.3102827 1.4530358 -2.351466
0.29565465 1.0868404 0.007374665 0.040134452 1.554367 0.57204497 1.7751334 0.00085568125
0.9405903 3.2957246 0.5642013 0.17159334 -0.7052721 -0.8102075 0.12558389 -0.34749088
0.12355973 0.015034016 -1.2604253 1.6709107 0.2770048 -0.5059848 0.13289008 -0.15969156
-0.32000187 -0.14986569 0.07968875 0.2370243 -1.1968625 2.126788 -0.23634902 -0.7621363
-0.1714911 -0.14175081 -0.5403903 -0.64052314 -0.8416792 -0.0125628235 -0.362264 -0.6393724
-0.060034733 -0.24374822 -0.25638774 0.05650662 0.5510382 0.9872739 0.18550636 -0.061129563
1.067068 -1.7910991 0.17825727 0.61874044 0.2708465 -0.0442358 -0.52000546 -0.21687436
-0.21992742 0.013092709 1.1694412 -2.4862192 -0.3056901 0.4753439 -0.31030765 0.19361478
0.43805656 0.61081946 0.1978335 -0.0141938515 1.2162951 -0.7194422 -0.22826973 0.6841754
-0.112749636 0.19499376 -0.16284254 -0.280985 -0.46412176 0.015608372 -1.1316295 1.107427
-0.037665065 -0.47502944 -0.07970047 0.038013425 0.47295448 0.39487037 0.025210617 0.018243799
-1.018585 2.4727244 0.2083319 -0.56098014 0.43318745 -0.20182773 0.5142568 0.58962196
0.7662164 -0.007871101 1.0759411 -0.23767023 -0.040423527 0.3648987 -0.23396412 -0.08521421
1.0002902 0.8869463 1.2493567 -0.008555596 -0.32774237 2.5357335 0.6917775 -0.083224684
0.030737385 0.051074483 -0.65532535 -0.71421385 -0.8184643 -0.014960025 0.2879875 -2.2904322
-0.32478192 -0.12163408 -0.082218565 -0.27110335 0.39466044 0.84836924 0.095015764 -0.24952736
1.388624 -2.219633 -0.020767502 1.0908077 0.19989339 0.31086752 0.0020061864 -0.71868956
0.062410556 -0.3693216 -1.0866086 2.0739512 -0.22476523 -0.8956076 -0.20394936 -0.2045454
0.25030044 0.6567643 0.23568264 0.017546864 1.2751713 -2.0183516 0.09958824 0.7080536
0.14752726 -0.008341327 -0.242239 -0.39634693 -0.45564616 -0.021476531 -1.3331114 1.2439159
-0.0397674 -0.57232064 -0.28624335 0.031789042 0.02081476 -0.08038841 -0.4143571 0.017108344
1.0187134 -2.2025046 -0.22870648 0.26327792 -0.43941918 0.24387893 0.66190445 0.45200026
0.7845272 0.015607884 -1.2606924 2.667502 0.47289577 0.13143817 0.053068962 -0.38683614
-0.62923574 -1.0584625 -0.298882 0.014468629 -1.1537398 1.6504111 -0.2945355 -0.85697615
-0.2098061 -0.20917672 0.42287862 0.6015038 0.45545396 -0.011471343 0.9704251 -1.1044325
00000000: feaa 1dbe 557c 9cbe 765e 26be eb69 833c
00000010: 456e a73f 19b7 10c0 3235 02bf 6a62 2e3e
00000020: 5e03 27bd 82e6 353e 2ef7 0ebc f933 2b3e
00000030: 0188 ba3e 526c 7abc 8ca9 893f 5624 c3bf
00000040: 059c a1bd fac0 203f cdcb 153c c094 4a3e
00000050: b060 52bf 6692 23bf fa08 28bf 58a0 8bbc
00000060: 8690 3fbf 3f51 6d3e 8a30 0b3e f7c1 b6be
00000070: 9189 88be c0d9 bfbe 1b5b 0e3f f89a 313f
00000080: f1a2 c03e 9f87 c83e 8059 793f a007 b4bf
00000090: 9f40 033f fabc 7e3f 7739 223e ec3a 70bd
000000a0: 60ad d83e fc34 903e 1a4c 273f 4f5b a53c
000000b0: 7f99 6abf 432f fe3f f0cb 313f 745e debb
000000c0: 5ce2 b73e d37b 54be 2912 8a3d b386 573f
000000d0: f5e2 293d 60dd 9ebe 14fd b93f 6b7e 16c0
000000e0: 0c60 973e 961d 8b3f 2ca7 f13b 0664 243d
000000f0: 7ff5 c63f 8a71 123f 9237 e33f cc4f 603a
00000100: 87ca 703f 27ed 5240 7f6f 103f 2ab6 2f3e
00000110: b68c 34bf c269 4fbf 1099 003e 53ea b1be
00000120: e20c fd3d 3c51 763c 9e55 a1bf 67e0 d53f
00000130: 93d3 8d3e 3888 01bf 5614 083e 2f86 23be
00000140: 49d7 a3be 6476 19be db33 a33d 80b6 723e
00000150: ca32 99bf 4b1d 0840 7a05 72be 5d1b 43bf
00000160: 5d9b 2fbe 2027 11be 0557 0abf 53f9 23bf
00000170: 4a78 57bf 4dd4 4dbc ab7a b9be e9ad 23bf
00000180: fbe6 75bd 2299 79be 4145 83be 7c73 673d
00000190: d710 0d3f fbbd 7c3f 61f5 3d3e fe62 7abd
000001a0: af95 883f bc42 e5bf 1389 363e c665 1e3f
000001b0: 64ac 8a3e 9930 35bd 141f 05bf 5014 5ebe
000001c0: a734 61be cd82 563c 40b0 953f 371e 1fc0
000001d0: 6a83 9cbe 4760 f33e a5e0 9ebe f442 463e
000001e0: f348 e03e aa5e 1c3f dd94 4a3e 548d 68bc
000001f0: 8faf 9b3f 5d2d 38bf 8abf 69be 1e26 2f3f
00000200: 48e9 e6bd 72ac 473e 32c0 26be 44dd 8fbe
00000210: 5ea1 edbe 42ba 7f3c 3cd9 90bf 2bc0 8d3f
00000220: af46 1abd 0f37 f3be 003a a3bd f7b3 1b3d
00000230: 1727 f23e 732c ca3e 7f86 ce3c 0574 953c
00000240: fe60 82bf 1e41 1e40 f554 553e 659c 0fbf
00000250: bfca dd3e eeab 4ebe 55a6 033f 77f1 163f
00000260: c226 443f caf5 00bc 70b8 893f d35f 73be
00000270: 2493 25bd 01d4 ba3e 4a94 6fbe ca84 aebd
00000280: 8209 803f ea0e 633f ecea 9f3f c52c 0cbc
00000290: d9cd a7be 7549 2240 5518 313f b471 aabd
000002a0: f8cc fb3c 7a33 513d 67c3 27bf b8d6 36bf
000002b0: e086 51bf e51a 75bc 1973 933e 7196 12c0
000002c0: d149 a6be 4a1b f9bd 3562 a8bd 0fce 8abe
000002d0: ef10 ca3e ba2e 593f a097 c23d 1a84 7fbe
000002e0: 6ebe b13f 780e 0ec0 9c20 aabc 969f 8b3f
000002f0: dab0 4c3e 072a 9f3e 397a 033b 0afc 37bf
00000300: 36a2 7f3d b917 bdbe fe15 8bbf 9ebb 0440
00000310: db28 66be 8a46 65bf 1ad8 50be 5974 51be
00000320: 6127 803e b521 283f ca56 713e 71be 8f3c
00000330: d038 a33f ac2c 01c0 ebf4 cb3d 0043 353f
00000340: 6311 173e 10aa 08bc 800d 78be fced cabe
00000350: 744a e9be 8def afbc 65a3 aabf a338 9f3f
00000360: 24e3 22bd 9b83 12bf 7d8e 92be 3a35 023d
00000370: b783 aa3c aea2 a4bd 9d26 d4be cc26 8c3c
00000380: 3365 823f d6f5 0cc0 0832 6abe 5dcc 863e
00000390: 8dfb e0be 66bb 793e 9272 293f 946c e73e
000003a0: c6d6 483f 36b8 7f3c 5e5e a1bf 5ab8 2a40
000003b0: 651f f23e ba97 063e d75e 593d 630f c6be
000003c0: 9815 21bf b37b 87bf 1007 99be d40d 6d3c
000003d0: bfad 93bf ac40 d33f 5bcd 96be ca62 5bbf
000003e0: 69d7 56be 6c32 56be 8c83 d83e 27fc 193f
000003f0: 4331 e93e 4df2 3bbc c86d 783f 0b5e 8dbf

bn1.weight f4 [82]
1.0020372 0.9566402 0.9849568 0.9493025 0.9661271 0.9353479 1.254665 0.9000764
0.9466092 1.0161957 1.0081731 1.0301955 0.9101478 0.94764763 0.93679494 1.0064275
1.0814569 0.99884367 0.99332714 0.86801624 0.86742544 0.8795896 0.9433973 1.0222156
1.0008904 0.9621509 0.95697784 0.9926144 0.9549955 0.9581279 0.9045986 0.9376336
1.0098953 1.0525393 1.0256233 0.91942465 1.0365733 0.9470863 1.0060655 1.020711
0.94825673 1.168821 0.91462076 0.9789937 0.88701755 0.96455646 0.947063 0.94684464
0.8350554 0.8887159 0.9721393 0.98893285 0.882223 1.042729 0.9256161 1.084656
0.99510217 0.9950417 0.9196985 1.0071018 0.965797 0.98798853 1.0085036 0.88871956
0.92145467 1.0076592 1.0080278 0.9344927 1.0232449 0.9237137 0.8976006 0.9633294
0.93530905 0.9226756 0.95209426 1.0711771 0.9281683 0.93241876 0.92789423 0.98827946
0.9970273 1.0283839
00000000: c142 803f 5fe6 743f 2126 7c3f 7d05 733f
00000010: 1b54 773f f672 6f3f dd98 a03f 686b 663f
00000020: fb54 723f b312 823f d10b 813f 72dd 833f
00000030: 72ff 683f 0999 723f cbd1 6f3f 9ed2 803f
00000040: 2e6d 8a3f 38b4 7f3f b04a 7e3f 5036 5e3f
00000050: 980f 5e3f c92c 613f 7c82 713f f6d7 823f
00000060: 2d1d 803f 854f 763f 80fc 743f fa1b 7e3f
00000070: 967a 743f df47 753f c693 673f c108 703f
00000080: 4044 813f 9cb9 863f a047 833f 6a5f 6b3f
00000090: 6fae 843f 3f74 723f c1c6 803f a8a6 823f
000000a0: f4c0 723f ed9b 953f 9624 6a3f 559f 7a3f
000000b0: 9513 633f 2ced 763f b972 723f 6964 723f
000000c0: 31c6 553f e382 633f 1fde 783f b42a 7d3f
000000d0: 5ed9 613f 2578 853f 2df5 6c3f 02d6 8a3f
000000e0: 04bf 7e3f 0ebb 7e3f 5c71 6b3f b6e8 803f
000000f0: 793e 773f d1ec 7c3f a516 813f 2083 633f
00000100: 74e4 6b3f fafa 803f 0e07 813f ea3a 6f3f
00000110: b0f9 823f 8078 6c3f 27c9 653f c19c 763f
00000120: 6a70 6f3f 7834 6c3f 73bc 733f 551c 893f
00000130: 709c 6d3f ffb2 6e3f 7a8a 6d3f e2ff 7c3f
00000140: 2e3d 7f3f 15a2 833f

bn1.bias f4 [82]
-0.024786057 0.028507326 -0.06586651 0.043059446 -0.050312135 -0.052045356 -0.040757198 -0.05591988
-0.032638934 0.041710813 -0.079288 -0.027893348 -0.03869803 0.003667263 -0.09142861 0.03715067
-0.0047609583 -0.007123906 -0.086280495 -0.07356732 -0.10431818 -0.22554077 -0.12462998 -0.00045885003
-0.054834053 -0.048020016 -0.034480613 0.011857043 -0.03903371 -0.033531036 0.0006388823 -0.028249761
-0.07088162 -0.084910095 0.025779463 -0.115429364 0.026285594 0.023365447 0.014860653 -0.013094539
-0.0630663 0.13996814 -0.091764376 -0.018579101 -0.13253623 -0.03362397 -0.043357443 -0.03413318
-0.111119814 -0.09105938 -0.015652215 -0.05565001 -0.13873236 -0.07189527 -0.07900027 -0.02103727
-0.061093524 -0.111807406 -0.057241414 -0.032294076 -0.07303379 -0.06577696 -0.04435759 -0.09188611
-0.101509936 -0.14140499 -0.110585935 -0.059175774 -0.044458628 -0.15477762 0.009765124 0.0003174137
-0.07270233 -0.17012806 -0.02802623 0.008294805 -0.027491486 -0.1624875 -0.015446901 -0.08624388
-0.0033808127 0.012645324
00000000: 210c cbbc 3288 e93c 05e5 86bd 1a5f 303d
00000010: 1914 4ebd 832d 55bd 05f1 26bd 3e0c 65bd
00000020: 67b0 05bd f5d8 2a3d bf61 a2bd 9780 e4bc
00000030: d381 1ebd 7756 703b ec3e bbbd 4d2b 183d
00000040: d001 9cbb a86f e9bb d4b3 b0bd 77aa 96bd
00000050: c5a4 d5bd 29f4 66be 013e ffbd cf91 f0b9
00000060: ac99 60bd a3b0 44bd 8b3b 0dbd 0b44 423c
00000070: d0e1 1fbd d757 09bd aa7a 273a 0b6c e7bc
00000080: 622a 91bd 58e5 adbd 742f d33c 3b66 ecbd
00000090: e354 d73c e568 bf3c 197a 733c 7a8a 56bc
000000a0: e728 81bd cf53 0f3e f6ee bbbd 3333 98bc
000000b0: 94b7 07be 4ab9 09bd 9397 31bd 3ccf 0bbd
000000c0: c992 e3bd 577d babd 1339 80bc 44f1 63bd
000000d0: db0f 0ebe d43d 93bd e5ca a1bd 5a56 acbc
000000e0: 343d 7abd 48fb e4bd f975 6abd cb46 04bd
000000f0: bd92 95bd 12b6 86bd 4eb0 35bd c92e bcbd
00000100: 71e4 cfbd 78cc 10be e17a e2bd 4c62 72bd
00000110: 401a 36bd 067e 1ebe e6fd 1f3c 8c6a a639
00000120: f6e4 94bd 0d36 2ebe 4497 e5bc efe6 073c
00000130: d335 e1bc 2063 26be 0015 7dbc a2a0 b0bd
00000140: a090 5dbb 552e 4f3c

bn1.running_mean f4 [82]
73.044 -69.54533 -79.515366 1793.6063 93.91797 -1427.0807 5.729338 69.204666
1085.5894 -59.208515 -286.00623 58.62659 -64.83023 70.6767 84.59008 -35.60511
-37.53176 -70.0471 -1148.7362 -1684.7195 81.56072 -98.64113 77.08725 72.89358
61.909775 -51.993816 64.625275 53.549202 -72.61215 -36.496315 1234.5046 59.191177
-19.25325 -20.856506 1129.3217 -193.79492 -37.73817 -70.14316 -79.94512 1303.8688
886.06696 -30.994432 48.26068 597.31464 -207.3333 49.23843 70.812454 1511.7389
69.27157 1390.3246 37.94105 -67.76021 56.448788 1319.6084 -108.741 -59.850758
-838.65796 -22.791073 89.91718 -40.111565 -1122.6228 1090.7631 -41.508232 82.683784
-1338.0891 -1240.695 -14.258624 -1745.9576 -59.955658 -48.168186 1030.8259 32.84183
-1500.8975 -1243.8419 -474.35913 -18.615662 -1054.2782 -36.045284 -1568.9861 -684.74115
-248.97455 -60.35539
00000000: 8716 9242 3517 8bc2 de07 9fc2 6733 e044
00000010: 00d6 bb42 9562 b2c4 bd56 b740 ca68 8a42
00000020: dcb2 8744 85d5 6cc2 cc00 8fc3 a181 6a42
00000030: 14a9 81c2 785a 8d42 1f2e a942 a26b 0ec2
00000040: 8620 16c2 1d18 8cc2 8f97 8fc4 0697 d2c4
00000050: 171f a342 4248 c5c2 ac2c 9a42 83c9 9142
00000060: 9ca3 7742 abf9 4fc2 2440 8142 6232 5642
00000070: 6c39 91c2 3afc 11c2 2650 9a44 c4c3 6c42
00000080: a806 9ac1 20da a6c1 4b2a 8d44 80cb 41c3
00000090: e3f3 16c2 4c49 8cc2 e7e3 9fc2 cdfb a244
000000a0: 4984 5d44 99f4 f7c1 f00a 4142 2354 1544
000000b0: 5355 4fc3 27f4 4442 fa9f 8d42 a5f7 bc44
000000c0: 0b8b 8a42 63ca ad44 a3c3 1742 3a85 87c2
000000d0: 8fcb 6142 78f3 a444 647b d9c2 2d67 6fc2
000000e0: 1caa 51c4 1e54 b6c1 99d5 b342 3e72 20c2
000000f0: ee53 8cc4 6b58 8844 6e08 26c2 195e a542
00000100: da42 a7c4 3d16 9bc4 5323 64c1 a53e dac4
00000110: 98d2 6fc2 39ac 40c2 6eda 8044 095e 0342
00000120: b89c bbc4 f17a 9bc4 f82d edc3 e0ec 94c1
00000130: e7c8 83c4 5f2e 10c2 8e1f c4c4 6f2f 2bc4
00000140: 7cf9 78c3 eb6b 71c2

bn1.running_var f4 [82]
2602.8604 2362.8264 2979.3596 1.5531976e+06 4157.101 983984.9 15.258877 2295.647
569554.7 1626.8302 39641.05 1698.2793 2040.7882 2454.4397 3413.662 636.2343
744.0024 2297.6843 637802.7 1.3713474e+06 3177.9504 4629.9067 2940.158 2494.4426
1906.7308 1342.3436 1984.2406 1345.9637 2568.2366 595.6147 735948.2 1635.4767
161.70001 184.68745 616148.4 18194.818 734.0812 2344.957 3024.7563 821832.7
379439.97 414.2507 1157.4015 172768.48 20814.096 1126.8652 2482.9304 1.1029206e+06
2354.6157 933611.0 680.97217 2194.9402 1501.6125 840786.9 5673.063 1803.2837
340086.12 234.51924 3843.794 796.85266 608572.44 574876.8 895.3848 3346.121
864906.44 743424.5 110.91235 1.4724238e+06 1778.37 1159.874 513588.47 529.59686
1.0882681e+06 747243.8 108665.85 189.26285 537095.56 593.84375 1.1896209e+06 226574.97
30059.32 1778.9792
00000000: c4ad 2245 39ad 1345 c135 3a45 6d99 bd49
00000010: cfe8 8145 0e3b 7049 5c24 7441 5a7a 0f45
00000020: 2b0d 0b49 915a cb44 0dd9 1a47 f048 d444
00000030: 3919 ff44 0967 1945 985a 5545 ff0e 1f44
00000040: 2700 3a44 f39a 0f45 abb6 1b49 9b66 a749
00000050: 359f 4645 41af 9045 87c2 3745 15e7 1b45
00000060: 6357 ee44 ffca a744 b307 f844 d73e a844
00000070: c983 2045 57e7 1444 c3ac 3349 416f cc44
00000080: 34b3 2143 fdaf 3843 466d 1649 a325 8e46
00000090: 3285 3744 508f 1245 1a0c 3d45 8ba4 4849
000000a0: ff45 b948 1720 cf43 d9ac 9044 1fb8 2848
000000b0: 319c a246 b0db 8c44 e32e 1b45 45a2 8649
000000c0: da29 1345 b0ee 6349 383e 2a44 0b2f 0945
000000d0: 9ab3 bb44 2e45 4d49 8148 b145 1469 e144
000000e0: c40e a648 ed84 6a43 b43c 7045 9236 4744
000000f0: c793 1449 cd59 0c49 a1d8 5f44 f021 5145
00000100: a728 5349 0880 3549 20d3 dd42 3ebd b349
00000110: d74b de44 f8fb 9044 8fc6 fa48 3366 0444
00000120: 61d8 8449 bd6e 3649 ed3c d447 4a43 3d43
00000130: 7920 0349 0076 1444 a737 9149 be43 5d48
00000140: a4d6 ea46 565f de44

conv2.att_src f4 [1, 1, 41]
-0.27636173 1.4299946 -1.4516034 1.0641248 0.011427249 1.2570745 0.4998884 0.6706343
1.0415956 0.4587436 1.2120867 1.1526585 1.0465575 0.93806386 1.1389607 0.55805373
0.047718216 -0.28018323 0.44874328 -0.6778964 1.3301289 0.9842586 0.5984427 -0.5048641
0.6385623 0.9633878 0.89923155 -0.3934184 0.79259264 -0.46485785 -0.4262252 -0.39018476
-0.37953395 0.9224734 1.4271182 0.13216588 0.7600692 0.43631762 1.0280833 1.5151072
0.76462805
00000000: 497f 8dbe 100a b73f 24ce b9bf 3e35 883f
00000010: 5b39 3b3c d1e7 a03f 5ff1 ff3e b1ae 2b3f
00000020: 0153 853f 71e0 ea3e a825 9b3f 508a 933f
00000030: 99f5 853f f424 703f 77c9 913f 9cdc 0e3f
00000040: 2d74 433d 2d74 8fbe aec1 e53e 9e8a 2dbf
00000050: aa41 aa3f 5ff8 7b3f 8a33 193f c63e 01bf
00000060: d278 233f 95a0 763f 0a34 663f 236e c9be
00000070: 5ae7 4a3f d901 eebe 303a dabe 4cc6 c7be
00000080: 4652 c2be 3727 6c3f cfab b63f 7e56 073e
00000090: e593 423f 0665 df3e 3c98 833f 08ef c13f
000000a0: aabe 433f

conv2.att_dst f4 [1, 1, 41]
0.24395093 0.18248329 0.05218794 0.2732523 0.10329046 0.113468096 -0.3727239 -0.27942273
-0.21288101 0.4095771 -0.266963 -0.048584417 -0.27787754 0.5615303 -0.26005486 -0.20892577
-0.5496022 -0.57329535 -0.13496351 -0.2566839 0.06892495 -0.07492389 -0.26364547 -0.081066415
0.019171368 -0.2179516 -0.33450007 0.10580729 -0.05158979 -0.32740805 -0.047532424 0.21310993
0.097252354 -0.15752016 -0.101525284 0.14107583 -0.04162322 0.20872253 0.41600427 -0.1288242
0.25335822
00000000: 46ce 793e e6dc 3a3e 05c3 553d bae7 8b3e
00000010: f389 d33d f661 e83d abd5 bebe 7f10 8fbe
00000020: 7bfd 59be 17b4 d13e 60af 88be 7400 47bd
00000030: f745 8ebe 73c0 0f3f e925 85be a3f0 55be
00000040: bbb2 0cbf 7cc3 12bf e033 0abe 126c 83be
00000050: 8628 8d3d b271 99bd 8afc 86be 2606 a6bd
00000060: 460d 9d3c b42e 5fbe 9843 abbe 7eb1 d83d
00000070: d14f 53bd 07a2 a7be 5cb1 42bd 7d39 5a3e
00000080: 3e2c c73d f74c 21be 7dec cfbd 2f76 103e
00000090: 1c7d 2abd 5cbb 553e 83fe d43e 7eea 03be
000000a0: 2bb8 813e

conv2.bias f4 [41]
-0.0042955778 0.0067426013 0.052125845 -0.012355967 0.0165133 -0.01550135 -0.009829545 0.009835992
-0.018017827 0.0023404092 0.0014064093 -0.006647637 -0.05527172 -0.06607873 0.010963327 0.037541926
0.007282359 0.028960826 0.0039940416 0.022700017 -0.04932443 0.0007729453 -0.0049340134 -0.0028204685
-0.008025172 -0.003664691 0.042167407 -0.0061283587 -0.0018495598 -0.030550966 0.030059597 0.0184243
-0.011255558 -0.04590569 -0.0039503276 0.005803194 -0.0062125493 0.0090815155 0.050340746 -0.022757512
0.01103507
00000000: ebc1 8cbb 0af1 dc3b e981 553d af70 4abc
00000010: e646 873c 60f9 7dbc 1a0c 21bc 2427 213c
00000020: 1f9a 93bc 8d61 193b 4457 b83a 6cd4 d9bb
00000030: 9964 62bd 4954 87bd 879f 333c 90c5 193d
00000040: dba0 ee3b 413f ed3c 73e0 823b 63f5 b93c
00000050: 6a08 4abd 7b9f 4a3a 81ad a1bb 9cd7 38bb
00000060: 037c 03bc 502b 70bb bbb7 2c3d 66d0 c8bb
00000070: ee6c f2ba 0546 fabc 8b3f f63c 8fee 963c
00000080: 3b69 38bc 9b07 3cbd c071 81bb b828 be3b
00000090: a492 cbbb a3ca 143c 1932 4e3d f66d babc
000000a0: 70cc 343c

conv2.lin.weight f4 [41, 82]
0.21520293 -0.14606611 -0.17944089 -0.11494616 -0.026809666 -0.017468618 -0.20813617 0.06136518
0.16901016 -0.08391091 0.26545888 -0.18562919 -0.01632107 -0.05472175 -0.07632893 0.028845347
0.19238973 0.15578136 0.010837515 0.20062187 -0.129246 0.00868057 0.064304665 0.0041436055
-0.18303452 -0.08248823 0.15322028 0.09931786 0.007748689 -0.1754232 -0.07302739 -0.08779228
0.0379645 -0.0964555 0.14474545 0.056083567 0.04647607 -0.17251185 -0.040066756 -0.18287511
0.17294455 -0.18864453 0.25208986 -0.009734765 0.12974335 -0.014264779 -0.1461306 -0.075852774
-0.14888115 -0.15023567 0.1355379 0.23906928 -0.011086323 0.1169154 -0.12395966 0.261372
0.34940073 -0.07802038 0.1684934 0.06344333 0.3328802 -0.19174024 0.097955406 0.065668084
-0.038911503 0.31953076 0.038393963 -0.058598407 0.2270495 0.02175822 0.22994877 0.00840958
0.10396957 0.067578755 0.069624506 -0.05202577 0.034613926 0.060306508 0.0869194 0.02324616
0.13161862 0.20778869 -0.1873694 0.021017244 0.04608391 0.09194277 0.050962508 -0.0005108334
0.35738423 -0.039484605 -0.094550796 -0.20724723 -0.018843107 -0.15792142 0.0830684 -0.10947749
-0.08501084 0.07351052 0.20412548 -0.10952419 -0.04348719 0.21251272 0.026324442 0.055451732
0.10931451 -0.0041073207 -0.06652491 0.0092126075 -0.019697038 -0.1273257 0.24000263 0.21915014
0.14834687 0.0926989 -0.21004473 -0.16778651 -0.17463991 0.009726934 -0.1010996 0.09599037
-0.16951479 -0.076903634 0.029271534 -0.23930632 -0.16617343 -0.17359872 0.011854199 0.19463585
0.062223002 -0.14544255 -0.13992968 0.17452806 0.25850773 -0.034681384 0.04022797 -0.043568827
-0.14572673 -0.065722615 -0.06402333 -0.028909313 -0.01271117 0.015199193 -0.008735949 0.08723893
-0.08377537 -0.15318528 -0.123047285 0.1533092 -0.057896223 0.15296057 0.18402602 0.073636495
0.1014003 0.07075799 -0.09566395 -0.16755153 0.2068349 -0.0716378 0.10885325 -0.14436305
-0.14339603 0.17943169 0.21030965 0.24582581 0.031811006 -0.10468763 -0.033250134 -0.06475613
0.10951439 0.21980155 -0.25821656 0.07719694 0.012935634 0.15605393 -0.16531655 -0.059488565
0.029257564 0.23139276 -0.16375357 -0.20760615 -0.17784137 0.16994487 -0.06722168 -0.06006745
-0.14763722 0.019608818 0.19042467 -0.012805263 -0.13803454 -0.06961974 0.056376193 -0.017766856
0.047954094 0.105988674 -0.15008676 -0.17058352 0.22585872 0.11336874 -0.21673489 -0.09632368
-0.09029098 0.008608957 -0.005963831 -0.1435792 -0.17499775 0.53324926 0.16602945 -0.20001246
-0.11927459 0.07620232 0.10935785 0.1347074 -0.040316634 0.09332805 -0.05887564 0.05162122
-0.17934585 0.17116433 -0.17509194 -0.18414426 -0.06244624 0.20509449 -0.0114360405 0.049291838
-0.14224999 -0.147884 -0.28837797 -0.13539459 -0.08817589 -0.18696384 -0.22772624 -0.17569418
0.05796311 -0.077473104 -0.2477301 -0.05704434 0.016390722 0.14067608 0.04884533 -0.092992336
0.011317181 -0.1156217 0.06783382 0.039962493 -0.15491682 -0.10622021 -0.0016074303 -0.20947737
-0.25404215 0.06376986 0.23299694 0.04182288 0.25781992 -0.19282599 0.17273831 -0.1898835
00000000: 285e 5c3e 5b92 15be 5abf 37be e468 ebbd
00000010: f29f dbbc 591a 8fbc a621 55be 0e5a 7b3d
00000020: 0011 2d3e 7cd9 abbd 3aea 873e 9415 3ebe
00000030: c4b3 85bc ea23 60bd 5852 9cbd 144d ec3c
00000040: d001 453e 2685 1f3e d58f 313c d26f 4d3e
00000050: 1059 04be f338 0e3c 2ab2 833d 15c7 873b
00000060: 676d 3bbe 97ef a8bd c7e5 1c3e 2a67 cb3d
00000070: b7e8 fd3b 24a2 33be 628f 95bd 70cc b3bd
00000080: aa80 1b3d 768a c5bd 2738 143e e2b7 653d
00000090: b15d 3e3d f2a6 30be 0a1d 24bd 9d43 3bbe
000000a0: 6018 313e 082c 41be ec11 813e 907e 1fbc
000000b0: 71db 043e d2b6 69bc 43a3 15be b358 9bbd
000000c0: 4d74 18be 61d7 19be 72ca 0a3e 94ce 743e
000000d0: 69a3 35bc 5771 ef3d 90de fdbd 8dd2 853e
000000e0: a7e4 b23e 26c9 9fbd 8989 2c3e 94ee 813d
000000f0: 466f aa3e 8e57 44be d89c c83d fd7c 863d
00000100: ab61 1fbd 8999 a33e fd42 1d3d e204 70bd
00000110: aa7f 683e 4b3e b23c b177 6b3e 56c8 093c
00000120: ffed d43d bb66 8a3d 4b97 8e3d f918 55bd
00000130: 55c7 0d3d f503 773d cc02 b23d bb6e be3c
00000140: 08c7 063e 8fc6 543e c4dd 3fbe 5b2c ac3c
00000150: 7bc2 3c3d 7e4c bc3d 10be 503d 73e9 05ba
00000160: 11fb b63e 9cba 21bd d9a3 c1bd 9e38 54be
00000170: dc5c 9abc 27b6 21be c41f aa3d bc35 e0bd
00000180: 2a1a aebd af8c 963d 4506 513e 384e e0bd
00000190: a01f 32bd ef9c 593e 5ba6 d73c 5b21 633d
000001a0: 49e0 df3d b496 86bb 363e 88bd 7af0 163c
000001b0: af5b a1bc ab61 02be 40c3 753e e568 603e
000001c0: 3ee8 173e ecd8 bd3d f715 57be 3ad0 2bbe
000001d0: ced4 32be b85d 1f3c 4f0d cfbd 9996 c43d
000001e0: 4995 2dbe a77f 9dbd dbca ef3c b70c 75be
000001f0: 5e29 2abe ddc3 31be 1d38 423c 9f4e 473e
00000200: 8cdd 7e3d e4ee 14be ba49 0fbe 7cb7 323e
00000210: 205b 843e 110e 0ebd 15c6 243d 3a75 32bd
00000220: 6339 15be 9499 86bd aa1e 83bd 39d3 ecbc
00000230: 8342 50bc 0906 793c 3a21 0fbc 53aa b23d
00000240: 6c92 abbd 9adc 1cbe 3700 fcbd 16fd 1c3e
00000250: 9724 6dbd b2a1 1c3e 5171 3c3e bbce 963d
00000260: f6aa cf3d 91e9 903d 76eb c3bd a192 2bbe
00000270: 87cc 533e d7b6 92bd 74ee de3d e8d3 13be
00000280: 69d6 12be f1bc 373e 6a5b 573e c3b9 7b3e
00000290: 424c 023d 7866 d6bd 4b31 08bd dd9e 84bd
000002a0: 1549 e03d a813 613e f634 84be 6e19 9e3d
000002b0: fbef 533c 9acc 1f3e be48 29be 48aa 73bd
000002c0: 8fad ef3c 39f2 6c3e 04af 27be b596 54be
000002d0: 0c1c 36be 0706 2e3e 85ab 89bd 4909 76bd
000002e0: 362e 17be aca2 a03c affe 423e 2acd 51bc
000002f0: ed58 0dbe cb94 8ebd b9ea 663d cc8b 91bc
00000300: 836b 443d 9710 d93d 58b0 19be 72ad 2ebe
00000310: 8247 673e df2d e83d c0ef 5dbe 5945 c5bd
00000320: 7aea b8bd 950c 0d3c 3e6c c3bb 6d06 13be
00000330: 9c32 33be 0683 083f a003 2a3e 11d0 4cbe
00000340: 3c46 f4bd f60f 9c3d 02f7 df3d bdf0 093e
00000350: 0e23 25bd c722 bf3d 9527 71bd c670 533d
00000360: 70a6 37be b445 2f3e 4d4b 33be 5090 3cbe
00000370: a1c7 7fbd 4a04 523e 3b5e 3bbc 3de6 493d
00000380: fba9 11be e76e 17be 47a6 93be e1a4 0abe
00000390: 9095 b4bd 7373 3fbe 1131 69be 2de9 33be
000003a0: ba6a 6d3d 38aa 9ebd f6ac 7dbe 53a7 69bd
000003b0: d645 863c 640d 103e 0a12 483d c472 bebd
000003c0: b36b 393c 12cb ecbd 75ec 8a3d b6af 233d
000003d0: 84a2 1ebe fb89 d9bd 69b0 d2ba 3c81 56be
000003e0: d011 82be c699 823d c096 6e3e 784e 2b3d
000003f0: f900 843e 2d74 45be 50e2 303e d270 42be

bn2.weight f4 [41]
1.0544068 1.201909 1.191706 0.9911125 0.9666825 1.1478201 1.1077753 1.0317557
1.3466932 0.97719175 1.270943 1.2339358 1.3203878 1.0635444 1.2355931 1.1238166
1.0884043 1.0662901 1.1807967 0.970022 1.2609497 1.2263623 1.168679 1.1122642
0.9466967 1.3121886 1.1143129 1.1117884 1.1719826 1.1333708 1.1822278 0.9802584
1.2803466 1.1183343 1.1826395 1.0613658 1.2137967 0.9569148 1.3038076 1.1061764
1.1871036
00000000: cdf6 863f 27d8 993f d289 983f 8cb9 7d3f
00000010: 8178 773f c5eb 923f 95cb 8d3f 9210 843f
00000020: 7160 ac3f 3d29 7a3f 43ae a23f 9cf1 9d3f
00000030: 7802 a93f 3922 883f ea27 9e3f 39d9 8f3f
00000040: d550 8b3f 327c 883f 5924 973f 5d53 783f
00000050: cd66 a13f 71f9 9c3f 4697 953f ac5e 8e3f
00000060: b75a 723f ccf5 a73f cea1 8e3f 154f 8e3f
00000070: 8703 963f 4b12 913f 3e53 973f 37f2 7a3f
00000080: 66e2 a33f 9425 8f3f bb60 973f d6da 873f
00000090: b15d 9b3f 5ef8 743f 2be3 a63f 3097 8d3f
000000a0: 03f3 973f

bn2.bias f4 [41]
0.04493164 0.051809244 0.033972196 -0.012501708 -0.0045776335 0.07833545 0.06829162 0.10801238
0.17644285 0.0424573 0.14347193 0.14290091 0.15122023 0.040293705 0.15298446 0.10246944
0.026070442 -0.05434593 0.02110169 -0.11226269 0.08383295 0.06004542 0.10220649 0.14619923
-0.008111033 0.17600222 0.08731906 0.10105014 0.061880738 0.018493647 0.10798041 -0.042018782
0.18422693 0.044884536 0.0033529093 0.045358952 0.11918715 -0.15078196 0.10891439 0.036318082
0.056565568
00000000: 3d0a 383d ee35 543d 6e26 0b3d f7d3 4cbc
00000010: f9ff 95bb 566e a03d 7adc 8b3d 9835 dd3d
00000020: 6fad 343e b5e7 2d3d 4eea 123e 9e54 123e
00000030: 7ad9 1a3e 030b 253d f5a7 1c3e 7fdb d13d
00000040: ae91 d53c d799 5ebd 74dd ac3c fbe9 e5bd
00000050: 9cb0 ab3d 30f2 753d a351 d13d 40b5 153e
00000060: 23e4 04bc ed39 343e 56d4 b23d 60f3 ce3d
00000070: a876 7d3d fd7f 973c d524 dd3d e31b 2cbd
00000080: fca5 3c3e d9d8 373d 7cbc 5b3b 4fca 393d
00000090: 6418 f43d 9666 1abe 820e df3d 45c2 143d
000000a0: 4cb1 673d

bn2.running_mean f4 [41]
0.84827465 0.11212762 -0.84958214 0.1185145 -0.6574033 0.17877394 0.3138214 0.008800914
-0.006899707 -1.5067817 0.011989983 0.0059376075 0.07607689 0.39306477 0.069962785 0.14177419
-1.1520374 -1.5707579 1.7412118 0.20581292 0.03560474 0.005569918 0.19537058 -1.3775353
1.6290274 0.12139382 0.33011147 0.1441626 0.32487223 -1.0513673 0.33633193 0.96493745
-0.07292018 0.27732807 -0.10670624 0.44117987 0.0009604009 1.5944563 0.11368296 0.15310317
1.2123648
00000000: 8728 593f 2aa3 e53d 377e 59bf bbb7 f23d
00000010: 954b 28bf 8410 373e 33ad a03e b531 103c
00000020: f016 e2bb 39de c0bf a271 443c 4390 c23b
00000030: 33ce 9b3d c93f c93e a648 8f3d 412d 113e
00000040: f675 93bf 980e c9bf 07e0 de3f 9fc0 523e
00000050: 47d6 113d dc83 b63b 3a0f 483e 1453 b0bf
00000060: f883 d03f 539d f83d 5f04 a93e 5c9f 133e
00000070: a755 a63e 3493 86bf b333 ac3e 2406 773f
00000080: 2d57 95bd f2fd 8d3e cd88 dabd 54e2 e13e
00000090: 6ac3 7b3a 2517 cc3f 9dd2 e83d 14c7 1c3e
000000a0: c52e 9b3f

bn2.running_var f4 [41]
1.1812508 0.10245436 0.5008671 0.14613308 1.9142064 0.07769584 0.18057565 0.07172673
0.12763563 3.3034573 0.110800385 0.08057454 0.13150354 1.1927686 0.107743956 0.14375263
1.2495731 2.3794022 4.4290733 1.3610083 0.1267892 0.10838536 0.19246523 1.489613
0.78034186 0.3218981 1.2685329 0.31728256 0.47877547 0.6833946 0.24736461 0.38187933
0.18546009 0.23032196 0.13662146 0.6719439 0.12664877 1.758738 0.13624421 0.3102089
1.9879668
00000000: 3a33 973f 97d3 d13d d438 003f e9a3 153e
00000010: b704 f53f ff1e 9f3d d3e8 383e 77e5 923d
00000020: eab2 023e d86b 5340 50eb e23d 4404 a53d
00000030: dda8 063e a4ac 983f dda8 dc3d e433 133e
00000040: 03f2 9f3f 2048 1840 f8ba 8d40 8535 ae3f
00000050: 07d5 013e 25f9 dd3d 9b15 453e a4ab be3f
00000060: 7cc4 473f d4cf a43e 495f a23f dc72 a23e
00000070: 0f22 f53e f3f2 2e3f 264d 7d3e b085 c33e
00000080: 40e9 3d3e 85d9 6b3e 7fe6 0b3e 8404 2c3f
00000090: 37b0 013e 541e e13f 9a83 0b3e b3d3 9e3e
000000a0: b275 fe3f

fc.weight f4 [2, 41]
-0.07934105 -0.117532305 0.23751134 -0.027996525 0.07601151 -0.165053 -0.12423392 -0.17448547
-0.40597883 0.09446489 -0.047673624 -0.24629511 -0.32730797 -0.03400924 -0.25278747 0.23867463
0.0581787 0.21288331 -0.23821767 -0.044802047 -0.23974028 -0.27304012 -0.14960486 -0.031256925
0.06211507 -0.3819151 -0.24558751 -0.07282716 -0.26311117 0.16802537 -0.1308281 0.024408063
0.17540891 -0.10919252 -0.13245651 -0.15244141 -0.27232435 -0.022311501 -0.24678929 -0.11200846
-0.18342397 0.10612011 0.27577317 -0.17876346 0.03688906 -0.073110424 0.122596055 0.07863121
-0.09075579 0.40889615 -0.020339457 0.3044853 0.22532271 0.20220104 0.21434276 0.24270858
-0.11743154 -0.23306243 -0.10560267 0.18498033 -0.1352156 0.30893752 0.13745154 0.17016937
-0.22793327 -0.070809975 0.28716633 0.16103895 0.10320863 0.055524442 -0.24120708 0.1907336
-0.051302586 -0.35585326 0.17806672 0.26325947 0.009773758 0.27902818 0.06976275 0.291514
0.14120142 0.27741113
00000000: 8f7d a2bd c7b4 f0bd 2c36 733e f858 e5bc
00000010: ecab 9b3d a703 29be 5a6e febd 52ac 32be
00000020: 75dc cfbe cf76 c13d 6b45 43bd c934 7cbe
00000030: e994 a7be 464d 0bbd 5c6d 81be 1f67 743e
00000040: ca4c 6e3d 15fe 593e 55ef 73be 5a82 37bd
00000050: 7a7e 75be eacb 8bbe 0432 19be 4307 00bd
00000060: 5f6c 7e3d 608a c3be 4b7b 7bbe 6826 95bd
00000070: 82b6 86be d80e 2c3e cdf7 05be 6bf3 c73c
00000080: 659e 333e 54a0 dfbd aea2 07be 9a19 1cbe
00000090: 196e 8bbe 9cc6 b6bc 55b6 7cbe b164 e5bd
000000a0: 7ed3 3bbe 8055 d93d 2432 8d3e c50d 37be
000000b0: fc18 173d ebba 95bd a413 fb3d 6609 a13d
000000c0: 2cde b9bd d65a d13e ef9e a6bc 7fe5 9b3e
000000d0: ffba 663e ca0d 4f3e ab7c 5b3e 9988 783e
000000e0: f27f f0bd eba7 6ebe 3646 d8bd 7c6b 3d3e
000000f0: f575 0abe 0f2d 9e3e 19c0 0c3e e140 2e3e
00000100: 5767 69be d204 91bd 7707 933e 65e7 243e
00000110: 0c5f d33d 996d 633d fdfe 76be ab4f 433e
00000120: a922 52bd 6632 b6be 1f57 363e f2c9 863e
00000130: 1d22 203c c8dc 8e3e c6df 8e3d 5341 953e
00000140: 1b97 103e d508 8e3e

fc.bias f4 [2]
0.13594487 -0.033634134
00000000: 2235 0b3e f2c3 09bd
