models/booster/3-2.pth (torch, 50042 bytes, 18 tensors)

conv1.att_src f4 [1, 1, 128]
000000 31 8f 4d 3e 31 d7 d4 bd 56 ec 27 be fb f8 17 be
       0.20074154 -0.10392607 -0.16398749 -0.14841072
000010 10 61 9c 3e 11 90 dc bd 56 a8 4b bf 3a 1a e3 be
       0.30542803 -0.10769666 -0.79553735 -0.44355947
000020 3b 0c 57 be ec 2d f1 3d 16 6b bd 3d 29 94 38 3e
       -0.2100076 0.11776337 0.09248941 0.18025269
000030 a3 64 33 be 01 03 2a 3e 9e e7 63 be 11 26 08 be
       -0.17518859 0.16602708 -0.22256324 -0.13295771
000040 94 31 61 3d a5 a7 81 be 9a 25 b5 3d 0e d7 66 3e
       0.054978922 -0.25323215 0.088450626 0.22542974
000050 5b 32 26 be 39 b8 18 3f 7d 16 ed bd 46 5c 4f 3c
       -0.16230147 0.596561 -0.11576555 0.012656277
000060 60 9f 59 3e 8c 12 32 be b2 f2 02 bc e9 d7 12 3e
       0.21252203 -0.17389888 -0.007992433 0.14340176
000070 e5 e8 29 be 9d 82 5e be 43 b8 6c 3e 92 fd 38 3e
       -0.16592748 -0.21729513 0.23117165 0.1806548
000080 ae 4e 48 be fb 6c 68 3d fd e6 b7 bb 3c 3a d4 3e
       -0.19561264 0.056744557 -0.0056122527 0.4145068
000090 d5 2f b1 bd be ff 98 be d7 9e 5a bf 34 d1 bd be
       -0.08651701 -0.29882616 -0.8539862 -0.37073672
0000a0 7e 22 3e 3e a3 35 57 3d 2a d5 4c bf 40 d0 82 3d
       0.18567845 0.052541386 -0.8001276 0.06387377
0000b0 fe 29 e0 3c 6d 3d 3f bd 9d b1 91 3d e5 8b 34 3e
       0.027363773 -0.04668944 0.07113955 0.1763149
0000c0 91 bb 6c 3e 16 4c 5f bc 8d 50 11 3d d8 1a 1f 3f
       0.23118426 -0.01362898 0.03547721 0.62150335
0000d0 74 bc ca be 5e b4 29 3e 24 b8 12 be a8 7a 6f bd
       -0.39596903 0.16572711 -0.14328057 -0.058466583
0000e0 17 14 cb 3d c2 60 04 be a6 55 b7 3d ab 33 fb 3d
       0.09915941 -0.12927535 0.08951883 0.12265714
0000f0 bd 00 95 3c 04 1f 4b be de 23 25 3e 37 a0 1d 3e
       0.018188829 -0.1983605 0.16126963 0.15393148
000100 08 75 d9 3d bd 43 bb 3e 72 fa db 3d 63 ed 36 be
       0.10618025 0.36575118 0.10741128 -0.17863993
000110 4f d1 56 be a0 25 97 3e 11 4e c4 3c 34 70 53 be
       -0.20978282 0.29520893 0.023963006 -0.20648271
000120 6c ae 72 bd b9 19 bf 3e 9e a8 17 3e 9c 5a 82 3e
       -0.059248373 0.37324312 0.14810416 0.25459754
000130 7e 36 b4 3e aa 56 19 3f c4 d9 77 be 96 40 30 3f
       0.35197824 0.59897864 -0.24204165 0.6884855
000140 ac 62 20 bd 7a 2f 83 bd 3d c0 59 be 96 01 f9 3c
       -0.0391566 -0.0640554 -0.2126474 0.030396264
000150 d7 ee 83 3d 92 16 21 3d 06 89 02 3e 12 ec 76 be
       0.064420395 0.039328165 0.12747583 -0.24113491
000160 42 07 ce 3e 34 5b 75 3e 3b 38 26 3f d4 73 2b 3c
       0.40239912 0.23960572 0.6492955 0.010464627
000170 04 40 17 3e 34 b5 05 bc c6 ef 70 3d 98 03 05 be
       0.14770514 -0.008160878 0.058822416 -0.12989652
000180 90 8a ba 3d 83 dc c7 bd 14 91 58 3e 57 b3 22 be
       0.0910846 -0.09758856 0.21149093 -0.15888725
000190 1d 0b 6c be 90 06 69 be 41 2e 99 be 2d df 11 bd
       -0.23051114 -0.2275641 -0.299181 -0.035613228
0001a0 d2 de 7e be 41 f8 6d be 7a 10 4d 3e b3 3e a8 bd
       -0.24889687 -0.23239233 0.20025817 -0.08215084
0001b0 f6 c2 5b 3f 9f 13 ec 3d da 5d 76 3f 59 07 e1 bc
       0.8584436 0.1152718 0.96236956 -0.027469324
0001c0 b4 af b0 bd d7 fb d6 3e 9e 86 c0 bd 05 3d 45 be
       -0.08627263 0.41989014 -0.09400676 -0.19261558
0001d0 97 51 ac bd 40 66 11 be 6c 7b 5f 3f 1e 12 5a bd
       -0.084139995 -0.14199162 0.872977 -0.053239934
0001e0 3c 06 b3 be 25 69 d1 be 0e 44 a4 3e 60 cb 3e be
       -0.34965694 -0.4090053 0.32083172 -0.18632269
0001f0 9a 8a 0c bd d9 01 20 3e 0d e8 68 3e 2c ed 25 be
       -0.03431187 0.15625705 0.2274477 -0.16203755

conv1.att_dst f4 [1, 1, 128]
000000 d9 67 33 3e 14 3d 7c 3d 9c e8 26 3e f8 f0 40 be
       0.17520083 0.061581686 0.16299671 -0.18841922
000010 e5 23 72 3e 4b 1a ac bd e2 66 17 3c 4b 2b eb bd
       0.23646505 -0.084034525 0.009240838 -0.11482867
000020 9e 52 d2 bd a0 75 6c 3e 12 a5 55 3b ea b4 12 3e
       -0.10269664 0.23091745 0.003259961 0.14326826
000030 a0 2e 9a 3d 12 f6 e2 3d a8 7e 20 3d 90 58 05 bc
       0.07528424 0.110820904 0.03918329 -0.008138791
000040 bf 22 fc 3d 4a f0 c3 bd 84 06 21 be b4 ec b9 3d
       0.12311315 -0.09567316 -0.15725142 0.09078351
000050 3b 03 3a be d9 8a cf bb 08 0e 96 bc 1b 9d 19 3e
       -0.18165295 -0.0063336906 -0.018317237 0.15001337
000060 33 1c 54 bd 4b 5e 05 3e dc 68 77 3c 45 0c e7 3d
       -0.051784705 0.13024251 0.015100684 0.11281637
000070 5b 46 e4 3c 24 1f 57 3e 66 93 d8 bd 87 64 6b 3e
       0.02786558 0.21007973 -0.10574989 0.22987567
000080 40 e9 6d 3e 39 ec c7 bd a5 86 eb bd d7 f3 36 3d
       0.23233509 -0.09761853 -0.11500291 0.044666138
000090 76 82 1a 3e cc 94 4c 3e 96 1e 1f 3e 8f c9 93 bb
       0.1508883 0.19978637 0.15539011 -0.0045101116
0000a0 c5 91 74 3e aa f5 57 3d 41 1b 49 3e 54 26 24 be
       0.23883732 0.052724518 0.19639303 -0.16030246
0000b0 a8 98 83 bd 25 84 f3 3d 27 37 9b 3b ec 5f 01 3e
       -0.06425601 0.11890439 0.0047367993 0.12634248
0000c0 5b e0 79 bc 2f 04 bb bd 5c a2 59 3e 4a a2 d2 bd
       -0.015251244 -0.09131657 0.21253341 -0.102848604
0000d0 b4 81 2e 3e d9 96 18 3e 32 c6 62 bc 93 9b 28 be
       0.17041665 0.14901294 -0.013841199 -0.16465597
0000e0 e6 c0 a0 3d 9b 12 4d be 73 ce ca bb 53 5c 36 3b
       0.078492925 -0.20026629 -0.0061891614 0.0027826026
0000f0 58 4f 48 be 35 d4 39 bd 93 40 4c be 6a d2 0a bc
       -0.19561517 -0.045368392 -0.19946508 -0.008473018
000100 5e fd 2c be 14 6e 8e bc 26 e0 75 3e 4f c0 11 bd
       -0.16893527 -0.017386474 0.24011287 -0.03558379
000110 c1 5f 48 be 0d 9f 5f be ae c3 dd 3d 27 62 ad 3d
       -0.19567777 -0.21838017 0.108283386 0.08465987
000120 ea 3e f1 3d 13 67 c7 bd 57 a2 47 be b6 b6 ed 3d
       0.11779578 -0.09736457 -0.19495521 0.11607115
000130 04 04 c5 bd 41 3a bb 3d ce 02 89 be 56 d9 32 be
       -0.096199065 0.091419704 -0.26759952 -0.1746572
000140 56 71 1d be 42 0f 93 3d 94 e3 7a be 70 5d b5 bb
       -0.15375265 0.071806446 -0.24500877 -0.0055348203
000150 ab 82 00 be 7c c0 19 be 08 04 c7 bc 67 e2 83 bd
       -0.12549846 -0.15014833 -0.024293914 -0.06439667
000160 29 00 2d 3d c9 ba 63 bd 7c 8f 83 bd 99 2c 96 3e
       0.04223648 -0.055598054 -0.06423852 0.293309
000170 91 e1 24 3d 52 e9 5a 3e b9 ca 2f be ac 2d 90 3c
       0.04025418 0.21378067 -0.17167176 0.017599903
000180 ef 3a 57 3e 91 52 09 be 65 ac 82 bd a9 d9 26 be
       0.21018575 -0.13410403 -0.06380538 -0.16293968
000190 80 88 ab 3d 54 5f 9e 3d e1 82 46 3e 26 f3 1a bd
       0.08375645 0.07733026 0.19385864 -0.03782954
0001a0 6b 00 85 3d 5f d8 14 3e 3d 5d 2c be 5d f1 95 3a
       0.0649422 0.14535664 -0.16832443 0.001143973
0001b0 a6 e8 18 be ae 4e d9 3d bf 66 0c be fd 82 4d be
       -0.14932498 0.1061071 -0.1371107 -0.200695
0001c0 53 3e a7 3d 0b 3e 49 3e 86 a1 82 3d e4 f8 ae bd
       0.08166184 0.19652574 0.063784644 -0.08543566
0001d0 20 10 55 3d 80 be 9a bd 5e ff 41 3e 0f fa 18 be
       0.05201733 -0.07555866 0.18945071 -0.1493914
0001e0 bb 86 8f bd 9d ee 51 3c 58 de df 3c f1 e6 1b be
       -0.0700812 0.0128132375 0.027327701 -0.15224816
0001f0 56 87 88 3c 6f d1 5a bd 97 51 3e bd 98 3d 88 bd
       0.016666096 -0.053422388 -0.04646453 -0.06652373

conv1.bias f4 [128]
000000 e2 e2 a3 bb d8 e2 02 3c b4 17 03 3c 3c fe 8c b7
       -0.005001412 0.007988654 0.008001257 -1.6807688e-05
000010 69 02 b6 bb cb 32 9c ba f0 58 3c b8 69 2b 37 b9
       -0.0055544865 -0.0011916993 -4.4905522e-05 -0.00017468412
000020 9f 4f 96 3b 7a 23 b2 3b ae 1d ec 3b 18 97 b1 3a
       0.0045871283 0.005436358 0.0072056865 0.0013549058
000030 c0 e9 09 3c 15 90 34 bb 09 e5 c0 3b 42 a1 e8 bb
       0.008417547 -0.00275517 0.005886678 -0.0070993016
000040 b7 10 20 3c 3a d1 1c ba 0e dd 3b 3c 1e cd 7b bb
       0.00976961 -0.0005982105 0.011466278 -0.003842182
000050 45 3e e1 b9 38 b7 4f 3a 71 e0 0a ba 8e 07 72 bb
       -0.0004296174 0.0007923725 -0.00052977266 -0.0036930772
000060 63 a2 bd bb e5 74 dd 3b 5f e5 b0 3b 09 2e 89 b9
       -0.0057871803 0.0067583197 0.005398437 -0.00026164975
000070 56 44 62 39 d6 7c 98 bb d2 f9 9f 3b eb 56 02 3b
       0.00021578497 -0.0046535535 0.004882076 0.0019888233
000080 84 30 cc 3b b3 51 2a 3b 4c c5 96 3b 6b 95 bd bb
       0.0062313695 0.0025988638 0.0046011563 -0.0057856343
000090 e7 8f 32 3b 78 36 6b bc a5 93 9b 3a 2c 83 de bb
       0.0027246417 -0.014356248 0.0011869563 -0.0067905392
0000a0 4f 5b 59 bc 30 4e e2 3c ab c7 d1 39 de 83 89 bb
       -0.013266399 0.027625173 0.0004001235 -0.004196628
0000b0 42 19 e4 3b e0 74 b0 bb 6b e7 2a bc 17 15 30 3c
       0.006961019 -0.0053850263 -0.010431151 0.010747216
0000c0 ad 01 cd 3b 5b 3f 4c 39 1b 26 80 3a f3 a5 49 3a
       0.0062563033 0.00019478558 0.0009776981 0.000769227
0000d0 0d e8 2c 3b 90 96 f7 bb 78 84 12 bb 67 72 45 39
       0.002638343 -0.0075557902 -0.002235679 0.00018830002
0000e0 41 62 9f ba c2 bb 62 bc df da df bb 44 63 f8 39
       -0.0012160019 -0.01383871 -0.0068315114 0.00047376205
0000f0 97 df 6e 3b c6 11 0a 3c 5c 9c 76 3a 21 0e 7d ba
       0.0036449188 0.008427089 0.00094074546 -0.00096532895
000100 14 5c c2 3b e4 0e b2 bb dd ad f9 bb 70 c3 9b 3b
       0.0059313867 -0.005433904 -0.007619603 0.0047535226
000110 56 2e bd bb 37 96 cc bb 58 ef c9 b9 2d 83 33 bb
       -0.005773346 -0.006243493 -0.00038516033 -0.002739142
000120 b7 01 d4 bb 75 c8 d2 3c b8 a6 80 3c 06 ac 9f 3a
       -0.006469931 0.025730351 0.015704498 0.0012182004
000130 65 7c ae ba 7f a0 89 3b 36 08 59 3b 03 17 2f 3b
       -0.0013312219 0.004200041 0.0033116466 0.0026716597
000140 dd 29 6d 3c 11 ba 62 bb 11 1a fa ba 69 1f 0f 3b
       0.014475313 -0.0034595768 -0.0019081255 0.002183879
000150 42 fb f6 3a a6 57 38 3d 42 70 db ba 52 62 a6 3c
       0.0018843191 0.045005463 -0.001674183 0.020310555
000160 55 cf 73 ba 41 e1 57 3c 0d 09 a0 38 29 0e 1a bb
       -0.0009300609 0.013176263 7.6310804e-05 -0.0023506975
000170 41 1e ae bb ab e5 15 3b 4d 51 cc 3b 79 21 9a 3c
       -0.005313665 0.0022872488 0.0062352777 0.01881479
000180 b0 af 51 bb 9b 27 be 3a d9 7a da 3b cd e0 5b ba
       -0.0031995587 0.0014507653 0.0066674766 -0.0008387685
000190 7b 7a 1c bc f9 ce 02 bb c9 cc 93 3b a1 d5 a0 3b
       -0.009550686 -0.001995979 0.0045104963 0.004908279
0001a0 d4 65 28 bb 5d 85 2e 3b 3f 27 2c bb fa 97 de bb
       -0.002569546 0.0026629784 -0.002626851 -0.0067930194
0001b0 1a 3b 55 bb 72 1b bc bb 12 1e 1d bb ac 29 d6 bb
       -0.0032536448 -0.0057405764 -0.0023974222 -0.0065357294
0001c0 8c 0c 1a bb ba 3f df ba e1 b0 7e 3b 78 8f b8 39
       -0.0023506014 -0.0017032542 0.0038862752 0.00035202107
0001d0 81 30 6b bb 94 0f 0e bb c1 90 45 bb 36 9e 21 3c
       -0.0035887065 -0.0021676766 -0.0030146095 0.009864381
0001e0 bc 37 a4 bb ee de 9c ba 7a 22 f5 3a 01 3f e4 39
       -0.005011527 -0.0011968294 0.0018702291 0.0004353449
0001f0 e7 57 9a 3c 80 0e 33 3c 49 df 0e bb 77 2d 50 bb
       0.018840743 0.01092875 -0.0021800569 -0.003176538

conv1.lin.weight f4 [128, 12]
000000 79 a8 19 bf 6d 9e de 3e ed 38 8c be 7d ad 22 bb
       -0.60022694 0.43480244 -0.2738718 -0.0024822645
000010 94 de 87 be de b7 9e 3e 96 9c 4a 3d 91 18 8d 3d
       -0.26537 0.30999655 0.04946574 0.06889451
000020 5d 4b 94 be 64 62 23 bf a7 8d 2b 3f a9 2e d0 3b
       -0.28963748 -0.6382201 0.6701302 0.0063532186
000030 81 1a f5 3d 76 60 a0 3e 36 90 96 bd ab 44 80 3b
       0.11967946 0.31323594 -0.07351725 0.003914436
000040 e7 85 98 be 12 0e 35 3e 7b 56 86 bd e0 5f 2b be
       -0.2978966 0.17681149 -0.065594636 -0.16735792
000050 8f c0 4d 3e 0b c7 3f bf 11 65 ba 3e fb b9 1d 3f
       0.20092987 -0.7491309 0.36405233 0.6161191
000060 da f8 53 3d ab 51 dc be 3c 01 3a 3e 61 18 1a bb
       0.051750995 -0.43031058 0.18164533 -0.0023513066
000070 f3 09 f7 bd ce 9c 51 3e 07 f8 7c be b2 bb 92 3e
       -0.120624445 0.20469972 -0.2470399 0.28658825
000080 4b 85 3a 3e 59 e3 60 3e 17 bf 0b bf 0d 57 b0 3e
       0.1821491 0.21961726 -0.54588455 0.34441414
000090 d9 4c 9d 3b 55 fd 35 bf ff 6b e3 3d 02 b0 f0 bb
       0.0048004207 -0.7108968 0.11104583 -0.0073452005
0000a0 13 dc a5 3d 8f ea 12 3e 86 65 84 3d 3e c9 59 bc
       0.080986165 0.1434729 0.064646766 -0.013292609
0000b0 0b 5d de 3d 4b 70 b6 3e c4 82 d3 be c3 3e 84 3e
       0.1085759 0.35632548 -0.41310704 0.25829133
0000c0 dd e3 4e 3d a6 20 b2 3e 8b e7 58 3e 4d ea 36 bb
       0.050510276 0.34790534 0.21182077 -0.002791065
0000d0 45 45 a5 3d dc 3f 12 bf 74 fa 09 bd 63 7b 77 3d
       0.08069853 -0.5712869 -0.033686116 0.060420405
0000e0 eb 30 d0 be e8 b3 48 3f e0 fa ac 3d 1c 65 86 bf
       -0.4066232 0.78399515 0.08446288 -1.0499606
0000f0 04 9c a9 bd b7 d9 d8 3b 33 9d 66 be b2 55 85 bc
       -0.08281711 0.0066177505 -0.22520904 -0.016276214
000100 ca c8 0c 3c fb c6 8d be ce 7a 79 3e 1f 75 e1 be
       0.008592794 -0.27690873 0.24363253 -0.4403467
000110 62 8c be 3d 98 52 b7 be 0c 37 16 be d6 b6 b7 3e
       0.0930412 -0.35805202 -0.14669436 0.3588168
000120 bb 68 e0 3d 6e 3b 83 be 3f 11 8c 3c fb 6e dc 3b
       0.10957476 -0.2563128 0.017098067 0.006727097
000130 cd 81 5d bd d6 9f ce 3e 0a 43 4c be 3b cc 62 3e
       -0.054078866 0.4035632 -0.19947448 0.2214822
000140 25 aa a2 3e 6f 1d ac be 68 04 e2 be 41 b8 78 3f
       0.31770435 -0.33616206 -0.44143987 0.9715615
000150 dc f7 37 3e cd 73 14 bf 58 cb 4c 3e 3b ee 87 bb
       0.17965645 -0.579892 0.19999444 -0.0041482723
000160 64 28 4f 3e 91 8a f1 3d cf 06 af bd 44 42 92 bd
       0.20230252 0.117940076 -0.085462205 -0.071415454
000170 6c 74 2d 3f 4a cd c0 3e 58 13 42 bf f2 48 2a 3f
       0.6775577 0.37656623 -0.75810766 0.66517556
000180 2d f6 59 3d b4 cd c5 be 21 57 a4 bd 75 37 91 3e
       0.053213287 -0.38633502 -0.08024431 0.28362623
000190 76 94 df bd 8e a0 67 be 31 2e 92 3d e9 1f c3 3d
       -0.109169886 -0.2261984 0.071377166 0.09527571
0001a0 e9 e8 52 3e ce b0 d1 be e4 a9 8e be 3e 21 01 3f
       0.2059666 -0.40955204 -0.2786399 0.5044135
0001b0 9c 10 52 be 1e 77 90 bd 90 36 e3 3d 11 f9 8a bc
       -0.20514148 -0.0705397 0.11094391 -0.016964467
0001c0 65 d1 62 3e f7 94 ac bd 9e 10 04 3e a2 4f 8c be
       0.2215019 -0.0842685 0.12896964 -0.27404505
0001d0 5f 99 e5 bd eb 5d f3 3e 2b 5a 31 be 62 a3 25 bf
       -0.11210894 0.4753259 -0.17319553 -0.6470243
0001e0 66 e5 b6 3d e8 ca f5 be c2 0a 7b 3e b1 92 e1 3a
       0.08930473 -0.48006368 0.24515823 0.0017209855
0001f0 a9 a7 db 3d 22 0c 06 be b1 64 07 bc f7 56 b4 bd
       0.10725338 -0.13090566 -0.008263753 -0.0880565
000200 bc cf 8f 3e 18 59 a1 3f c5 fa 0d bf d8 b8 71 bf
       0.28088176 1.2605314 -0.5546077 -0.94422674
000210 97 8c 40 bd 15 4b e0 3e 1b 3e 1a be e8 d3 10 3d
       -0.047009077 0.43807283 -0.15062754 0.03535834
000220 ec 65 42 3e c1 d1 e8 be ee bd 72 be 8c 5e cf 3e
       0.18984193 -0.4547253 -0.23705265 0.4050182
000230 5b 02 a6 be 96 65 08 3f a3 21 d3 3e 74 67 a6 be
       -0.32423672 0.5328001 0.412366 -0.32500803
000240 be b1 27 be 07 5d 12 bf 8d 47 62 be 0c dd a6 bb
       -0.16376397 -0.571732 -0.22097607 -0.005092269
000250 a8 f6 86 3e e9 e8 24 3f 79 55 1a 3e b1 c3 f0 bd
       0.2636006 0.6441789 0.15071668 -0.11756075
000260 d7 1d ef 3d 53 05 06 bf e3 32 bc 3c c9 32 82 3f
       0.116756134 -0.52351874 0.022973483 1.0171748
000270 4f 78 be 3c 8e f1 72 3d 58 e3 5a 3d 85 18 27 3c
       0.023250727 0.059312396 0.05343947 0.010198717
000280 16 61 0f 3d 36 e1 95 3e bf d5 23 be 03 53 b1 be
       0.035004698 0.29273385 -0.15999506 -0.34633645
000290 47 14 97 be 21 76 24 3f f6 b7 ad 3d fb 02 6a be
       -0.29507658 0.6424275 0.084823534 -0.228527
0002a0 fc 07 25 bd f4 cb 19 be 6e a1 df bd b8 f1 e2 3b
       -0.040290818 -0.15019208 -0.10919462 0.006925788
0002b0 ab 29 15 bf 9d c6 09 be db f0 30 3e bd df d1 3d
       -0.58266705 -0.13454671 0.17279379 0.10247753
0002c0 e6 70 09 3e 4a c7 9c be 4d e8 47 be 20 f3 56 3f
       0.13421974 -0.30620795 -0.1952221 0.8396473
0002d0 a6 f6 16 3d 6d d5 b6 be dc b1 77 be 0d 60 37 3b
       0.036856316 -0.35709706 -0.24188942 0.0027980835
0002e0 e2 73 b9 3d b5 ef 52 3f 66 88 d5 3c 1b 72 ab 3d
       0.09055306 0.82397014 0.026066016 0.08371373
0002f0 d9 20 2d be 83 85 d7 be e4 66 66 3e d5 92 4d 3f
       -0.16907062 -0.4209405 0.22500187 0.8030217
000300 b9 f1 a9 be 35 44 cf be c5 f2 4e be ab b4 5c 3b
       -0.33192232 -0.40481725 -0.20209797 0.0033677022
000310 de ff 71 3d ed 28 58 3f ac d2 10 be 3b 1e 29 3e
       0.059081905 0.8443745 -0.14142865 0.16515438
000320 7f 43 fe 3c 60 77 10 be 15 a2 6d be 87 33 27 be
       0.031038044 -0.14108038 -0.2320636 -0.1632825
000330 a0 e2 18 be 66 3d b1 be 78 7c 3b be 7a 44 20 3c
       -0.149302 -0.34617156 -0.183092 0.009781951
000340 01 9f fe be 58 3e 48 be 26 40 2a 3c ae 13 c6 3e
       -0.49730685 -0.19555032 0.010391271 0.3868689
000350 18 a4 1a 3f 03 56 b5 be 87 0a d6 be d2 b2 37 3f
       0.6040664 -0.35417184 -0.41804907 0.71757233
000360 fd 8b da bd a0 eb 8c 3f 9d cf d3 bd 5b 42 b2 bb
       -0.10671232 1.1009407 -0.103423335 -0.005440039
000370 d8 7d fa be 68 6c 58 be 5d 76 b9 bc 39 0a 54 3e
       -0.48924136 -0.21135104 -0.022639448 0.20707025
000380 9c 31 83 bb 57 4c a2 bf f7 20 4c 3f 23 d0 d9 3e
       -0.0040037166 -1.2679547 0.797378 0.42541608
000390 59 87 63 be cd 1e 27 3f dd fd 73 be ca a8 2d 3b
       -0.222196 0.65281373 -0.2382731 0.0026498311
0003a0 9f a7 db 3d c7 65 e0 3e f2 91 07 3d 2b 5f 1f bd
       0.107253306 0.4382765 0.03309817 -0.03890912
0003b0 35 61 0b be b1 ec 10 3d 6a a3 03 3f e3 49 2f be
       -0.136113 0.035381977 0.51421225 -0.1711803
0003c0 9f 09 0b 3e 4a 41 5f 3c 3c cb 6d 3d d4 0f ef 3b
       0.13577889 0.013626406 0.058055148 0.007295588
0003d0 60 12 b7 be 51 b9 0b bd f2 8b 3b be b5 a7 43 3d
       -0.35756207 -0.03411228 -0.18315104 0.04776736
0003e0 66 72 2f 3e 59 c3 44 bf 73 cf 41 3e 3d 3c 4e 3e
       0.17133483 -0.76860577 0.18926792 0.20140167
0003f0 e6 1a 12 be 3a a3 0f 3f 22 15 7d 3b 35 2a 20 3c
       -0.14268073 0.5610844 0.0038617332 0.009775688

bn1.weight f4 [128]
000000 52 e9 7a 3f cc 0a 6f 3f c9 4c 80 3f d3 74 80 3f
       0.9801227 0.9337585 1.0023433 1.0035652
000010 82 a1 75 3f 32 f1 73 3f 6b da 71 3f 73 a1 87 3f
       0.95949566 0.9528991 0.94473904 1.0596145
000020 c3 6c 6e 3f b7 c1 6e 3f 2b 6c 7b 3f a2 8b 84 3f
       0.9313471 0.93264335 0.98211926 1.0355113
000030 0b 75 80 3f 82 f9 7a 3f d1 1b 78 3f 3e 1a 85 3f
       1.0035719 0.9803697 0.96917444 1.0398633
000040 df 16 7f 3f 1a 65 6e 3f 83 30 7c 3f 06 09 75 3f
       0.99644274 0.9312302 0.98511523 0.95716894
000050 06 a0 6d 3f 25 77 6b 3f 35 c0 72 3f 9c 2c 78 3f
       0.928223 0.91978675 0.94824535 0.9694307
000060 e8 39 7d 3f 1d d3 77 3f 5c a7 72 3f 16 62 7f 3f
       0.9891648 0.9680651 0.9478662 0.9975904
000070 6d 71 7c 3f 90 3c 77 3f 46 d7 6f 3f 35 71 83 3f
       0.98610574 0.96576786 0.93687856 1.0268923
000080 8e c4 81 3f bb 04 79 3f 92 4a 75 3f c4 04 7a 3f
       1.0138109 0.97272843 0.9581691 0.9766352
000090 e5 73 6d 3f d4 80 77 3f 4c 31 73 3f 2b 44 70 3f
       0.92754966 0.9668095 0.94997096 0.93854016
0000a0 8e f6 6e 3f 86 dc a2 3f 24 33 81 3f 3f 33 73 3f
       0.9334496 1.2723548 1.0093732 0.9500007
0000b0 27 87 86 3f 75 97 79 3f 2d c5 7e 3f 9e 9b 6e 3f
       1.0509995 0.9749673 0.99519616 0.93206203
0000c0 bb a4 72 3f dd 7d 6a 3f bb 15 7c 3f 82 73 6b 3f
       0.9478261 0.915983 0.9847066 0.91973126
0000d0 33 2a 81 3f 37 36 82 3f a4 b6 64 3f 63 d5 5a 3f
       1.0091003 1.0172795 0.8934119 0.8548185
0000e0 79 ee 77 3f 94 07 82 3f d7 b5 85 3f 91 a0 76 3f
       0.96848255 1.0158563 1.0446118 0.96338755
0000f0 d3 75 70 3f 8b 84 92 3f 74 c7 5f 3f 32 ee 52 3f
       0.93929785 1.1446699 0.87413716 0.8239471
000100 00 18 7a 3f 7d bc 75 3f c2 c3 6b 3f dc c7 80 3f
       0.9769287 0.95990735 0.9209558 1.0060992
000110 52 b1 83 3f c0 21 7f 3f b8 85 80 3f 85 3f 94 3f
       1.0288489 0.99660873 1.0040808 1.1581885
000120 1c b4 85 3f bb 2f 81 3f 54 da 86 3f 83 88 7b 3f
       1.044559 1.0092691 1.0535378 0.98255175
000130 8e 86 73 3f b2 cb 6d 3f 12 dd 54 3f 9e a4 5e 3f
       0.9512719 0.9288894 0.83149827 0.86969936
000140 f4 8f 76 3f 30 21 65 3f c5 a8 61 3f 04 d8 81 3f
       0.96313405 0.89503765 0.88148147 1.0144048
000150 22 0c 4f 3f 4c c0 8b 3f ce 43 80 3f ed 9a 86 3f
       0.8087789 1.0918059 1.0020692 1.051603
000160 63 bd 61 3f 52 7c 70 3f b0 19 63 3f 16 d3 6e 3f
       0.88179606 0.939397 0.8871107 0.9329084
000170 82 98 80 3f 05 41 80 3f 9f 34 81 3f 80 89 7d 3f
       1.0046542 1.0019842 1.0094184 0.99037933
000180 3b ba 80 3f e2 44 71 3f 0b 44 79 3f b2 76 7b 3f
       1.0056833 0.9424573 0.9736945 0.9822799
000190 ff af 75 3f e7 59 70 3f 83 e8 7c 3f a5 e7 65 3f
       0.95971674 0.9388718 0.98792285 0.89806587
0001a0 c1 e7 71 3f e4 6e 80 3f 0c 5c 80 3f af 14 66 3f
       0.94494253 1.0033841 1.002809 0.8987531
0001b0 98 7c 81 3f 6e b2 75 3f c2 26 7e 3f 74 8f 7b 3f
       1.0116148 0.9597539 0.9927789 0.9826577
0001c0 19 fd 66 3f 81 7f 76 3f 71 dc 7d 3f 8c d3 7a 3f
       0.90229946 0.96288306 0.9916449 0.97979045
0001d0 ca 8e 81 3f 17 20 81 3f 6d 68 5d 3f 94 66 57 3f
       1.0121701 1.0087918 0.86487466 0.84140897
0001e0 1f 78 86 3f 0e d0 81 3f 78 b9 63 3f f1 de 79 3f
       1.0505408 1.0141618 0.8895488 0.97605807
0001f0 e1 0e 94 3f 79 a7 6f 3f ca 2c 75 3f e3 5c 64 3f
       1.1567041 0.9361492 0.9577147 0.89204234

bn1.bias f4 [128]
000000 72 89 31 bd 8c 5e da bd f3 64 30 bd ff 4a f3 bc
       -0.04334397 -0.10662565 -0.043065023 -0.029698847
000010 ca 26 a0 3d a7 a0 46 bd bf 20 43 bc 2e 9b da 3d
       0.078198984 -0.048493054 -0.011909663 0.106741294
000020 63 9e 89 be 1e 23 18 bd ae e2 14 3d b0 5a 2f be
       -0.26878652 -0.037142865 0.03634899 -0.17124438
000030 c8 39 e5 bc 82 bc 6b 3d 58 90 24 be 57 d9 0b 3e
       -0.027981654 0.057552822 -0.16070688 0.13657127
000040 4d 55 8d 3d 64 cb 8e bd a1 27 8b 3d 80 2d 91 3e
       0.069010355 -0.069723874 0.06794668 0.28355026
000050 9a 1c f0 bd 6e 10 71 be d9 73 21 3e af 71 f1 bb
       -0.11724205 -0.23541424 0.15766849 -0.0073682885
000060 bc 2f 2a 3e 7d 12 79 bd f7 e1 01 be 32 ba 51 3c
       0.16619772 -0.060808647 -0.12683855 0.01280074
000070 38 af 39 be 91 69 e4 bd 9c 27 83 bd af 97 44 3e
       -0.18133247 -0.11152948 -0.06404039 0.19198488
000080 dd 5d 7a 3c 2d 7d 58 3b d3 b1 dc bb 0c 42 ae bc
       0.015281168 0.0033033595 -0.0067350655 -0.021271728
000090 56 e3 43 3d 6f 2e 26 bc c0 4b 85 bd 93 da 24 3d
       0.047824226 -0.010142907 -0.06508589 0.04024751
0000a0 82 eb 96 bd c0 c0 fc 3e 77 db 05 3d f0 43 60 3d
       -0.07369138 0.49365807 0.03268 0.05475229
0000b0 f8 7f 02 3e dd 3e 9b 3d 80 24 c7 3d 38 dd 99 bd
       0.12744129 0.075803496 0.09723759 -0.07512897
0000c0 09 b5 7e bd 27 7f 0e be ea a4 c7 3d 83 b1 e6 bd
       -0.062184367 -0.13915692 0.09748252 -0.112643264
0000d0 d6 59 c9 bc c9 27 98 3e a6 50 8b bd 35 10 3e be
       -0.02457897 0.29717854 -0.06802492 -0.1856087
0000e0 a1 a0 45 be cd 14 f0 bd 3a da 19 bd 1f c1 82 be
       -0.19299556 -0.117227174 -0.037561633 -0.25537965
0000f0 65 73 57 bd 4f 54 d2 3e c0 b3 e2 3d 50 09 60 be
       -0.052600283 0.41079947 0.11069441 -0.21878552
000100 db a2 15 3d 0a f6 81 3d e4 61 9b bd a2 90 aa 3d
       0.036532264 0.06345756 -0.075870305 0.08328368
000110 a1 01 e7 3a 20 73 e6 3c 12 50 b8 3d 07 a9 8b 3e
       0.0017624387 0.028131068 0.08999647 0.27277395
000120 49 c9 6d bd d4 52 44 3e de a1 89 bc 56 3a 33 bd
       -0.05805329 0.19172221 -0.016800817 -0.043756805
000130 77 a5 15 3d 1f 87 ef bd 50 d7 20 be 96 d7 1e be
       0.036534753 -0.11695694 -0.15707135 -0.15511927
000140 4b 51 65 bb a7 27 06 be 2d 6f 2d be a3 d8 85 3d
       -0.0034991081 -0.13101064 -0.16936941 0.06535461
000150 35 5e fa be 82 62 03 3e 54 03 0a 3e 0e 7c 81 3d
       -0.489 0.12830546 0.13477832 0.0632249
000160 5a 72 8c bd b6 1e 82 be ec a3 98 bc 19 5a 78 3d
       -0.06857748 -0.25414056 -0.018632852 0.0606328
000170 a4 3e ae bd 63 81 c8 bc 53 5a f4 bd f4 ba 6a 3d
       -0.085080415 -0.024475759 -0.119312905 0.0573072
000180 5a 40 64 3d ce 0c 2d be d2 00 a5 bb 44 2e 1c 3e
       0.055725433 -0.16899416 -0.005035498 0.15252024
000190 b1 c1 a1 bd ac 9c a8 bc 87 2f 80 3c be aa 17 be
       -0.07898272 -0.02058252 0.015647663 -0.14811227
0001a0 50 52 b2 3d 73 ec 98 be a0 eb cd 3d 98 35 99 bd
       0.08707106 -0.29867896 0.100547075 -0.07480925
0001b0 55 b5 26 be 6c 61 a0 bd 48 80 7e bd 43 c0 0c bd
       -0.1628011 -0.07831082 -0.062134057 -0.034363043
0001c0 ec c0 f9 bd 9b a5 d7 bc 4a ed 80 3d 3f 25 0c bf
       -0.12195 -0.026324084 0.06295259 -0.54744333
0001d0 e2 4e 08 3e c7 e8 fb bd db 4c 52 3e 0d 06 f6 bd
       0.13311341 -0.12300258 0.2053713 -0.12012873
0001e0 04 3c 17 bd b4 08 e4 bd cf b0 5f bb 35 e8 83 3e
       -0.03692247 -0.111344725 -0.0034132486 0.25763097
0001f0 e7 f2 8d 3e 6e 10 9e 3d ce fd 86 be 61 67 b2 bd
       0.27724382 0.077179775 -0.26365513 -0.08711124

bn1.running_mean f4 [128]
000000 d3 a5 6c c0 e0 f2 e7 40 66 94 ba c0 f3 42 58 c1
       -3.697621 7.248398 -5.830615 -13.516345
000010 bd 0c ea c0 65 66 05 c2 1e d2 53 41 9a 69 05 c1
       -7.314055 -33.349995 13.238798 -8.338282
000020 36 91 0c 44 3b 32 05 c2 05 67 35 40 5d 57 88 42
       562.2689 -33.299053 2.8344128 68.17063
000030 be 38 bf c0 58 d6 a0 41 08 a0 47 41 df a1 20 41
       -5.9756765 20.10466 12.47657 10.039519
000040 b0 03 19 41 2f da 81 41 14 89 40 c1 1e 06 05 41
       9.5634 16.231535 -12.033466 8.313993
000050 b2 e8 3e 41 19 01 88 41 8b 75 04 c1 e1 97 fa c0
       11.93181 17.000536 -8.278697 -7.83104
000060 5f bc 9a 40 35 91 dc c1 0c 9c b8 40 88 30 b6 40
       4.8354945 -27.570902 5.7690487 5.693424
000070 e1 34 06 44 74 f4 15 c1 bb be e8 c1 d4 4b 2a c1
       536.82623 -9.372181 -29.09313 -10.643513
000080 54 e0 a3 c1 5a 83 77 c1 24 29 c2 c0 ce 6c 99 40
       -20.484535 -15.469568 -6.067522 4.794532
000090 fa 59 10 c1 d8 e7 ee c0 98 c9 08 41 b8 a2 8f c1
       -9.021967 -7.4658012 8.549217 -17.954453
0000a0 4d 64 84 c2 48 83 ca c0 ce 82 33 43 7c 93 b7 40
       -66.1959 -6.3285255 179.51096 5.7367535
0000b0 48 88 76 40 ff 78 c5 c1 f5 47 c7 40 ef dc 9f 42
       3.852068 -24.68408 6.227534 79.93151
0000c0 2d 4e a5 40 4a 5f f7 40 24 67 47 c1 b0 0e 43 c1
       5.165793 7.730382 -12.462681 -12.191086
0000d0 8a 4d de c1 7a 10 8a 40 9f 28 d0 40 e1 2a 01 41
       -27.78786 4.3145113 6.5049586 8.0729685
0000e0 f3 7e 7e 41 e6 47 4c 41 38 78 71 c0 95 77 64 3f
       15.905993 12.767553 -3.7729626 0.8924497
0000f0 2f c3 99 c0 28 28 22 c1 09 f1 bd 40 5a b9 52 c2
       -4.805076 -10.134804 5.935673 -52.681007
000100 17 bc ea c0 42 bb cd c0 f0 67 90 41 0a d4 eb c0
       -7.33546 -6.4291086 18.05075 -7.3696337
000110 c5 d4 df 3f c3 34 10 3f 68 33 18 40 1e 22 f7 be
       1.7486807 0.5633051 2.3781376 -0.48268217
000120 5c a4 e4 40 59 2d d6 3d 0f ae f2 be 49 13 bf 40
       7.1450634 0.10457868 -0.4739842 5.971104
000130 01 7f 75 43 f3 20 bb 40 35 70 0c 43 97 cb 9f 40
       245.49611 5.847772 140.43831 4.9936023
000140 17 cc a3 40 e5 b3 eb c0 de cf 13 43 81 6d 3f 40
       5.1186633 -7.36571 147.81198 2.9910586
000150 ff bb c6 42 3d 59 96 c0 81 a0 40 42 68 ab cf c0
       99.36718 -4.6983933 48.156742 -6.4896736
000160 2b 2e 1a 41 04 14 f0 c0 ad b4 df 40 29 ec 2d 41
       9.636271 -7.5024433 6.990805 10.870156
000170 1e 76 d1 c0 f5 b4 64 40 b3 f1 e7 40 1b 2c b4 c0
       -6.5456686 3.5735447 7.2482543 -5.630384
000180 93 56 bc c0 c2 cd 2e c1 c3 27 a9 c1 a4 46 ab bf
       -5.885568 -10.925234 -21.144415 -1.3380933
000190 5a 7c 46 40 3c 47 fd c1 cc 1e 2f c1 b3 2d 0b 41
       3.1013398 -31.659782 -10.945019 8.698657
0001a0 31 4e 90 42 1d a1 20 44 38 ce 6d 42 fd 6c e8 41
       72.15272 642.5174 59.451385 29.053217
0001b0 3d 94 9d 41 41 4a 64 41 ba b4 8f 40 12 aa 27 c0
       19.697382 14.268128 4.4908113 -2.6197553
0001c0 ee ab ad c1 8e d0 5e 42 cd 79 95 c2 ac e0 16 c1
       -21.70895 55.703667 -74.73789 -9.429852
0001d0 31 01 84 bf ad a8 7d 40 2a 63 b9 42 d0 a4 74 40
       -1.0312864 3.9634202 92.69368 3.8225594
0001e0 a1 a9 15 43 b0 90 25 44 28 ab 1b 41 26 12 aa 43
       149.66261 662.26074 9.729286 340.14178
0001f0 ce 6b 2c 3f e1 1f 24 c0 b9 2b 20 41 ce f5 cd c2
       0.67351997 -2.5644457 10.010674 -102.98009

bn1.running_var f4 [128]
000000 8e ee aa 41 d0 87 58 42 0f 34 ab 41 c3 b6 38 43
       21.366482 54.13263 21.40042 184.71391
000010 e1 e1 d9 41 df 5c 6b 44 77 c9 18 43 e7 f5 71 42
       27.235292 941.4511 152.78697 60.49014
000020 7a 38 89 48 dd 9d 7f 44 f3 75 29 41 43 1c 88 45
       281027.8 1022.4666 10.591296 4355.5327
000030 36 d5 ab 42 8c da b4 43 32 84 29 43 56 7d 0a 42
       85.91643 361.7074 169.51639 34.6224
000040 e1 d1 35 42 76 01 99 43 65 c1 c9 42 97 25 ef 41
       45.45496 306.0114 100.87772 29.893354
000050 57 c7 2d 43 4f 3e a8 43 bc 7d 57 42 3d dd 64 42
       173.77867 336.4868 53.872787 57.216053
000060 2a bf 63 41 3b b4 0e 44 b8 c9 9b 41 f5 a3 49 42
       14.234171 570.8161 19.473495 50.410114
000070 da f8 76 48 a1 c8 43 42 93 bc 55 44 d6 e2 b2 42
       252899.4 48.945927 854.9465 89.44304
000080 2f 6d a4 43 1e 70 5c 43 bc 37 9b 41 82 19 60 41
       328.853 220.43796 19.402214 14.0062275
000090 df 4c 86 42 31 fe 24 42 c2 23 a9 42 1e 51 a0 43
       67.15014 41.248234 84.56984 320.63373
0000a0 e6 9e 70 45 90 79 f2 3f 10 e0 e4 46 86 9d 36 41
       3849.9312 1.8943348 29296.031 11.413458
0000b0 29 e1 7c 41 c1 b0 df 43 7e 85 61 42 3d 43 bf 45
       15.804971 447.3809 56.380363 6120.405
0000c0 73 85 7d 42 87 dc cd 42 a0 e1 f5 42 07 b5 b9 42
       63.38032 102.93072 122.940674 92.85357
0000d0 27 ce 2d 44 f4 1e 34 41 a8 8b 31 42 cf 5b bd 42
       695.2211 11.257557 44.386383 94.67931
0000e0 67 f7 25 43 9a a2 4c 42 ba d6 b9 41 ad c2 40 41
       165.96642 51.15879 23.229847 12.047528
0000f0 6c 61 3b 42 e9 67 3c 42 69 c4 90 41 bd 18 1c 45
       46.84514 47.101475 18.095903 2497.5461
000100 cc 13 ab 41 9e e1 05 42 a6 d6 90 43 37 94 b9 41
       21.384666 33.47033 289.67694 23.19737
000110 e5 2d d2 40 a3 04 77 40 f4 6f 21 41 25 71 f0 40
       6.5681024 3.859658 10.089832 7.5138116
000120 b4 f3 95 42 62 f9 86 40 5e 95 dc 40 9c 31 93 42
       74.97598 4.217942 6.8932333 73.59689
000130 25 ba 53 47 4f c9 c1 41 b4 d1 8a 46 46 15 89 41
       54202.145 24.223295 17768.852 17.135387
000140 10 93 a9 41 eb dd 88 41 b2 29 9f 46 5b 37 25 42
       21.196808 17.108358 20372.848 41.304058
000150 4c 18 0a 46 3a 5d 34 40 83 7a 0a 45 ff 4d 4a 42
       8838.074 2.81819 2215.657 50.576168
000160 ca ad bc 42 0e 00 80 41 56 86 16 42 96 9a a1 42
       94.33943 16.000027 37.631187 80.801926
000170 ad af 24 42 20 24 63 41 a2 3c a6 41 1d 24 9f 42
       41.17156 14.19632 20.779606 79.57053
000180 ce 8c 87 40 bf 5b 35 42 d1 f0 da 43 98 82 fa 40
       4.235938 45.339596 437.88138 7.8284416
000190 56 e5 b2 41 99 27 5f 44 2b 63 d2 42 53 b2 d6 41
       22.36198 892.6187 105.19369 26.837072
0001a0 fa 82 8e 45 bc c1 b2 48 91 d6 38 45 db 72 3a 44
       4560.372 366093.88 2957.4104 745.7946
0001b0 5a d5 b0 43 fe 0e 3b 43 fe c8 3e 42 c6 b0 70 41
       353.6668 187.05856 47.69628 15.043158
0001c0 11 bc 01 44 a9 76 2c 45 e1 ed a6 45 e1 f7 34 42
       518.93854 2759.4163 5341.735 45.24207
0001d0 90 b2 97 41 11 4f ac 41 57 41 e1 45 77 6b ce 41
       18.962189 21.538607 7208.1675 25.802473
0001e0 8b e4 9d 46 b8 1b bf 48 93 0e ac 42 ea 73 c6 47
       20210.271 391389.75 86.028465 101607.83
0001f0 07 6e 7b 40 8e ac 05 42 6b 9b e5 42 7d be 0c 46
       3.9285905 33.41851 114.80355 9007.622

conv2.att_src f4 [1, 1, 64]
000000 24 ae 21 3e 6c 73 35 be 33 77 33 3e 0e 5e d1 3e
       0.15789086 -0.17719811 0.1752594 0.4089207
000010 9e 33 e9 be 76 ed 23 be 17 62 4e 3e e9 61 a7 3d
       -0.45547193 -0.16008553 0.20154606 0.08172972
000020 67 0e e6 bd c1 e0 71 3e 52 5a a7 be b9 be a0 3e
       -0.11233216 0.23620893 -0.32686096 0.3139551
000030 66 72 10 3f 36 a5 d4 3e cf 67 05 3f 06 d2 c6 3e
       0.5642456 0.41532296 0.52111524 0.3883211
000040 16 b7 57 bd 61 42 86 3d c6 0e 94 be 60 33 a9 be
       -0.05266484 0.065556295 -0.2891752 -0.3304701
000050 25 78 68 bc 88 57 17 be aa 57 48 be 69 5f 19 3e
       -0.014188801 -0.14779484 -0.19564691 0.14977802
000060 6f 40 af bd a5 ee 2c bf 1c 5d 6f 3e 91 1d 89 3e
       -0.085572116 -0.6755164 0.23375362 0.2678037
000070 ec fe ea bd ba f9 b0 3e 3e 31 65 3e c6 48 19 bf
       -0.11474404 0.34565526 0.22382066 -0.5987667
000080 01 72 c1 3d 8b 10 ab be c7 77 b9 3e a2 fe 29 3e
       0.09445573 -0.3341106 0.36224195 0.16601041
000090 f4 78 07 bf b2 10 1e bd 24 88 fd 3e 47 78 92 3d
       -0.52918935 -0.03859014 0.4951793 0.07151847
0000a0 c4 4e 24 3f fb 10 f9 be 1b 8d 33 3e 73 24 6b 3e
       0.64182687 -0.48645768 0.17534296 0.22963123
0000b0 ab 63 35 3e c4 3c 72 be fd 14 54 3e 64 99 5b be
       0.17713802 -0.23655993 0.20711131 -0.21445233
0000c0 eb 31 d7 be 29 13 38 3e 7f 5c fb 3d ad 6f 8e 3e
       -0.42030272 0.17976059 0.122735016 0.27819577
0000d0 8f fb 2b 3c ec 5c de 3e da eb 2b be 70 55 22 3f
       0.010496988 0.4343027 -0.16789189 0.6341162
0000e0 34 b3 2a be f8 25 8c 3e 5a ff 01 bf a3 f9 fd bc
       -0.16669923 0.27372718 -0.5078026 -0.031002825
0000f0 0c 92 40 be 24 25 06 3f 4b 2a ec be eb 90 b8 3c
       -0.18805712 0.5240042 -0.46126017 0.02253004

conv2.att_dst f4 [1, 1, 64]
000000 c9 d2 c3 bd 7c 23 b4 bd b8 ff cb be 84 b8 4f be
       -0.095616885 -0.087958306 -0.39843535 -0.20285231
000010 15 e9 d9 be 45 a4 76 3e ff e9 1b bf f7 20 8b 3e
       -0.4256064 0.24086101 -0.60903925 0.27173588
000020 f0 53 13 3e 5b 36 fa be 63 0d 32 bd 0c 83 12 be
       0.14387488 -0.48869595 -0.043469798 -0.14307803
000030 aa 76 0e 3d 96 e0 2d 3e 19 cd 8f 3e ec 30 05 be
       0.034781136 0.16980204 0.28086165 -0.13006943
000040 9e a9 f6 3e 22 98 a2 bd de d8 8b be e3 0c c5 bd
       0.48176283 -0.07939173 -0.27313894 -0.096215986
000050 91 db ab 3e e9 d3 f1 3e 41 b0 50 3e b0 a1 32 be
       0.33565953 0.47231987 0.20379736 -0.17444491
000060 13 90 b9 be 5c c2 03 bd ed 47 2f be db 10 1b 3d
       -0.36242732 -0.032167777 -0.17117281 0.03785787
000070 ac e3 32 3e 90 db ad 3e 04 5f 3a 3b 04 bd 51 be
       0.17469662 0.33956575 0.0028437981 -0.2048226
000080 93 d2 c5 bd 8d 94 b5 3e 5a 48 d6 bd 72 7b 64 3e
       -0.096593045 0.35464898 -0.10463019 0.22312716
000090 6b a1 01 bf b5 43 17 be 39 2a 5e 3e 36 d8 3e bd
       -0.5063693 -0.14771922 0.21695794 -0.046592914
0000a0 02 4c af 3e f5 d9 3b 3e 67 37 b0 3d 07 ef aa be
       0.34237677 0.18344863 0.08604317 -0.33385488
0000b0 e4 fa 59 3b 96 ef 05 bf d6 d7 62 3d 2a d1 01 3d
       0.0033261115 -0.52318704 0.05538162 0.031693615
0000c0 b4 fb f4 be 50 dd 81 3d 2f ab ef 3c bf a6 6a 3e
       -0.47848284 0.0634104 0.029256431 0.22915171
0000d0 a5 e4 b8 3e 0e a3 21 be 8c 68 9a be d2 8d 7c 3c
       0.36111942 -0.15784857 -0.30157888 0.015414672
0000e0 a6 0e 18 bf b0 37 8a be 42 ee de be b1 6a 9b 3e
       -0.5939735 -0.2699561 -0.4354115 0.30354837
0000f0 99 41 4c 3e f4 4f 8b be cc 14 c6 be 05 d8 67 be
       0.19946899 -0.27209437 -0.38687742 -0.22640999

conv2.bias f4 [64]
000000 76 ac 9e bc f4 6d 7a bd bf 63 ac 3b bf 0f 5e 3c
       -0.019369345 -0.061140016 0.005260914 0.013553559
000010 6e ff 53 bd e3 de 81 bb 18 c4 11 bd 0a c9 ae bb
       -0.05175727 -0.0039633377 -0.0355874 -0.0053340243
000020 7f bd c1 3c 45 17 ff 3c b8 5b a1 bb b5 06 02 3d
       0.02364993 0.031139025 -0.004924264 0.031744678
000030 15 8c 21 bc d6 a4 92 3c 71 c0 86 3c 3d 97 85 3c
       -0.009860058 0.017900866 0.016449185 0.016307468
000040 f5 12 c5 3b 00 43 0b 3c 4a 1a 7c 3b 56 0e cf bb
       0.0060142227 0.008499861 0.0038467818 -0.0063188476
000050 77 9d 8f 3d 6d 2d c9 3c 2a 61 8a 3c fa f4 b3 3b
       0.07012456 0.024557794 0.016892035 0.00549185
000060 c1 b4 4a bc 10 af 98 bc 8e 25 e5 bc 1e 7e ac bc
       -0.012372197 -0.018638164 -0.027972009 -0.021056231
000070 e2 28 e0 3c fe 24 00 3c 48 ce 07 bc 27 c5 c9 ba
       0.027363244 0.00782132 -0.008288927 -0.0015393839
000080 be 8f a0 ba 9b f5 2f 3c 5c d3 9a 3a 6f bf 9d 3a
       -0.001224987 0.010739709 0.0011812258 0.0012035201
000090 cf 49 97 bc 1c 5d 06 3c 65 5a 48 bc c1 80 af 3c
       -0.018467812 0.00820091 -0.012228583 0.0214237
0000a0 14 e4 76 bc 04 c8 75 3c 8b 90 ba 3c d4 80 75 3c
       -0.0150690265 0.015001301 0.022774002 0.014984328
0000b0 fa 47 b5 3c 84 ad 98 bb 2d 38 89 bc 83 5b ce 3c
       0.022129048 -0.0046593565 -0.01675042 0.02519012
0000c0 50 84 d0 bc 1b bc 0c bd ba 15 28 3d 81 3b 43 3c
       -0.025453717 -0.03435908 0.041036345 0.011916042
0000d0 de 85 14 bd a6 a6 ba 3c 17 05 7c bd f5 01 e3 bb
       -0.03626048 0.022784542 -0.06152829 -0.0069277235
0000e0 13 f4 ca bc 5e df a2 bd aa 24 14 bb 40 27 45 bc
       -0.024774587 -0.0795276 -0.0022604861 -0.012033284
0000f0 96 ea 5f bc f1 d1 02 bd 7c 95 3f bc 74 14 c0 bc
       -0.0136667695 -0.031938497 -0.011693355 -0.023447253

conv2.lin.weight f4 [64, 128]
000000 8b 09 0e be 9b 92 6c bd 2e f2 f4 3d 6e d9 a7 3c
       -0.13870828 -0.057757 0.119602546 0.02048942
000010 1f c5 8a bc 24 14 9b 3d 90 d9 08 3d ee 18 f0 3d
       -0.016939698 0.07572201 0.03341061 0.11723505
000020 61 2d de 3d d0 8b cc bd fd f2 b8 bc df dd 7a bd
       0.10848499 -0.099876046 -0.022576803 -0.06124675
000030 b6 69 57 be 2e dc f0 bc e8 37 12 ba 52 41 ed bd
       -0.2103642 -0.029401865 -0.00055777887 -0.115847245
000040 e3 2a 0a be aa 14 05 bd 1c 29 05 3e 8e 60 42 3c
       -0.13492922 -0.03249041 0.13003963 0.011863841
000050 19 f7 57 3d 56 b5 bb bd 9d d3 87 3d 04 ab 04 be
       0.052725885 -0.091654465 0.06632159 -0.12955862
000060 a0 81 9a 3d de 85 22 3e 53 f8 11 3c f6 24 7f 3d
       0.07544255 0.15871379 0.008909303 0.062291108
000070 3d 13 f5 3d 88 c4 a6 3d 6b 5e ac bd 21 87 6c 3c
       0.1196656 0.08142954 -0.08416446 0.014436514
000080 e8 d2 1f 3d 84 0c d0 3d 8c 5c 55 3d 40 84 42 bd
       0.039019495 0.10158637 0.052090213 -0.047489405
000090 56 4b f3 3c 40 e4 c1 3c e3 a7 08 bc 6e 77 64 bd
       0.029699009 0.023668408 -0.008340809 -0.05577796
0000a0 7f 7e 19 3e 86 79 55 3e 8e 49 ec 3d a8 2f 26 be
       0.1498966 0.20847139 0.11537467 -0.16229117
0000b0 91 37 56 bd 59 42 80 bd c4 8e 2e be a4 d6 29 bd
       -0.052299086 -0.06262655 -0.17046648 -0.041464463
0000c0 3e f2 1b 3e ca 9a d1 3c 58 47 3f 3e a6 ae e4 bd
       0.15229127 0.025586504 0.18679559 -0.11166124
0000d0 23 c3 83 bd 18 fc f3 bd f6 e7 7d 3d 50 6e 99 3d
       -0.06433704 -0.119133174 0.061988793 0.074917436
0000e0 df 76 e7 3c 3e f9 15 be 38 b2 ad bd ca a3 1f be
       0.028254924 -0.1464586 -0.08481258 -0.15589824
0000f0 b3 fd 07 be be 27 03 be e2 9d 6e 3d 12 e3 8d 3a
       -0.13280372 -0.12808129 0.058256038 0.0010825119
000100 64 ae 8d bd 2d c8 9b bd bd cf c0 3d bc cf 46 3b
       -0.06918028 -0.0760654 0.09414623 0.0030336222
000110 b9 d7 17 3e 6d f6 4c be cd a1 2d 3e 78 68 05 3e
       0.14828385 -0.20015879 0.16956253 0.13028133
000120 c9 c4 06 3e 35 b1 41 be 86 83 90 3b 65 62 1a bd
       0.13161005 -0.18915255 0.00441021 -0.037691493
000130 2e 0c 1a 3e 75 75 5f bb d7 7b bb 3d dd 00 93 3d
       0.15043709 -0.003409711 0.0915448 0.07177899
000140 f7 bb 08 bd 95 05 1c 3e 1a 21 18 be 4d 09 dc bd
       -0.033382382 0.15236504 -0.14856377 -0.107439615
000150 7c eb 88 bd 4d f2 27 3e 23 e7 a3 bd 41 82 df bd
       -0.0668554 0.16401024 -0.0800307 -0.10913516
000160 a9 81 da 3c bc 22 cf 3d 26 72 28 bd e9 28 d1 bd
       0.026673155 0.10114047 -0.041124485 -0.10212881
000170 a4 31 09 be 2d 28 f0 3d 91 62 67 be 0d 8c c1 bd
       -0.13397843 0.11726413 -0.22596194 -0.09450541
000180 bc 94 74 bd 34 2a 99 3c 68 55 11 be e0 5b af bd
       -0.059712157 0.018696882 -0.14192736 -0.08562446
000190 04 c6 23 3d d5 1e 87 3c 4e d0 8c 3d 3f 03 4a be
       0.039983764 0.016494194 0.068756685 -0.19727801
0001a0 53 f3 16 be ba e1 c7 bd bf 74 46 bd fb 7f ef bd
       -0.14741258 -0.09759851 -0.04845118 -0.11694332
0001b0 01 5c 09 3e c9 bf 87 bd a6 bc 00 3d 6a d2 80 bb
       0.13414003 -0.06628377 0.03142991 -0.0039313333
0001c0 3e 18 da bd c0 6e 98 3c 8e b2 12 3e bb 05 18 be
       -0.10649155 0.018607497 0.14325926 -0.14845936
0001d0 49 d2 23 be 53 d8 c4 3d 54 70 05 3c 2e 4a e9 3d
       -0.15998186 0.09611573 0.008144457 0.11391102
0001e0 07 fc 3f 3d 60 73 fa bd 2b 08 b6 bc bb 4c 82 bd
       0.04687121 -0.12229037 -0.022220692 -0.063622914
0001f0 c2 3a 50 3e 1d f9 1c be 12 e9 d5 3d 03 fb 32 bb
       0.20334914 -0.15329404 0.10444845 -0.002731026
000200 06 4e 0a bd 60 2e 9f 3d aa e0 1a bd cd e5 32 bd
       -0.033765815 0.07772517 -0.037811913 -0.043676186
000210 2a 56 33 bd c4 42 01 3e 95 9f 7e bd 6b 17 0b be
       -0.043783344 0.12623125 -0.062163908 -0.13583152
000220 be 5e d1 bd f5 e0 a4 bd 8d ed 83 bd 32 35 16 be
       -0.10223149 -0.0805072 -0.064417936 -0.1466873
000230 7b bc ab bd 53 be b4 3d e2 f4 cd 3d 93 bc 99 bd
       -0.08385559 0.08825364 0.10056473 -0.07506671
000240 35 54 1e be 05 c5 c9 3d 51 83 c1 3d d8 10 26 3e
       -0.1546181 0.098520316 0.09448875 0.16217363
000250 c4 fd 16 3e ae 2e 61 bd 4e 70 21 bb 21 96 da 3c
       0.14745241 -0.054976158 -0.002463359 0.026682915
000260 54 f2 51 3d 99 f5 a6 3d 59 56 c5 3d 95 bd 00 bd
       0.051256493 0.08152313 0.0963561 -0.0314308
000270 1b 11 1e be 3e 02 1b be ff 32 4d 3d 7b a4 23 3d
       -0.15436213 -0.15137574 0.05009746 0.039951783
000280 d3 e6 11 be 1a c2 53 3d dd 3c 46 3d 5c 2d 54 3c
       -0.14248209 0.05169878 0.048397887 0.012950268
000290 24 67 08 be 95 9f 1e 3d d4 ff 79 bc f7 11 28 3e
       -0.13320595 0.038726408 -0.015258748 0.16413103
0002a0 d4 b0 65 bd da b8 2d be 50 0b 30 3e 14 fa 9a bd
       -0.05607684 -0.16965047 0.17191815 -0.0756723
0002b0 17 b2 07 be 0b ce e1 3c 8b 50 d7 3d 56 91 18 3e
       -0.1325153 0.02756407 0.10513409 0.14899191
0002c0 6d d1 c4 3d 46 01 56 bd 63 43 e5 bd cc b9 80 3d
       0.09610257 -0.05224731 -0.111944936 0.06285438
0002d0 0b c1 c4 bd 29 0d 77 bc 52 a6 8a bd 88 b9 ba bc
       -0.096071325 -0.015078821 -0.06770004 -0.022793546
0002e0 3d 1e 13 be 53 54 47 bd 81 8b c8 3d 86 b4 42 bd
       -0.14367004 -0.048664402 0.09792233 -0.04753544
0002f0 0d 84 4a 3e 5c e6 4b be 24 c1 fe 3c 0a 3e 47 3e
       0.19776936 -0.19912094 0.031097956 0.1945726
000300 3c d1 b7 bc ef 85 36 bb 4b 98 10 3e 94 9a 1d bd
       -0.022438638 -0.0027850827 0.14120595 -0.038477495
000310 62 52 4c be 5e 9b 8c bd df 95 b2 bb a8 6b 7c be
       -0.19953302 -0.068655714 -0.005449995 -0.24650443
000320 46 11 83 bd af 17 88 3d b0 fb 07 3e d3 41 0f bc
       -0.06399779 0.06645142 0.13279605 -0.008743721
000330 12 8f 44 3e 3a 9d 9b 3d 11 38 a1 3d db e4 c7 bc
       0.19195202 0.07598348 0.07872022 -0.024401119
000340 cf 24 c8 3d 71 54 96 3d 1a 70 e6 3a 70 4e 11 3e
       0.09772646 0.07340325 0.0017581016 0.14190078
000350 c8 0c 6b bd 21 03 71 3d 22 12 39 3e 07 56 3a bd
       -0.057385236 0.058840875 0.18073323 -0.0454922
000360 7b f3 2f 3e 96 4b 44 3d e1 b2 1b bd eb 3e 77 3d
       0.17182724 0.047923647 -0.03801239 0.060362738
000370 7f 57 fa 3d d3 f4 a6 bd d9 05 3e bd 2c 76 47 bc
       0.1222372 -0.08152165 -0.046392296 -0.01217417
000380 a4 40 0a 3e 96 1b ea 3d 44 00 cf 3d 1d 99 c4 3d
       0.13501221 0.11431043 0.101074725 0.095995165
000390 0f 3b 85 bd 55 c5 4b bd f5 81 b3 bd ad 8c 95 bd
       -0.06505405 -0.049748737 -0.08765022 -0.073022224
0003a0 cc 49 91 bd 04 a2 23 3e 83 77 b2 bc 3e 22 04 3e
       -0.07094154 0.15979773 -0.021785503 0.12903687
0003b0 02 8b aa bd 0c c4 4c bd 75 37 1f bc a0 a3 af 3d
       -0.08327295 -0.049991652 -0.009717812 0.08576131
0003c0 0d f5 ab bc e5 3f 48 3d eb f1 1e be 82 c4 c5 3d
       -0.020990873 0.04888906 -0.15521972 0.096566215
0003d0 bf 86 27 3e 0b da fe 3d 7d c9 8b 3d 40 fe 99 3c
       0.16359995 0.12443932 0.0682554 0.018797994
0003e0 92 5b be bd c4 91 e5 bd 60 f8 c0 bb d5 97 38 bc
       -0.092948094 -0.11209443 -0.0058889836 -0.011266668
0003f0 52 05 33 be 29 28 dd bd 21 d4 24 bd 1d 81 de bd
       -0.17482498 -0.107986756 -0.040241364 -0.1086447

bn2.weight f4 [64]
000000 52 44 9c 3f 1f 8e 93 3f 22 04 95 3f 6a 38 83 3f
       1.220835 1.1527747 1.1641886 1.0251591
000010 33 43 98 3f 3c 6c 86 3f 9b 6c 9d 3f 5c 84 85 3f
       1.1895508 1.050178 1.2298769 1.0431018
000020 f1 6a 96 3f 5d 90 86 3f c9 5b 8f 3f ac d0 8b 3f
       1.1751386 1.0512806 1.1199886 1.0923057
000030 96 7c 8c 3f 7e 65 8f 3f 39 7e a7 3f 03 af 95 3f
       1.0975521 1.1202848 1.3085395 1.1694034
000040 c9 72 94 3f 6c 6b 97 3f b7 7d 85 3f 2a b7 88 3f
       1.159753 1.1829658 1.042899 1.0680897
000050 8f f5 96 3f 9b ef 8b 3f 50 83 88 3f 57 2c 8d 3f
       1.1793689 1.0932497 1.0665073 1.1029156
000060 0b 2c 99 3f 45 9a 89 3f 03 c6 8f 3f a1 c1 9f 3f
       1.1966566 1.0750204 1.1232303 1.2480966
000070 e2 15 8b 3f 72 ad 92 3f e3 5d 84 3f 72 34 8c 3f
       1.0866053 1.1459181 1.0341152 1.0953505
000080 67 70 96 3f 4c 03 99 3f 5f 0e 97 3f 4d 4a 93 3f
       1.1753052 1.1954131 1.1801261 1.150705
000090 ca 99 99 3f d4 7f 82 3f 8a 25 8e 3f 07 32 8a 3f
       1.2000058 1.019526 1.1105206 1.0796517
0000a0 bc db 89 3f 6c 91 88 3f 93 ce 82 3f 45 45 89 3f
       1.0770183 1.0669379 1.0219291 1.0724264
0000b0 fb 7b ac 3f 43 a3 a0 3f 28 f4 95 3f e0 76 88 3f
       1.3475336 1.2549824 1.1715136 1.0661278
0000c0 c4 38 87 3f e2 57 9b 3f 3a 34 91 3f 13 47 98 3f
       1.0564198 1.2136195 1.1344063 1.189669
0000d0 6e 41 8c 3f 35 5c 8d 3f 23 3f 97 3f 16 ff 8d 3f
       1.0957468 1.1043764 1.1816143 1.1093471
0000e0 41 de a0 3f f7 9e a0 3f 98 57 75 3f 85 4b a3 3f
       1.2567827 1.2548512 0.9583678 1.2757422
0000f0 53 49 92 3f 67 fa 94 3f 9b 71 87 3f 4d e3 8c 3f
       1.1428627 1.1638917 1.0581545 1.1006867

bn2.bias f4 [64]
000000 ac 8f 8c bd cf 2b 0f 3e 80 5e 17 3e e3 22 31 3d
       -0.06863341 0.13981555 0.14782143 0.04324616
000010 fb 6d 47 3e f0 60 27 3e e4 65 53 3e a6 a1 1d 3e
       0.19475548 0.16345572 0.20644337 0.15393695
000020 ed bd d3 3d 8f 61 c8 3d cb 84 09 3e b9 ae 09 3d
       0.1033896 0.09784233 0.13429563 0.033613894
000030 55 e1 31 be b2 c2 8e 3d b2 c6 a2 bd e0 cc ad bd
       -0.17371114 0.06970729 -0.079480544 -0.084863424
000040 e1 1a 18 3e 92 18 65 bd b4 c7 60 3e 9a 0e 06 3d
       0.14854003 -0.055931635 0.2195118 0.03272877
000050 b2 80 dc 3d 34 28 fe 3d b6 3d 44 bd 6a b0 4a bd
       0.10766734 0.12410012 -0.047910415 -0.049484648
000060 3d 55 ed 3d 04 58 ef 3d e1 4b 95 3d 7f 14 59 3b
       0.115885235 0.116867095 0.072898634 0.003312379
000070 33 b4 58 3d 49 23 2d bd 87 7b 3b bd ee 96 80 3e
       0.052906226 -0.04226998 -0.0457721 0.2511515
000080 5e dd be 3d 03 26 09 bd b8 e9 f6 bc 12 79 cc 3d
       0.09319566 -0.033483516 -0.030140743 0.0998403
000090 e1 23 24 3e 65 f2 93 3d c8 97 d4 3d 11 51 02 bd
       0.16029312 0.072239675 0.103805125 -0.031815592
0000a0 4b 4c f4 bc 49 fb b4 bd 51 ae 8f 3d b9 7e e2 3d
       -0.029821536 -0.08836991 0.0701567 0.11059327
0000b0 16 21 85 bd d7 46 39 3e 61 a5 a4 3d c8 63 65 3d
       -0.06500451 0.1809343 0.08039356 0.056003362
0000c0 ad f7 90 3c 12 38 16 3e 24 0d 54 bd b2 ee b0 3d
       0.017696226 0.14669827 -0.051770344 0.086392775
0000d0 49 0c 80 bb 24 00 75 3c 0d 55 e7 3d 13 29 8c 3c
       -0.0039077145 0.014953647 0.11295519 0.01710943
0000e0 65 78 32 3e 34 c1 36 be cb e9 41 3b 64 e1 25 bc
       0.1742874 -0.17847139 0.0029588814 -0.010124538
0000f0 be f9 33 bc 19 df a8 bd 4a f1 23 3d 5d 7f f8 bc
       -0.010984836 -0.082456775 0.040025033 -0.030334169

bn2.running_mean f4 [64]
000000 b9 11 b0 be a2 0f 2b be 86 c6 4f bf 5c 20 d0 be
       -0.3438852 -0.16705182 -0.811623 -0.40649688
000010 60 73 3d bf 60 97 00 40 46 27 12 bf 40 69 b5 3e
       -0.74004173 2.0092392 -0.57091177 0.35431862
000020 5b d3 81 3d ea 67 1d 3d 58 a2 14 bf 43 08 28 bf
       0.06339141 0.03842918 -0.58060217 -0.65637606
000030 7d cd 90 3e 18 9b fc bd 3c 04 85 be 7f f0 a8 be
       0.28281775 -0.12334269 -0.25979793 -0.32995984
000040 91 66 a0 3e 37 7c 5a 3e d4 b5 8b 3f 2a 6f 2d 40
       0.31328252 0.21336447 1.0914865 2.70991
000050 4e f7 2a be 8e f7 e7 3e c1 ac 8b 3f ab 97 0f be
       -0.16695902 0.45306057 1.0912095 -0.140227
000060 c0 b5 14 be 46 c4 e1 bd f6 12 62 be 6e 48 67 be
       -0.14522457 -0.11023764 -0.22077546 -0.22586223
000070 7d 28 6e 3f 11 19 ab 3f a2 4d 11 40 af 07 96 3f
       0.9303053 1.3367025 2.2703633 1.1721095
000080 8b eb 44 be 23 0e 0a 3e 0e 6d b5 3e 60 68 6e 3e
       -0.19230478 0.13481955 0.35434765 0.23282003
000090 89 66 0d be 6a fd 4d bd 36 5b 3b be 4b d2 d4 3d
       -0.13808645 -0.050290503 -0.18296513 0.10391673
0000a0 d6 bd f6 3f c8 01 ff bd 62 1a 4d bf bf 6e 28 be
       1.9276683 -0.124515116 -0.8011838 -0.16448496
0000b0 4a 77 65 be 26 52 a2 3d 1b fc 9b 3c 6c 67 51 3f
       -0.22408786 0.07925825 0.019041112 0.81798434
0000c0 fc 2d bb be e7 5d 87 3e 8e 61 89 3e 62 87 e8 be
       -0.3655852 0.2643883 0.2683224 -0.4541579
0000d0 65 4a 65 be 98 42 b2 3c 70 b7 20 bf ee 8b 85 3f
       -0.2239166 0.02176027 -0.62779903 1.0433328
0000e0 18 65 ff be 9a 53 b6 be fe b4 f7 bf 83 91 8b 3f
       -0.49881816 -0.35610658 -1.935211 1.0903782
0000f0 27 70 9b 3f dd cf b2 bd 94 da f5 bd 1f e8 69 be
       1.2143601 -0.08731053 -0.12004581 -0.22842453

bn2.running_var f4 [64]
000000 92 82 fe 3e 3d ad 25 3e 0a cf b2 3e 84 c5 1b 3f
       0.49708992 0.16179366 0.34923583 0.6084826
000010 4a 8f df 3e 2b b8 b5 40 a0 c5 90 3e e5 b0 20 3e
       0.43664008 5.6787314 0.28275776 0.1569248
000020 cc 52 ad 3e 7c 65 5f 3d 3e af 42 3e 6f 84 74 3f
       0.33852232 0.054540142 0.19012162 0.9551458
000030 76 aa 82 3f 5f 09 da 3d a7 ea 30 3e bd b0 33 3e
       1.020827 0.10646319 0.17277013 0.17547889
000040 ca 93 d6 3d d3 6b 57 3f 14 69 e7 3f 87 74 02 41
       0.10477407 0.841489 1.8078942 8.153449
000050 37 18 51 3d a6 18 49 3e 73 19 98 3e d9 e4 48 3e
       0.051048484 0.19638309 0.29706916 0.19618548
000060 cf 4a 4e 3e 1e 83 b0 3f 14 fb 5f 3d 6a 9f 6a 3e
       0.20145725 1.3790014 0.054682806 0.22912374
000070 6c 71 69 3f 01 63 18 3f 15 25 81 40 53 7f 0c 41
       0.91188693 0.5952607 4.0357766 8.781085
000080 14 e6 43 3e 76 f7 98 3e ee 28 0c 3e 70 f8 9a 3d
       0.19130737 0.29876298 0.13687488 0.07566917
000090 79 1e 53 3e c9 32 3b 3d 0b 82 50 3d 0f c4 5b 3e
       0.20617093 0.04570273 0.05090527 0.21461509
0000a0 c4 9e 67 40 a8 42 16 3e 71 cf 22 40 a3 48 2c 3f
       3.6190653 0.14673865 2.5439112 0.67298335
0000b0 0f 52 41 3e 0d 2b 5c 3e 56 64 f5 3c 7a 4d 0b 3f
       0.18878959 0.21500798 0.02995507 0.54415095
0000c0 e8 1d 7f 3f 86 0a 4d 3e 9b 70 7a 3e 83 7b d0 3d
       0.9965501 0.20023546 0.24457018 0.10179808
0000d0 a3 ed ee 3d 29 d2 40 3d de bd 7f 3e 6d 96 12 3f
       0.11666419 0.047075424 0.24974772 0.5726078
0000e0 f4 8f 91 3e 78 1f a0 3f 83 01 39 40 d0 a9 33 3f
       0.2843014 1.2509604 2.8907173 0.7018099
0000f0 11 55 d8 3e 61 4e 3b 3e 83 91 73 3f 12 a8 89 3e
       0.422524 0.18291618 0.9514391 0.2688604
