models/booster/3-2.pth (torch, 49018 bytes, 18 tensors)

conv1.att_src f4 [1, 1, 128]
0	0xbf5644d9	-0.83698803
1	0x3e684437	0.22682272
2	0xbe495fc7	-0.19665442
3	0xbe7009bf	-0.23441218
4	0xbe3d7213	-0.18500547
5	0xbe4ae816	-0.19815096
6	0xbec825d7	-0.3909137
7	0xbe06c9af	-0.13162874
8	0xbe618a96	-0.22025523
9	0xbef7345c	-0.48282135
10	0x3e027f55	0.12743886
11	0x3e6976a5	0.22799166
12	0x3f24ca1c	0.64370894
13	0x3ee7df14	0.45287383
14	0x3ed464ff	0.41483304
15	0x3daa0b05	0.08302883
16	0xbeabc9cc	-0.33552396
17	0xbf49fbf2	-0.78900063
18	0x3e3f4e26	0.18682155
19	0x3dd8dee2	0.105893865
20	0x3efca071	0.49341157
21	0x3c0cc6ec	0.008592349
22	0xbedc5860	-0.43036175
23	0x3c385405	0.011250501
24	0x3f28eaa0	0.6598301
25	0xbdeffab4	-0.1171774
26	0x3ed0a179	0.40748194
27	0xbdaf02b5	-0.08545438
28	0x3f3e8f79	0.7443767
29	0x3f765bee	0.96234024
30	0x3f04be73	0.518531
31	0xbf5bd066	-0.85864866
32	0xbd2cd884	-0.042198673
33	0x3e360440	0.17775059
34	0x3ef957bf	0.48699757
35	0x3f065ba6	0.52483594
36	0xbed5b1ce	-0.41737217
37	0xbe8deba4	-0.27718842
38	0x3de9cecd	0.11416397
39	0xbe3d0263	-0.18457942
40	0xbf334123	-0.70021266
41	0x3de4bb7e	0.11168574
42	0xbf0cb291	-0.5495997
43	0xbe8e7c6c	-0.278293
44	0xbf1336d0	-0.5750551
45	0x3dca7210	0.09885037
46	0x3dc6c334	0.09705201
47	0xbd9268b0	-0.07148874
48	0x3e23c33f	0.15992449
49	0xbde84355	-0.113409676
50	0xbe86d507	-0.26334402
51	0x3ee0e8d4	0.43927634
52	0xbe5ef6fc	-0.21773905
53	0xbe37fc92	-0.17967442
54	0x3d328cd4	0.043591335
55	0x3ee1e890	0.44122744
56	0x3ed26040	0.41089058
57	0xbe7a1dc8	-0.24425423
58	0xbe709d94	-0.23497611
59	0xbe7c31be	-0.2462835
60	0x3e9ebe4e	0.31004566
61	0xbebd04e9	-0.3691781
62	0xbe1878c3	-0.14889817
63	0xbc8a99d2	-0.01691905
64	0x3e6f5afa	0.23374549
65	0xbe06f0ee	-0.13177845
66	0xbea333e0	-0.31875515
67	0x3defeebc	0.11715457
68	0xbec0dc1c	-0.3766793
69	0x3e14f34a	0.14545932
70	0xbd6bc06d	-0.05755656
71	0xbe44e30f	-0.19227241
72	0x3e256e65	0.16155393
73	0xbe857b58	-0.26070666
74	0x3e9b091d	0.3028039
75	0xbd9ee8a9	-0.0775922
76	0x3f194e87	0.5988545
77	0x3cb6c5ed	0.022311175
78	0x3e33065d	0.17482896
79	0x3e59dc4a	0.2127544
80	0xbe4f6518	-0.20253408
81	0xbf13e764	-0.5777495
82	0xbe8c2560	-0.27372265
83	0xbe66f46d	-0.22554179
84	0x3e720f8f	0.23638748
85	0xbe1a052b	-0.15041034
86	0xbe668bea	-0.2251431
87	0x3e2636c7	0.16231833
88	0x3ddec2fd	0.10877035
89	0xbe720f53	-0.23638658
90	0x3db338e4	0.087510854
91	0xbdc2f7cf	-0.09519922
92	0x3dee45d0	0.116344094
93	0xbdbd4b05	-0.092428245
94	0xbe42385f	-0.18966816
95	0xbf89c4cc	-1.0763183
96	0x3db9ebb8	0.09078163
97	0xbe4c881f	-0.19973801
98	0x3b8a1581	0.0042139892
99	0x3f3535bd	0.70785123
100	0xbf0e011f	-0.5547046
101	0xbeedfc9b	-0.46481785
102	0x3ea1d784	0.31609738
103	0xbdc9b2ca	-0.098485544
104	0xbe8f5c78	-0.28000236
105	0xbecd01ec	-0.4004053
106	0xbe10e34a	-0.14149204
107	0x3dea82cb	0.11450728
108	0xbe94d993	-0.29072246
109	0xbe64429e	-0.22291037
110	0xbeaf81f2	-0.34278828
111	0x3f00cf20	0.5031605
112	0x3f48d128	0.7844415
113	0xbf606365	-0.87651664
114	0xbe5127f7	-0.20425402
115	0x3df93b07	0.12169462
116	0x3e82822d	0.2548994
117	0x3e8344b4	0.25638354
118	0x3dc56257	0.096378975
119	0xbe470d78	-0.19438732
120	0x3eb52b50	0.35384607
121	0x3ddf897a	0.109148934
122	0xbe84009b	-0.25781712
123	0xbe8997a9	-0.2687352
124	0x3ebc6f45	0.36803642
125	0x3f1f5b58	0.62248755
126	0xbe2fdacd	-0.1717331
127	0x3e34abd8	0.17643678

conv1.att_dst f4 [1, 1, 128]
0	0x3afee463	0.0019446727
1	0xbdb395da	-0.08768816
2	0xbe17e0fe	-0.14831921
3	0x3de8c190	0.11365044
4	0xbd5e33b8	-0.05424854
5	0xbdea2ce2	-0.11434342
6	0xbde7c612	-0.11317076
7	0xbdc7f2b7	-0.09763091
8	0xbe32855d	-0.17433687
9	0x3dbb56b3	0.09147396
10	0x3e10fcd2	0.14158943
11	0xbda98df5	-0.08279029
12	0x3cac6cfd	0.021048063
13	0x3db3194f	0.087450616
14	0xbe335129	-0.17511429
15	0x3e21a940	0.1578722
16	0x3d3319bf	0.043725725
17	0x3cc3b922	0.02389199
18	0x3da9a0c3	0.08282616
19	0xbd101188	-0.03517297
20	0x3e2d4c2c	0.16923589
21	0x3e2c877d	0.1684856
22	0x3cec1726	0.028819632
23	0xbe3b6ac2	-0.18302444
24	0xbd17ff4f	-0.037108716
25	0x3e257646	0.16158399
26	0x3e453f1c	0.19262356
27	0xbe176294	-0.14783698
28	0x3da7c123	0.08191135
29	0xbd880e66	-0.06643371
30	0x3e1ebe3a	0.15502253
31	0xbdd159fc	-0.10222241
32	0xbe0637e6	-0.13107261
33	0x3e12c5ab	0.14333217
34	0x3d73c07f	0.05950975
35	0xbd2fa955	-0.042886097
36	0xbd1d7924	-0.038445607
37	0x3df1c48a	0.11805065
38	0x3b86c381	0.0041126614
39	0xbdf19097	-0.117951564
40	0x3e1abe68	0.15111697
41	0xbbc64695	-0.0060508945
42	0xbe339fdc	-0.1754145
43	0x3d12766c	0.035757467
44	0x3ddbe366	0.10736732
45	0x3c81092c	0.015751444
46	0x3cf31fb5	0.029678205
47	0xbe33b84e	-0.17550775
48	0xbe2b897e	-0.16751668
49	0x3e6331c2	0.2218695
50	0xbd391fed	-0.045196462
51	0xbd464227	-0.04840293
52	0xbe2c9830	-0.1685493
53	0x3e4bd492	0.19905308
54	0xbdc0ac81	-0.094079025
55	0x3e41f4e7	0.18941079
56	0x3e0a9fcf	0.13537525
57	0xbd2cc7b3	-0.042182636
58	0x3d260a9b	0.040537458
59	0xbdb58963	-0.08864095
60	0x3dc597b8	0.09648079
61	0x3d0e69de	0.03476893
62	0xbd742fcb	-0.05961589
63	0xbe3f85b4	-0.18703347
64	0xbe1c537d	-0.15266223
65	0x3e26a37f	0.16273306
66	0x3aa1f93c	0.0012357603
67	0xbe5ad6b7	-0.2137097
68	0xbe4c00bf	-0.1992216
69	0x3e68b2d7	0.22724472
70	0xbc52cded	-0.012866479
71	0xbd5860d1	-0.052826706
72	0xbe540ad5	-0.20707257
73	0x3e2b51ca	0.16730419
74	0x3d9256dd	0.07145474
75	0xbe29155b	-0.16512053
76	0xbdc54c7b	-0.09633728
77	0x3de64431	0.11243475
78	0x3e264de0	0.16240644
79	0x3e4ed741	0.201993
80	0x3dddb2ff	0.108251564
81	0x3e299850	0.16562009
82	0xbe592b9b	-0.2120804
83	0xbde88d54	-0.11355081
84	0xbe091e0c	-0.13390368
85	0xbe1766b4	-0.14785272
86	0x3c8acb6b	0.0169427
87	0xbe08380c	-0.1330263
88	0x3e2c1b79	0.16807355
89	0xbe5e31b4	-0.21698648
90	0xbbb49f4d	-0.005512154
91	0x3cc01bbc	0.023450725
92	0xbe0932b7	-0.13398252
93	0xbcb7c6b9	-0.022433626
94	0x3dfa934c	0.12235126
95	0x3d69cccb	0.05708007
96	0xbe560c23	-0.20903067
97	0xbe1f4d07	-0.15556727
98	0x3d8d8e40	0.06911898
99	0x3d8593d0	0.065223336
100	0x3d8b934b	0.06815203
101	0x3d8aadc3	0.06771424
102	0xbe3b403b	-0.1828622
103	0xbd90fd7e	-0.070796
104	0x3dbdd1d6	0.09268539
105	0xbe576487	-0.21034442
106	0xbe2f2a8d	-0.17106076
107	0xbd9e0d5d	-0.077173926
108	0x3ddfecf1	0.10933865
109	0x3d94e76f	0.07270705
110	0x3e269a83	0.16269879
111	0xbc56ad21	-0.013102801
112	0x3da09174	0.07840243
113	0xbd1c33aa	-0.03813521
114	0x3e364fc2	0.17803863
115	0xbdedfbc1	-0.11620284
116	0x3e59a110	0.21252847
117	0xbe510fde	-0.20416209
118	0xbe38ec2d	-0.18058844
119	0x3e48d9a7	0.19614278
120	0xbdca27a0	-0.09870839
121	0x3e281b4f	0.16416667
122	0xbd5a6229	-0.05331627
123	0x3ccf451c	0.025301509
124	0xbdc92e23	-0.09823253
125	0x3e3678cf	0.17819522
126	0x3dfe98da	0.12431498
127	0xbd86d7a5	-0.065841

conv1.bias f4 [128]
0	0x36d9f62a	6.495761e-06
1	0xb91c11e3	-0.00014883983
2	0x37b6cdb8	2.1791886e-05
3	0x3ac649d2	0.0015128201
4	0x3653c85c	3.1558075e-06
5	0xb78a7969	-1.6507418e-05
6	0xb89006c3	-6.8677145e-05
7	0x3b33efd5	0.0027456183
8	0xb6d95339	-6.4767924e-06
9	0x3a865dd3	0.001025135
10	0x389c1286	7.44211e-05
11	0xb497e114	-2.8289708e-07
12	0xb6bb495d	-5.581575e-06
13	0x38e3443b	0.000108369124
14	0xb77e0d96	-1.5142743e-05
15	0x3b822605	0.0039718174
16	0xb7c73962	-2.374937e-05
17	0xb797af60	-1.8082268e-05
18	0x3719b458	9.1615e-06
19	0x398a721d	0.00026406432
20	0x35f2be90	1.8085866e-06
21	0x3c174d86	0.009234792
22	0xb7a11eef	-1.92071e-05
23	0x3a3a6ca6	0.0007111527
24	0x38c7d20e	9.528185e-05
25	0xb98a73b6	-0.00026407622
26	0x3a91b5fa	0.0011116855
27	0xbaf4160d	-0.0018622294
28	0x39e43052	0.0004352355
29	0xb73f52af	-1.1403738e-05
30	0x3a510839	0.00079739426
31	0x3abecdda	0.0014557198
32	0x3ab5bac8	0.0013864869
33	0xb815a22f	-3.5675414e-05
34	0x39ede5a7	0.00045375267
35	0xb616a946	-2.2450272e-06
36	0xbb4e42e4	-0.0031472975
37	0x36c10bed	5.7532366e-06
38	0xb86a7215	-5.5896195e-05
39	0xb771cc38	-1.4412268e-05
40	0x3b67997c	0.0035339287
41	0x3b78ca6e	0.0037962454
42	0x3a87bedc	0.0010356563
43	0x3a1f498e	0.0006076329
44	0x392c07d6	0.00016406117
45	0x394937db	0.00019189662
46	0xb9b6e398	-0.00034883316
47	0x391c81b6	0.0001492564
48	0xba5c3297	-0.00083998725
49	0xb67d4a4e	-3.7743189e-06
50	0x38298814	4.0419472e-05
51	0x3a4ca89b	0.00078071066
52	0x36f33439	7.248044e-06
53	0x3a520884	0.0008012133
54	0xb8d039ea	-9.929e-05
55	0x3a96fb8e	0.0011519061
56	0xba5dcbf7	-0.0008460874
57	0x3575aa44	9.151738e-07
58	0x34c4375c	3.6548124e-07
59	0xbbea5a8e	-0.0071519082
60	0x38294a09	4.036169e-05
61	0x3b18a377	0.0023290792
62	0x3721cde8	9.644289e-06
63	0xb79f03e7	-1.8956094e-05
64	0x363926de	2.7589772e-06
65	0x3a892c93	0.0010465555
66	0x389576c3	7.126995e-05
67	0xb7a5ae24	-1.9750623e-05
68	0xb885d6c3	-6.381937e-05
69	0xb89b10cb	-7.394104e-05
70	0xb8f17525	-0.000115135954
71	0x3a831e57	0.0010003549
72	0x3a90e19c	0.0011053565
73	0xba5821eb	-0.00082448
74	0x33cdc94a	9.582671e-08
75	0x3a61dd7a	0.00086160714
76	0x36e2ce21	6.7593214e-06
77	0x398371b6	0.00025070988
78	0x3989bd07	0.00026271513
79	0xba919a68	-0.0011108639
80	0xb656e28d	-3.2020355e-06
81	0x3a376f23	0.00069974567
82	0x39b5f35e	0.00034704333
83	0x3886dac2	6.430365e-05
84	0xb7e9858a	-2.7837948e-05
85	0x37543ef4	1.2650842e-05
86	0xb7834466	-1.5648267e-05
87	0xbba94751	-0.0051659723
88	0x38175fac	3.6090307e-05
89	0x35b07a19	1.3148557e-06
90	0x397785e9	0.00023605641
91	0x3aa45cc5	0.0012539855
92	0xba97f4dd	-0.0011593361
93	0xba466fa2	-0.0007569735
94	0xba0983f1	-0.0005245796
95	0xb8d27e60	-0.000100371195
96	0xb6e8e093	-6.9402827e-06
97	0xbbdc38a4	-0.0067206193
98	0xbb85a247	-0.004078183
99	0x3ac42d2c	0.0014967076
100	0xb9ced338	-0.00039448752
101	0x363b222d	2.7885064e-06
102	0x36d8842e	6.4526894e-06
103	0x37a51673	1.9679987e-05
104	0x36de68e5	6.628327e-06
105	0xb7dc7eea	-2.6285143e-05
106	0xb7c7c339	-2.3813556e-05
107	0xb8bbee90	-8.9612906e-05
108	0x372a70cf	1.0159055e-05
109	0xba127b35	-0.0005587817
110	0xb6b6ec92	-5.451563e-06
111	0x3831561b	4.228028e-05
112	0x3705754d	7.954729e-06
113	0x37d31b63	2.5165913e-05
114	0x3c1fe252	0.009758549
115	0x38814a8f	6.165087e-05
116	0x37f51c54	2.9219467e-05
117	0x39a3dfbb	0.00031256475
118	0xb7a2c609	-1.9404122e-05
119	0x38e890d0	0.000110895955
120	0x37818426	1.5439535e-05
121	0xb7d527a6	-2.5410041e-05
122	0xb94f3e00	-0.00019764155
123	0xbab4a2b5	-0.0013781401
124	0x375f7f9b	1.3321546e-05
125	0xb8f22838	-0.000115469506
126	0x3b57e25d	0.003294132
127	0xba8ed88e	-0.0010898279

conv1.lin.weight f4 [128, 10]
0	0xbcdf84c3	-0.027284985
1	0x3f451987	0.76992077
2	0x3d816af0	0.06319225
3	0xbe34e0ef	-0.1766393
4	0x3eb28095	0.34863725
5	0xbf181110	-0.59401035
6	0xbe084570	-0.13307738
7	0xbe6f9b98	-0.23399198
8	0xbe12ae3b	-0.14324276
9	0x3d4738df	0.04863822
10	0x3e571ba9	0.21006645
11	0xbf215ee4	-0.63035417
12	0x3e1a7b2f	0.15086053
13	0x3b2a1ace	0.0025955918
14	0xbed19103	-0.40930948
15	0x3ef2a165	0.4738876
16	0x3d5d4f3a	0.054030634
17	0xbe05e51c	-0.1307568
18	0x3e6ce813	0.23135404
19	0xbda319cc	-0.07963905
20	0xbe078293	-0.13233404
21	0x3f100bd5	0.56268054
22	0xbdd31761	-0.103071935
23	0xbe301488	-0.17195332
24	0x3df4da2d	0.11955676
25	0xbf1098e0	-0.5648327
26	0xbdefa91d	-0.11702178
27	0xbd449ba2	-0.047999986
28	0xbe1c819a	-0.15283814
29	0x3e16339e	0.14668128
30	0x3e136d6c	0.1439721
31	0x3eb80803	0.35943612
32	0x3e6f49db	0.23368017
33	0xbb13a161	-0.002252661
34	0x3ec05a67	0.37568972
35	0xbe8f29f4	-0.27961695
36	0xbe042cc7	-0.12907706
37	0x3e6f76a8	0.23385108
38	0xbe1dbace	-0.15403292
39	0xbe0f938f	-0.14021133
40	0x3e087929	0.13327469
41	0x3ee28c14	0.44247496
42	0xbdbb77bd	-0.09153698
43	0xbdf62a7b	-0.12019821
44	0x3db63b7e	0.08898066
45	0xbedc4c17	-0.43026802
46	0xbe437f07	-0.19091426
47	0xbe40f5ac	-0.18843716
48	0x3d2ce1f8	0.042207688
49	0x3d29208d	0.04129081
50	0x3d53eb51	0.051738087
51	0x3f2744b7	0.65339226
52	0xbe14b9ce	-0.14524004
53	0x3cffd949	0.03123154
54	0x3ea172f8	0.31533027
55	0xbf0be002	-0.54638684
56	0x3df1a8e0	0.117997885
57	0xbd7b9ecf	-0.06143075
58	0xbe9a8259	-0.30177572
59	0xbc2ef555	-0.010678609
60	0xbe130253	-0.14356355
61	0x3f40793a	0.7518498
62	0x3e38fded	0.18065615
63	0xbe69cf32	-0.22832945
64	0x3e25b005	0.16180427
65	0xbf52fe90	-0.8241968
66	0x3d958c97	0.07302206
67	0xbe6cca74	-0.23124105
68	0xbe620b07	-0.22074519
69	0x3dc9a650	0.09846175
70	0x3dfb932b	0.122839294
71	0xbe4bc0c0	-0.19897747
72	0xbe62eaf4	-0.2215994
73	0x3b392a42	0.0028253947
74	0x3f1c68b5	0.6109727
75	0xbede72e7	-0.4344704
76	0xbded2f2f	-0.11581265
77	0x3cdb506f	0.026771752
78	0xbd2bbbd5	-0.041927177
79	0xbe2b08ca	-0.16702572
80	0xbd31b1fb	-0.043382626
81	0x3f168926	0.5880302
82	0xbe2d9c38	-0.16954124
83	0x3d59130f	0.05299669
84	0x3e23a98d	0.15982647
85	0xbf16155f	-0.5862636
86	0xbe311a6f	-0.1729524
87	0xbcd5e49d	-0.026109988
88	0xbe93f7fa	-0.2890013
89	0x3df8f6f3	0.12156477
90	0xbd0e9004	-0.034805313
91	0x3f1e44ce	0.6182374
92	0x3e014461	0.1262374
93	0xbc7cd63c	-0.015431937
94	0x3f19051a	0.5977341
95	0xbf5651e9	-0.83718735
96	0x3cd2b66c	0.025721751
97	0xbcf24064	-0.02957172
98	0xbe67885a	-0.22610608
99	0xbe6b897a	-0.23001662
100	0xbe00200c	-0.12512225
101	0xbf11ebcd	-0.5700043
102	0xbe831302	-0.2560044
103	0xbd0bc3d4	-0.034122303
104	0xbdbf7e77	-0.09350293
105	0x3e9b24b2	0.30301434
106	0x3d30a3a4	0.04312481
107	0x3d5b04ef	0.053471502
108	0x3d0a1635	0.033712585
109	0xbd0de161	-0.034638766
110	0x3de4562f	0.11149251
111	0xbf225793	-0.6341488
112	0xbe63e8b0	-0.22256732
113	0xbe349015	-0.17633088
114	0xbed1bbd7	-0.40963623
115	0x3f25dffd	0.64794904
116	0x3e6bcbb0	0.2302692
117	0xbcdf3a22	-0.0272494
118	0x3ce298af	0.027660696
119	0xbe0b5eff	-0.13610457
120	0xbd01b545	-0.031667013
121	0xbf082475	-0.5318063
122	0xbdb7cd1f	-0.089746706
123	0xbe586968	-0.2113396
124	0xbf0f16c9	-0.5589414
125	0x3f1cc161	0.6123257
126	0x3ea5b46d	0.32364216
127	0x3e5f3528	0.21797621
128	0x3e5dee19	0.21672858
129	0xbcbdc879	-0.023166882
130	0xbdc95e4b	-0.09832438
131	0xbe831141	-0.255991
132	0xbda4f288	-0.08054072
133	0x3b497f5f	0.0030746085
134	0xbe045e4f	-0.12926601
135	0x3f2251f0	0.63406277
136	0x3e20e2da	0.15711537
137	0x3e5b2c1a	0.21403542
138	0xbe16bfe9	-0.14721645
139	0x3e373b61	0.17893745
140	0x3c6b84a1	0.014374883
141	0xbf34eb6f	-0.70671743
142	0x3c0d5b61	0.008627743
143	0xbe5e1944	-0.21689326
144	0xbe5543b8	-0.20826614
145	0x3f49215b	0.7856652
146	0x3e8f0d51	0.27939847
147	0xbe26a0f5	-0.16272338
148	0x3e75f938	0.2402085
149	0xbd1919e5	-0.03737821
150	0xbdadd0aa	-0.08487065
151	0x3e4210a1	0.18951656
152	0x3c75ece3	0.0150100915
153	0xba970e2a	-0.0011524607
154	0xbeff6930	-0.4988494
155	0x3eab8cea	0.33505946
156	0x3e7d6a16	0.247475
157	0x3dc31b3e	0.095266804
158	0x3e348255	0.17627843
159	0x3e096f39	0.13421334
160	0x3e1d94e2	0.15388826
161	0x3f2faf6f	0.68627065
162	0x3d80a201	0.062809
163	0x3da03fe5	0.07824687
164	0x3ec81770	0.3908038
165	0xbf09e631	-0.5386687
166	0x3dd98e6f	0.1062287
167	0xbd566679	-0.05234382
168	0x3e099f1d	0.13439603
169	0x3d1c60bb	0.038178187
170	0xbc51cd10	-0.012805238
171	0x3f72d9d1	0.9486361
172	0x3d813518	0.06308955
173	0x3e7fa43a	0.24964991
174	0x3eae1292	0.33998543
175	0xbf409020	-0.7521992
176	0xbdcb86da	-0.0993783
177	0x3cbf0a7b	0.023320427
178	0xbe80a547	-0.25126097
179	0x3dae992e	0.085253105
180	0x3c3091aa	0.0107769165
181	0xbf0118f6	-0.5042871
182	0x3e26fc98	0.16307294
183	0xbde9937c	-0.114050835
184	0xbe15250f	-0.14564918
185	0x3f33a12d	0.7016781
186	0x3e3e5b96	0.18589625
187	0x3da9b977	0.08287328
188	0x3e4aacc8	0.19792473
189	0x3bd81eb5	0.0065954574
190	0x3e381aa6	0.17978916
191	0xbe86c62a	-0.26323062
192	0xbe3bd0d5	-0.18341382
193	0xbbe381c5	-0.00694296
194	0xbe370cd2	-0.17875984
195	0x3e89da27	0.2692425
196	0x3cf66da0	0.03008157
197	0xbe0c86d7	-0.13723312
198	0xbcc330c8	-0.023826972
199	0x3df7a4dd	0.12091992
200	0xbd4c9f5d	-0.04995667
201	0xbf6ca1cb	-0.92434376
202	0xbde847a3	-0.113417886
203	0xbe4132b7	-0.18867002
204	0xbee5f422	-0.4491282
205	0x3f068d54	0.525594
206	0x3d685e72	0.056730695
207	0x3e5fbb4e	0.21848795
208	0x3e3f1835	0.18661578
209	0xbe0dff08	-0.13866818
210	0xbdd75641	-0.105144985
211	0xbe3836c9	-0.17989649
212	0xbec96c7b	-0.39340577
213	0x3a31fa36	0.00067892985
214	0x3f974cf3	1.1820358
215	0xbe8bc4fe	-0.2729873
216	0xbe661d72	-0.2247217
217	0x3d17433c	0.036929354
218	0xbed2bfe9	-0.4116204
219	0xbd1e0831	-0.03858203
220	0xbda926e0	-0.08259368
221	0x3f4a83b2	0.791072
222	0x3dd869f5	0.10567085
223	0xbdac87d6	-0.08424346
224	0x3e88bdc1	0.2670727
225	0xbf388f01	-0.72093207
226	0x3d4e355a	0.05034385
227	0xbdea7af9	-0.114492364
228	0xbe9c7e6a	-0.30565196
229	0xbdf0bb79	-0.117545076
230	0xbd543fbb	-0.05181859
231	0xbe6baca3	-0.23015074
232	0x3e50a543	0.20375542
233	0xbb75415b	-0.0037422988
234	0x3e152c42	0.14567664
235	0x3e9442d0	0.28957224
236	0x3d2d198f	0.042260703
237	0x3d8b9dce	0.06817208
238	0x3ec19c3a	0.37814504
239	0x3c9fe3f7	0.019517882
240	0x3e447982	0.19186977
241	0xbeee31b0	-0.46522284
242	0xbd0eb183	-0.034837257
243	0xbc1b1b73	-0.009466994
244	0xbf0c6938	-0.5484805
245	0x3f615807	0.88024944
246	0x3d8792e8	0.06619817
247	0xbe8e7074	-0.2782017
248	0x3eb1a81d	0.34698573
249	0x3d36f769	0.044669542
250	0xbcc2d8b2	-0.023784969
251	0x3ee348bb	0.44391426
252	0xbb9d7d31	-0.0048061837
253	0xbb48231b	-0.0030538503
254	0x3e0be07c	0.13659853
255	0xbeff5d9e	-0.49876112

bn1.weight f4 [128]
0	0x3f7d24e2	0.98884404
1	0x3f80f5c7	1.0075005
2	0x3f8236fa	1.0173028
3	0x3f7e5691	0.9935084
4	0x3f79722a	0.97439826
5	0x3f79937f	0.97490686
6	0x3f7ae983	0.9801256
7	0x3f7af3d1	0.98028284
8	0x3f713c9e	0.9423312
9	0x3f7b35fa	0.98129237
10	0x3f7b359d	0.9812868
11	0x3f7c924c	0.9866073
12	0x3f7b43b0	0.9815016
13	0x3f750d01	0.9572297
14	0x3f7dd09e	0.9914645
15	0x3f7a7342	0.9783212
16	0x3f8281a2	1.0195811
17	0x3f787996	0.97060525
18	0x3f7bea8c	0.98404765
19	0x3f7596ff	0.95933527
20	0x3f7bcc47	0.9835858
21	0x3f820747	1.0158471
22	0x3f7c29d9	0.98501354
23	0x3f7f034b	0.996144
24	0x3f74eeed	0.9567707
25	0x3f7dbd51	0.99117
26	0x3f800a59	1.0003158
27	0x3f88ffd8	1.0703077
28	0x3f802291	1.0010549
29	0x3f81e143	1.014687
30	0x3f7f21be	0.9966086
31	0x3f7b05f1	0.9805594
32	0x3f8117a3	1.0085338
33	0x3f833356	1.0250041
34	0x3f7e6d29	0.99385315
35	0x3f8161c4	1.0107961
36	0x3f7ac090	0.9795008
37	0x3f7bf29e	0.9841708
38	0x3f7ee523	0.99568385
39	0x3f7ec8fe	0.9952544
40	0x3f7d5af3	0.989669
41	0x3f7764b5	0.9663804
42	0x3f7b7e19	0.98239285
43	0x3f7b1e89	0.9809347
44	0x3f764199	0.96193844
45	0x3f80325f	1.0015372
46	0x3f764447	0.9619793
47	0x3f7ebd15	0.99507266
48	0x3f7a6d67	0.97823185
49	0x3f7acb07	0.97966045
50	0x3f8002b6	1.0000827
51	0x3f78672b	0.9703242
52	0x3f7e5546	0.99348867
53	0x3f7c115c	0.9846399
54	0x3f806b43	1.0032734
55	0x3f7d722f	0.99002355
56	0x3f7d6bf7	0.98992866
57	0x3f7a623f	0.9780616
58	0x3f7ee90a	0.9957434
59	0x3f892011	1.0712911
60	0x3f7d9434	0.99054265
61	0x3f7a31b6	0.977321
62	0x3f74fc6d	0.9569767
63	0x3f7389b4	0.95131993
64	0x3f75760b	0.95883244
65	0x3f7bfd35	0.9843324
66	0x3f749d48	0.9555249
67	0x3f8172c4	1.0113149
68	0x3f82a22a	1.0205739
69	0x3f81468f	1.0099658
70	0x3f85027f	1.0391387
71	0x3f80178a	1.0007184
72	0x3f7d4d79	0.9894634
73	0x3f7e607e	0.99365985
74	0x3f74092e	0.9532651
75	0x3f82ec75	1.0228411
76	0x3f813c10	1.0096455
77	0x3f81bc7c	1.0135646
78	0x3f79c6f5	0.9756921
79	0x3f75a83c	0.9595983
80	0x3f6fc68b	0.9366233
81	0x3f7967ff	0.9742431
82	0x3f7ad73a	0.9798466
83	0x3f7f232e	0.99663055
84	0x3f7e029b	0.99222726
85	0x3f7339ef	0.95010275
86	0x3f7f8b72	0.9982215
87	0x3f80c631	1.0060483
88	0x3f7a2437	0.9771151
89	0x3f80ae98	1.0053282
90	0x3f7aecb0	0.98017406
91	0x3f797554	0.97444654
92	0x3f8a2229	1.0791675
93	0x3f78d18c	0.97194743
94	0x3f885cdc	1.0653338
95	0x3f81e6e2	1.0148585
96	0x3f808098	1.0039244
97	0x3f84c2b2	1.0371916
98	0x3f7c6211	0.9858714
99	0x3f79dc77	0.9760203
100	0x3f7cb633	0.98715514
101	0x3f7e0e77	0.9924082
102	0x3f7e9f60	0.99461937
103	0x3f7b6838	0.982059
104	0x3f7bbad9	0.9833198
105	0x3f7d7813	0.99011344
106	0x3f75fb01	0.96086127
107	0x3f708a42	0.93960965
108	0x3f808356	1.004008
109	0x3f793d4e	0.9735917
110	0x3f82a21e	1.0205724
111	0x3f812651	1.0089818
112	0x3f7cd56c	0.98763156
113	0x3f79d297	0.9758696
114	0x3f904e5b	1.1273912
115	0x3f7c2ca1	0.985056
116	0x3f7cd36e	0.98760116
117	0x3f819903	1.012482
118	0x3f7a5015	0.97778445
119	0x3f7609ea	0.9610888
120	0x3f787b91	0.9706355
121	0x3f77c48c	0.9678428
122	0x3f78d542	0.97200406
123	0x3f866118	1.0498381
124	0x3f825b8c	1.0184188
125	0x3f76b081	0.96363074
126	0x3f80ed81	1.007248
127	0x3f7f6ffd	0.99780256

bn1.bias f4 [128]
0	0xbd19f958	-0.03759131
1	0x3c84428e	0.016145017
2	0x3d40927d	0.047014702
3	0x3c4b483e	0.012407361
4	0xbb6e91ee	-0.00364029
5	0xbd37f7ec	-0.04491417
6	0xbe5a5e40	-0.21325016
7	0xbc77a3a0	-0.015114695
8	0xbd996628	-0.07490188
9	0xbccb6182	-0.024826769
10	0x3b51664b	0.003195184
11	0xbd22627f	-0.039644714
12	0xbc437323	-0.011929306
13	0xbcf87616	-0.030329745
14	0xbcb284cf	-0.021791844
15	0xbd73b049	-0.05949429
16	0x3d36e7af	0.044654544
17	0xbd30dc6e	-0.043178968
18	0xbd836e0e	-0.06417476
19	0xbcab0aa7	-0.020879103
20	0x3b498ab6	0.0030752844
21	0x3e32a4ff	0.17445754
22	0x3c039f54	0.008033592
23	0xbcf937a0	-0.030422032
24	0x3cea9c44	0.028638966
25	0x3cb33126	0.021874022
26	0x3a52764d	0.00080284924
27	0x3dbac086	0.09118752
28	0xbcdc50ca	-0.026893992
29	0xbd20ad45	-0.039227743
30	0x3d29bbde	0.04143893
31	0xbc107222	-0.008816274
32	0xba01671c	-0.0004936324
33	0xbb73d165	-0.0037203666
34	0xbcfeb7b7	-0.031093461
35	0x3d283577	0.041066613
36	0xbc24b39c	-0.010052588
37	0xbc9e88cf	-0.019352345
38	0xbcf3fd73	-0.02978394
39	0xbc9db29b	-0.019250205
40	0xbcd299af	-0.025708048
41	0xbd5eaad7	-0.054362144
42	0xbc5588ed	-0.013033134
43	0xbc440c26	-0.011965787
44	0xbc47b413	-0.012188929
45	0xbd34c9d7	-0.044137802
46	0xbc68da5f	-0.01421222
47	0xbc66662e	-0.0140624475
48	0x3c49ddd4	0.012320954
49	0x3afe3e1e	0.0019397174
50	0x3e091bc2	0.13389495
51	0xbce2ecd1	-0.027700813
52	0x3c3714fb	0.011174436
53	0x3d2c4135	0.042054374
54	0xbd584bc7	-0.052806642
55	0x3d8c444f	0.06848966
56	0xbd51b92c	-0.051201984
57	0xbc2a2794	-0.010385413
58	0x3cc56987	0.02409817
59	0x3d4b297a	0.049600102
60	0xbd6bf8fc	-0.057610497
61	0xbc5faa0f	-0.013651385
62	0xbcdd8951	-0.027043017
63	0xbda3b6ee	-0.079938754
64	0xbd8c369c	-0.068463534
65	0xbcddef69	-0.027091699
66	0xbd1d3b50	-0.038386643
67	0xbdb4c851	-0.0882727
68	0x3c7cfb80	0.015440822
69	0x3d9587f3	0.07301321
70	0x3da758b2	0.08171214
71	0x3cae99b6	0.02131353
72	0xbca4d662	-0.020121757
73	0xbc6378e0	-0.013883799
74	0xbcae9e55	-0.021315733
75	0xbcd8086d	-0.026371205
76	0xbd50afab	-0.05094878
77	0x3d4d07bf	0.050056215
78	0xbd0461a8	-0.032319695
79	0xb9ca6f42	-0.00038611336
80	0xbdbe535f	-0.092932455
81	0xbd8991bd	-0.067172505
82	0x3cde71cd	0.027153874
83	0xbccc1b6a	-0.024915416
84	0x3c07f5f2	0.008298384
85	0xbceb8206	-0.028748523
86	0xbce23b01	-0.027616026
87	0x3d44a4cd	0.04800873
88	0xbc9a37d3	-0.018825447
89	0x3ca71c6a	0.020399291
90	0x3bfe7646	0.007765564
91	0xbc5bf32f	-0.013424679
92	0x3e5a77fc	0.21334833
93	0x3d7bab23	0.061442506
94	0x3e3ece25	0.18633325
95	0xb847990b	-4.758783e-05
96	0xbdfa6402	-0.12226106
97	0x3e1518f9	0.14560308
98	0x3cc0b1e1	0.02352232
99	0x3c8cc1bf	0.01718223
100	0xbb3115f7	-0.0027021149
101	0xbd9075ed	-0.070537426
102	0x3c32168e	0.010869635
103	0x3cd15102	0.025551323
104	0xbdf382fa	-0.11890216
105	0xbd8048a0	-0.06263852
106	0xbe2724ad	-0.16322584
107	0xbcdc3317	-0.02687983
108	0xbd8ce78b	-0.06880101
109	0x3ad90134	0.0016556145
110	0x3bdd111d	0.006746425
111	0x3c1f6c29	0.009730377
112	0x3cb0c13b	0.021576514
113	0x3d1f31ac	0.03886573
114	0x3e8e2030	0.27758932
115	0xbd190575	-0.03735872
116	0xbd526f6d	-0.051375795
117	0xbd146f1e	-0.036238782
118	0xbce8c44d	-0.028413916
119	0xbce49f16	-0.02790789
120	0xbd7b5f7c	-0.061370358
121	0xbd6d5cf0	-0.05794996
122	0x3cd89e5a	0.026442695
123	0x3d48c028	0.04901138
124	0x3d0dd28c	0.03462462
125	0xbce28655	-0.027651945
126	0x3cfc69ef	0.030812232
127	0x3d14fa78	0.036371678

bn1.running_mean f4 [128]
0	0xc3be3ac7	-380.4592
1	0x40c2d0bb	6.08798
2	0xc3b96265	-370.7687
3	0xc0923c62	-4.569871
4	0xc381b76c	-259.43298
5	0x4284c9f1	66.39442
6	0xc3f62baf	-492.34128
7	0x40b151b8	5.5412254
8	0x42e3d534	113.91641
9	0xc205126c	-33.26799
10	0xc293b04f	-73.84435
11	0xc3be63c5	-380.77945
12	0xc3e40126	-456.00897
13	0x40cd5b19	6.4173703
14	0xc3e9e6ef	-467.80417
15	0xc01ae09d	-2.4199593
16	0x4328d1d8	168.8197
17	0x4406a814	538.6262
18	0xc3758904	-245.53522
19	0xc178efe8	-15.558571
20	0xc3cb86f6	-407.05438
21	0xbe2bf236	-0.16791615
22	0xc335fa78	-181.9784
23	0xc0ec2ef3	-7.380731
24	0xc1a04247	-20.032362
25	0xc0d0c1b2	-6.5236444
26	0xc0388af5	-2.8834813
27	0xc00bcc35	-2.1843388
28	0x41583fff	13.515624
29	0x43bcdd92	377.73102
30	0xc08c305f	-4.3809047
31	0xc0984c72	-4.7593317
32	0xc02d5f4e	-2.708942
33	0x440a93e8	554.31104
34	0x4186715e	16.805355
35	0x444c06b7	816.1049
36	0xc0d0b706	-6.5223417
37	0xc321a7e5	-161.65584
38	0xc2b1f4c8	-88.97809
39	0xc387cd52	-271.60406
40	0x407bcb6e	3.9342914
41	0xc0cd9a4f	-6.4250865
42	0x411dc666	9.860937
43	0xc0d3fa71	-6.6243215
44	0x40bc42a8	5.8831367
45	0x41354fff	11.33203
46	0x40c4aebc	6.14633
47	0x40f9393e	7.7882376
48	0x40552153	3.330159
49	0x408ecb83	4.4623427
50	0x43e765b2	462.7945
51	0x40d9be2d	6.804465
52	0x43b9e097	371.7546
53	0x40d50c39	6.657742
54	0xc333f0bb	-179.94035
55	0x40d40ae9	6.626332
56	0xc2bfb4e8	-95.85333
57	0x43e14027	450.5012
58	0xc2f7ae13	-123.83999
59	0xbff6fe2a	-1.9296315
60	0xc38c90a3	-281.12997
61	0xc0c63836	-6.1943617
62	0x431d959f	157.58446
63	0x4105f540	8.3723755
64	0xc2b1299a	-88.58125
65	0xc0e2c782	-7.086854
66	0xc126e9b9	-10.432061
67	0xc1e60ab4	-28.755226
68	0xc372d971	-242.84938
69	0x41a3c1b5	20.469584
70	0x40245b0d	2.5680573
71	0x3fe91f03	1.8212589
72	0x41716d29	15.08915
73	0x40d57a08	6.6711464
74	0xc3840bc9	-264.09207
75	0xc06e2c34	-3.721448
76	0x4428ad83	674.7111
77	0x40cf4fb5	6.47848
78	0xc05a009d	-3.4062874
79	0xc0ed76c8	-7.4207497
80	0xc3ef971b	-479.1805
81	0x40a7c24a	5.242467
82	0xc0c608c8	-6.188572
83	0xc3a75263	-334.64365
84	0xc3a15db9	-322.7322
85	0xc3632568	-227.14612
86	0x43d0c591	417.5435
87	0xc0869864	-4.2061024
88	0xc25d970c	-55.397507
89	0xc335a504	-181.64459
90	0xc1262a72	-10.385363
91	0xc08f9e40	-4.4880676
92	0xbf34e49d	-0.70661336
93	0x4142e685	12.181279
94	0xbe129a7c	-0.14316744
95	0xc38ca81f	-281.31345
96	0xc2bfb1d1	-95.8473
97	0xc01fbf02	-2.4960332
98	0xc0315474	-2.7707796
99	0xc07efccf	-3.9841802
100	0x41874e15	16.913126
101	0xc401af96	-518.7435
102	0xc3c2e2f5	-389.7731
103	0xc35f6f2c	-223.43427
104	0xc3c918b2	-402.19293
105	0xc3d88a63	-433.08115
106	0xc3b4caba	-361.5838
107	0x41ff0fdd	31.882746
108	0xc3d2185f	-420.1904
109	0xc29ac57d	-77.38572
110	0x42bb93ed	93.78892
111	0xc3c20a3a	-388.0799
112	0xc39908d1	-306.06888
113	0x43a0d4d6	321.66278
114	0x3e8709b6	0.26374596
115	0x4323588a	163.34586
116	0x440b6861	557.6309
117	0x411bfbc8	9.74897
118	0x439fcc77	319.59738
119	0x42a14b6c	80.64731
120	0xc35063d7	-208.39
121	0x440625ae	536.58875
122	0x4202a546	32.6614
123	0xc03e3a91	-2.9723246
124	0xc3dff76c	-447.93298
125	0x41bdf430	23.744232
126	0xc14cddc3	-12.804141
127	0xc0f4d70e	-7.651252

bn1.running_var f4 [128]
0	0x481643f0	153871.75
1	0x42081c33	34.02754
2	0x480e7fa7	145918.61
3	0x41c6a230	24.829193
4	0x478b9ffa	71487.95
5	0x4594a089	4756.067
6	0x487bc03e	257792.97
7	0x421a1dd1	38.529118
8	0x4659a823	13930.034
9	0x44932293	1177.0804
10	0x45b2f9aa	5727.208
11	0x48164314	153868.31
12	0x4857f4c7	221139.11
13	0x423d50d5	47.328938
14	0x48636ab7	232874.86
15	0x40fbf40a	7.87354
16	0x46ebca10	30181.031
17	0x4896a49a	308516.8
18	0x477b4bc5	64331.77
19	0x4375f5bd	245.95992
20	0x482bf6c6	176091.1
21	0x400fb22f	2.2452505
22	0x47096720	35175.125
23	0x428c1889	70.04792
24	0x43dc04c0	440.0371
25	0x42376e70	45.85785
26	0x413ebd06	11.921148
27	0x402b070d	2.6723053
28	0x433d4d5e	189.30222
29	0x481429f0	151719.75
30	0x41b4e429	22.611406
31	0x41b92089	23.140886
32	0x416a85fc	14.657711
33	0x489facc3	327014.1
34	0x439a6be5	308.84293
35	0x492cc8c8	707724.5
36	0x42332f7e	44.79638
37	0x46d8d772	27755.723
38	0x46044748	8465.82
39	0x4798a04c	78144.59
40	0x41747ea1	15.280915
41	0x423295de	44.646355
42	0x42c64912	99.142715
43	0x422e7015	43.609455
44	0x4215d3a0	37.456665
45	0x43027c05	130.48445
46	0x422e7d1d	43.62218
47	0x427f1463	63.76991
48	0x411424e7	9.259009
49	0x41903018	18.023483
50	0x485e4f10	227644.25
51	0x4247695e	49.852898
52	0x480f6fc3	146879.05
53	0x42205029	40.07828
54	0x47070705	34567.02
55	0x423d6e5f	47.357784
56	0x461817be	9733.936
57	0x4852d9e4	215911.56
58	0x467ce012	16184.018
59	0x40114cce	2.2703128
60	0x47a405e1	83979.76
61	0x421eb578	39.677216
62	0x46d028d5	26644.416
63	0x428803b3	68.007225
64	0x460292d3	8356.706
65	0x42371801	45.77344
66	0x42ddbde2	110.870865
67	0x4462baef	906.92084
68	0x47750efa	62734.977
69	0x43e17a82	450.9571
70	0x4151728d	13.0904665
71	0x409a5745	4.823153
72	0x43744113	244.2542
73	0x423e1df8	47.529266
74	0x4790a600	74060.0
75	0x419d4400	19.658203
76	0x48ec474c	483898.38
77	0x420e449a	35.566994
78	0x4146cfee	12.425764
79	0x4275d3e0	61.45691
80	0x486e8348	244237.12
81	0x41e2bdf7	28.342756
82	0x422bc6f6	42.944298
83	0x47e7fab2	118773.39
84	0x47d88e56	110876.67
85	0x47573748	55095.28
86	0x4835365a	185561.4
87	0x41c45607	24.542006
88	0x4548fa75	3215.6536
89	0x470953f1	35155.94
90	0x42e1b624	112.85574
91	0x41cdb3a9	25.712725
92	0x40915b27	4.542377
93	0x43283c8c	168.23651
94	0x402d99fd	2.7125237
95	0x47a425af	84043.37
96	0x4618af14	9771.77
97	0x405ae791	3.4203837
98	0x4142673b	12.150203
99	0x418cf33f	17.618773
100	0x439587f2	299.06207
101	0x488bb350	286106.5
102	0x481de43a	161680.9
103	0x474e7a2c	52858.17
104	0x4827dbc5	171887.08
105	0x4842ac19	199344.39
106	0x48077505	138708.08
107	0x4484c98b	1062.2982
108	0x48374eb1	187706.77
109	0x45c7ba00	6391.25
110	0x4612870f	9377.765
111	0x481c4b88	160046.12
112	0x47c2a349	99654.57
113	0x47d686d9	109837.695
114	0x40817345	4.045321
115	0x46deb8da	28508.426
116	0x48a14b9c	330332.88
117	0x42db51fb	109.66012
118	0x47d4959a	108843.2
119	0x45d8b9ae	6935.21
120	0x47344621	46150.13
121	0x48953b2d	305625.4
122	0x448dc6f6	1134.2175
123	0x40b2a03d	5.5820603
124	0x48500b35	213036.83
125	0x441853d9	609.3101
126	0x431e597e	158.34958
127	0x428be26f	69.94225

conv2.att_src f4 [1, 1, 64]
0	0xbdc06ec2	-0.093961254
1	0xbe80f267	-0.25184938
2	0x3e2da270	0.16956496
3	0xbe8295eb	-0.25505003
4	0x3e97e578	0.29667258
5	0xbf0351b9	-0.51296574
6	0xbebb64f7	-0.36600468
7	0x3ecb4f0e	0.3970875
8	0x3ecb7d4e	0.39744037
9	0x3c755864	0.014974687
10	0xbf1c8f33	-0.61156005
11	0xbd9e1a35	-0.07719842
12	0xbedaa38e	-0.42702907
13	0xbf1a775d	-0.60338384
14	0xbeec1df0	-0.4611659
15	0xbda851a6	-0.08218698
16	0x3dd2ecd1	0.102990754
17	0xbef5c081	-0.4799843
18	0xbd910a6d	-0.07082067
19	0xbde11e0d	-0.1099206
20	0x3e567542	0.20943168
21	0xbea3ee3c	-0.32017696
22	0xbea266ad	-0.3171896
23	0xbdf2169e	-0.1182072
24	0xbda7a2e1	-0.081853636
25	0x3d9e5910	0.07731831
26	0xbdfd1915	-0.123583
27	0xbd8e93c9	-0.069617815
28	0x3ecaaa7b	0.3958319
29	0x3e97ef5a	0.29674798
30	0xbebc1636	-0.36735696
31	0x3e4d18d4	0.20029002
32	0x3e11b4d7	0.14229141
33	0x3df798aa	0.12089665
34	0xbf007c58	-0.50189734
35	0xbe88ac48	-0.2669394
36	0x3df6cfd9	0.120513625
37	0xbea5f804	-0.32415783
38	0xbde85632	-0.113445655
39	0xbe699d66	-0.22813949
40	0xb6c720bb	-5.9344725e-06
41	0xbeaf9aeb	-0.3429788
42	0x3d0a254c	0.033726975
43	0xbc8100b0	-0.015747398
44	0x3e4e094e	0.20120737
45	0x3ecc9756	0.3995921
46	0xbf272d6f	-0.653037
47	0x3db4d993	0.088305615
48	0x3e7a064b	0.24416463
49	0xbd9279a8	-0.0715211
50	0x3e5e0d05	0.21684654
51	0xbf099420	-0.53741646
52	0xbe073e6f	-0.1320741
53	0xbd48b78d	-0.049003173
54	0xbe3f2290	-0.18665528
55	0x3ed5c273	0.41749915
56	0x3e2a041a	0.16603127
57	0x3e550166	0.20801315
58	0xbeacc9d7	-0.33747742
59	0x3ed6564c	0.41862714
60	0x3ebc0b47	0.36727354
61	0x3e360309	0.17774595
62	0x3ea75d2c	0.32688272
63	0xbede22be	-0.4338588

conv2.att_dst f4 [1, 1, 64]
0	0xbe2bcb70	-0.16776824
1	0xbedddc72	-0.4333225
2	0xbd3f53ab	-0.04671065
3	0xbda3fa25	-0.08006696
4	0xbea96512	-0.33084923
5	0xbdb23b4c	-0.08702716
6	0xbd8de039	-0.06927533
7	0x3e802685	0.25029388
8	0x3e466ae1	0.19376709
9	0xbe3cf33b	-0.1845216
10	0xbdcffa27	-0.10155135
11	0x3e3c3b6c	0.18382043
12	0x3eb7cf86	0.35900515
13	0xbeb9e3ed	-0.36306706
14	0xbe697f15	-0.22802384
15	0x3da50f07	0.08059507
16	0xbed43803	-0.41448984
17	0x3e23c85f	0.15994404
18	0x3e2512b7	0.1612042
19	0xbed1573b	-0.40886864
20	0xbcba0b56	-0.022710484
21	0x3e06e961	0.13174964
22	0x3e94d2c0	0.2906704
23	0xbdc46b43	-0.09590771
24	0xbe55dbbf	-0.20884608
25	0xbc078f7f	-0.008273958
26	0xbe99983a	-0.29998952
27	0xbebc6d27	-0.36802027
28	0x3df4ad86	0.119471595
29	0x3f00662d	0.5015591
30	0xbe911528	-0.28336453
31	0xbece7156	-0.40320843
32	0xbe53f0bf	-0.20697306
33	0xbd46975a	-0.048484184
34	0x3e6ce7e9	0.23135342
35	0xbe28bc13	-0.16477995
36	0xbca87779	-0.020564782
37	0x3c8f7ff8	0.017517075
38	0x3e159cf5	0.14610656
39	0x3e3f1cce	0.18663332
40	0x3d80fdde	0.06298421
41	0x3df08248	0.11743599
42	0x3e086adc	0.13322014
43	0xbe914868	-0.28375554
44	0x3e4916ac	0.19637555
45	0x3e5763ab	0.21034114
46	0xbbfbb1be	-0.0076811006
47	0x3e25f874	0.16208059
48	0xbe7fac85	-0.24968155
49	0x3c87c7fe	0.016574856
50	0x3c148743	0.009065452
51	0x3e4aa33c	0.19788831
52	0xbea502ac	-0.322286
53	0x3d688a05	0.05677225
54	0xbd4577ef	-0.04821008
55	0xbe6b0647	-0.22951613
56	0x3d9869a4	0.07442024
57	0x3eeface4	0.46811593
58	0xbefdf21a	-0.4959877
59	0xbe08819f	-0.13330697
60	0x3efed0bf	0.49768636
61	0xbf05ce05	-0.52267486
62	0xbea79201	-0.3272858
63	0xbe573fb7	-0.21020399

conv2.bias f4 [64]
0	0x394cb904	0.0001952388
1	0x3b7eb3ee	0.003886457
2	0x3c6edfee	0.014579756
3	0x3bdec960	0.006798908
4	0xbcd33cc7	-0.025785817
5	0x3b977e1a	0.004623187
6	0x3c052a5f	0.008127778
7	0x392df598	0.00016590056
8	0x3b2d9924	0.0026488984
9	0xbc087d8d	-0.008330715
10	0x3beb6cd5	0.0071846046
11	0xbafcb8e0	-0.0019281171
12	0xbc33d03f	-0.010974943
13	0x3a4a4427	0.0007715844
14	0xbbbe4d6d	-0.0058075697
15	0x3b286a9a	0.0025698305
16	0x3ca79676	0.020457488
17	0x3be604d2	0.0070196176
18	0xbbcea60d	-0.006306416
19	0x3c5e34a6	0.013562357
20	0xbc88237c	-0.016618483
21	0x3c3427e7	0.010995842
22	0xbac21848	-0.0014808262
23	0x3bb320d5	0.0054665604
24	0x3c48aac4	0.012247745
25	0x3a8822ed	0.0010386385
26	0xbb9f7daf	-0.0048672776
27	0x3b6e3cf4	0.003635225
28	0x3bafcf54	0.0053652916
29	0xbc596c50	-0.013270453
30	0xbbe0dd4d	-0.0068623186
31	0xbb347301	-0.0027534368
32	0x3b9cf83f	0.0047903354
33	0xbbafabdb	-0.005361063
34	0xbc8d2611	-0.017230066
35	0x3a97ba75	0.0011575954
36	0xbc2149fe	-0.009844301
37	0x3b9e54ae	0.004831872
38	0xbb917aa1	-0.0044396673
39	0x3b9d2995	0.0047962167
40	0xbbb75a77	-0.005595501
41	0xbc896d24	-0.016775675
42	0x3ad0645f	0.0015899054
43	0x3bdb3e8f	0.006690807
44	0xbc0e408d	-0.008682382
45	0xbb299fc1	-0.0025882574
46	0x3b88b69f	0.0041721608
47	0x3c2de7da	0.01061436
48	0x3b7eb96a	0.003886784
49	0xbbad53f4	-0.005289549
50	0xbbd6e8a1	-0.0065584932
51	0x3a5fa0bc	0.0008530726
52	0xbb92f8d5	-0.0044852295
53	0xbc123cb1	-0.008925603
54	0xbb7f7ccf	-0.0038984304
55	0x3b55d8e5	0.00326305
56	0xb9c1270f	-0.0003684093
57	0xbb9206d6	-0.0044563813
58	0xbb851c38	-0.004062202
59	0xbc9ad27a	-0.018899191
60	0xb828f6cc	-4.028417e-05
61	0x3aeca0be	0.0018053276
62	0xbbce8dcb	-0.006303524
63	0x3c8dcfdf	0.017311035

conv2.lin.weight f4 [64, 128]
0	0x3dd24a37	0.102680616
1	0x3b93b9fa	0.004508254
2	0xbdab6848	-0.083694994
3	0xbe2705a2	-0.16310742
4	0xbdcd0f51	-0.10012687
5	0xbe0fdce0	-0.14049101
6	0x3e222b5d	0.15836854
7	0x3dae4a98	0.085103214
8	0xbced3519	-0.028955983
9	0x3d9362c5	0.07196573
10	0x3d8a30d1	0.06747592
11	0x3ded89cf	0.115985505
12	0xbcfc5e78	-0.030806765
13	0x3cb373aa	0.021905739
14	0x3db34e77	0.087552
15	0x3dcdd9be	0.10051297
16	0x3dcbc51b	0.09949704
17	0xbd216474	-0.03940244
18	0x3c4c470b	0.01246811
19	0x3e106204	0.1409989
20	0xbe0d2f21	-0.1378751
21	0xbda0cd84	-0.07851699
22	0xbcb2aecc	-0.021811865
23	0xbe10013c	-0.14062971
24	0x3c1c687f	0.009546398
25	0xbe210558	-0.15724695
26	0xbe132fd3	-0.14373712
27	0x3d72487b	0.059151154
28	0x3d910cd9	0.070825286
29	0xbbe380fc	-0.0069428664
30	0x3df9d555	0.12198893
31	0x3dc4196c	0.09575161
32	0x3e1790af	0.14801286
33	0x3e475c2a	0.19468752
34	0xbddd2d12	-0.10799612
35	0x3e485ead	0.19567366
36	0xbd27cbc1	-0.0409658
37	0x3e02f2d9	0.12787952
38	0xbdfe94d8	-0.124307334
39	0x3ddad55f	0.106852286
40	0x3d06b371	0.032885972
41	0x3e0d2246	0.13782606
42	0xbde11744	-0.10990766
43	0xbce11d71	-0.02747986
44	0xbd332e72	-0.043745466
45	0xbd038869	-0.032112513
46	0x3c15788b	0.009122978
47	0xbe2b096c	-0.16702813
48	0x3e092e08	0.13396466
49	0x3d66f54c	0.056386277
50	0x3e33286e	0.17495891
51	0x3d8e0d99	0.06936187
52	0xbd62ef0b	-0.05540375
53	0x3e07b3f4	0.1325224
54	0xbdc49ee1	-0.09600616
55	0x3cc3ac66	0.023885917
56	0x3dff3467	0.12461167
57	0x3b58b5bf	0.0033067313
58	0xbdcd1e48	-0.10015541
59	0x3d6694a2	0.05629409
60	0x3e0403ad	0.12892027
61	0xbd92510b	-0.07144364
62	0xbdc4f70b	-0.09617432
63	0xbe071231	-0.13190533
64	0xbca075cf	-0.019587426
65	0x3e11448f	0.1418631
66	0x3d8a816e	0.06762968
67	0x3dcce8bd	0.10005329
68	0xbe56022d	-0.20899267
69	0x3e2c8f74	0.16851598
70	0x3de87f6c	0.11352429
71	0x3d8e71f7	0.06955331
72	0x3c48ad2a	0.012248317
73	0x3e0efbd7	0.13963257
74	0xbdbbb018	-0.091644466
75	0x3e4a6133	0.19763641
76	0xbdfb781e	-0.1227877
77	0xbe0d8fc6	-0.13824376
78	0x3c996a1e	0.018727358
79	0x3e2054bb	0.15657322
80	0x3e13b7f4	0.14425641
81	0xbdb6103a	-0.08889814
82	0x3ba1a960	0.004933521
83	0xbd4baa3f	-0.049722906
84	0x3d62f4a8	0.055409104
85	0xbad48178	-0.0016212901
86	0xbd341b60	-0.04397142
87	0xbcf563c6	-0.029954802
88	0xbc181da8	-0.009284414
89	0xbe217e78	-0.157709
90	0x3d10271e	0.035193555
91	0xbd2e2991	-0.04252011
92	0xbe325351	-0.17414595
93	0x3dce9517	0.100870304
94	0x3d317733	0.043326568
95	0x3d3d519b	0.046220403
96	0x3dc38b8e	0.09548102
97	0xbdc68842	-0.09693958
98	0xbded187e	-0.11576937
99	0xbcd118be	-0.025524493
100	0xbe0edd46	-0.13951597
101	0x3dc56429	0.09638245
102	0x3d260590	0.04053265
103	0xbd925d4d	-0.07146702
104	0x3d1a2348	0.037631303
105	0xbd65fc5a	-0.056148864
106	0x3e0a2c45	0.1349345
107	0xbd8ca9c4	-0.06868318
108	0x3d76e93f	0.060281035
109	0x3e0286aa	0.12746683
110	0x3dc216c7	0.09477001
111	0xbda54162	-0.080691114
112	0xbdb5e5ae	-0.088816985
113	0xbd2f1fd2	-0.042754956
114	0xbe113648	-0.14180863
115	0xbdfe4763	-0.1241596
116	0xbb3e470e	-0.002903405
117	0x3e3b8904	0.18313986
118	0xbe03e770	-0.12881255
119	0x3dff374f	0.12461721
120	0x3d58bfa1	0.052917127
121	0xbd617e72	-0.05505223
122	0xbe0cffaf	-0.1376941
123	0x3da1aadc	0.07893917
124	0xbd2195d7	-0.03944954
125	0xb9ab6ea9	-0.0003269811
126	0xbdce06bc	-0.10059878
127	0x3dc56140	0.096376896
128	0x3e3a6e73	0.18206196
129	0xbd77679a	-0.060401537
130	0x3da7447b	0.081673585
131	0x3da52c5f	0.08065104
132	0xbd29c581	-0.04144812
133	0x3dd5d922	0.104418054
134	0x3e01a514	0.12660629
135	0xbc1bedaa	-0.009517113
136	0x3e125e89	0.14293875
137	0xbe1e9493	-0.15486364
138	0x3e37edc5	0.17961796
139	0xbe19d6e6	-0.15023383
140	0xbd65a267	-0.056063082
141	0xbc61f9ec	-0.013792496
142	0xbe254249	-0.16138567
143	0xbdfecb9b	-0.124411784
144	0x3da3404a	0.079712465
145	0xbd0f979b	-0.03505669
146	0xbe071714	-0.13192397
147	0x3c8a124c	0.016854428
148	0x3d080960	0.033212066
149	0xbd02e98f	-0.03196102
150	0x3e1536f8	0.1457175
151	0xbd99e611	-0.07514585
152	0xbd9cd47f	-0.07657718
153	0x3e0f203b	0.13977139
154	0xba312cfc	-0.00067587174
155	0xbceb42dd	-0.028718406
156	0xbd270611	-0.04077727
157	0x3b10b977	0.0022083202
158	0xbd910191	-0.07080377
159	0x3deb60e1	0.114930876
160	0xbd218db4	-0.03944178
161	0xbe31639c	-0.17323154
162	0xbe227e3d	-0.15868469
163	0xbd079754	-0.033103302
164	0xbe319e2a	-0.17345491
165	0x3d8bac66	0.06819992
166	0xbdc44b9b	-0.09584733
167	0xbd6cc23e	-0.05780243
168	0x3d7dc5af	0.061956104
169	0x3d2c1cae	0.04201954
170	0xbd85e63a	-0.06538053
171	0x3de7044d	0.11280117
172	0xbda802ec	-0.08203682
173	0x3d88b463	0.06675031
174	0x3ce50146	0.027954709
175	0xbd669a9e	-0.0562998
176	0xbdfe1180	-0.124056816
177	0x3cfc6fa2	0.03081495
178	0xbd3aa0b1	-0.045563404
179	0x3da9a3cc	0.08283195
180	0xbe00c448	-0.12574875
181	0x3db107f9	0.08644099
182	0x3e2cce74	0.1687563
183	0x3e10a841	0.14126684
184	0xbd5f88c8	-0.054573804
185	0x3dd250a5	0.10269288
186	0x3dd4a39e	0.1038277
187	0x3b8a07b5	0.0042123445
188	0xbe1981e9	-0.14990963
189	0xbd8b21cd	-0.06793556
190	0xbbe05d2d	-0.006847045
191	0x3dc288c7	0.094987445
192	0xbd144b64	-0.03620471
193	0x3df4cb22	0.11952807
194	0xbdb7ae61	-0.08968807
195	0xbd875926	-0.066088006
196	0xbdf0ad92	-0.11751856
197	0xbe49ec1d	-0.19718976
198	0x3d5451d2	0.051835842
199	0x3e07f2c6	0.13276204
200	0xbc7e25c5	-0.015511935
201	0x3dda2257	0.10651081
202	0xbd1f9e07	-0.038969066
203	0xbe4170c4	-0.18890673
204	0xbe210607	-0.15724955
205	0xbe622ed7	-0.2208818
206	0xbe1c40aa	-0.15259042
207	0xbd474d4b	-0.048657697
208	0x3e08b2f2	0.13349512
209	0x3d7fab51	0.06241924
210	0x3d066228	0.032808453
211	0x3d71b50d	0.059010554
212	0xbdfb8913	-0.12282004
213	0xbdf5170f	-0.11967289
214	0x3dbc4335	0.09192506
215	0x3cf34fa7	0.029701067
216	0xbe0c7ce0	-0.13719511
217	0x3e3ed054	0.18634158
218	0x3dc73af2	0.0972804
219	0xbdb1c0b0	-0.0867933
220	0xbe82acac	-0.25522363
221	0x3d09ad1b	0.033612352
222	0x3db1a180	0.08673382
223	0x3dcb1d1a	0.0991766
224	0x3bb6f5da	0.005583507
225	0xbca4f915	-0.020138303
226	0xbdb59ad3	-0.08867421
227	0xbc13275c	-0.008981552
228	0x3e04331b	0.1291012
229	0xbd891700	-0.0669384
230	0x3e0d7edd	0.13817926
231	0xbdb4d8e8	-0.08830434
232	0x3daaec42	0.08345844
233	0xbd25f467	-0.040516283
234	0xbc8ec30a	-0.017426986
235	0x3cb88fcd	0.022529507
236	0x3cc4d1b8	0.024025783
237	0xbdbb63e5	-0.09149913
238	0xbd4ab8ad	-0.049492527
239	0xbdca16ae	-0.09867607
240	0x3d104bbb	0.035228472
241	0xbcc6fd48	-0.024290696
242	0x3e45020e	0.19239065
243	0xbe3276d2	-0.17428139
244	0x3d52db0d	0.051478434
245	0x3e24e925	0.16104563
246	0xbe2487ff	-0.16067503
247	0xbd76547a	-0.060139157
248	0x3dcf4cc8	0.10122067
249	0x3da4e125	0.080507554
250	0xbdb441e3	-0.088016294
251	0x3d019b31	0.031642143
252	0x3d9d07d9	0.076675124
253	0x3d907b6b	0.0705479
254	0x3d2265db	0.03964792
255	0xbd3e576c	-0.04647009

bn2.weight f4 [64]
0	0x3f865103	1.0493473
1	0x3f8dd897	1.1081723
2	0x3f881ae0	1.0633202
3	0x3f914481	1.1349031
4	0x3f941fc6	1.1572196
5	0x3f80bf6c	1.0058417
6	0x3f8ec505	1.1153876
7	0x3f7eb3ab	0.994929
8	0x3f8a4947	1.0803612
9	0x3f936047	1.1513757
10	0x3f9099f1	1.1296979
11	0x3f8ab0d1	1.083521
12	0x3f8d4a77	1.103835
13	0x3f82e42d	1.0225884
14	0x3f8822b2	1.0635588
15	0x3f87f9e9	1.0623142
16	0x3f8e8816	1.113528
17	0x3f8c805b	1.0976671
18	0x3f89bdc8	1.0761042
19	0x3f8d061f	1.1017493
20	0x3f90c429	1.1309863
21	0x3f8952e2	1.0728419
22	0x3f90f29a	1.1324036
23	0x3f7ffc71	0.9999457
24	0x3f89b4c9	1.0758296
25	0x3f867f1a	1.0507538
26	0x3f91453a	1.1349251
27	0x3f854c2c	1.0413871
28	0x3f927fe1	1.1445276
29	0x3f85d230	1.0454769
30	0x3f8ced87	1.1009988
31	0x3f84a156	1.0361736
32	0x3f93ede9	1.155698
33	0x3f8fb040	1.1225662
34	0x3f8e8b61	1.1136285
35	0x3f7d46c3	0.989361
36	0x3f8d77ea	1.105222
37	0x3f8bd6e0	1.092495
38	0x3f956cd6	1.1673839
39	0x3f89d84e	1.0769136
40	0x3f8d6677	1.1046895
41	0x3f912b6b	1.1341375
42	0x3f90ee07	1.132264
43	0x3f84253a	1.0323861
44	0x3f8b8600	1.0900269
45	0x3f944b4b	1.1585478
46	0x3f906ac2	1.128258
47	0x3f87b41b	1.0601839
48	0x3f8590e3	1.0434841
49	0x3f8a4b60	1.0804253
50	0x3f8be2fc	1.0928645
51	0x3f94bd20	1.1620216
52	0x3f89349b	1.0719179
53	0x3f8c4ce1	1.0960962
54	0x3f87f987	1.0623025
55	0x3f91bd5f	1.1385916
56	0x3f87d0a9	1.0610553
57	0x3f8b9d0a	1.09073
58	0x3f89d5eb	1.0768408
59	0x3f921c80	1.1414948
60	0x3f7a1315	0.97685367
61	0x3f852c3f	1.0404128
62	0x3f8c93c3	1.0982593
63	0x3f8fd687	1.1237344

bn2.bias f4 [64]
0	0xbdb37be5	-0.087638654
1	0x3d41b4b0	0.047291458
2	0x3c727da5	0.014800464
3	0x3cf94206	0.03042699
4	0x3e3b80b5	0.18310817
5	0xbd8b0169	-0.06787378
6	0x3da4c009	0.0804444
7	0xbd8be967	-0.06831627
8	0xbc1a4466	-0.0094157215
9	0x3e213e53	0.15746431
10	0x3d98d211	0.07461942
11	0x3d4ae042	0.049530275
12	0x3b998e77	0.0046861726
13	0xbd5196e4	-0.05116929
14	0x3c9a8802	0.018863682
15	0xbd0b43a1	-0.034000043
16	0x3e055e89	0.13024344
17	0x3c93990b	0.018017313
18	0x3d876b05	0.06612209
19	0x3dc2b4ab	0.09507116
20	0x3cb89a43	0.022534495
21	0xbd39420b	-0.045229
22	0x3de96f0d	0.113981344
23	0x3bd079e5	0.006362187
24	0x3d5dc17f	0.05413961
25	0xbd780b0f	-0.06055742
26	0x3dd60168	0.10449487
27	0xbbb29f66	-0.0054511307
28	0x3e1caa54	0.1529935
29	0xbd8e64f1	-0.06952847
30	0x3d941685	0.07230858
31	0x3bceee62	0.0063150385
32	0x3e10e943	0.14151482
33	0x3e169da9	0.1470858
34	0x3d3f3e3d	0.046690214
35	0xbd728070	-0.05920452
36	0x3d39c17c	0.045350537
37	0x3db98272	0.090580836
38	0x3d8319b5	0.064013876
39	0x3aa892df	0.0012861154
40	0x3dcfe806	0.10151677
41	0x3d5a7232	0.05333156
42	0x3d9c9bda	0.07646914
43	0xbcdb4ed4	-0.026770987
44	0x3d6b97b2	0.057517715
45	0x3e21ca84	0.1579991
46	0x3deca20a	0.11554344
47	0x3cd4f663	0.025996393
48	0xbd0c4147	-0.03424194
49	0x3c82cdcb	0.01596727
50	0x3de44286	0.11145501
51	0x3dcc6dd0	0.099818826
52	0x3b46fba7	0.0030362399
53	0x3d6ad61d	0.0573331
54	0x3d3cd5a2	0.046102174
55	0x3e0e67dc	0.13906807
56	0x3da2fd9d	0.07958529
57	0x3d2c8325	0.042117257
58	0x3d7e8e19	0.062147234
59	0x3e27b60f	0.16378044
60	0xbd5931ee	-0.053026132
61	0xbd8c0902	-0.068376556
62	0xbc054b6a	-0.008135656
63	0x3ddffcbc	0.10936877

bn2.running_mean f4 [64]
0	0x3e74726c	0.23871773
1	0xbeadb3ae	-0.33926147
2	0x3e9a0bb7	0.30087063
3	0xbcf7a41c	-0.03022962
4	0xbf1ff9fb	-0.62490815
5	0xc0571a9d	-3.3609993
6	0xbe290a71	-0.1650789
7	0x3f886840	1.0656815
8	0xbdfa8250	-0.122318864
9	0xbf275293	-0.65360373
10	0xbe40d8a4	-0.18832642
11	0xbe36bffd	-0.17846675
12	0xbd4b32ef	-0.04960912
13	0xbf9720c0	-1.180687
14	0xbef1a7ae	-0.47198242
15	0x3f849adf	1.0359763
16	0xbf107295	-0.5642484
17	0xbe5cac06	-0.21549997
18	0x3f1a7b34	0.60344243
19	0xbee76412	-0.45193535
20	0x3d303ce9	0.04302684
21	0x3f96abc0	1.1771164
22	0x3cf70450	0.030153424
23	0x3f77c099	0.96778256
24	0xbdb52ec4	-0.088468105
25	0x3f611fed	0.8793934
26	0xbe4293a8	-0.19001639
27	0xbed70539	-0.41996172
28	0xbee7572b	-0.4518369
29	0x3f8205db	1.0158037
30	0xbe8cffc5	-0.27538887
31	0xbefe8111	-0.49707845
32	0xbeb97b1e	-0.36226743
33	0xbf0451a3	-0.5168707
34	0xbe851fe3	-0.2600089
35	0xbe984923	-0.297433
36	0x3e9fc4e8	0.31204915
37	0xbdd54802	-0.10414125
38	0x3e015d80	0.12633324
39	0xbd66d661	-0.05635679
40	0xbec75f82	-0.38940054
41	0xbc878385	-0.016542206
42	0xbde13214	-0.1099588
43	0x3f7aa854	0.979131
44	0x3e789697	0.24276195
45	0xbe959daa	-0.2922185
46	0xbec2a1fa	-0.38014203
47	0x3e403af7	0.18772493
48	0xbf0e7778	-0.55651045
49	0x3ee7aa46	0.45247096
50	0xbf0ebc53	-0.5575611
51	0xbd51beed	-0.05120747
52	0xbefc88db	-0.49323162
53	0xbe91517e	-0.28382486
54	0x3ebf89c7	0.37409803
55	0xbefd03e8	-0.49417043
56	0xbf24b634	-0.6434052
57	0x3dc04360	0.09387851
58	0xbea582fe	-0.32326502
59	0xbec3da7e	-0.38252634
60	0x4052dc12	3.294682
61	0xbf81b1da	-1.0132401
62	0x3e733404	0.23750311
63	0xbe91d78a	-0.28484756

bn2.running_var f4 [64]
0	0x3d83d72a	0.06437524
1	0x3e52b885	0.20578201
2	0x3e2dd2f9	0.16975011
3	0x3dbeb669	0.09312136
4	0x3e8e7e79	0.27830866
5	0x40fb6a85	7.856753
6	0x3e3b2c93	0.18278722
7	0x40050331	2.0783198
8	0x3dada6ad	0.084790565
9	0x3e94001a	0.28906327
10	0x3e36d8e6	0.17856178
11	0x3e2db24b	0.16962545
12	0x3e89e747	0.26934263
13	0x3eda1973	0.4259754
14	0x3eccaa99	0.39973906
15	0x3eebdbff	0.4606628
16	0x3e98bd4f	0.2983193
17	0x3e942482	0.28934103
18	0x3e7467bd	0.23867698
19	0x3e0a2541	0.13490774
20	0x3d0b2a0b	0.033975642
21	0x3f37a101	0.7173005
22	0x3ea009d3	0.31257495
23	0x3fc7e4db	1.5616716
24	0x3e3a50a8	0.1819483
25	0x3eab3bd6	0.3344409
26	0x3df47532	0.11936416
27	0x3d745677	0.05965277
28	0x3ebe6f0d	0.371941
29	0x3ed35b9e	0.41280836
30	0x3e2815b2	0.16414526
31	0x3e7c2804	0.2462464
32	0x3e42b1c1	0.1901312
33	0x3e592c8c	0.212084
34	0x3e5968f1	0.21231438
35	0x3ef949c0	0.4868908
36	0x3e40207b	0.1876239
37	0x3e834ea4	0.25645936
38	0x3e3eb265	0.1862274
39	0x3e4b0b1c	0.19828457
40	0x3e77050a	0.24123016
41	0x3dd88975	0.10573093
42	0x3e9c26e1	0.30498412
43	0x3f07cfd9	0.53051525
44	0x3d8db7d7	0.0691983
45	0x3ea5a1a4	0.32349885
46	0x3e6e7588	0.23287022
47	0x3d47cd7b	0.048779946
48	0x3e027343	0.12739281
49	0x3dd2fb7e	0.103018746
50	0x3e21aab2	0.15787771
51	0x3f513804	0.817261
52	0x3d7b0fe4	0.06129445
53	0x3dc87119	0.09787197
54	0x3e8b66c0	0.2722683
55	0x3ec6e018	0.38842845
56	0x3f00c030	0.50293255
57	0x3d95eb5e	0.07320283
58	0x3e3dc6da	0.18532887
59	0x3e0dc794	0.13845664
60	0x411a802c	9.656292
61	0x3ed7245a	0.42019922
62	0x3e0a3200	0.13495636
63	0x3e23e8f1	0.16006829
