models/booster/3-3.pth (torch, 18938 bytes, 18 tensors)

conv1.att_src f4 [1, 1, 64]
00000000: b818 2bbe 023d abbf 574c 3c3f 57d5 4140
00000010: 475a 70bf 616b 773f c54c 8bbd 0ad8 b13f
00000020: 8c28 5940 1dde e13e db87 02be 2de0 f7bf
00000030: 6969 3240 2eab d9be 4c97 4ebf 99d3 3b3e
00000040: 368c cebf 4433 4640 dce3 aabf 9fd1 f5bf
00000050: 2ec9 603f 51d9 223f 42cc 2abf c485 ea3f
00000060: aeea c83f 4001 103f f9b4 0bbf e56d 9a3f
00000070: a0bd 17be 2b9f 9e3e 7a9a 10c0 9294 1abf
00000080: 510a af3e 0c5d f43f d225 51be 3214 10bf
00000090: d9cd dd3f 4656 0840 8b8c 03be b845 40c0
000000a0: 3484 0cbf 147d 1abf 7303 2d3f 9042 9fbd
000000b0: 5909 ac3f 5b78 7f3e 7651 6340 4aa9 7e3e
000000c0: 1f39 fe3e f7a5 08bf 45a2 8cbf 541e d7be
000000d0: e796 b0bf 5f47 16c0 ad1c 8abf 3955 8f3e
000000e0: f276 fbbe c0bd 2dc0 ac40 00c0 8dd4 d83f
000000f0: 530e 37bf 9740 833d 26b3 97be 01fd eabf
-0.16708648 -1.3377993 0.73553985 3.0286462 -0.9388775 0.9664822 -0.06801752 1.3894055
3.3930998 0.4411477 -0.12747137 -1.9365288 2.7876837 -0.42513412 -0.8069961 0.18342437
-1.6136539 3.096879 -1.3350787 -1.9204596 0.87806976 0.6361285 -0.6671792 1.8322072
1.5696619 0.5625191 -0.5457302 1.2064787 -0.1481843 0.3098081 -2.2594285 -0.6038295
0.34187558 1.9090896 -0.20424584 -0.56280816 1.7328445 2.1302657 -0.12846582 -3.0042553
-0.54889226 -0.60347104 0.6758339 -0.07776368 1.3440353 0.24948256 3.551847 0.24869266
0.49652955 -0.5337824 -1.0987021 -0.42015326 -1.3796052 -2.3481061 -1.0790001 0.27994707
-0.49114186 -2.7147064 -2.0039473 1.6939865 -0.7150623 0.06408804 -0.29628867 -1.8358461

conv1.att_dst f4 [1, 1, 64]
00000000: b89d 6abd 2595 7e3f 32e1 debe b93d f0be
00000010: 9337 38bc 8dc5 0f3e 252d b53e 40ef d3be
00000020: 2071 8fbd 85ef d23d 69d9 003e 63ea f83e
00000030: 0f55 9cbe 0d73 1d3f 092b 393f e9d1 483e
00000040: e044 9e3e c87e d5bd ca2b f63e e1b4 fd3e
00000050: 1676 97be 2fd5 04be 9b75 8e3e 2ab0 95bd
00000060: af6b 39be f29c af3e 35cf 943e b1c7 f2be
00000070: 6060 17bf 93e5 45be f58e 803d 0d58 963c
00000080: 37f9 43bd 72d0 083e a87a ac3e 44b2 933d
00000090: fdf9 c0bd 19ff bc3e 829c 103f 1752 953f
000000a0: 709d f93c ccc3 3f3f 34b4 d1be b42e 853e
000000b0: c7f8 84be 835c 09be 1b96 bd3d b98b 32bf
000000c0: 8dad f3bd 1124 56be eccc db3e cd80 583f
000000d0: 64ef 2ebe b102 683f 2fc6 a3bd 7ab5 cfbe
000000e0: d327 6d3e 684f f83c e53e bc3e 7235 9fbc
000000f0: ed11 c7be f266 e23e fc8e 893e ecfe 013f
-0.05727932 0.99446326 -0.43531185 -0.4692209 -0.011243719 0.14040203 0.35386005 -0.4139347
-0.07003999 0.10299591 0.12582935 0.48616323 -0.30533645 0.6150368 0.7233129 0.19611324
0.30911922 -0.10424572 0.48080283 0.49552062 -0.2958228 -0.12971948 0.278241 -0.07308991
-0.18107484 0.34299427 0.29064336 -0.47417977 -0.5913143 -0.19325857 0.06277267 0.018352533
-0.04784509 0.13360766 0.3368733 0.07211736 -0.094226815 0.36913374 0.5648881 1.1665677
0.03047058 0.7490814 -0.40957797 0.26012194 -0.25971052 -0.13414197 0.09257146 -0.6974445
-0.118983366 -0.20912196 0.4292978 0.84571534 -0.17083508 0.90629107 -0.07996785 -0.40568143
0.23159723 0.030311301 0.36766735 -0.019434664 -0.38880864 0.44219166 0.268669 0.50779605

conv1.bias f4 [64]
00000000: d482 2abc 9410 833b cfc3 35bc c808 99bb
00000010: bdce 5f3c bb0e f5bb 472d a9bc 607e 103b
00000020: 3b44 2fbd 16b1 b23d 8afc 9abc fe4d 4f3c
00000030: 1e14 243e 6b13 053d bd92 5c3c 8189 1dbd
00000040: f576 5fbb 6f0e ecbc 49ad 9d3a 0075 5d3d
00000050: 56e9 76ba cf52 22bd 8270 7e3c 8d39 ea3a
00000060: d764 93bc c12c 94bb 57f6 e43b 9b84 063c
00000070: bd4c 3c3d 9c12 343c c6de d53c a032 27ba
00000080: 6634 ffbc ed64 f336 320e 25bc 675f d73b
00000090: 7349 643a 6f0f 053a cb8b 48bc 2286 693d
000000a0: c801 413c 9277 c63d 3c4b fe3b cf22 b0b9
000000b0: 05e0 a13c 794b c63b 15dd 743b 7069 973c
000000c0: 974d 1fbb 3099 9cbd 49f7 50bd d746 d6bc
000000d0: 3dfb 21bb ec28 48bc 9b44 813a 398b a8bd
000000e0: 2b08 383c 3161 f639 521c cc3c 9d49 0a3a
000000f0: 3105 81bb 73e4 923d b380 e4bc 132a 993c
-0.010407168 0.003999779 -0.011094048 -0.0046702363 0.01366013 -0.0074785626 -0.020651473 0.0022047982
-0.04278968 0.08725183 -0.018919248 0.012652872 0.16023299 0.03248922 0.0134627195 -0.038461212
-0.0034098004 -0.028815476 0.0012029792 0.054066658 -0.0009418925 -0.039629754 0.015529754 0.0017869935
-0.01799242 -0.0045219366 0.006987374 0.008210327 0.04597162 0.010990765 0.026107203 -0.0006378088
-0.031152915 7.2537136e-06 -0.010074185 0.006572652 0.00087084546 0.0005075847 -0.0122403605 0.057012685
0.01178021 0.09690775 0.0077604335 -0.0003359527 0.019760141 0.0060514775 0.003736322 0.018482894
-0.0024307722 -0.07646406 -0.05101708 -0.026156826 -0.00247164 -0.012216788 0.0009862365 -0.082296796
0.011232416 0.0004699319 0.024915848 0.00052752515 -0.0039373864 0.071724795 -0.0278934 0.01869682

conv1.lin.weight f4 [64, 10]
00000000: 695d 71be 42e2 6c3e 6c99 89be 5920 053d
00000010: 414f 693f ec6c 0ebe c1dd 1abe 24a1 aabe
00000020: 3d94 a33e 5a70 85be 629c 4bbe dc3a 3e3f
00000030: f795 94be e6c2 0d3d 0789 f63f 9ca7 ab3f
00000040: 575c 8ebf 29f0 dabd 1609 543e 86bd 74bb
00000050: 4f33 063f 2102 0540 d74e 273f a397 cebc
00000060: 6eba 24c0 a698 5bbe 7054 ab3f 2651 4e3e
00000070: 8568 513f cb60 f6bd 5c76 823e 0786 3bbf
00000080: 3234 1a3e b2b8 39bd 7ebf 37c0 1a9f 1cc0
00000090: 065a 7e3f 82b1 e83e 91d4 57be cb56 273d
000000a0: e96b 30bf 3b68 103e ff2e 8fbe 2d9d c23a
000000b0: 76b8 1dbf 47c0 b740 b02a 943d 0841 b53f
000000c0: f354 223e 0479 abbf 322a 1c3f a95b 77be
000000d0: f5ea b63e 5f98 f93d c362 e4bf 15ab 68bf
000000e0: c0eb 7b3e b719 9dbe 1dc6 4dbf af49 e93e
000000f0: cc4d b33d 96a0 f33e 58fa 12be 2358 11bd
00000100: f81c 6d40 c65b 813f a89c 1bbf 33c9 293f
00000110: 8868 86bf d6c9 6d3f 7e29 ef3e 3cae 6dbf
00000120: 4b68 133f 3f12 943e cf9a 13c0 bb30 4bbf
00000130: b273 c23f b1b1 833e 3d86 1cbf 6dc8 ed3e
00000140: 5868 973e 5ce2 31bd 52e2 643e 9665 903b
00000150: 9489 6dc0 86fe 8ac0 6a13 a83e 0681 3cbf
00000160: e3c1 8c3d f2da dabe 15af 22be 1e0f 87bf
00000170: 4123 bc3c 10e5 d4bc 2a16 ca3f 4b17 a9bf
00000180: 3398 f03e b06a 533f 6f9e 93bf f09c 083f
00000190: 06b4 9cbb ba01 86be 0bdb 5abe ad40 6a3d
000001a0: ff3d 88be 63df a83f f763 003e d4cf ac3e
000001b0: ce11 25bf ae5f 4d3f 09b0 2cbf 1915 9a3d
000001c0: 8b6e 93be afea 6a3c 845f 883f 4525 0040
000001d0: 08df 85bf c580 f0be 0d50 243f ef88 483d
000001e0: 04ff 6e3e b6c1 593e 4068 463e 56ed f4bb
000001f0: 3385 adbc 73e3 64c0 0525 043f 61a6 6abd
00000200: 3f4d 37bd 194b fdbe 6577 73bf 5c51 29c0
00000210: a901 3fbf f6b0 663c 76c8 8a3f 6523 19c0
00000220: bbad e4bf b8b7 4fbe 70eb bfbf 39b9 2bbf
00000230: fecb 1dbf 5373 d83e 51b9 54bf 0f76 7c3d
00000240: 8a1f 9b3f f443 683e 00dd 76bf 3bed c0be
00000250: b4be ac3e 3015 813d d217 cc3e 4073 f2bd
00000260: 3f59 633e 0088 393d 6f61 b53e 2880 00bf
00000270: 46da 703f 32e2 fa3f 93db 85bf bbbe d23e
00000280: e7ee e0be b1e3 4cbe 41e9 03bf 2dc7 663c
00000290: 663e c83f 8a49 883f 5526 a7bf 70d0 8a3f
000002a0: 0d49 3a3f 27ab 5ebf 8d69 b23a 071b cebe
000002b0: 97b0 a93e ea9f 0a3d 484a f5bf a6fc 29c0
000002c0: cafe 473f 292d c4bd 7e35 00be 2104 15bf
000002d0: f9c6 2ebf 479f 6b3e 8f12 fdbe 92a5 8e3c
000002e0: 52f0 b23f 26a9 723f 3db7 c4bf 923a 71bf
000002f0: d2c8 583f e793 353e 554d d6bc 2fd4 d33e
00000300: d0a4 15be 36e3 b33c 54ba 6c3f 4331 0740
00000310: 526d 3ebf 69e3 97bd f6a9 993e 5dc4 b23e
00000320: 859d 4e3e a114 843f f14e 1f3f 4bda 083d
00000330: f753 43c0 0e59 c1bd d0e6 bb3f cdba 143f
00000340: 435a 553e 5957 0cbe 60be ad3e ae71 acbe
00000350: 2765 183e 805d 9b3c d826 6f3f d8aa 34c0
00000360: 11d7 1e3e b6e3 9dbd aaea 04bf 7942 ef3c
00000370: cd30 81bf d3ef 443f 37d1 84bf 0a72 da3c
00000380: 31e8 ef3f 0623 943f 5121 81bf 5ac7 aebe
00000390: feca 0f3e 41cc 6f3e 10cb 363e cf22 64be
000003a0: a628 983d da3b 1bbd 630a 04c0 b866 57c0
000003b0: 6b1a 8e3c 6d41 20bf 0412 babe b0c6 9f3e
000003c0: cd20 8ebb cbd2 06bf c19e 853e 6323 51bc
000003d0: 79c0 81c0 6714 6ebd 47c0 733f 8305 bf3f
000003e0: c131 a9bf c561 0bbf d2dc 7bbe d9af 4cbf
000003f0: 3867 e33d de75 023c f753 27c0 e736 46bd
-0.2357079 0.23133186 -0.26874864 0.032501552 0.91136557 -0.13908738 -0.15123655 -0.33326066
0.31949034 -0.2606228 -0.19883874 0.7430856 -0.29020664 0.034609698 1.9260567 1.3410525
-1.112193 -0.10690338 0.20706591 -0.003734441 0.5242204 2.078255 0.65354675 -0.02521879
-2.5738788 -0.2144495 1.3385143 0.20148143 0.8180011 -0.120301805 0.25480926 -0.73251384
0.15058973 -0.045342155 -2.8710628 -2.4472108 0.99356115 0.45447928 -0.21077181 0.040854257
-0.6891466 0.14102261 -0.27965543 0.0014847867 -0.6160959 5.7422214 0.072347045 1.4160471
0.15852718 -1.3396306 0.61001885 -0.2415606 0.35726133 0.121872656 -1.784264 -0.9088605
0.2460165 -0.3068368 -0.8038042 0.4556403 0.08755073 0.47583455 -0.14353311 -0.035484444
3.704893 1.0106132 -0.60785913 0.6632263 -1.050065 0.928861 0.46711344 -0.92843986
0.57581013 0.2892017 -2.3063238 -0.7937123 1.5191557 0.25721505 -0.6114233 0.46441975
0.29571795 -0.043428764 0.2235196 0.0044066412 -3.711522 -4.3435698 0.32827312 -0.73634374
0.068729185 -0.42745167 -0.15887101 -1.0551488 0.02296603 -0.025988132 1.5788014 -1.3210233
0.4699112 0.8258467 -1.1532725 0.5336447 -0.0047822027 -0.26173192 -0.21372621 0.057190586
-0.266098 1.3193172 0.12538134 0.3375231 -0.6448029 0.8022412 -0.6745611 0.07523555
-0.28795275 0.0143381795 1.0654149 2.0022748 -1.0458689 -0.46973243 0.6418465 0.048958715
0.23339468 0.21265301 0.19375706 -0.0074745817 -0.021181678 -3.5763824 0.5161899 -0.057287578
-0.044751402 -0.49471357 -0.95104057 -2.6455908 -0.7461191 0.014080277 1.0842426 -2.3927853
-1.7865518 -0.20284927 -1.4993725 -0.670795 -0.6163939 0.42275485 -0.8309527 0.061636027
1.2119 0.22682172 -0.9643097 -0.37680992 0.33739245 0.06302869 0.39861923 -0.118383884
0.22202013 0.045295715 0.35425898 -0.5019555 0.9408306 1.9600279 -1.0457634 0.4116114
-0.43932268 -0.20008732 -0.5152779 0.014085573 1.5644042 1.0647442 -1.3058573 1.084486
0.72767717 -0.8697991 0.0013611779 -0.40254995 0.3314254 0.033843912 -1.9163294 -2.6560454
0.7812315 -0.09578926 -0.12520406 -0.58209425 -0.6827236 0.23009978 -0.49428222 0.017412934
1.397959 0.9478935 -1.536842 -0.94229996 0.8468143 0.17732202 -0.026159922 0.4137282
-0.14613652 0.021958929 0.92471814 2.1123817 -0.7438556 -0.07416422 0.30012482 0.34915438
0.20177276 1.0318795 0.6222983 0.033411305 -3.0519998 -0.09440814 1.4679813 0.58097535
0.20835213 -0.13705195 0.33934307 -0.3368048 0.14882337 0.018965483 0.93418646 -2.8229275
0.15511729 -0.07709448 -0.5192057 0.029206501 -1.0093018 0.7692844 -1.0376347 0.026665706
1.8742734 1.1573188 -1.0088292 -0.34136468 0.14042279 0.2341776 0.178509 -0.22278903
0.07429628 -0.037898876 -2.063134 -3.3656445 0.017346581 -0.6259983 -0.3634187 0.31206274
-0.0043374063 -0.52665395 0.26097682 -0.0127647845 -4.054745 -0.058124926 0.95215267 1.4923557
-1.3218309 -0.5444606 -0.24595955 -0.7995582 0.11103672 0.007962672 -2.6144998 -0.048392203

bn1.weight f4 [64]
00000000: 011a 313f 4970 423f 88db 3a3f 6d40 993f
00000010: fc0d a13f b4bc 033f 501f 183f 3ebe 393f
00000020: cf7a a93f 9fd7 703f 5b18 333f 07df 263f
00000030: 734c 563f e516 783f bab2 5d3f a911 7f3f
00000040: 23c0 4d3f 4661 783f 443f 2f3f d34b 543f
00000050: 46b7 2c3f e954 713f d7f3 0f3f 5dab 1d3f
00000060: 6d75 8f3f 1126 093f 305e 4c3f 52f9 853f
00000070: ce43 4a3f ccc5 3a3f 9411 2e3f 2887 293f
00000080: 41f7 8f3f ec5f 603f abd6 9e3f 6777 fb3e
00000090: 2e2d 223f f9a4 4b3f e148 3d3f c4ad 813f
000000a0: 385c 6b3f d879 773f aa92 853f e10e fb3e
000000b0: ac2a 793f aba1 493f acd1 183f a32f 903f
000000c0: 9617 1f3f 1b6b 723f 3fef 5a3f 49ec 373f
000000d0: b841 503f bd64 553f 6af4 123f e695 8a3f
000000e0: 97fc 223f 417e 2c3f 3d52 0c3f 00b6 0b3f
000000f0: 8188 543f 3795 983f 761a 843f 2ba3 4d3f
0.69180304 0.75952584 0.7299123 1.1972786 1.2582393 0.51459813 0.5942278 0.7255591
1.3240603 0.9407901 0.6995904 0.6518406 0.837104 0.96909934 0.8660084 0.9963632
0.803713 0.9702343 0.6845591 0.829282 0.67467153 0.9427019 0.56231445 0.61589605
1.120771 0.5357371 0.7983122 1.0466712 0.7900971 0.72958064 0.6799557 0.6622186
1.1247331 0.87646365 1.2409261 0.49114534 0.6335019 0.79548603 0.7393933 1.0131154
0.9193759 0.96670294 1.0435383 0.4903479 0.9733074 0.7876231 0.59694934 1.1264538
0.62145364 0.9469468 0.8552131 0.7184492 0.8135028 0.8335684 0.57404196 1.0826995
0.6366667 0.6738015 0.54812986 0.54574585 0.8302079 1.1920537 1.0320575 0.803271

bn1.bias f4 [64]
00000000: b26c fabe b974 d5be 1b28 1a3d c253 2fbf
00000010: 00d8 b93f 8588 a9be 8eb5 343e bbd5 43be
00000020: ee95 8c3f 73e4 1b3e dc21 afbe 72a2 e7be
00000030: ec62 d63e 36ce 113f 29b6 263e 8d22 bfbe
00000040: 0b77 283f 12e6 c73c 9c4d d6be b7ac 6fbc
00000050: c967 e83e dbc1 a73b b42b 88be c169 d7be
00000060: 419c 3abf b51a bcbe 8f0a 933e 40b5 8bbe
00000070: 936f 1e3c 45ec 29be 3812 e0be 6a63 b93d
00000080: b848 4e3e a43b 6cbe 74f8 e03e 5850 d0bd
00000090: c057 a8be b640 8dbd 1906 8fbe 2fc9 ef3c
000000a0: 6e57 393e 6025 263f f552 5dbf 3661 d53e
000000b0: 34be 2f3e 5d6d d33d b3bc 22bf 5091 5f3e
000000c0: b3bc e3be d571 74bd 839b 03bf 8fb6 d2be
000000d0: 5ca6 563e 7642 753e 0170 55bf d933 c4be
000000e0: f121 26be f3bd 9fbe 7f31 b4be 10a0 0cbf
000000f0: cec4 ecbc c445 46bd dc8c b73c 5b41 e2be
-0.48911053 -0.41690615 0.037635904 -0.6848718 1.4519043 -0.3311197 0.17647383 -0.191245
1.0983255 0.15223865 -0.3420552 -0.45241123 0.41872346 0.5695528 0.16280426 -0.37331048
0.65806645 0.024401698 -0.41856086 -0.014628581 0.45391682 0.005119545 -0.26595843 -0.4207287
-0.72894675 -0.36739126 0.28718993 -0.2728672 0.009670156 -0.16594036 -0.437639 0.09052165
0.20144928 -0.23069626 0.43939555 -0.10171574 -0.32879448 -0.06897108 -0.2793434 0.029270737
0.18099758 0.6490078 -0.8645471 0.4167573 0.171624 0.10323594 -0.6356918 0.21832776
-0.44479904 -0.05967887 -0.5140917 -0.41154906 0.20961899 0.23951134 -0.8337403 -0.38320807
-0.16223885 -0.31199607 -0.35194013 -0.54931736 -0.028902438 -0.048406377 0.022406034 -0.44190487

bn1.running_mean f4 [64]
00000000: 45ea 7541 4761 8141 e9e3 06c1 7a80 adc1
00000010: 3e16 4b3f 5da6 6842 4120 96c1 2ed6 0b43
00000020: 1ee3 0b40 2bff 5fc1 bdd1 d141 3e7b d940
00000030: 6eef 4ac0 3e57 ca3f 6aa5 dc41 ba01 a941
00000040: de31 c040 0ca9 8541 857c f240 ae81 2b41
00000050: 32b1 9741 7de8 0741 3125 2241 c261 97c1
00000060: ce2c d2c0 f86d 5640 843c 5040 9fd5 2d41
00000070: 9d07 4241 e045 9841 2a17 d640 c3c4 0842
00000080: e85c de40 965f a9c3 6112 0cc0 f469 c641
00000090: e352 e242 1ed3 3bc3 967f a841 ca08 4541
000000a0: 7c1c 04c1 6a99 ebc0 61a0 37c1 d92f 9940
000000b0: 0e16 8b41 00fd d941 96b9 5c42 c309 bd40
000000c0: b21e 1ac1 5e86 e940 46cb 5ac0 0410 afc0
000000d0: d869 7441 a2ab 1141 019f b043 2462 d7c0
000000e0: e01b 65c2 6cf9 5942 24f8 1341 9aea 4743
000000f0: 9095 3641 ba66 4fc1 e8e4 6740 85e5 b3c0
15.369695 16.172499 -8.430642 -21.687733 0.79330814 58.162464 -18.765749 139.83664
2.1857371 -13.999797 26.227411 6.796294 -3.1708636 1.5807874 27.580769 21.125843
6.0060873 16.707542 7.5777 10.71916 18.961521 8.49426 10.13408 -18.922733
-6.5679693 3.350462 3.2536936 10.864654 12.126859 19.034119 6.6903276 34.19215
6.948841 -338.74677 -2.1886218 24.801735 113.16189 -187.82468 21.062298 12.314646
-8.256954 -7.3624773 -11.476655 4.787091 17.385769 27.248535 55.181236 5.9074416
-9.632494 7.2976522 -3.4186568 -5.470705 15.275841 9.104403 353.24222 -6.73073
-57.27722 54.493576 9.248081 199.91641 11.411514 -12.96258 3.6233463 -5.6217675

bn1.running_var f4 [64]
00000000: 1086 4643 bc0e 6043 21af e442 9353 bf43
00000010: f2a5 f53e 3270 2c45 a2bc 7143 c2f8 7446
00000020: c495 4640 0e55 0243 833a 1844 ddbd 1642
00000030: 10a8 2841 4a3d 3142 fecd 2d44 33b2 bd43
00000040: 4462 0b42 1800 5643 d134 5242 3a2f b542
00000050: 2906 6843 e993 8442 6b5c 0143 6b8d 8843
00000060: 25ea da41 8866 4541 e238 5642 87e4 9d42
00000070: 6efe d742 2eff 6143 737b ff41 4258 8a44
00000080: 69d2 2c42 73a3 b547 bdcc 1542 f365 1244
00000090: f89b 2046 7bcb df46 c33e b443 9349 0743
000000a0: a3ce a842 7504 c241 8be8 1e43 a026 2042
000000b0: edb5 4b43 3c70 f943 57a7 1645 2e1e a941
000000c0: 3911 8942 f8b7 1342 96b8 7141 9a0a ab41
000000d0: a438 2443 4305 8c42 c2b5 c447 20ad 4342
000000e0: d7ce 2945 2c23 1845 fa6f 8442 ffd5 fb46
000000f0: 8548 c942 9e83 aa42 b7f3 6e42 9f22 c441
198.52368 224.05756 114.34205 382.65292 0.4797817 2759.0122 241.73685 15678.189
3.102891 130.33224 608.91425 37.685413 10.541031 44.309853 695.2186 379.39218
34.845963 214.00037 52.55158 90.59224 232.02406 66.28889 129.36101 273.10483
27.364328 12.337532 53.55555 78.94634 107.99693 225.9968 31.935278 1106.758
43.20548 92998.9 37.44994 585.59296 10278.992 28645.74 360.49033 135.2874
84.40359 24.252176 158.90837 40.03772 203.71065 498.87683 2410.4587 21.139736
68.53364 36.929657 15.107565 21.380177 164.22125 70.01028 100715.516 48.919067
2716.9275 2434.1982 66.218704 32234.998 100.64164 85.257065 59.738003 24.516905

conv2.att_src f4 [1, 1, 32]
00000000: f61f 433f a4e5 27bf d3a9 8a3d e42d 70c0
00000010: 05d8 15be 2eeb 69bc e7d1 923f de61 7abe
00000020: a0b9 67bf bccf 5d3f a764 afbe fd9b c8be
00000030: 8a9c fd3c 9e5d e9be d65c 4bbf 0a5e 47be
00000040: f3f0 f63e 1264 babf f134 dbbe ac9b 6f3e
00000050: fad6 60bf f1b1 8b3e 20a8 3c3f 6e86 2bbe
00000060: 5d89 b33c cc5f 4ebf 3f19 2dbf 189e 0bbe
00000070: 0576 a53f 5c96 053e ccfe 3c3e 0a2e babe
0.76220644 -0.6558478 0.06770673 -3.752801 -0.14633186 -0.014277263 1.1470307 -0.24451396
-0.90517616 0.866451 -0.3425648 -0.3918151 0.030958433 -0.45579237 -0.7943853 -0.19469467
0.48230705 -1.4561789 -0.4281383 0.23399228 -0.8782803 0.27284196 0.7369404 -0.167505
0.021916086 -0.80614924 -0.6761665 -0.13634527 1.2926642 0.13045639 0.18456572 -0.3636325

conv2.att_dst f4 [1, 1, 32]
00000000: ae9e 3fbf 8326 5e3c 8a8c a63f 7ea1 563f
00000010: 9f07 febe b7f0 4cbf 9767 4c3e 08b8 0b3f
00000020: 691a 41be b6d2 793f 11c9 cb3f 8a25 49bf
00000030: 82fa 90be ae33 0d3f d61a 053f 5f48 babf
00000040: 7cbe 85be 268a 623e f039 55bf 5440 ff3d
00000050: 0678 743e bf9c 31bf 3e5d c0bf 498f c0bd
00000060: 2705 e1be 3b1f a9bd f3a0 863f 3172 acbe
00000070: dceb a4bf 9359 92bf 6064 d5be 2a45 5dbe
-0.748515 0.013558987 1.3011639 0.8384017 -0.4961519 -0.800548 0.19961391 0.54577684
-0.18857731 0.97587144 1.5920736 -0.78572905 -0.28316122 0.5515698 0.51994073 -1.4553336
-0.2612189 0.22123012 -0.8329153 0.124634415 0.2387391 -0.693798 -1.5028455 -0.094023295
-0.43949243 -0.0825791 1.0517868 -0.3368087 -1.2884479 -1.1433586 -0.41678143 -0.21608415

conv2.bias f4 [32]
00000000: b57a ad3d daec 203e 0aba bdbb 354f a2bd
00000010: b40a c83d e0f3 96bd e2e5 c63d e9db bb3d
00000020: d0e8 f1bc 3c84 ed3b 4571 d6bd 9204 e23d
00000030: fd31 9c3d 543d 1fbd bcd4 7d3d 7f59 033d
00000040: 9211 c63d 6022 c13d 9709 3a3d cd49 143d
00000050: 1897 45be cf30 213e 0663 7f3d a782 0cbd
00000060: 9cea 433c f6a6 2f3d 31f3 cabd eab1 78bd
00000070: 2143 25bd a4d1 22be 2678 0f3e 7fb6 873c
0.0847067 0.15715352 -0.00579 -0.07925264 0.097676665 -0.07370734 0.097118154 0.09172804
-0.029529959 0.0072484296 -0.10470823 0.11036028 0.07626722 -0.038876846 0.061970457 0.032067772
0.0967132 0.09430385 0.0454193 0.036203194 -0.19295919 0.15741275 0.062350295 -0.034304287
0.011957791 0.042883836 -0.09909666 -0.060716547 -0.040347222 -0.15900284 0.14010677 0.016566513

conv2.lin.weight f4 [32, 64]
00000000: af92 d83d cbe8 bc3d ed4d d03d de26 37bf
00000010: bcd1 913e 4c97 e33d 6c7c d7bd 0cfc eabb
00000020: 7871 d3bd 936f 173e 7d9a 2ebe 048a 0fbf
00000030: 41f3 363e 866d af3e cc3f d23d 8aa6 a4be
00000040: 055b 42be 6207 75bd 2e20 6bbe c0e9 4fbe
00000050: 9fa4 63be 82d3 d5bd d7a8 21be 6ba1 c1bd
00000060: 8d1a 5ebf 6d1c 803d 29d7 993d 6459 21bd
00000070: cdcb 82bc 028a d2bd e9b2 dcbe bb42 4abe
00000080: 56fd 953e da1d d23c df70 0cbc 4033 cabe
00000090: 301e dbbd 23c4 c93b d122 4abe cf2a 65be
000000a0: b49a cf3c a47c 263e 3f27 d6bd fa9f 163e
000000b0: 80ac dc3d f175 d33d 5ab4 69be ab8c 56bf
000000c0: fbda e4bd 861b 06be bf13 fabd bd8e 353e
000000d0: 4899 b5be 9bf7 36bd 746b 72be a581 f6bd
000000e0: f413 70bd 0231 a53d 9687 0ebd 6813 47bb
000000f0: 275a 7f3d 338d 433e d3a7 4e3d db94 843c
00000100: 6d89 433e 2ec0 543e cf3b af3c 1420 0bbf
00000110: 528f 023f efdc 39bd 4cba 023e 388a dbbc
00000120: 6ad2 15bf 3d48 76be ef26 943d 2eb9 e03d
00000130: 0d14 9bbe edbc 82be 62a2 183e 5b8c 7fbd
00000140: 0646 6e3d ce7a 27be 13d4 983d 7b09 19be
00000150: 4b28 5b3e 7df9 93be 324a a73d 384f dd3c
00000160: e8b6 10be 4cbd 4abd 48c2 84be 8e9a 8dbe
00000170: 2efe 0b3e f9da 12be 1feb 8c3e 2d5a 3cbe
00000180: 9f41 fdbc a016 d3bd df6b a2bd 1bc2 19be
00000190: 8a7a 7b3c 7b71 023d fcdd f4bd 9fef 6b3e
000001a0: e0cb 3dbe 031d 453d 03bd 08bf 6988 503b
000001b0: e404 a7be 5230 acbc c07f 963d 5240 4c3e
000001c0: 9313 433e c8f8 08bd 1567 d43d 093b 8f3e
000001d0: e314 4bbd 4afa 18be 8d7c 913e b2c4 d73e
000001e0: 9ff8 e6bd 07bd 183d 53d7 dabd 1f63 c93d
000001f0: b6d4 c63d 958b 73bd 834b 12be ef99 74bd
00000200: 121e 203e 0b08 0f3e 005f 0f3e de4c 5ebd
00000210: 2294 0e3e 83e4 f3bd 6383 aebe 2e37 63bd
00000220: c25d f0bd 7870 d2bc 44d4 dcbe 4bee 083d
00000230: 4bf6 09be f81a c8bd f0f1 4abe 0b8f 95be
00000240: c3fd 5cbe 8249 853e 2d4a 8c3d 4977 a53e
00000250: 4639 42be fbb6 1ebe 11d7 4abe 675f 833d
00000260: dd27 a6be aa72 9abe 62a0 f33d c436 b43e
00000270: f5b5 e53d 97fb 313e 2647 cabd 9364 7cbe
00000280: bcd2 febe 1693 293e da78 9abe bfdf 143d
00000290: 6c63 05bd bb2b c4bc 4379 923e a4fe 613e
000002a0: 033a 9c3d 1ec4 ff3d 6f31 b0be d078 82be
000002b0: 39e1 aabc 7c51 083e ef84 33be 9ff3 383e
000002c0: de05 213d bf89 a2bc 61c9 0d3f 7437 c13e
000002d0: fb2b 763d a9e9 b03e 7c98 09be 17fc ad3e
000002e0: 4057 7f3e 2e03 0ebe 5075 5d3e 677d 15bd
000002f0: adc9 4e3c b283 11bf 8602 9d3c 2cab 4f3e
00000300: ab5f 80be 8dc6 dabd 8cb3 2ebe 709e c23d
00000310: 505d 12be 6548 ee3c 3b2b d83e f52a 06bf
00000320: ec94 c8bf 54dc d63d 4fa7 863f 1e98 c03d
00000330: 757d efbf 7edd 10bf 5d41 663d 07e4 ff3e
00000340: 92ee dabd 2112 e7be 2197 fc3c f9c5 0b3e
00000350: 6a9d b0be 3929 02be 8819 3c3d 2a93 20be
00000360: 7961 013e 8961 403e 7aa1 a8be 7b71 27bf
00000370: e1d4 8ebe 0a77 98be 2894 fa3e 68f3 293e
00000380: bd1a 8fbd 4d33 89bd fb8e dbbd 1cb5 b93e
00000390: 0737 90be b223 743e 2cba d13e 7c1a 1a3f
000003a0: cfd8 11bf 125d 3c3f 6a15 4cbf c519 313e
000003b0: 19c6 15bf 2ee4 0fbf ba98 b2be da14 043f
000003c0: 823c f53d 6fde 403e e948 edbe b9c5 c9be
000003d0: 5de2 86be 2b2c 893f edda 36be de25 3abf
000003e0: 87d0 86bd b13f b73c 0bfb b83e 577c 063d
000003f0: bdd5 bd3e 0397 c83e 8729 913e 179c bb3c
0.10574853 0.09224089 0.10171113 -0.7154368 0.28480327 0.11112842 -0.105217785 -0.0071711596
-0.10324377 0.14788656 -0.1705112 -0.5606997 0.17866232 0.34263247 0.102660745 -0.3215831
-0.18980034 -0.059821494 -0.22961494 -0.20304012 -0.22230767 -0.104407325 -0.15787064 -0.09454616
-0.86759263 0.06255422 0.07511742 -0.03939189 -0.01596632 -0.10280229 -0.43105248 -0.19752018
0.29294842 0.025649 -0.008571832 -0.39492226 -0.10699117 0.0061574145 -0.19739844 -0.22379611
0.025342323 0.16258484 -0.10456704 0.14709464 0.10775089 0.1032523 -0.22822705 -0.8380839
-0.1117458 -0.13096437 -0.122107975 0.17730232 -0.35468507 -0.04466973 -0.23673803 -0.120364465
-0.05861278 0.08065988 -0.034797274 -0.0030376557 0.062341835 0.19096832 0.05045302 0.016184261
0.19095393 0.20776436 0.021390824 -0.5434582 0.5099994 -0.045376714 0.12766379 -0.026799306
-0.5852419 -0.24050994 0.072339885 0.1097282 -0.30288735 -0.25534764 0.14905694 -0.062389713
0.05817225 -0.1635544 0.07462325 -0.14945023 0.2140209 -0.28901282 0.081684485 0.027015314
-0.14132273 -0.049496934 -0.25929475 -0.27656978 0.1367118 -0.14341344 0.27523133 -0.18393774
-0.03091508 -0.1030705 -0.07930731 -0.15015452 0.01534904 0.031846505 -0.11956403 0.23040627
-0.18534803 0.04812337 -0.5341341 0.0031819588 -0.3262092 -0.021019135 0.07348585 0.19946411
0.19050436 -0.03344038 0.10371224 0.27974728 -0.049580466 -0.14939228 0.28415337 0.42142254
-0.112778895 0.037289646 -0.10685601 0.09833359 0.0970854 -0.059459288 -0.14286618 -0.059717115
0.15636471 0.13967912 0.14001083 -0.054272525 0.13923696 -0.119088195 -0.34084615 -0.055472545
-0.11736633 -0.025688395 -0.43130696 0.03343038 -0.1347286 -0.09770769 -0.19818854 -0.29210696
-0.21581177 0.26032645 0.068500854 0.3231757 -0.1896716 -0.15499489 -0.19808604 0.06414681
-0.32452288 -0.30165607 0.11895825 0.35198033 0.11216346 0.1738113 -0.09876852 -0.24647741
-0.49770153 0.16560015 -0.30170327 0.036346193 -0.03256552 -0.023946634 0.2860814 0.22069794
0.07628252 0.12488578 -0.34412715 -0.25482798 -0.020859348 0.13312334 -0.17531179 0.18061684
0.039312236 -0.019841073 0.55385405 0.3773762 0.060100537 0.3455327 -0.13437074 0.33981392
0.24935627 -0.138684 0.21626782 -0.036496546 0.012621325 -0.56841576 0.019166242 0.2028014
-0.2507299 -0.10682402 -0.17060679 0.09502876 -0.14293408 0.029087255 0.42220482 -0.524093
-1.5670447 0.10491243 1.0519809 0.09404014 -1.8710161 -0.5658797 0.05621468 0.4997866
-0.10690035 -0.4513102 0.030833783 0.1364974 -0.34495097 -0.12711038 0.045922786 -0.15681139
0.12634839 0.18787207 -0.32935697 -0.6540753 -0.2789679 -0.2977832 0.4894116 0.16596758
-0.06987522 -0.06699238 -0.10720631 0.36270988 -0.28166983 0.23841742 0.4096235 0.6019666
-0.5697145 0.73579514 -0.79720175 0.17294987 -0.585054 -0.5620755 -0.34882146 0.51594317
0.119744316 0.18834852 -0.4634469 -0.39408663 -0.26344576 1.0716604 -0.17856951 -0.7271403
-0.06582742 0.022369238 0.3612903 0.032833423 0.37077132 0.39177713 0.28351995 0.022901578

bn2.weight f4 [32]
00000000: f934 aa3f 312e b43f b5e8 883f d40f 3f3f
00000010: 37fc a73f 4b33 9c3f fd2e 973f e93e 983f
00000020: 81db ab3f 9dc5 a33f 01c2 ac3f 2073 b13f
00000030: 0a33 ab3f 8d64 923f e672 a93f 6af9 b93f
00000040: 0368 ae3f eddc a23f ef32 b13f f471 a83f
00000050: 99c8 a73f e240 af3f 8337 bd3f c684 b73f
00000060: 9bd8 a93f db25 a73f b007 893f ca3a b13f
00000070: 4f91 ba3f 2e6d b53f 7ba6 b83f 4b01 a43f
1.3297416 1.4076596 1.0696017 0.74633527 1.3123845 1.2203153 1.1811215 1.1894199
1.3426362 1.2794682 1.3496705 1.3863258 1.3374951 1.1436936 1.3238189 1.452924
1.3625492 1.2723671 1.3843669 1.3159776 1.3108093 1.3691676 1.4782566 1.4337394
1.3269228 1.3058428 1.0705471 1.3846066 1.4575595 1.4173944 1.4425806 1.2812895

bn2.bias f4 [32]
00000000: 9063 19bd 9d9e 38bf 9a96 9a3e 6f79 5bbf
00000010: de25 7f3d 63cb d53d ad15 6dbe e8ae 783e
00000020: 144c 85be 6182 a8bf 70d3 24bf fcd3 653c
00000030: 240a 11bf 16bd f63e c9bf 303e 1443 38be
00000040: b8b7 24bc a12a 183e 2c7b 013d 1fe9 2b3d
00000050: 547d 043e 830d 863e ae28 ffbd e0bd 12bf
00000060: 7411 863e d917 a2be c3fa 36bf bb65 d0bd
00000070: 9906 adbe 5c94 af3d f0b2 5b3e 1f14 b63d
-0.037448466 -0.72117025 0.30193025 -0.8573217 0.062291972 0.104391836 -0.231528 0.24285471
-0.26034606 -1.3164788 -0.6438513 0.014027592 -0.566561 0.48191136 0.1726066 -0.17994338
-0.010053568 0.14860012 0.031611606 0.04197037 0.12938434 0.26182184 -0.12458931 -0.57320976
0.2618519 -0.3165882 -0.7147638 -0.101756535 -0.33794096 0.08573219 0.21454978 0.088905565

bn2.running_mean f4 [32]
00000000: 0f26 fcbe 9b7d 15bf 48d3 f5be ba56 40c0
00000010: 3782 593e dd7f 85be aca5 e23e a239 a13e
00000020: e868 7cbe d6da 823f aacb 683f c982 64be
00000030: c9c8 01bf 5903 343e 8351 2cbf 6b60 fcbe
00000040: cc6a 02bf e678 cfbe 9fc3 ddbf db9f 75bd
00000050: d899 19bf ba75 86bf 125b 33bf 342f 4bbe
00000060: 0298 7cbf dda8 1abe 7873 4fbf 2424 06bf
00000070: 69a5 c73c 93ea 0ebf 6de6 42bf d31d 4dbf
-0.49247786 -0.58394784 -0.48012757 -3.0052934 0.2124108 -0.26074114 0.44267023 0.31489283
-0.24649394 1.0223033 0.90935767 -0.22315516 -0.50697 0.17579402 -0.67311877 -0.4929231
-0.5094421 -0.40521926 -1.7325324 -0.059966903 -0.6000037 -1.0504677 -0.7006084 -0.19842225
-0.98669446 -0.15103479 -0.81035566 -0.52398896 0.024370866 -0.5582668 -0.7613285 -0.80123633

bn2.running_var f4 [32]
00000000: 8942 f83f a3d2 723f 7e2a f23e 4b24 8a40
00000010: 6fed 1c40 e12e bc3f 3d1e c13f 50f4 8d3f
00000020: 37e2 5f3e 6636 bc3d b7e6 3b3e 1032 903f
00000030: cb19 923e d83e 9f3f c505 733f 91f6 8a3d
00000040: df53 d23e b20b be3f 2657 9040 8ecb 753e
00000050: 70a9 ed3e 2115 c33f dc52 6e3e ca54 903e
00000060: 4094 a23f fbc6 283f 3512 6a3e c455 9e3e
00000070: 4b2a a840 0e59 c23f ce7c 433f 60fc 1f3f
1.9395305 0.94852656 0.47298044 4.3169303 2.4519918 1.4701806 1.5087353 1.1090183
0.21863638 0.09190063 0.1834973 1.1265278 0.28535303 1.2441053 0.9493068 0.0678531
0.41079614 1.4847319 4.510638 0.24003431 0.46418333 1.5240823 0.23273796 0.2818969
1.2701492 0.6592862 0.22858508 0.3092481 5.2551627 1.5183427 0.7636231 0.6249447

fc.weight f4 [2, 32]
00000000: f1cb f83e 3dce 65bf 9be8 e3bd 3849 49be
00000010: 160c dd3e 227e 80be cc2a 633e d8fe a53e
00000020: 3047 0dbf 8bd1 923f cd28 483f 2112 01bf
00000030: 624d 2fbf 48b7 d03e 3830 a43e 3664 bd3e
00000040: e066 f6be 7e5d 553e f084 bebe 4c14 b83e
00000050: 4e49 273e 52c0 c0be 717d ee3e f82e 2fbf
00000060: a69e c9be 71f5 f53e 5cd2 6abe e014 8abe
00000070: fa76 043f 86c1 9c3e a654 b8be 68c6 8d3e
00000080: 2fe5 e4be 9db6 683f 2e69 963e e311 b63e
00000090: 9f07 b7be ac3b ad3e 470d bcbe 7b17 c2be
000000a0: d865 fa3e d0fc a0bf 51ac 0abf ab4a bb3e
000000b0: f0a7 1a3f 9f0e 2ebe dfb1 adbe 7832 18bf
000000c0: 7983 c83e abfa b4be 0871 e83e 49b5 debe
000000d0: 6810 ebbe e593 aa3e b6fe eabe 8f72 103f
000000e0: 445b d93e 0f39 04bf cba0 ee3e 47e2 093f
000000f0: b797 13bf 5400 0fbf b479 ca3e 480c ccbe
0.48593095 -0.8976782 -0.1112835 -0.19656837 0.43173283 -0.25096232 0.22184294 0.32420993
-0.5518675 1.1470197 0.7818726 -0.5041829 -0.6847745 0.40764832 0.32068038 0.36990517
-0.48125362 0.20836446 -0.37210798 0.35952985 0.16336557 -0.3764673 0.4658008 -0.68431044
-0.39378852 0.4803882 -0.22931808 -0.2696905 0.51744044 0.30616397 -0.36002082 0.27690434
-0.44706103 0.90903646 0.2937712 0.3556052 -0.35748002 0.3383459 -0.3672888 -0.3790854
0.48905826 -1.2577152 -0.54169184 0.36580405 0.604125 -0.16997765 -0.33924767 -0.5945201
0.39162806 -0.35347494 0.45398736 -0.43497685 -0.45910954 0.3331596 -0.45897454 0.564248
0.42452443 -0.51649565 0.4660705 0.53860897 -0.57653373 -0.55859876 0.39545977 -0.3985312

fc.bias f4 [2]
00000000: 772c 61be 0451 353e
-0.21989618 0.17706686
