models/booster/3-4.pth (torch, 10298 bytes, 18 tensors)

conv1.att_src f4 [1, 1, 32]
000000 97 1c 0a be 24 c7 ca be 30 7b da 3e a3 02 c6 be
       -0.13487469 -0.39605057 0.4267211 -0.38673887
000010 23 20 09 3e c1 04 62 be 1c 5e c3 bf 02 61 d2 be
       0.13391165 -0.22072126 -1.5263095 -0.41089636
000020 7b 36 a0 3e 20 cb ab 3f 53 d2 23 bf 99 c1 32 3e
       0.31291565 1.3421364 -0.63992804 0.17456664
000030 9c 3d 55 3d ec 96 3c bf d0 9b 8d be 88 bc 1f 3d
       0.05206071 -0.7366779 -0.27657938 0.038998157
000040 fb df cc bd 9c 1f 75 3e 1d 50 19 3f 95 bd 86 3e
       -0.100036584 0.2393784 0.5988787 0.26316515
000050 e5 fa c9 bd 39 c5 b4 bf c3 62 57 3f 68 6f 25 bf
       -0.098623075 -1.4122688 0.84135073 -0.6462312
000060 dd 25 75 3e 1d b7 0c bf 50 ab d2 be bf cc 50 bf
       0.23940225 -0.5496691 -0.41146326 -0.8156242
000070 69 d9 c1 3f d8 a4 ff 3e 00 a2 09 bf dd 0f 08 bf
       1.5144473 0.49930453 -0.5376282 -0.53149205

conv1.att_dst f4 [1, 1, 32]
000000 52 d5 7c be 76 00 b0 bb 48 81 93 be 35 d4 df bd
       -0.2469075 -0.0053711487 -0.2880957 -0.10929147
000010 9c 8b a5 be 95 fd a2 3e 1b 94 93 bd cb 18 88 be
       -0.32333076 0.31834093 -0.07205983 -0.26581416
000020 4d 93 d6 bd 7c ba 83 be 99 54 9c bd 69 5e a6 bd
       -0.10477314 -0.25728214 -0.07633323 -0.08123476
000030 17 b7 af be 69 a3 51 3c 1f 2d 8b 3e 89 56 e2 bd
       -0.34319374 0.012795308 0.27182862 -0.110516615
000040 8d 82 81 3e a2 85 c9 be 23 01 34 3e 6e 8f 2e 3e
       0.25294915 -0.39359766 0.17578559 0.17046902
000050 af c9 ef be 4f df 28 3e d3 a9 1c 3e 48 84 ea bd
       -0.4683356 0.16491435 0.15299158 -0.11451012
000060 d0 c2 96 be d7 09 af be 46 0c 16 be ad e9 f1 3d
       -0.29445505 -0.34187195 -0.1465312 0.11812148
000070 15 04 34 3e f1 2e d7 be 75 b7 a1 3d e6 4d fe bd
       0.17579682 -0.42028 0.0789632 -0.12417202

conv1.bias f4 [32]
000000 fc 55 06 bd b8 8e 24 bd cc fb 03 3c 00 3f 85 3d
       -0.032796845 -0.04017517 0.0080556385 0.06506157
000010 a7 91 37 3d b5 24 9c 3b ff 43 ac 39 e0 31 3b 3d
       0.04481664 0.004765118 0.00032857058 0.04570186
000020 13 1d ed 3c c8 bf cf b9 07 40 15 3b 36 c7 c0 bb
       0.028944528 -0.00039625005 0.002277376 -0.005883123
000030 79 61 1c 3d 8b 6f e3 38 d9 e4 55 3d 92 4a 8b 3d
       0.038178895 0.0001084498 0.0522202 0.068013325
000040 6e 76 ca 3c f0 69 18 bd 5e 56 04 3b e0 7d 3a bd
       0.024714675 -0.037210405 0.002019308 -0.0455302
000050 c5 19 9e bb 79 98 75 3a 63 65 08 bd 61 e6 ab 3b
       -0.0048248493 0.00093687285 -0.033299815 0.005245969
000060 92 05 9d 3c 03 32 80 3a 9b 25 9b 3b 7a 51 1d bd
       0.019167695 0.000978053 0.0047347075 -0.03840778
000070 c1 45 17 bc 5b a5 b1 3d 04 63 c2 ba e7 53 8b ba
       -0.009232939 0.08674117 -0.0014830534 -0.0010629863

conv1.lin.weight f4 [32, 12]
000000 3c 11 27 3f 97 34 3f bf 1c 84 b3 3d a9 f1 9a bb
       0.6526067 -0.7468962 0.08765432 -0.004728515
000010 5f 2e 0f bd 4a 7c 67 be 81 5b 8d bc 8e c0 2f bd
       -0.034956332 -0.22606006 -0.017255547 -0.042908244
000020 0e 75 81 bf 45 9d 64 40 12 1e 68 be 8c 51 c9 40
       -1.0113847 3.572099 -0.22667721 6.2912045
000030 57 e1 af 3c e0 f2 6f 3d 49 d5 90 bd 8b 0c 6f bd
       0.021469755 0.058581233 -0.07071931 -0.05836157
000040 78 40 65 be d8 55 e2 3f ec a2 2f ba 68 cd d2 3d
       -0.22387874 1.7682447 -0.00066999975 0.102930844
000050 2a 71 17 3f 12 08 95 bf a5 88 87 3e 4d ec 4b bc
       0.5915705 -1.1643088 0.2647144 -0.012446475
000060 21 b7 8b bd 4b 8d 91 3d 5a 5e 69 3d 40 18 1c 3d
       -0.068220384 0.071070276 0.056974746 0.038109064
000070 43 19 8d be 58 38 3d bf 01 b0 be be 73 00 4f be
       -0.27558336 -0.739141 -0.37243655 -0.20215015
000080 c1 b9 e0 be 9b ee 88 3f 2b 8d 0c be 0a 02 14 bf
       -0.4389172 1.0697817 -0.13725726 -0.5781561
000090 d0 a2 08 bf ab b9 32 3d 0b c6 a5 be 3f 58 a7 bc
       -0.5337343 0.043634098 -0.32377657 -0.020427821
0000a0 61 75 d6 be ed 57 a0 3f 4d 05 02 3e 72 2a 16 3e
       -0.41886428 1.2526833 0.12697335 0.14664629
0000b0 4d c7 36 3f 2d 02 16 c0 a8 03 90 be 27 61 fe bf
       0.7139786 -2.3438828 -0.2812779 -1.9873399
0000c0 2c 94 02 3f 80 8c be 3e 31 fe 0d 3f 82 85 e6 bb
       0.5100734 0.37216568 0.5546599 -0.0070349583
0000d0 54 0a 83 bc 66 12 a7 3d 68 b2 9b be 0a 23 a4 bd
       -0.015996136 0.08157806 -0.3040955 -0.08014496
0000e0 4f 0a 94 3f 38 62 12 40 9c ea 0f be 09 0d 94 40
       1.1565646 2.2872448 -0.1405434 4.626591
0000f0 2e 6e 05 3f 79 c3 a0 3e d3 a1 85 bd 0e 6f 99 3c
       0.52121246 0.31399134 -0.06525006 0.018729713
000100 48 ce b2 3c 51 77 dc 3f 51 c7 52 bd fc bb 98 3c
       0.021826878 1.7223912 -0.051459614 0.018644325
000110 96 56 9b 3e 21 66 a1 bf 1c e8 7e 3e 34 d3 b3 3e
       0.30339497 -1.2609292 0.2489323 0.35122073
000120 f8 22 6e 3e 64 01 52 be 30 12 5e 3e 14 fd b1 3e
       0.23255527 -0.20508343 0.21686625 0.34763396
000130 51 85 8e be a3 22 0b 3e bd 2e 45 bd a4 f0 9e 3e
       -0.27836087 0.13587432 -0.048140276 0.3104297
000140 db 70 75 3f 72 f4 b8 bf cf 10 e7 be 54 59 63 3f
       0.9587533 -1.4449599 -0.4513001 0.8880818
000150 1f 5f 43 be 7e 51 c4 be 52 40 bf be 43 08 cd 3c
       -0.19079255 -0.38343424 -0.3735376 0.025028354
000160 9d ca 25 3f ee a5 cc 3e b9 f1 14 3e af bf d7 3d
       0.6476229 0.39970344 0.14545335 0.105346076
000170 54 89 bb 3f 5a 89 aa bf e9 1c 40 bf 0d e6 bf 3e
       1.4651284 -1.3323166 -0.75044113 0.37480202
000180 fe c0 11 bf fb d3 77 bf 3a aa 2f bf 49 fe 02 3c
       -0.5693511 -0.9680783 -0.6861912 0.007995197
000190 8f 89 7d 3f 9b 8e c1 bd fa 67 5d bf b6 8a 0f bf
       0.9903802 -0.09451028 -0.8648678 -0.5607103
0001a0 2a c8 5d c0 61 48 7f 3f 61 21 b4 be 7d 69 de 3f
       -3.465342 0.99719816 -0.35181716 1.7375942
0001b0 86 17 6f 3e 06 c6 21 3f bb 75 27 be 6a 10 b1 3d
       0.23348817 0.63192785 -0.16353504 0.08645709
0001c0 4f 07 1b bf ab 2a 64 bf 1d eb 71 be b6 66 04 3d
       -0.6055803 -0.89127606 -0.23624845 0.032324515
0001d0 b7 74 45 bf f8 62 86 3f 0b bc 14 3d 33 25 bb be
       -0.7713122 1.0498953 0.036312144 -0.36551818
0001e0 fc 20 c1 3d eb d7 0e bf 59 fe 45 3c e3 30 f6 3e
       0.094301194 -0.55798215 0.012084567 0.48084173
0001f0 54 cd fa 3e 83 bc d1 3e 94 66 5a 3d 23 a4 9a bd
       0.48984778 0.40964136 0.053320482 -0.07550838
000200 9e 58 01 3f 47 e0 b6 bf c8 01 fc bd 30 11 6d 3e
       0.50525844 -1.4287194 -0.12305027 0.23151088
000210 1a 63 e2 bc 73 16 89 3e 81 d9 88 bd f7 14 36 3d
       -0.027635146 0.2677494 -0.066821106 0.044453587
000220 72 15 b6 be fa 21 8b bf 0d 8b 37 3e d8 65 8c 3e
       -0.35563236 -1.0869744 0.17924137 0.2742145
000230 f9 09 78 be b9 c0 93 3e 79 b6 d6 bd 6b 2e 97 bc
       -0.24222554 0.28857973 -0.10484023 -0.018454751
000240 b7 84 e6 bd 5f 14 04 3f f9 ce 00 bf ee 41 ea bc
       -0.11255782 0.51593584 -0.50315815 -0.02859589
000250 c0 d0 01 bf 2d ad cc 3e 2b ea 24 3e 31 5d 75 3e
       -0.5070915 0.39975873 0.16104953 0.23961331
000260 3f 65 a2 3f 54 63 3d c0 8d 7c 5d 3f 2c 4d a7 c0
       1.2687148 -2.9591875 0.86518174 -5.2281704
000270 6a b7 97 be bc b0 ac bc 4b ff f6 bc 38 d9 25 3e
       -0.2963212 -0.021080367 -0.03015103 0.16196144
000280 80 43 0d bf ee 48 98 bf 5d 15 e1 3d 95 a6 0d be
       -0.5518112 -1.1897256 0.10990403 -0.13833077
000290 ec cd 6a 3f d5 cf bd bf 5a a7 f9 be 56 4a 32 3f
       0.9172046 -1.482905 -0.48760492 0.6964468
0002a0 74 d8 2a 3f 1e 9d 43 bf 17 e5 4e 3f 7e ac d5 bc
       0.6673653 -0.76411617 0.80818313 -0.026083227
0002b0 9f 3c 9c 3e 31 7d 15 be c8 0f 9f 3e a6 1e 49 be
       0.30515 -0.14598538 0.31066728 -0.19640598
0002c0 dc f7 b0 be 4e fa c0 3f fc ef 06 be 78 e9 1d 40
       -0.34564102 1.5076387 -0.13177484 2.4673748
0002d0 0f a6 07 be 14 3b 52 bf bd 8b b6 be b0 17 cd 3c
       -0.1324694 -0.82121396 -0.35653487 0.02503571
0002e0 f5 53 f8 3e 89 84 14 be 64 a5 e6 bd e3 e8 b6 bd
       0.48501554 -0.14503683 -0.112620145 -0.08931138
0002f0 14 fa fd 3f 54 f7 e2 be 50 dd 46 bf f6 c8 2d bf
       1.9841943 -0.4432932 -0.77681446 -0.6788477
000300 d5 bf be be bb 29 32 3f 5f fc c2 bd 5f 00 9c bc
       -0.3725573 0.69594926 -0.09520792 -0.019043146
000310 4c 4b c4 39 c7 9c 39 3f 26 4f 96 3d a0 d9 11 bc
       0.00037440134 0.7250485 0.07339315 -0.0089019835
000320 f6 ed b8 3e 88 da 26 c0 99 77 25 3f bc 20 b7 c0
       0.3611905 -2.607088 0.64635617 -5.722746
000330 5a ed e6 be 7b f7 a7 3d e6 da d0 3d ff c2 d8 3c
       -0.4510296 0.082015 0.101980016 0.026460169
000340 dc ba 7e be 0b ad d9 3f 04 f2 3f be 04 5d 96 ba
       -0.24875969 1.7005934 -0.18744665 -0.0011471813
000350 c3 84 b2 be e5 3c 98 3f 8e 77 24 3f 84 29 ef be
       -0.34866914 1.1893584 0.64244926 -0.4671136
000360 87 11 3f 3c 4a 6c 5a bd 39 fa 25 3e a9 91 a7 3e
       0.011661894 -0.05332593 0.16208734 0.32728317
000370 6c 98 39 be 70 f2 16 3e f3 f9 12 bf 25 88 37 3e
       -0.1812455 0.1474092 -0.5741264 0.17923029
000380 b8 58 ae be 5e 81 c4 3f 30 a2 ad 3e 3a 43 03 bf
       -0.34052062 1.535198 0.33912802 -0.51274455
000390 8b a8 40 bf 98 72 5e be 73 fa 32 bf 48 da c0 bc
       -0.75257176 -0.21723402 -0.69913405 -0.023541585
0003a0 75 01 5f 3e f2 17 cc bd 5e 6a a5 3c 6a e4 a9 bb
       0.217779 -0.09965505 0.020192321 -0.0051847
0003b0 7d 7c 7a 3f cc 8a df bf 8d 98 88 3e 23 9e 6b c0
       0.97846204 -1.7464232 0.26678887 -3.681527
0003c0 92 ef c4 be 2c a0 b1 be d3 c9 12 be 52 16 8d be
       -0.38464028 -0.34692514 -0.14334802 -0.27556092
0003d0 1e b5 89 3d 35 3c 79 bb 43 a9 bc 3d d4 45 9c bd
       0.067239985 -0.003803027 0.092119716 -0.07630506
0003e0 f6 54 19 3f a0 a3 ac bf 7d 02 86 3d d3 54 27 be
       0.59895265 -1.3487434 0.06543443 -0.16340952
0003f0 65 80 cf 3e 79 15 e7 be 88 02 93 3d d4 c7 c9 3d
       0.40527645 -0.4513357 0.07178217 0.09852567

bn1.weight f4 [32]
000000 74 37 8d 3f e4 79 41 3f fb 0b 64 3f 27 49 8a 3f
       1.1032548 0.75576615 0.8908078 1.0803574
000010 71 70 7b 3f 66 49 5b 3f e7 80 7d 3f ba 58 62 3f
       0.98218447 0.8565887 0.99024814 0.88416636
000020 8d 14 7a 3f 7f 3a 5f 3f d0 e6 5b 3f ff 0e 5a 3f
       0.9768761 0.8719863 0.85899067 0.8517913
000030 02 ce 84 3f 4c 0f 4b 3f 44 de 7f 3f 11 7c 65 3f
       1.0375369 0.79320216 0.99948525 0.89642435
000040 1c 95 96 3f aa 6c 67 3f 42 37 81 3f c6 7c 60 3f
       1.1764255 0.90400183 1.0094988 0.8769039
000050 d4 ea 65 3f cb 34 4c 3f 28 76 5f 3f e8 03 53 3f
       0.89811444 0.79768056 0.8728967 0.82427835
000060 d4 59 41 3f 4a 98 72 3f ac 8b 63 3f 6d 08 60 3f
       0.7552769 0.94763625 0.88885 0.87512857
000070 53 0d 7c 3f 95 d3 5c 3f 23 43 61 3f 0e 01 42 3f
       0.9845783 0.8626035 0.8799307 0.7578286

bn1.bias f4 [32]
000000 20 ca a5 3e 7e ac 27 be 71 ed ff bd a2 28 7b be
       0.32380772 -0.16374394 -0.1249646 -0.24527219
000010 2f 2e e1 be 3f 90 20 bf 30 b3 12 bc a2 8e df bd
       -0.43980548 -0.627201 -0.008953854 -0.10915877
000020 1a c4 32 bd 8b ec d6 bd c6 99 50 bd b1 05 3e 3e
       -0.04364405 -0.10494336 -0.0509279 0.18556859
000030 68 e5 9a bd 90 cd 61 be 73 d2 6b bd 0e 14 2b be
       -0.07563287 -0.22051072 -0.057573747 -0.16706869
000040 99 79 55 3e e8 9c 89 be 99 f7 d0 be b0 73 00 be
       0.20847167 -0.26877522 -0.40813902 -0.12544131
000050 3e c7 7c bf 2a 84 17 bf 83 c9 3a bf b1 95 b9 3d
       -0.9874152 -0.5918604 -0.7296373 0.090617545
000060 14 a6 27 be 72 0c a8 be c8 d8 0d bf 0f 29 06 bf
       -0.16371948 -0.32821995 -0.55408907 -0.524064
000070 c8 a1 d4 bd 56 53 5a 3e 64 c5 3c bf 07 84 e8 bd
       -0.1038242 0.21320853 -0.73738694 -0.11353307

bn1.running_mean f4 [32]
000000 9f ea 19 c0 75 58 ac bf e8 3c d2 bf bb 6a ed 3f
       -2.4049451 -1.3464495 -1.6424837 1.8548197
000010 4e dc 2c c0 10 3b 39 41 61 94 6b 42 e2 19 01 41
       -2.7009463 11.57692 58.8949 8.068819
000020 1f 9b fe c0 ae 54 dd 40 c3 22 ab 42 49 90 4e 40
       -7.9564357 6.916587 85.567894 3.2275565
000030 80 17 15 c0 48 b8 9c 41 26 83 fc bb d2 1e ee 3f
       -2.3295593 19.589981 -0.007706064 1.8603156
000040 b8 f1 e1 3f 70 6e 35 41 7e bc 4f 42 ca 57 a6 c0
       1.7651892 11.339462 51.934074 -5.1982164
000050 ec 4e 3a c2 62 a5 7e 41 23 81 fd 40 36 a3 0c 42
       -46.577072 15.915377 7.9220138 35.159386
000060 ae 59 7e 41 b0 e3 4a c1 51 ca 45 41 b8 81 21 41
       15.896894 -12.680588 12.361894 10.09417
000070 20 6d f2 bf 6c 9a 3d 41 8d 42 72 c2 8c 2f 01 42
       -1.8939552 11.850201 -60.56499 32.296432

bn1.running_var f4 [32]
000000 37 dd de 3e cd 7f 35 42 12 7c ad 41 da 6d c3 40
       0.4352815 45.374805 21.685581 6.1071596
000010 eb cd b3 3f c7 29 ad 40 df 81 d6 44 93 de 35 41
       1.4047216 5.41135 1716.0585 11.366839
000020 d2 e6 a2 40 8a ce e4 42 28 ba 4d 45 d4 8d e7 41
       5.0906763 114.4034 3291.6348 28.944252
000030 ee 29 3b 41 10 b6 b2 43 91 d2 1e 41 59 db 22 41
       11.697737 357.42236 9.926408 10.178552
000040 b0 c6 9e 40 1c c0 23 41 cf 21 bf 44 21 45 1d 41
       4.961754 10.234402 1529.0565 9.829377
000050 1b a5 87 44 90 0d 0a 43 9d d6 e1 40 e6 61 59 44
       1085.1595 138.05298 7.057448 869.52966
000060 fb 5f 1d 41 86 c6 08 43 6e 67 33 41 46 e0 4e 41
       9.835933 136.77548 11.212751 12.929754
000070 e3 b0 b1 42 6d a6 57 40 ce eb de 44 9f 7b 0f 44
       88.84548 3.3695328 1783.3689 573.9316

conv2.att_src f4 [1, 1, 16]
000000 b4 87 e2 bc 9d 15 f0 3e 4c 52 d4 3e 00 2b 20 3f
       -0.027652599 0.4689149 0.41469038 0.6256561
000010 20 82 d6 be 0a 22 0f be 02 25 20 3e 52 c4 aa 3c
       -0.41896152 -0.13977829 0.15639117 0.020845566
000020 eb 56 ec be d2 33 1f be a0 45 d0 3e e8 e4 09 3f
       -0.46160063 -0.15547112 0.4067812 0.5386491
000030 ba 92 62 bf 79 c1 27 be fb 01 bc be 1c e5 86 3f
       -0.88505137 -0.16382398 -0.3672026 1.0538669

conv2.att_dst f4 [1, 1, 16]
000000 12 a1 13 bf c8 83 70 3d bc 0c 16 bf 99 96 61 3e
       -0.5766765 0.058719426 -0.5861318 0.22030105
000010 28 14 a0 be c2 2a d8 3d 26 71 9e be bb 23 f1 be
       -0.31265378 0.105550304 -0.309457 -0.47097573
000020 c4 06 3b 3e 48 0a ab 3e 01 05 22 bf 19 c0 71 bd
       0.182643 0.3340628 -0.63288885 -0.05902109
000030 ae 9b f5 3c e0 d0 59 3e 3d ec f4 3e 55 f3 df be
       0.02998146 0.21271086 0.47836486 -0.43740335

conv2.bias f4 [16]
000000 9b d4 c9 be ad 7c b6 3e ef f2 cb 3e ac f2 20 be
       -0.39420018 0.35641995 0.3983378 -0.15717572
000010 55 2c 53 be c9 2d 95 be ed ba 04 3f b4 f3 fe be
       -0.2062238 -0.29136494 0.51847726 -0.49795306
000020 0a 65 35 3f 64 f3 93 be d3 42 04 be 5b e3 40 be
       0.708573 -0.2889663 -0.12916116 -0.18836729
000030 3a 22 3a 3f 09 0a c4 3e d4 d9 50 3c 2e 70 23 3e
       0.72708476 0.38288906 0.012747247 0.15960762

conv2.lin.weight f4 [16, 32]
000000 8a b6 98 3d 9b cc 72 3e ef 02 9e be b9 4b 43 be
       0.074566916 0.23710863 -0.30861613 -0.19071855
000010 c9 5f b2 be d6 cc 16 3e 7b 29 4e be 2e 3e 77 3e
       -0.34838703 0.14726576 -0.20133011 0.24144813
000020 31 6a 47 be da 84 47 bc b0 72 bf 3d 29 0f a7 be
       -0.19474103 -0.01217767 0.09348047 -0.32628754
000030 94 4a 08 3e 6d ed d8 bc 67 81 92 be c9 dd aa 3d
       0.133097 -0.026480401 -0.2861435 0.083430834
000040 14 cb 88 3d 66 9a ca 3d 60 0d 01 3e d6 74 3c 3d
       0.06679359 0.098927304 0.12602758 0.04600986
000050 13 0e e0 bf 0d f0 4d 3e 95 eb 2b 3e e8 dc 8a be
       -1.7504295 0.20111103 0.16789086 -0.27121663
000060 cb cd 93 bd 98 5a 3b be 38 88 c8 3d b0 6c 60 3e
       -0.07216986 -0.18296278 0.09791607 0.21916461
000070 e3 a8 dd be 28 b7 4f 3e ed 0d 08 bf 19 d3 d1 bd
       -0.43292913 0.20284712 -0.5314625 -0.10245342
000080 4b 0d 71 3e 1b 58 b5 3e 23 dd 7b 3e 41 b6 ae be
       0.23540227 0.35418782 0.24596076 -0.34123424
000090 0e 6c 02 3d 9b 2d 3e 3d a8 5f 1c be 7b 42 a0 be
       0.03184133 0.04643021 -0.15270865 -0.3130072
0000a0 12 50 8e bd 28 d5 9e 3e 9c 59 ad be 70 ea 83 bd
       -0.06948866 0.31022 -0.3385743 -0.064412
0000b0 48 1e 7c be 3e 15 81 3e 82 95 9f be a3 92 8f 3e
       -0.24620926 0.2521152 -0.31168753 0.28041562
0000c0 9a ba ee be 65 f7 ce 3d 40 a2 cc 3e 1e bc 70 be
       -0.4662674 0.101057805 0.39967537 -0.23509261
0000d0 26 8c a1 bf ea 79 bd 3e 27 50 b5 3d 2a 4a fa 3c
       -1.2620895 0.37007076 0.088531785 0.030552942
0000e0 36 90 51 be 90 5f c6 3e 37 29 4f 3e 61 63 2c 3e
       -0.20465168 0.38744783 0.20230566 0.16834785
0000f0 5c f1 ed bd 0e 7f 57 3e f0 8a e5 bd b3 05 8b be
       -0.11618301 0.21044561 -0.11208141 -0.27152786
000100 5a d4 4d 3d 20 70 f2 3c 0b 53 d1 3b e7 4c 86 be
       0.050251342 0.029594481 0.0063880733 -0.26230547
000110 d8 75 98 be 94 8d 10 bd f2 47 7f 3e c8 5e 25 be
       -0.29777408 -0.03529127 0.24929789 -0.16149437
000120 f0 7d c3 3d c0 ab db bc ed b1 3f be 14 79 ec bd
       0.09545505 -0.026815295 -0.18720217 -0.11546531
000130 34 02 5b be 6e d3 ac 3d 80 4f 67 be 90 21 13 3e
       -0.21387559 0.084387645 -0.2258892 0.14368272
000140 4a bd 41 be 23 f0 3b 3e 85 20 a8 3e 3c 0e 2f be
       -0.18919864 0.18353324 0.3283731 -0.17095274
000150 0a a2 b0 bf 6e 57 31 3e 77 72 ea 3e b4 0e 79 3e
       -1.379945 0.17318508 0.45790455 0.24322015
000160 87 cc 0d be f3 32 04 be 6e 8f f2 bd 27 41 ac 3b
       -0.13847552 -0.1291006 -0.11843763 0.00525679
000170 a0 7a 84 3e 71 48 12 3e 18 c4 42 be 1d 83 4e 3e
       0.25874805 0.14285447 -0.19020116 0.20167203
000180 a5 27 69 be eb 14 d5 3d 6c c7 d2 3d c5 9b 66 3e
       -0.2276903 0.104043804 0.10291943 0.22520359
000190 46 a5 63 3e b5 4d 06 bf 56 57 c6 bd 57 b5 6b 3e
       0.22231016 -0.5246232 -0.09684627 0.23018394
0001a0 69 8b 37 bd 36 3d 07 3e 48 36 0a 3e 97 51 c1 3e
       -0.044810686 0.13206944 0.13497269 0.3775756
0001b0 30 91 93 3e 23 77 9a 3e f6 db 7b 3e e8 51 5f bc
       0.28821707 0.3016902 0.24595627 -0.013630368
0001c0 f3 9a 3d 3c a8 91 21 3e da 2c c0 be b3 5e 2c be
       0.011572587 0.1577822 -0.3753422 -0.16833
0001d0 bd 29 87 bd 6f 47 33 3e d1 7e 85 3d 9e a2 f4 3c
       -0.06599758 0.17507719 0.06518329 0.029862698
0001e0 a7 2c 71 be 36 0f 5f 3e a2 f3 bf be 23 3e 83 be
       -0.2355219 0.21783146 -0.37490565 -0.25633344
0001f0 3f 29 42 be ff c9 1f 3f 17 e7 8a be 37 af 69 3e
       -0.18961047 0.62417597 -0.27129433 0.22820745
000200 e5 f2 d3 be 18 4e 78 bd fe 45 62 be df 0f b3 3d
       -0.4139625 -0.06062135 -0.22097012 0.087432615
000210 6e 2c d8 3e 72 6b b0 3e 29 85 1f be f2 83 80 3e
       0.42221397 0.34456974 -0.1557814 0.25100666
000220 0c b7 d7 bc b9 82 25 be 30 d8 cc 3d 0a 38 0e 3e
       -0.0263324 -0.16163148 0.10002172 0.13888565
000230 34 62 c3 3e d8 f8 93 be 6d 11 2c be 26 ca 2e 3e
       0.3816086 -0.2890079 -0.16803522 0.17069301
000240 ab 6a 9e 3e cc 5f c4 3e a8 ec c5 bd 58 ea bb 3d
       0.30940756 0.38354337 -0.09664279 0.09175557
000250 b9 1d 0f 3f 43 e8 ca bd 43 91 38 3d 82 6b 8a 3d
       0.5590473 -0.09907582 0.045060407 0.06758787
000260 d0 39 54 be 36 0d 6f be 0c 5b a0 3d e7 53 7c be
       -0.20725179 -0.23344883 0.07829866 -0.24641381
000270 0c 4f f6 bd 46 cb bd bc 97 7f c8 3e 28 8f 5f be
       -0.12026796 -0.023168217 0.39159843 -0.21831954
000280 75 7a 92 be 76 7d 8b be e5 0a ab 3e ca 49 49 3e
       -0.28609052 -0.27244157 0.3340675 0.19657055
000290 83 45 8c 3e d5 b7 c1 3d 3a ea 4b be 5c 96 20 3d
       0.27396783 0.09458891 -0.19913569 0.039205894
0002a0 0a 6b 80 be e3 09 aa 3e c6 67 5a 3e 03 30 97 3d
       -0.25081664 0.33210668 0.21328649 0.073822044
0002b0 45 65 07 3f 28 21 18 be 10 03 69 be 7e a7 b3 3d
       0.528889 -0.14856398 -0.22755075 0.08772181
0002c0 87 34 83 3e 67 3c b3 bd e4 8e 98 be 9a 5d 86 3e
       0.25626013 -0.08751755 -0.29796517 0.26243287
0002d0 3b af f1 be 0f dd 21 be 70 9e 51 be 55 20 4c be
       -0.47204003 -0.15806983 -0.20470595 -0.19934209
0002e0 dc 77 cd bd 63 47 6f bd 5e ae 06 3d 64 3b 3c 3d
       -0.10032627 -0.05841769 0.032881133 0.045955077
0002f0 d7 ad 87 be 1f 37 76 3b 42 e7 8d be a9 59 23 3e
       -0.26499817 0.0037569476 -0.27715498 0.15952171
000300 fe 29 27 3e 14 7a 45 3e a8 03 bc 3e a3 05 07 bf
       0.16324612 0.1928485 0.3672154 -0.52742976
000310 db 8b d2 3d 02 7b 2b be 20 1a 12 bd 10 9c 62 3c
       0.102805816 -0.16746143 -0.035669446 0.0138311535
000320 c3 5f 45 3d 41 84 bc bc ee 34 8d bd e5 67 5b 3e
       0.04818703 -0.023012282 -0.06894861 0.21426351
000330 d8 cb 00 3e 75 dd 7b 3e d0 d4 99 be 01 37 b5 be
       0.1257776 0.24596198 -0.30045176 -0.35393527
000340 1f 2b 01 bf 49 d9 4e 3e d6 4e 53 be 38 fc b0 bc
       -0.5045642 0.20200075 -0.20635542 -0.021604642
000350 80 91 6f bf 15 33 97 3e d9 8a b9 3e f0 f8 af 3e
       -0.9358139 0.2953116 0.36238745 0.34369612
000360 5e a0 4c be f8 86 a2 bd fc bd fe bc 8d 9a 12 3e
       -0.1998305 -0.079358995 -0.031096451 0.14316769
000370 23 b8 4d be e6 c3 ec 3d 64 3b 96 be e3 35 6b 3c
       -0.20089774 0.11560802 -0.29342186 0.014356109
000380 d2 68 70 be a3 be d8 3d 2a 26 5c 3e 42 cd e9 3e
       -0.23477486 0.10583236 0.21498933 0.45664412
000390 79 e2 63 be ba 95 c9 be 30 dc 87 be ae 12 9b 3e
       -0.22254361 -0.39372045 -0.26535177 0.3028769
0003a0 52 19 70 bf 1c 15 87 3e 0f 18 a6 3e 07 6a 50 be
       -0.93788636 0.26383293 0.3244023 -0.20352946
0003b0 bc 99 66 3e f0 f6 a8 bd 20 ab a8 bc c6 f8 df bd
       0.22519583 -0.082502246 -0.020589411 -0.10936122
0003c0 83 8d 3c bc 34 0f 83 3e ef 9a 6c 3e c7 8a 01 3e
       -0.011508348 0.25597537 0.23105977 0.12650596
0003d0 a4 7b 29 be f1 a0 ad be 02 6b 82 be 70 0f b5 bd
       -0.16551071 -0.3391185 -0.25472265 -0.08840835
0003e0 dd 57 62 3d a9 46 e2 bd f2 5b a2 bd a5 b5 98 bd
       0.055259574 -0.110486336 -0.079276934 -0.07456521
0003f0 ed 05 74 be e8 01 8c 3e 42 bd 85 3e 74 6f 24 3e
       -0.23830386 0.27345204 0.26120955 0.16058141

bn2.weight f4 [16]
000000 70 b3 b8 3f a2 25 ef 3f bb dc 07 40 14 79 89 3f
       1.442976 1.868336 2.1228473 1.0740075
000010 55 c5 99 3f 4f 07 93 3f 89 76 e4 3f f2 29 9e 3f
       1.2013346 1.1486605 1.7848674 1.2356551
000020 1d f5 da 3f bc 0a 92 3f 72 80 b5 3f b9 78 8f 3f
       1.7106053 1.1409526 1.4179823 1.1208717
000030 bb b9 b3 3f a7 d0 0d 40 54 0d 83 3f 20 36 c6 3f
       1.4041055 2.2158601 1.0238442 1.5485268

bn2.bias f4 [16]
000000 47 33 ed 3d 4e d4 e0 3e 57 48 c3 3e 4e 59 ad 3d
       0.11582046 0.43911976 0.38141128 0.08464299
000010 1f a6 bc 3d 9f 60 36 3e 7d 95 b1 3e 50 ad a0 3e
       0.092113726 0.17810296 0.34684363 0.31382227
000020 ca 68 f0 3e 66 c9 59 bd bd 3e 27 be 7f 2c 40 3e
       0.46954948 -0.053170584 -0.16332527 0.18766974
000030 0b 98 62 3e ca c3 f0 3e 9e d3 b9 be 65 3e 57 be
       0.22128312 0.47024375 -0.36294264 -0.21019895

bn2.running_mean f4 [16]
000000 7a 01 5f bf a0 41 2f 3e 66 a2 b5 3e aa b0 e7 3e
       -0.8711163 0.17114878 0.35475463 0.4525197
000010 77 c7 3a be 07 84 7c be 40 96 bc 3e bb b9 22 bf
       -0.18240152 -0.2465974 0.36833382 -0.6356465
000020 ca b0 51 3f 24 5d 72 be 64 8b 72 bd 8d 9e cd be
       0.81910384 -0.23668343 -0.059214965 -0.40160027
000030 38 f3 ce 3f 6a 24 14 3e 00 92 b9 3e b1 7a 29 3e
       1.6167974 0.14467016 0.36244202 0.1655071

bn2.running_var f4 [16]
000000 65 32 2c 3e 36 b6 fc 3e 04 ea 4c 3f 5d b4 47 3e
       0.16816099 0.49357766 0.8004458 0.19502397
000010 1c 49 4c 3d 93 5f d6 3c aa 5d 61 3f d9 ba 97 3e
       0.04987441 0.02616862 0.88033545 0.2963474
000020 b1 a9 1d 3e dd 3f 00 3d d7 be 94 3d 6a 6e 77 3e
       0.15396763 0.031310905 0.07262962 0.24163213
000030 b8 0e 8d 3f 5a 34 7e 3f e1 f4 93 3e 9e 9c ab 3d
       1.1020117 0.9929863 0.28897765 0.08379482

fc.weight f4 [2, 16]
000000 8d 06 14 bf 62 36 29 3f c5 e1 36 3f 59 d7 90 be
       -0.57822496 0.66098607 0.71438247 -0.28289297
000010 27 87 af be 5f 7d 6a be 67 a4 01 3f 74 cb b4 be
       -0.342828 -0.22899388 0.50641483 -0.35311472
000020 3f 83 3c 3f 14 a2 68 be d9 c2 2f 3f 35 8d 8d be
       0.73637766 -0.22718078 0.6865669 -0.27646795
000030 e7 b0 03 3f ee 20 4a 3f 8a 45 d9 be 94 9d 08 3f
       0.51441807 0.78956497 -0.42435867 0.53365445
000040 a6 3e b1 3e 7a c5 64 bf 84 cc 60 bf 01 7b 8a 3e
       0.3461811 -0.89363825 -0.87812066 0.2704697
000050 00 bd b8 3e a5 d7 a6 3e 1d 75 3e bf a9 d8 e6 3e
       0.36081696 0.325864 -0.7439745 0.45087174
000060 5a c2 14 bf 1a 54 92 3e 6e bf 06 bf 55 a4 19 3e
       -0.58109057 0.2857979 -0.5263585 0.15004094
000070 40 3b 13 bf a2 7d f8 be 87 3f eb 3e ff 44 2b bf
       -0.57512283 -0.4853335 0.45946905 -0.66902155

fc.bias f4 [2]
000000 53 88 26 bd b1 ab a0 3d
       -0.040657353 0.078452475
