models/booster/3-4.pth (torch, 10042 bytes, 18 tensors)

conv1.att_src f4 [1, 1, 32]
000000 d5 e1 dc bf 75 22 e4 3e 9d de f3 3e c1 f5 97 3f
       -1.7256418 0.4455754 0.47630778 1.1871873
000010 57 09 d4 3d 8b d0 bb bd b5 82 17 c0 1c d4 5e 3f
       0.10353344 -0.09170636 -2.3673527 0.87042403
000020 69 f8 03 bf ab 0a 73 bf 11 ed da 3f 89 1f d1 3e
       -0.5155092 -0.94938153 1.7103597 0.40844372
000030 c9 90 7a 3f 1e ef b7 bf cf 70 73 3f 12 07 38 3d
       0.97877175 -1.4369848 0.9509401 0.044928618
000040 3e 6b 25 3f aa d4 28 3f 86 30 eb bf ea d7 3e 3f
       0.64616764 0.659495 -1.8374183 0.7454821
000050 54 a7 55 bf 64 6b a0 be 66 f0 50 3e 27 c3 3c 3f
       -0.8345845 -0.31331933 0.20404205 0.7373528
000060 61 38 1a c0 53 37 b8 3f 72 c0 c1 bf f9 dd 6a bf
       -2.409691 1.4391884 -1.5136855 -0.91744953
000070 f4 b4 af 3f 89 7c 71 3f 37 f2 cd bf 5a b8 32 bf
       1.3727098 0.9433065 -1.6089543 -0.6981255

conv1.att_dst f4 [1, 1, 32]
000000 3f 13 61 3e 12 f1 be be 96 8d 39 3e 90 9f 40 be
       0.21979998 -0.37293297 0.18120417 -0.18810868
000010 b1 b6 14 3e 17 bb ca 3d ee 45 9a be 9e cb 28 3c
       0.14522816 0.09898966 -0.30131477 0.010302452
000020 06 ab 0b bf eb db d2 3d a0 ed 75 be 55 6d 0f bf
       -0.54557836 0.10295852 -0.24016428 -0.560262
000030 1d 1b ab 3d c2 a8 19 be 48 45 8c be 4e 10 22 3e
       0.08354781 -0.15005782 -0.27396607 0.15826532
000040 e8 35 81 be 3f b1 16 bf 14 da 1a be 31 06 cc bd
       -0.2523644 -0.58864206 -0.15122253 -0.099621184
000050 c9 a6 ba 3d ba dd 6e be 18 af 3e 3a 82 c0 8a be
       0.09113843 -0.2332677 0.0007274016 -0.27099997
000060 ba aa 97 3d 2c a5 9e 3e 76 c9 f4 3c 18 a8 9b 3d
       0.074056104 0.3098539 0.02988122 0.07600421
000070 c0 eb 96 be e7 82 d4 be f9 40 e4 bb 21 2e 93 3e
       -0.29476738 -0.4150612 -0.006965753 0.2874613

conv1.bias f4 [32]
000000 1c 35 bd 3b ad 77 08 3d c1 16 12 bc b7 e2 ba bb
       0.0057741534 0.033317257 -0.008916558 -0.005703296
000010 0f 82 ca bd 7a 0c 54 bc 2b a9 7b b9 b9 9a 7b 3d
       -0.09888088 -0.012942428 -0.00024000245 0.061426852
000020 dd f3 fa bc 73 e7 6f 3c 7f 6f 0a 3c c0 d0 2d 3d
       -0.030633861 0.014642584 0.008449434 0.042435408
000030 68 34 11 bc 55 8b d0 3b 93 c6 cd 3b 3e dc 62 3d
       -0.008862592 0.006364266 0.0062797754 0.05538582
000040 54 9b ef 3a cd 7f 10 3c cf da 02 bb b7 72 4d bb
       0.0018280544 0.008819533 -0.0019966846 -0.0031348893
000050 d2 de 29 3c ca 4c 7f 3d 4a 73 d0 3c 70 80 da 3b
       0.010368066 0.06232909 0.0254456 0.006668143
000060 c6 5a fc bd 8d 59 8a 3d 9a 9b 8a bd b2 6a 26 ba
       -0.12322001 0.06755362 -0.0676796 -0.00063482963
000070 d5 f4 01 bb fb 85 d5 bb 9b 3b 35 3c a8 e6 52 bd
       -0.001982977 -0.006516216 0.011061574 -0.051489502

conv1.lin.weight f4 [32, 10]
000000 8f b1 2b be ee 53 04 be 5a 3d 6a be ea 5f 0b be
       -0.16766952 -0.12922642 -0.22874966 -0.13610807
000010 28 4b 8f 3f 2a 8b ff 3f 13 66 48 3f df 11 72 3f
       1.1194811 1.9964345 0.7828075 0.9455852
000020 1f 3a b9 be a1 77 b2 3d 2b bb 1c 3f 4e 83 67 bd
       -0.36177155 0.08714224 0.61223096 -0.056521706
000030 85 e1 07 3f b6 8d 0a 3d 6f f7 72 bf 6f 33 bf bf
       0.5307849 0.033826552 -0.94908804 -1.4937571
000040 47 dd 9b be 21 0c d4 bd 48 82 b9 3d 88 17 cb be
       -0.3044226 -0.10353876 0.09058052 -0.3966639
000050 05 7a 06 bd a3 aa b1 bf 77 d6 1c bf 6b 55 9b bc
       -0.03283121 -1.3880199 -0.6126475 -0.018961629
000060 f3 79 22 c0 8b 8f e4 bf 1f 20 a8 bf 4c 43 e0 be
       -2.5386932 -1.7856306 -1.3134803 -0.43801343
000070 b9 e0 18 bf a1 0f ce be 24 2b 3e 3e 8c cb 0e be
       -0.597179 -0.402463 0.18571144 -0.13944834
000080 6b 10 2e bd f9 e4 9d 3e 3b 5f 3d bf d4 14 17 c0
       -0.042496126 0.30838755 -0.73973435 -2.3606462
000090 32 1b 0c bf d5 19 29 bf ad bb ff 3e 81 83 a9 be
       -0.54728997 -0.6605504 0.49947873 -0.33108142
0000a0 8c af 99 3e 1d 8c ac bf 06 48 2d 3f 62 23 57 bc
       0.30016744 -1.3480259 0.67688024 -0.0131309945
0000b0 77 67 21 c0 05 5a b3 bf fc e7 04 3f 1f b1 72 3f
       -2.52194 -1.4011847 0.5191648 0.94801515
0000c0 fc 01 33 3f 44 9a 66 3e 3f 48 00 bf bc 87 3c 3e
       0.699249 0.22519785 -0.5011024 0.18411154
0000d0 2c 09 e8 be 1f 46 0d bd fb cc 32 3e af 5b 9d 3f
       -0.45319498 -0.0344907 0.17461006 1.2293605
0000e0 96 27 09 be 8f 24 39 bf f5 72 96 be f4 7a ff bd
       -0.13394007 -0.7232141 -0.2938458 -0.12474623
0000f0 50 3a e1 be aa ed 36 3d f7 85 df bd ef f0 34 3f
       -0.439898 0.044660248 -0.10914224 0.70680135
000100 3d 0b 03 3f c8 46 0a 40 54 e0 24 3f a4 96 98 3f
       0.51189023 2.1605701 0.644048 1.1920972
000110 3d b5 38 bf 45 c5 11 3e 07 6a e7 3d 83 62 af 3c
       -0.7215155 0.14235409 0.1129952 0.021409279
000120 37 12 92 bd 86 e2 2f 3d b5 ba cb be f7 8e fa bf
       -0.071323805 0.04294064 -0.39790884 -1.957488
000130 fe ec 3e bf 39 74 3e bf 8d 59 a9 3e ae 64 c3 be
       -0.7458037 -0.7439609 0.33076134 -0.3816275
000140 cb d1 85 be 26 53 93 bf 53 4d 35 3c e5 54 e4 3c
       -0.26136622 -1.150975 0.011065799 0.027872512
000150 67 a2 8f bd 72 21 cc 3f dd 10 59 3f eb 6f 9b 3f
       -0.07013398 1.5947707 0.84791356 1.214353
000160 94 b8 cd 3e d3 50 f1 3e 21 4f 9a 3e b9 5d 17 3d
       0.40179884 0.47131976 0.30138496 0.036954615
000170 e6 f7 ac bc 4a 54 a2 bd fb c3 d7 3e 54 4f 1e 40
       -0.021114301 -0.07926233 0.4214171 2.4735918
000180 c8 25 6b 3f fd b4 6b 3f 4d 66 c4 3e 1e 69 33 3f
       0.91854525 0.9207304 0.383593 0.7008227
000190 2e 10 ee 3e c0 e4 18 bf 38 cd 0d 3e fd b5 31 be
       0.4649672 -0.59724045 0.13847816 -0.1735458
0001a0 9a cc 73 bf 57 d6 f9 bf 4b 00 17 bf c0 3e 5a bf
       -0.9523407 -1.9518536 -0.5898482 -0.85252
0001b0 6b bd 59 3f 0b 62 0b bf 5c 60 b0 3e 8b cf b6 be
       0.85054654 -0.54446477 0.34448516 -0.35705218
0001c0 cd f2 00 be db 9a 39 3e ae a8 89 bd 15 0e 00 c0
       -0.12592621 0.18125479 -0.06721626 -2.0008595
0001d0 f2 7c 01 bf 6b 0d 02 bf f1 1b 1d bd 66 ec 73 3c
       -0.50581276 -0.50801724 -0.038356725 0.014887905
0001e0 94 d5 d6 3d b1 80 14 bf 2d 9e 52 3c 45 e2 ec 3c
       0.104899555 -0.5800887 0.012855095 0.028916487
0001f0 e3 b4 c8 be 71 1a 01 c0 eb 9a f6 be 26 91 1c bf
       -0.39200506 -2.0172389 -0.48165068 -0.6115898
000200 4c 1a 2a 3e a5 83 21 bf d3 c5 a6 be d5 81 dd bc
       0.16611594 -0.630915 -0.32572803 -0.027039448
000210 39 33 dc 3c 53 da f4 3e 93 b3 e0 3e 40 8c de 3f
       0.026879894 0.47822818 0.43887004 1.7386551
000220 20 43 29 3f a0 5f 6b 3f ee 4d 1e bf 6e 18 76 3d
       0.6611805 0.9194279 -0.6183766 0.06008189
000230 36 1f 17 3e f1 6e 42 3e c6 58 aa 3e 25 37 b5 3c
       0.14758 0.18987633 0.33270854 0.022121022
000240 80 4c 11 bf d9 ca 06 c0 d6 80 21 bf bc fb e7 be
       -0.56757355 -2.1061308 -0.63087213 -0.45309246
000250 e7 4b 20 3f 51 0d c7 be 4a bc dd 3e 02 d5 0b 3e
       0.6261582 -0.38877347 0.43307716 0.13655475
000260 2a a6 84 3e 09 9d 0d bd c1 e9 e0 bf 41 81 c2 be
       0.25908023 -0.03457359 -1.7571336 -0.37989238
000270 f2 7d 55 3f a1 0b 35 3f 6c 24 79 3f 62 2c a0 3f
       0.833953 0.7072087 0.973212 1.2513545
000280 2b 0d ae 3e 6f 1b 82 bd 02 16 df 3e c7 50 cc 3d
       0.3399442 -0.06352889 0.43571478 0.099763446
000290 97 33 09 bf 05 05 d2 bf 1c 74 12 bf 78 4c 8c bf
       -0.53594345 -1.6407782 -0.5720842 -1.0960836
0002a0 f5 c5 e8 3c 22 30 63 be 43 e2 6f be e7 7d a1 be
       0.028414706 -0.2218633 -0.23426156 -0.31541368
0002b0 5a c3 c6 3e 47 ec 88 3e 91 4c 90 3e 74 37 14 c0
       0.38820916 0.26742765 0.28183416 -2.3158846
0002c0 49 29 aa be 5a a9 87 bf 23 02 74 3e d7 46 cd be
       -0.33234623 -1.0598557 0.2382894 -0.4009311
0002d0 c6 a6 4b 3e 84 1e 88 3e ee 21 09 bd 9b 19 1e 3f
       0.19887838 0.26585782 -0.033479623 0.6175782
0002e0 f7 63 87 3f 6c 12 0d 40 c3 f5 40 3f 03 3d 76 3f
       1.0577382 2.2042494 0.75375 0.96186846
0002f0 b2 82 04 bf b0 30 b7 3e 7f 0a 36 bc aa 0e 26 3e
       -0.51761925 0.35779333 -0.011110901 0.16216531
000300 47 74 33 be d1 23 ea be 12 13 4d bf aa 09 f4 bf
       -0.17524825 -0.4573045 -0.80107224 -1.9065449
000310 97 e8 a6 be a8 30 58 bf ce f2 30 3f ed 5e 9e be
       -0.32599327 -0.84449244 0.6912049 -0.30931798
000320 dd 91 02 3e e3 95 c6 be 41 8f 75 be b7 20 fa be
       0.12750955 -0.3878623 -0.23980428 -0.48853084
000330 bf 83 59 3f c9 b7 e5 3f 52 7c 9c 3e 83 09 6d 3f
       0.84966654 1.7946712 0.305636 0.9259264
000340 27 0d b3 be 04 a8 97 3d a7 df b7 3e 74 b9 e3 be
       -0.34970972 0.07405093 0.3591282 -0.44477427
000350 e1 c5 be 3e bb 03 29 bc 31 a4 5b bf c6 32 0d 40
       0.37260345 -0.010315831 -0.8579741 2.206224
000360 72 2d c3 3f 72 1a ae 3e 27 65 65 3f 13 b5 6f 3f
       1.5248244 0.3400455 0.8960747 0.9363567
000370 97 b2 16 bf f1 ab 52 bf 3b 9e ac be f7 51 03 3d
       -0.58866256 -0.8229361 -0.3371447 0.03206059
000380 46 3e 1f bf 46 80 c6 bf dd 8e d0 be 26 ca 86 bf
       -0.62204397 -1.5507896 -0.40733996 -1.0530441
000390 8f 62 09 bf 25 36 ce be 59 f4 86 3e 03 f3 30 bf
       -0.53666013 -0.40275684 0.26358297 -0.69120806
0003a0 6d b2 1c 3e cf af 65 bd 5a d5 01 bf 96 7c be bf
       0.15302439 -0.056075867 -0.50716174 -1.4881771
0003b0 96 ab 13 3d 1f 2e 0f be 01 3b 36 3f 30 5f 97 3d
       0.03605231 -0.13982438 0.7118378 0.073912024
0003c0 6e f7 87 be 2d 20 fc 3e 23 82 27 3d 57 da 9d bc
       -0.2655596 0.49243298 0.040895592 -0.019269152
0003d0 02 f8 bc 3f 47 75 0c 40 74 64 57 3f 79 d6 92 3f
       1.4763186 2.194658 0.84137654 1.1471702
0003e0 ad 5f a2 be 96 17 9a 3e e2 f7 e3 3e ca 16 b3 be
       -0.3171362 0.3009612 0.44525057 -0.34978324
0003f0 51 6c 85 3d 08 97 d8 3d c4 2c 99 3e a7 32 1f c0
       0.065148 0.10575682 0.29916966 -2.4874666

bn1.weight f4 [32]
000000 b9 14 5f 3f 37 7b 44 3f b8 81 83 3f fe 3d 32 3f
       0.87140995 0.7675051 1.0273962 0.6962584
000010 ea 5f 96 3f c5 e7 3d 3f fd 20 5d 3f 11 8f 4c 3f
       1.1748021 0.7418178 0.8637846 0.799058
000020 42 92 6a 3f 6e ea 69 3f 64 0b 46 3f 5b e0 83 3f
       0.9162942 0.91373336 0.7736113 1.0302843
000030 05 36 5b 3f d3 ee 4e 3f f8 2e 35 3f 2c d4 80 3f
       0.856293 0.80833167 0.70774794 1.006475
000040 8c 60 80 3f 32 99 5b 3f e8 e9 55 3f 0f 8c 55 3f
       1.0029464 0.8578063 0.8356004 0.8341684
000050 d7 58 6b 3f 64 c2 92 3f ae 03 5c 3f f4 9e 83 3f
       0.91932434 1.1465573 0.85943115 1.0282884
000060 76 2d 6f 3f 60 3e 40 3f 47 65 c4 3f 25 a2 72 3f
       0.9342874 0.75095177 1.5343407 0.9477866
000070 56 d7 7a 3f f7 e1 51 3f 2a d7 60 3f 58 e1 63 3f
       0.97984827 0.8198542 0.87828314 0.8901572

bn1.bias f4 [32]
000000 bd 17 d8 3c a1 ea 1e be 08 a2 31 bf 3a 92 1d bf
       0.026378507 -0.15519191 -0.69387865 -0.6155125
000010 0e 9a 0d bf 61 a9 d1 bc dc 01 5e be b0 cd 0a bf
       -0.55313194 -0.025593461 -0.21680397 -0.54220104
000020 db 0e 6c 3f e4 70 87 be cc 5c 5b bf 7e 43 a5 bd
       0.9221017 -0.26453316 -0.8568847 -0.08069514
000030 1e e5 10 bf ea 1f dc be 52 66 0b be 15 0f 16 be
       -0.56599605 -0.42993098 -0.13613251 -0.14654191
000040 83 1f c4 bd 70 80 fd be d0 91 8e be c4 2e af 3e
       -0.09576323 -0.49512053 -0.2784562 0.34215367
000050 c4 e8 26 3d e3 b4 ff bd fb 0c a8 3e 06 e9 c2 bd
       0.040749326 -0.12485673 0.32822403 -0.09517102
000060 70 1c 44 3e e2 18 d7 bd 08 06 74 be 24 7d d8 3d
       0.19151473 -0.10502793 -0.23830426 0.10570744
000070 b3 32 e8 3d e1 ad 5a be c7 89 25 be 09 80 b1 3d
       0.11337795 -0.21355392 -0.16165839 0.08666999

bn1.running_mean f4 [32]
000000 dd 26 bd c1 f4 13 d4 40 09 29 b5 c0 e3 be 51 42
       -23.643976 6.6274357 -5.661259 52.436413
000010 08 26 74 be 7e 78 e5 c0 08 56 ec 42 30 be f0 40
       -0.23842633 -7.1709585 118.16803 7.5232162
000020 7e a2 a7 40 09 72 4a c1 86 22 e0 c1 f8 3c f1 41
       5.2385855 -12.652841 -28.016857 30.15477
000030 e1 b2 9a 40 97 f6 9f 42 34 25 a0 40 42 5b 72 c0
       4.834336 79.98162 5.0045414 -3.78682
000040 6e 2c 8c 41 f5 e1 37 42 47 52 cf 42 85 28 99 c2
       17.521694 45.97066 103.6607 -76.57914
000050 ea 2d a6 c2 55 5b 16 3f 95 88 6f 40 76 05 05 c1
       -83.089676 0.5873311 3.7427113 -8.313833
000060 70 d4 5b c0 68 b1 8f 41 a4 c7 28 bf a5 ff 11 c2
       -3.4348412 17.961624 -0.6592963 -36.499653
000070 3c 64 f6 42 39 b6 87 42 2f 1f a0 41 e6 6c 9a c0
       123.19577 67.8559 20.015226 -4.8257933

bn1.running_var f4 [32]
000000 7e 53 7d 43 e4 4d 7d 41 9c 3a f2 40 fc 55 a2 44
       253.32614 15.831516 7.5696545 1298.687
000010 69 27 5f 40 68 bf 8e 41 90 8d d4 45 68 77 ce 41
       3.4867804 17.84346 6801.6953 25.808304
000020 7f 27 2b 41 83 52 ad 42 41 a6 cb 43 82 29 e0 43
       10.697143 86.661156 407.29886 448.32428
000030 26 7e 35 41 84 96 42 45 a7 b4 ec 40 fb 74 8a 41
       11.343298 3113.4072 7.3970523 17.30712
000040 77 80 09 43 a3 46 75 44 62 67 a2 45 fd 00 32 45
       137.50182 981.1037 5196.923 2848.0618
000050 a2 1d 4b 45 0d a0 3b 40 01 9e 6a 41 f2 38 2a 42
       3249.852 2.9316437 14.663575 42.55561
000060 9f 72 a4 40 97 ef 17 43 38 31 a4 3e 82 1b 1a 44
       5.138992 151.9359 0.320688 616.4298
000070 a3 08 e1 45 64 4f 09 45 06 47 52 43 88 97 26 41
       7201.0796 2196.962 210.27744 10.411995

conv2.att_src f4 [1, 1, 16]
000000 07 98 9c 3f c4 88 95 be bc 04 89 bf e7 19 7a 3e
       1.2233895 -0.29205906 -1.070457 0.24423943
000010 33 f4 4f 3d 6d d3 12 3f 0d 8a 68 bf 60 5d 50 be
       0.050769996 0.5735386 -0.9083565 -0.2034812
000020 0d 68 a3 bf 06 a5 a1 bf 27 5e 73 3f f7 09 76 bf
       -1.2766129 -1.2628486 0.9506554 -0.96108955
000030 41 52 2d 3f fe 8f 6e bf 07 a7 90 3e da c5 8a 3f
       0.67703635 -0.93188465 0.28252432 1.084163

conv2.att_dst f4 [1, 1, 16]
000000 a6 79 df bf 0f 2e 57 3f 5c 99 9c bf d0 06 b4 be
       -1.7458999 0.84054655 -1.2234302 -0.35161448
000010 25 c2 81 bf 22 ce 6d bd 1e ef 04 40 3d 04 bd 3e
       -1.0137373 -0.05805791 2.0770946 0.36917296
000020 a7 6e 46 bf 51 59 a9 bf d9 21 e2 bf 24 b1 87 3f
       -0.7751259 -1.3230382 -1.766658 1.0600934
000030 98 ea b2 3f 4f bc 12 bf 5d ad 08 c0 32 45 c2 bf
       1.3977842 -0.57318586 -2.1355813 -1.5177367

conv2.bias f4 [16]
000000 df 6f 44 3f f8 19 3f 3d 84 6e 1f 3f 62 99 3b 3f
       0.767332 0.046655625 0.6227801 0.7328092
000010 20 67 a1 3d d7 fd 20 3c d8 33 67 bc b3 e7 ae be
       0.07880998 0.009826145 -0.014111482 -0.34161147
000020 88 ac 8f 3d d7 89 37 3f f3 1f 20 3f bc 56 8c 3d
       0.070153296 0.716947 0.6254875 0.06852481
000030 09 57 a2 bc 3f 8d 3d 3d 00 65 04 3f 4b b9 bd 3e
       -0.019816892 0.04627728 0.51716614 0.3705543

conv2.lin.weight f4 [16, 32]
000000 23 33 f5 bd fd 00 18 be aa 38 76 be a6 e5 24 3d
       -0.11972644 -0.14844127 -0.24045053 0.040258072
000010 2d 26 67 bf b1 3d 9e be 30 25 d0 3c 3d fd 4b 3c
       -0.90292627 -0.30906442 0.025408357 0.012450513
000020 36 25 b8 be 6a 3e 76 3e 6c 03 54 be f4 87 92 3e
       -0.3596589 0.24047247 -0.2070443 0.2861935
000030 4a 06 99 bd 55 34 60 bd b6 27 22 3e d1 bb 55 3e
       -0.07471903 -0.054737408 0.15835461 0.20872428
000040 5e 73 94 3e f2 e0 01 be e9 30 b1 3c 09 f5 de 3e
       0.28994268 -0.12683466 0.021629767 0.43546322
000050 2f e4 22 3e ca 78 6b be 4e 39 15 be f5 81 a8 3e
       0.15907358 -0.22995296 -0.14572641 0.3291165
000060 05 3e 5b 3c 00 4b 9e 3e 53 bd 5c be 64 7f 59 be
       0.013381486 0.30916595 -0.21556596 -0.21240002
000070 44 b0 68 bc 93 23 26 3e 37 3c d7 3d 9e 1f 59 be
       -0.014202181 0.16224508 0.10509532 -0.21203467
000080 ee 64 a7 be a1 85 56 be de 28 a7 3e b9 f1 88 3e
       -0.3269419 -0.20949413 0.32648367 0.2674692
000090 ec ed 9d be b5 dc 0c be 80 c4 67 3d 87 8f 02 be
       -0.30845582 -0.13756068 0.05658388 -0.12750064
0000a0 75 af 52 3e 56 15 1d 3e a0 26 45 3d 9c fc 6f 3c
       0.20574744 0.1534017 0.04813254 0.014647629
0000b0 a6 48 f2 3d b7 70 8f bd bb c8 31 3e 85 ec 47 be
       0.11830263 -0.070039205 0.17361729 -0.19523819
0000c0 e7 97 2e be 13 d6 12 be ef 37 04 be 6d 44 06 3d
       -0.17050134 -0.14339475 -0.12911962 0.0327801
0000d0 6c 4a 63 be b1 ef 4d be cf f9 09 be de cf 9f 3e
       -0.22196358 -0.20110966 -0.134742 0.31213278
0000e0 12 cd 4e be b7 9b 89 be c5 fb 70 3f e9 44 42 3e
       -0.20195416 -0.26876613 0.9413417 0.189716
0000f0 d6 3c 93 3e 20 fa 14 be 0c f1 00 3e 6f dc de bd
       0.28757352 -0.1454854 0.12591952 -0.10881888
000100 cd de 06 be d3 de 06 be af 57 9c 3d 2c e0 01 3e
       -0.13170929 -0.13170938 0.07633912 0.12683171
000110 37 53 36 bf ee fa f5 bb 0c 81 a8 3e 12 66 54 3e
       -0.71220726 -0.00750672 0.32910955 0.20742062
000120 2c 83 c0 be 73 dc 2b 3a 73 09 e2 3d 30 5e 87 bd
       -0.37600076 0.0006555982 0.110369585 -0.06609762
000130 2b b9 d3 3d f5 8f 58 3d 48 23 43 be c6 c9 93 bd
       0.10338052 0.052871663 -0.19056427 -0.072162196
000140 f3 15 67 3e 9b dc f5 3e a3 70 1b 3e 21 ab 8f be
       0.22566967 0.4801987 0.15179686 -0.28060248
000150 d4 b8 aa be fd bc 60 be 6d 38 91 be 34 c1 d2 3d
       -0.33344138 -0.21947093 -0.28363362 0.10290757
000160 9c 3e b6 3e 73 41 03 be 7d 8f 17 3f ea 29 98 bd
       0.35594642 -0.12817936 0.5920332 -0.074298695
000170 a4 09 ab 3e ed 61 4a be bd 65 5c 3e f3 99 87 be
       0.33405793 -0.19763918 0.21523185 -0.2648464
000180 4d e7 7c bd c4 95 73 3d 66 38 e6 be ae 8c 60 3d
       -0.061744023 0.059469 -0.44964904 0.054821663
000190 35 2b 27 bf 36 42 28 3d fa 35 57 be c0 de 92 3e
       -0.65300304 0.04107877 -0.21016684 0.2868557
0001a0 16 00 8b be 22 3a 58 bd a8 b1 93 bf 8e 9a e4 bd
       -0.27148503 -0.052789815 -1.1538591 -0.111622915
0001b0 92 c7 b8 3d 1d d8 00 3e 47 e0 f0 3d 8a c4 c9 bb
       0.0902244 0.1258244 0.117615275 -0.0061574625
0001c0 b1 c7 08 3c 81 37 95 3e 24 f4 23 bd cb 9f ba 3e
       0.008348391 0.2914391 -0.040027753 0.36450037
0001d0 ea 47 a0 3e 0a cd 91 be 52 04 1c be 16 77 b4 bb
       0.31304866 -0.28476745 -0.15236023 -0.00550736
0001e0 42 6c 4e be e1 89 a6 3c cc 26 3b 3d c2 63 17 be
       -0.20158485 0.020329418 0.045691296 -0.14784148
0001f0 55 05 8b 3e d9 f4 1c bc f7 65 80 3e 49 e5 58 be
       0.27152506 -0.009579861 0.25077793 -0.21181215
000200 51 11 98 3e 58 a8 a0 bc 88 ab 3e 3e 4f 05 51 be
       0.2970071 -0.019611523 0.18620121 -0.20412181
000210 ab a4 cc be ee b0 14 bd 10 b0 eb bd 37 8a bb be
       -0.39969382 -0.036301546 -0.11508191 -0.36628887
000220 b6 94 9d 3c e4 f0 00 3d 2d f3 aa 3d f0 21 40 3c
       0.01923595 0.03147973 0.08347163 0.011726841
000230 9b 58 e2 bd 3d 06 3f bd af 2d 23 be fa 2a a0 be
       -0.110520564 -0.04663681 -0.15935396 -0.3128279
000240 75 6f d7 bc ff 40 0a bf 6b 01 80 be f7 07 e9 bd
       -0.026298264 -0.54005426 -0.25001082 -0.11378472
000250 c8 50 85 3e 2e 34 0c bf 48 5d cb bd 6b 28 3e be
       0.26038194 -0.5476712 -0.09929901 -0.18570106
000260 59 0b 47 be 66 f0 91 3e e9 78 18 3d 6e 9d 93 3e
       -0.19437923 0.28503722 0.037224684 0.28831047
000270 7a c3 0b be 2e 49 39 3d 0c 2c ec be c7 d7 15 3d
       -0.13648787 0.045235805 -0.46127355 0.036582734
000280 64 89 a0 3e 45 d5 c8 bd b1 67 dd bd f8 5d 32 bd
       0.3135482 -0.09806303 -0.10810793 -0.043546647
000290 ab d9 a2 be b8 6e 8f 3e ae cb 21 3e 48 38 40 be
       -0.31806692 0.2801416 0.15800354 -0.1877147
0002a0 23 eb c9 bb 57 6b ab 3d c4 02 48 3d c7 90 b6 be
       -0.0061620637 0.08370083 0.048830763 -0.3565733
0002b0 45 51 a5 be aa ab 8f be 85 dc db bd 2a 4e a3 be
       -0.32288566 -0.28060657 -0.1073542 -0.31895572
0002c0 f5 8c 4b be 1c 2a df be 16 10 15 3e 1d ce e2 3d
       -0.1987799 -0.43586814 0.14556918 0.11074469
0002d0 bc 9b 05 3e e2 f5 1c bf f7 e0 b5 be a2 9c b0 bc
       0.13047689 -0.6131269 -0.35523197 -0.021559063
0002e0 5b a0 af be 29 3a 7b 3e 85 24 d7 3c f0 2c 7e bd
       -0.3430203 0.24533905 0.026262531 -0.062054574
0002f0 89 dd 2d 3e 7f 1d 24 be f6 58 62 3b b9 a5 28 3e
       0.1697904 -0.16026877 0.0034537888 0.16469468
000300 02 fe 30 bc 4a f8 b2 3d 45 37 1c be f8 64 74 ba
       -0.010802748 0.08738764 -0.15255459 -0.0009322907
000310 c2 1f 66 be 20 b5 4c be 69 a1 3c 3e a0 ed 36 3e
       -0.22473052 -0.19990969 0.18420948 0.17864084
000320 1b 07 95 3e d4 c0 18 3e 98 31 f6 bd 9f 9b 90 3e
       0.29106984 0.14917308 -0.12021178 0.2824373
000330 32 7f d3 3d bf c4 a9 3d ee 57 e9 bd 63 e0 83 be
       0.10326995 0.082894795 -0.113937244 -0.2575713
000340 a5 2c 9c 3e 22 3b 9a be 39 b5 8f be 4e df db 3d
       0.3050281 -0.3012324 -0.2806795 0.10735951
000350 c1 b0 5b bd 62 d8 9d bd 2f e4 b2 be f1 b3 fc be
       -0.053635363 -0.07707287 -0.34939715 -0.49356034
000360 57 41 11 be 5c fe 16 bd 3f 64 68 3f 74 fc 13 be
       -0.14185081 -0.03686367 0.90777963 -0.14451772
000370 0d 72 99 be dd ea 7d be 05 f2 95 3d 23 ba 87 3e
       -0.29969826 -0.24796624 0.07321552 0.265092
000380 d0 ba b1 be 47 78 82 be 1a 3c db 3d 4a 16 a8 3d
       -0.3471284 -0.2548239 0.10704823 0.08207376
000390 f5 a8 d5 be 95 d7 75 3d 40 fc 8c 3e 19 9f 53 be
       -0.41730466 0.06002005 0.275362 -0.2066616
0003a0 e4 ee 2a 3e cb 10 8a 3c 78 b8 fa be d9 92 78 bd
       0.16692692 0.01685371 -0.48968863 -0.06068692
0003b0 2e 9b e4 3d 51 01 95 3e 94 12 30 3e cd d6 69 3d
       0.11162411 0.29102567 0.17194587 0.057089616
0003c0 99 17 8e 3d 1a d2 85 3e 6f e0 04 be b2 00 84 be
       0.06938095 0.26136857 -0.1297624 -0.2578178
0003d0 9e 3e 88 3d c9 5b f0 3d 67 d1 a1 be c7 49 1a 3e
       0.06652568 0.11736257 -0.31605074 0.15067206
0003e0 73 28 a4 3d d3 40 6d be af ff 38 3f 35 9a 74 be
       0.080155276 -0.2316926 0.7226514 -0.2388695
0003f0 4b 7c 41 be 39 73 78 3e 5b f3 57 be e1 1d c1 be
       -0.1889507 0.24262704 -0.21088926 -0.37718108

bn2.weight f4 [16]
000000 bb 4b a9 3f 4d cb 9d 3f d7 0a 15 40 92 96 04 40
       1.3226236 1.2327667 2.3287866 2.07169
000010 c7 fb c7 3f 76 dd b1 3f dd bf 98 3f b0 81 a7 3f
       1.5623711 1.389571 1.1933552 1.3086452
000020 32 be b7 3f d8 34 fe 3f 3c 87 27 40 e2 a6 97 3f
       1.4354918 1.9859877 2.617629 1.1847804
000030 6f a9 af 3f 17 e5 68 3f 6e 9f 06 40 48 e1 25 40
       1.3723582 0.90974563 2.1034808 2.591875

bn2.bias f4 [16]
000000 63 a9 44 3f 6f 7a b5 3e 24 10 97 3e 08 f4 1b 3f
       0.76820964 0.35444972 0.29504502 0.6091924
000010 2a 92 55 be 3f 4d 94 be 24 18 a7 3e 69 c5 dc 3e
       -0.20856538 -0.28965184 0.32635605 0.43119362
000020 0d b5 2a 3e 85 95 e7 3e 04 fe d5 3e df e2 93 3e
       0.16670628 0.45231262 0.4179536 0.28884026
000030 2e 8c d4 3e b4 b6 a3 bd 45 7f bf 3e cf 3e d8 3e
       0.415132 -0.07993832 0.37401786 0.4223542

bn2.running_mean f4 [16]
000000 47 3f f4 3e 2e 9b 86 3e 98 a1 75 3e 7f 24 b9 3e
       0.47704527 0.26290268 0.23987424 0.36160657
000010 ea 97 2f bf e7 09 40 bf f0 88 07 3e 6e ce ef be
       -0.6859118 -0.7501511 0.13235831 -0.4683718
000020 e5 3b 94 be 01 8a 06 3f 28 d4 ff bd bf be cb 3e
       -0.28951946 0.5255433 -0.124916375 0.39793965
000030 3b fa 72 3f 29 98 f2 bd 77 5b 66 bc df b8 ae be
       0.9491307 -0.118454285 -0.014059893 -0.3412542

bn2.running_var f4 [16]
000000 b6 ec 1c 3e ff 33 83 3d 27 d5 30 3e 1b 1e 4e 3e
       0.15324673 0.06406402 0.17268811 0.20128672
000010 88 2d 25 3f f4 bd fe 3e 12 35 3b 3d ca ea 1f 3d
       0.645226 0.49754298 0.04570491 0.03904227
000020 7c 1c 1b 3d ca 76 48 3e 72 5a 2e 3e 5a 2c 3e 3d
       0.03786896 0.19576564 0.1702669 0.046429016
000030 b8 f5 83 40 ee 37 fe 40 90 06 4b 3e d3 73 43 3e
       4.123745 7.9443274 0.19826722 0.19087152

fc.weight f4 [2, 16]
000000 01 95 95 3e bd ec 08 be 68 34 7d 3f df 8c 5d 3f
       0.29215243 -0.13371558 0.9890809 0.8654308
000010 7a f1 0d 3f 49 f1 f5 3e 57 49 83 be 84 bc 63 be
       0.5544659 0.48035648 -0.2564189 -0.22239882
000020 28 69 19 bf 61 60 02 3f 6b 56 9d 3f ed db d8 be
       -0.5992608 0.5092831 1.2291998 -0.4235529
000030 ca 19 dc be de 91 11 3d f8 db 55 3f 8e db 52 3f
       -0.42988425 0.0355395 0.8353877 0.82366264
000040 d3 28 38 bf 19 04 e5 3e ec 6e 19 bf f4 1a 3d bf
       -0.7193729 0.4472969 -0.5993488 -0.7386925
000050 89 ea 60 be 94 cc 05 bf 20 76 e5 3e a5 8d 03 3f
       -0.21964468 -0.52265286 0.44816685 0.5138801
000060 3c 69 d7 3e 91 f3 44 bf 7d 6a 5d bf 7d 87 75 3e
       0.42072475 -0.7693415 -0.86490613 0.23977466
000070 38 5f 2c 3f 0c 1c 8e 3d 27 d3 5f bf bc 7d 87 bf
       0.6733279 0.06938943 -0.8743157 -1.0585246

fc.bias f4 [2]
000000 d3 47 89 bd 19 4a 3e 3e
       -0.067031525 0.18582954
