models/best_model_GAT_MCC.pth (torch, 20706 bytes, 18 tensors)

conv1.att_src f4 [1, 1, 64]
00000000: 9fb4 9640 9cc6 0f3f 4367 b3be 57dc 063d
00000010: bc18 c1be b640 17bf ff18 953f 3351 863f
00000020: 3f7a adbe 5548 1bbf b9f9 573e 7165 973f
00000030: ff81 7cbf 3324 84bf 7a86 f43e a944 4040
00000040: d4de f13f bc2c edbf 49a8 ac3e 476c fbbe
00000050: 74ca 43be 8cc9 0bc0 f4f8 73c0 327d 983e
00000060: b154 963f 27a3 1dbe 00d6 253f 4e93 eb3e
00000070: e142 a73f 31a0 8abf 941a 913f 84cb 8a3f
00000080: 2f79 583f 03c9 ad3e 557b cf40 be3e 28be
00000090: 4e9e a3bf 3bc6 813e 8fb5 0dbe 58e1 31c0
000000a0: c31d 403d d294 f03e 6fc8 1740 e976 503e
000000b0: 1851 6ebe a40e d33f fcc8 57be 2c9a 16bf
000000c0: 225a c0bf 5b18 933e ed3a f8bf 5324 873f
000000d0: 7db1 3140 6412 a1bf cb12 f7be 2b5b da3e
000000e0: 51ff d5bf 96c6 9440 b405 a73e bf28 b03f
000000f0: 2d0b 183f 9ef3 9abf 71ee 1e3e 52f7 373f
4.7095485 0.5616243 -0.3503972 0.032924976 -0.37714183 -0.59083116 1.1648253 1.049353
-0.3388233 -0.60657245 0.21091355 1.1827832 -0.9863586 -1.0323547 0.47758847 3.0041907
1.8896127 -1.8529277 0.3372214 -0.49106047 -0.19120198 -2.1841764 -3.81207 0.29783016
1.1744596 -0.15394269 0.64779663 0.46010822 1.3067285 -1.0830137 1.1336236 1.0843358
0.8455991 0.33942422 6.483805 -0.16430184 -1.2782686 0.2534655 -0.1383879 -2.779379
0.046903383 0.4698854 2.3716085 0.2035786 -0.23273122 1.6488843 -0.21072763 -0.58829
-1.5027506 0.2872952 -1.9392983 1.055796 2.776458 -1.2583737 -0.48256525 0.4264768
-1.6718541 4.6492414 0.3262154 1.3762435 0.5939205 -1.2105596 0.15520646 0.71861756

conv1.att_dst f4 [1, 1, 64]
00000000: b57c 5bbd 3031 1abe f592 6abd b368 a3bd
00000010: dde8 dd3d 332c fa3e 7ef3 bf3e c0d9 813e
00000020: 4ec5 18be 172e c23e 70a7 2fbe 2d6c 9c3e
00000030: 9c83 3ebe 27c3 43be f10a d43e 7133 583d
00000040: e8e7 ae3d 18a4 c83e 6804 c0be 449d aabd
00000050: de71 b33d 809b 803e df11 36bd bccf f73e
00000060: 3e65 c9bd 5ac4 023e 5599 953c 8ed0 823d
00000070: a25d 883e fb8f bebd 4c3f 853e 573f 4e3e
00000080: 9e10 053d 12c6 983e 4a0e 11be e64b 63be
00000090: cbe0 a4be 9c73 fdbd e85c 5a3e 134a 5f3e
000000a0: 715f 8d3d 7c99 b2be 6cba 89be 87da 2fbe
000000b0: 19df 813e 6894 4ebc 84f4 a0bc 0576 b0be
000000c0: 6552 c0bd bc85 193e 68bc 013d 3037 933d
000000d0: 05ac c53b 5c6d 92be 210c 793e 20ac 1c3e
000000e0: 3390 2f3e e4ab 7dbd b2ba 103e 9097 95be
000000f0: 79ed 93be ffb1 50be 8a2f c8be 44ef 8f3e
-0.053585727 -0.15057826 -0.057269055 -0.07978954 0.10835431 0.48861846 0.37490457 0.25361443
-0.14919016 0.3792579 -0.17153716 0.30551282 -0.18604892 -0.19117413 0.41414598 0.052783433
0.08540326 0.39187694 -0.37503362 -0.08330777 0.08761953 0.25118637 -0.044450637 0.48400676
-0.098337635 0.12770215 0.018261591 0.06387435 0.26633936 -0.09304806 0.26024854 0.2014135
0.03248655 0.29838616 -0.14165607 -0.22196922 -0.32202753 -0.12375566 0.21324503 0.21805601
0.0690297 -0.34882724 -0.2690004 -0.17173205 0.25365523 -0.012608625 -0.019647844 -0.34465042
-0.093907155 0.14992422 0.03167382 0.071882606 0.006032469 -0.2859906 0.24321033 0.15300035
0.17144851 -0.061931506 0.14133719 -0.29217196 -0.28892115 -0.203804 -0.3909877 0.28112233

conv1.bias f4 [64]
00000000: 6695 6c3c 287b b2bc ad0d 3b3c 0221 443b
00000010: 50c9 9c39 f6b8 fb3c 1b1b 333d f206 93bc
00000020: 359f 84bc aa89 633d eba0 923b e912 dfbc
00000030: a42b df3c 152e 96bc d893 293c a874 a03c
00000040: af7f fa3b 111b bb3c 8d80 e93a 955c 163b
00000050: 3d95 29bc e290 3f3c e924 713d 98fc 883b
00000060: 7731 96bc 9f1b a13b 2df8 023c 3005 193d
00000070: 3cea c0bb 9c57 09bd 43a2 8dbc 3080 823c
00000080: 1e5d c0bc d977 90b9 efdf 77bc 0171 ae3c
00000090: f050 e63c 2035 2abc e6e9 a4bb 2c3d 9dbd
000000a0: 142a 2cbc 4f47 5bbc 9357 b5bc cdbf b7bc
000000b0: 5c7d acbb 0268 a23d b65d 823a 4bb7 08bb
000000c0: cdf6 413c 2d08 253d 8253 913d 52ab 00bc
000000d0: f4c7 b53d c399 6c3c 3ad0 21bc 7deb da3c
000000e0: aa05 f23c e6cd 4ebc 5895 c2b8 86bb fd3c
000000f0: d34e 8fbb 1d06 4fbc 854d febc b2c3 523c
0.014439916 -0.021787241 0.011416835 0.00299269 0.00029904628 0.030727845 0.04372702 -0.017947648
-0.016189197 0.05555121 0.0044747493 -0.027230697 0.02724249 -0.01833252 0.01035019 0.019586876
0.0076446156 0.022840055 0.00178148 0.0022943367 -0.010350523 0.011692258 0.05887309 0.004180502
-0.018334134 0.004916623 0.00799374 0.037358463 -0.005887298 -0.033530816 -0.017289286 0.015930265
-0.023481902 -0.00027555114 -0.0151290735 0.021294119 0.028114766 -0.010388643 -0.0050327657 -0.07677683
-0.010508079 -0.0133837005 -0.022136485 -0.022430325 -0.0052639674 0.07929994 0.0009946141 -0.0020861204
0.011838627 0.040291 0.07096006 -0.007853346 0.08876029 0.0144409565 -0.009876305 0.026723618
0.029543716 -0.012622332 -9.278458e-05 0.030973207 -0.0043734103 -0.012635735 -0.031042824 0.01286404

conv1.lin.weight f4 [64, 8]
00000000: 3cdf 033e f01d 30c0 bcf9 0bbd 5dc2 db3e
00000010: 0168 28c1 85a4 4640 e375 51bd d124 2dc0
00000020: 7ac5 a7be 9409 24c0 54bd 36be e302 1c3e
00000030: ae52 dbc0 9089 953f a687 0d3e 70dc e1bf
00000040: 7a8a f4bf f19b 1ebf 67a4 07c0 ba78 30be
00000050: b0bf e240 8602 a0c0 7273 02c0 79e0 ea3f
00000060: 2b38 9940 2eec a640 babd 9f40 631a 4ebc
00000070: 80e6 cbbf 08b5 eb40 c4ce b440 4562 4fbf
00000080: 8267 c73f 3b69 8f40 f778 c93f 51e7 a4bc
00000090: fc2a e140 d900 c6be f4ce 823f 80f1 d93f
000000a0: f37d c43f 7255 8240 0d1f da3f a3c5 53bf
000000b0: 89f0 0241 b075 82bf b277 bd3f bbd6 0c40
000000c0: 771e 80be a01d fcbf a11e 283e 6fac ca3e
000000d0: 3924 11c1 ae7a 4040 7470 ebba 069d 19c0
000000e0: b725 073e bb8d 02c0 5050 e93d 85dd e53e
000000f0: 857a 08c1 603a 0e40 fa46 b3be 3f8a 06c0
00000100: 02f1 c73f af38 9a40 d4d2 b43f 112f 593c
00000110: a3ce e540 7fd8 afbe fa36 e13f d87c b43f
00000120: 7fce bc3f 798f 8140 0af0 8a3f c339 03bf
00000130: 266c 0641 e8be 95bf b347 983f 82f7 0940
00000140: f368 ffbf 6ee0 8dc0 3946 00c0 56ff fbbd
00000150: a2cf b6c0 18b8 42bd 8b61 9dbf 0cd2 98bf
00000160: 27b2 613e 7488 08c0 5e92 003e f9ef f13e
00000170: 9a1a 10c1 b361 2f40 977c aebe 5977 16c0
00000180: 2237 413e bec5 e53f 1fe3 54be 952d 043d
00000190: 375b fe40 a33c 3dc0 9c23 4d3e 7ef8 0840
000001a0: 363f 053f 0ef6 0440 b6eb 913d d019 b5be
000001b0: ee49 0141 74a7 f7bf aa46 e13e 10e6 fa3f
000001c0: 9bcf 303f 8d8a 47bf 1fc4 213f 648a 583e
000001d0: f7a2 f5c0 8ec9 6f40 6dc5 563f 4142 03c0
000001e0: 1e12 5abe dd94 2ac0 cbb4 d2bc cc58 aa3e
000001f0: c6c5 25c1 8ee5 3b40 a839 f5be 9ade 2ac0
00000200: 70cb 98bd 4a13 24c0 5d57 593b 2b0e b53e
00000210: 0ff7 13c1 24f6 0a40 b4f4 e03e b30b 25c0
00000220: 888a ba3e ba6c f73f 6be7 883e d924 07bd
00000230: 22cc 1f41 613a 0ec0 b5f3 90be 3074 2f40
00000240: 4a2b 22c0 406b b1c0 1775 29c0 8653 5ebd
00000250: 75fb e5c0 ee63 8abe b94e cbbf 7898 ccbf
00000260: d898 d2bf c8e1 cdbe 2c72 eabf 20b4 0c3d
00000270: 0bce 0241 2bd5 8fc0 3ab8 8fbf e629 f93f
00000280: af63 e940 5854 3241 93e6 ea40 21ce 8b3b
00000290: fb5b aa40 c6ad 2341 227b 8a40 9502 03c0
000002a0: 080d 5ebd 7f7e 0940 5292 26bc e402 86bc
000002b0: c99b 0e41 6ecb 08c0 a22b 733e 07c7 1840
000002c0: d592 c23e 73ce 0540 a372 dd3d 9669 1e3d
000002d0: ff3e 2341 28d8 34c0 805b ce3d 38fe 2a40
000002e0: 83ba bf3f 57aa 103f dc05 cd3f 4e7d c5bc
000002f0: d2c8 dcc0 c7c1 8e40 bf0a 0540 9e19 b7bf
00000300: d899 713c e711 ddbf f08b fc3d 38c5 b63d
00000310: e433 18c1 4e60 5b40 ecff 783e 0100 11c0
00000320: 3f46 26c0 f1ca 9cbf 3d26 0bc0 a7b4 94bc
00000330: 85c4 9940 4d93 a1c0 4f0f 09c0 3e71 883f
00000340: 380e 093f fd86 afbf da89 ac3e ec45 b53e
00000350: d8bb 06c1 205e 5140 d3b1 da3e 64ac fabf
00000360: 4d2f b83e 1521 fbbf 182f 9e3e acb7 ff3e
00000370: 61eb dec0 7288 3d40 9981 e03e 8b5a eebf
00000380: 05e0 38be e693 eebf 0080 ae3d e8d9 ea3e
00000390: 57f3 0ac1 6067 3440 42ca 84bd e2ce 17c0
000003a0: 749b 893d ad4b e33f 6dfd a0be 47cb 5f3d
000003b0: 6463 1a41 900d 62c0 fc1e 6f3e 9986 0740
000003c0: 81e4 28be f0a3 eebf f778 9a3d 58b3 973e
000003d0: 558c 03c1 c2c0 2140 60db 163c 7290 eebf
000003e0: 2a74 05bf 0268 2dc0 19ef 88be 00c2 a63e
000003f0: f0ec 0ec1 00e6 0540 ac57 393e 5891 07c0
0.12878126 -2.7518272 -0.034173712 0.42921725 -10.525392 3.1037915 -0.051137816 -2.705372
-0.3276785 -2.5630846 -0.1784566 0.15235476 -6.8538427 1.1682606 0.13821277 -1.7645397
-1.910476 -0.619567 -2.1194093 -0.17233554 7.0858994 -5.000308 -2.0382962 1.8349754
4.7881064 5.2163305 4.99191 -0.012579533 -1.5929718 7.3658485 5.65024 -0.8100932
1.5578463 4.4815955 1.574004 -0.020129832 7.036497 -0.38672522 1.0219407 1.7026825
1.5350937 4.0729303 1.7040726 -0.82723445 8.183724 -1.0192165 1.4802153 2.200606
-0.25023243 -1.9696541 0.16417934 0.3958468 -9.071343 3.0074878 -0.0017962591 -2.400209
0.13197981 -2.0399005 0.113922715 0.44895568 -8.529912 2.222313 -0.35015088 -2.1021879
1.5620425 4.8194194 1.412684 0.01325585 7.181474 -0.3434486 1.7594903 1.4100599
1.4750518 4.0487638 1.0854504 -0.5126001 8.401403 -1.1698885 1.1896881 2.1557317
-1.9953903 -4.433646 -2.004286 -0.12304561 -5.712846 -0.047538847 -1.2295393 -1.1939101
0.22040616 -2.1333284 0.12555835 0.47253397 -9.0064945 2.740338 -0.3407943 -2.3510344
0.18868688 1.7950971 -0.20789765 0.032270033 7.9486346 -2.956826 0.20033115 2.1401668
0.5204958 2.077518 0.071250364 -0.35371256 8.080549 -1.9347978 0.43999225 1.960146
0.6906678 -0.77945787 0.6318988 0.21146542 -7.676143 3.746677 0.83895 -2.0509188
-0.21295974 -2.665336 -0.025720974 0.33270872 -10.360785 2.935886 -0.4789555 -2.6698365
-0.074606776 -2.5636773 0.0033163645 0.35362372 -9.247817 2.1712732 0.43936694 -2.578839
0.36433816 1.9330056 0.26739058 -0.032994125 9.987337 -2.2223132 -0.28310934 2.7414665
-2.5338922 -5.544342 -2.6477716 -0.054278873 -7.1869454 -0.27029365 -1.5883399 -1.598403
-1.6452894 -0.4021132 -1.8316092 0.034351468 8.175303 -4.4947715 -1.1228096 1.9465911
7.2934184 11.145592 7.3406463 0.004266516 5.323728 10.229925 4.327531 -2.0470326
-0.054211646 2.1483457 -0.010166721 -0.0163588 8.9130335 -2.1374164 0.23747113 2.3871477
0.3800265 2.0907257 0.10812881 0.038674913 10.20288 -2.8256931 0.10076046 2.6717663
1.4978794 0.5650992 1.6017413 -0.024107601 -6.899514 4.4611545 2.078781 -1.4304693
0.014746152 -1.7271088 0.123313785 0.08924335 -9.512669 3.427753 0.24316376 -2.2656252
-2.5980375 -1.2249433 -2.1742089 -0.018152548 4.805239 -5.049231 -2.1415594 1.0659559
0.5353732 -1.371307 0.33698922 0.3540491 -8.42086 3.27137 0.42713794 -1.958386
0.35973588 -1.9619471 0.30895305 0.49944818 -6.966233 2.961453 0.43848875 -1.8621382
-0.18054207 -1.8638885 0.08520508 0.45869374 -8.684409 2.8188095 -0.0648389 -2.3720021
0.067191035 1.775747 -0.3144335 0.05463722 9.649265 -3.5320778 0.23351663 2.1175902
-0.16493417 -1.864378 0.075426035 0.29629016 -8.221761 2.52739 0.0092075765 -1.8637831
-0.5213038 -2.7094731 -0.26744917 0.32569885 -8.932846 2.092163 0.1809985 -2.118246

bn1.weight f4 [64]
00000000: 7b58 323f 7176 073f 2dcf 4d3f 62d1 253f
00000010: 0e02 343f e01a 743f 9636 413f 555d 2b3f
00000020: b203 fb3e 097f 633f 2d82 303f 0025 5c3f
00000030: 013c c13e 4145 883f f5e0 603e 257c 293f
00000040: 59ba 223f 01ee 653e 535f 1a3f d377 f43e
00000050: 3ced 7b3f a93a 823f 7ad4 2c3f 702e 513f
00000060: 0a00 9a3e e2a7 203f 8b1f bf3e bed6 233f
00000070: 0743 2b3f 2c8e 333f 120e 323f de13 363f
00000080: e26b b73e d0d3 b03d 9380 2c3f dd53 543f
00000090: d740 943f ef6c ac3f eb29 483f 46e1 6c3e
000000a0: 9fdf b73f a556 0d3f 798d 323f a445 a73e
000000b0: 383c 653f eb1b 1c3f 2056 323f e246 3b3f
000000c0: 871a 1a3f e95d a23f 5328 2e3f b068 323f
000000d0: 65e8 343f 2ad7 3b3f 5c34 c23e a1af 993f
000000e0: 4f63 bc3e c4ce 1f3f 13b1 2a3e b9ea 983e
000000f0: 2ae7 343f 295f 163f b2fe 3a3f 387c 343c
0.6966626 0.529151 0.8039425 0.6477262 0.70315635 0.9535351 0.75473917 0.6693929
0.49026257 0.88865715 0.6894863 0.8599396 0.37741092 1.0646135 0.21960814 0.66205055
0.63565594 0.22454073 0.60301703 0.4774767 0.98408866 1.0174152 0.67511714 0.81711483
0.30078155 0.6275617 0.37328753 0.63999546 0.6689915 0.7013881 0.6955272 0.71124065
0.35824496 0.0863415 0.6738369 0.82940465 1.1582288 1.3470744 0.7818896 0.2313281
1.4365119 0.55210334 0.6974712 0.3267032 0.8954501 0.609801 0.69662666 0.73155034
0.6019673 1.2684909 0.6803028 0.6969099 0.70667106 0.7337519 0.37930572 1.2006723
0.36794516 0.62424874 0.16669111 0.2986658 0.7066523 0.5873895 0.73044884 0.011015944

bn1.bias f4 [64]
00000000: 6c42 09bf b14d 99bf e6db a4be 9d03 70be
00000010: 2357 8abe 7aaa 0ebf 5b4a 9abf 34ab df3d
00000020: 368b a9bf 1e63 0bbf 3a21 a2be 07fc d3be
00000030: 9df8 afbf f194 2dbf 7b0f 603c 52bf 5fbf
00000040: a96f a8bf 7692 fa3d d280 38be 755c 01bf
00000050: b91b 64bd 0996 56bf 456e 083f 0287 52bf
00000060: 304f 853e cb56 cfbe c18f a23c 2eec 17be
00000070: 457c c53e 74d1 3cbf 271d 0dbf 9d8d bfbe
00000080: 3dfb b5be 2859 c13d afe6 8fbf db9f d8be
00000090: 9175 6cbf cc40 9bbf c4f6 a3be 76ff ab3d
000000a0: cadc 3abc 40c1 3cbe d91b 5cbf 03b3 9cbf
000000b0: eb2c 1ebf b81e fe3e e230 44be b17b 9fbe
000000c0: 981d 03bf e1ed 90bf 40d2 2cbe 2ee3 a33e
000000d0: 75c0 963e c67e 88bf 84ae 853e 42a4 67bf
000000e0: c750 10bf ed9b a3bf e208 493e 5804 3bbe
000000f0: 9319 4cbf 60b1 65bf e0d2 aabe 80db 35bd
-0.53616977 -1.1976835 -0.3219902 -0.23438878 -0.27019605 -0.55728877 -1.2053941 0.10921326
-1.3245609 -0.54448116 -0.31665975 -0.4140322 -1.3747746 -0.6780539 0.013675566 -0.87401307
-1.3159076 0.122349665 -0.18017891 -0.50531703 -0.0556905 -0.83822685 0.5329326 -0.82237256
0.26036978 -0.40495905 0.019843938 -0.14836189 0.38571373 -0.737571 -0.5512261 -0.3741273
-0.35543242 0.09440833 -1.1242274 -0.4230946 -0.9236689 -1.212915 -0.32024205 0.08398335
-0.011405179 -0.18433094 -0.8597999 -1.224213 -0.6178729 0.49632812 -0.19159272 -0.31149057
-0.5121703 -1.1322595 -0.16877079 0.32009262 0.29443708 -1.0663688 0.26109707 -0.9048501
-0.56373256 -1.278196 0.19632295 -0.18263376 -0.79726523 -0.8972378 -0.3336401 -0.044398785

bn1.running_mean f4 [64]
00000000: 827d ca45 35c7 0e45 3c3f 22c5 f15c 2cc3
00000010: 9223 8ec3 cc63 43c6 0abd ba45 2551 d545
00000020: 0a12 5443 67d8 f1c5 9ba4 edc4 ec00 df45
00000030: fc1a 0044 4bb8 a6c5 dbf1 4645 f1c6 9c45
00000040: 31b7 a645 86f9 edc3 c794 4dc4 d999 0644
00000050: 3db8 b042 145b 64c3 2b86 1844 a9f5 bdc3
00000060: e027 a644 1062 8dc3 78f2 a645 e1c8 eb45
00000070: 28ee d945 08c3 5444 838e 8b45 3576 9945
00000080: ac98 1044 3c6b 9c42 eb70 b445 563c f8c4
00000090: fe64 98c5 0c85 0ec4 0c15 8043 833e 92c3
000000a0: dea0 1240 ef00 e4c3 3c08 c845 4703 1144
000000b0: d448 19c4 9053 1546 7987 41c3 be75 aec4
000000c0: b8a6 5f43 d50d 03c3 36f4 1a44 e483 0b46
000000d0: 86d5 d845 49e5 7144 7572 0745 2365 f2c3
000000e0: 71e1 6c43 42fc 9245 6f9c 8843 f024 8343
000000f0: 826c 5a44 dafe 0dc5 6bd3 04c5 1e79 7744
6479.6885 2284.4504 -2595.9521 -172.36305 -284.2779 -12504.949 5975.63 6826.143
212.07047 -7739.0503 -1901.1439 7136.115 512.42163 -5335.0366 3183.116 5016.8677
5334.899 -475.9494 -822.32465 538.4039 88.35984 -228.35577 610.0964 -379.91922
1329.2461 -282.7661 5342.3086 7545.11 6973.7695 851.04736 4465.814 4910.776
578.3855 78.20944 5774.1147 -1985.8855 -4876.624 -570.07886 256.16443 -292.48837
2.2910686 -456.0073 6401.0293 580.0512 -613.13794 9556.891 -193.52919 -1395.6794
223.65125 -131.05403 619.8158 8928.973 6938.6904 967.5826 2167.1536 -484.79013
236.88063 4703.532 273.22214 262.28857 873.69543 -2271.9282 -2125.2136 989.89246

bn1.running_var f4 [64]
00000000: f9ce 164c 1504 964a fb91 c04a 14c9 0647
00000010: 7a22 9947 1189 0c4d 2d3c 004c 185e 274c
00000020: 6ccc 1c47 9857 574c 629c 4e4a d3e8 364c
00000030: 947f 7148 7183 cc4b c355 114b ddd8 b44b
00000040: 426a cc4b 289c 5048 818d 1849 3c01 8848
00000050: 96f0 9245 d890 4047 c5d0 aa48 3959 0948
00000060: 2dea ca49 7653 8b47 e3e8 cc4b 6d66 4c4c
00000070: 2aaa 2e4c bea0 2649 a940 8f4b 5c44 ad4b
00000080: 94de 9a48 5d77 a145 1580 ef4b a31d 614a
00000090: 94de aa4b 7878 9948 ec40 5947 0c7a 9d47
000000a0: 978d ba44 3e21 3d48 542b 134c 316f 9948
000000b0: 4eb1 ae48 8204 a44c f192 1b47 4313 df49
000000c0: c2b9 3747 623e 9d46 f352 b048 152b 8f4c
000000d0: e7ee 2c4c 3539 5749 94b2 864a 6668 5848
000000e0: 4ce2 4d47 b8e9 9e4b 091a 8547 4d63 7e47
000000f0: 6a71 3049 0636 944a b83c 814a 0097 6049
3.953354e+07 4.9157225e+06 6.3101415e+06 34505.08 78404.95 1.4736206e+08 3.3616052e+07 4.38744e+07
40140.42 5.6450656e+07 3.3851125e+06 4.794862e+07 247294.31 2.6805986e+07 9.524675e+06 2.3703994e+07
2.6793092e+07 213616.62 624856.06 278537.88 4702.073 49296.844 349830.16 140644.89
1.6622776e+06 71334.92 2.6857926e+07 5.358226e+07 4.5787304e+07 682507.9 1.8776402e+07 2.2710456e+07
317172.62 5166.9204 3.1391786e+07 3.6882968e+06 2.23962e+07 314307.75 55616.92 80628.09
1492.4247 193668.97 3.8579536e+07 314233.53 357770.44 8.599246e+07 39826.94 1.8274324e+06
47033.758 20127.191 361111.6 7.5061416e+07 4.5333404e+07 881555.3 4.41377e+06 221601.6
52706.297 2.082904e+07 68148.07 65123.3 722710.6 4.856579e+06 4.234844e+06 919920.0

conv2.att_src f4 [1, 1, 32]
00000000: 381d 4e3d 1d31 c0be b3ff b83e 1a20 03bf
00000010: 97b9 3a3f 5c90 123f 8ab7 243f 8d94 653f
00000020: 919b 703f a119 42be d495 03bf 94a3 6ebe
00000030: c381 43bf d77e 253f 8b30 1bbe 3e7d be3d
00000040: 8813 d53b 55c4 cd3c fc69 c1bf cef3 37bf
00000050: 59a8 97bc dc4e 903f 84fa ab3e ff37 793f
00000060: 17a3 c43f 5363 8fbc 3121 f6be 9ced 823f
00000070: 2d31 4bbf 895d febe e76f 653f 29f0 12be
0.050320834 -0.3753747 0.36132583 -0.5122086 0.7293944 0.57251525 0.6434256 0.89679796
0.93987375 -0.18955089 -0.51400495 -0.23304588 -0.76369876 0.6464667 -0.15155236 0.09301232
0.0065025724 0.025118032 -1.5110469 -0.7185639 -0.018512892 1.1274066 0.33589566 0.9735107
1.5362271 -0.017503416 -0.48072198 1.0228763 -0.7937191 -0.49680737 0.89623874 -0.14349426

conv2.att_dst f4 [1, 1, 32]
00000000: ecb8 3c3e 061f efbd f144 1abf 3631 6abe
00000010: 124a 59bf 0cff 8fbe 9b93 1b3f 32d1 a03e
00000020: d6b7 603f fc73 b53f 24a8 383e 6de7 c13e
00000030: 532f fc3e 9328 87bd 76c8 e7be bea6 0c3f
00000040: 2eca 2cbd 531c 28bd 90e2 333e 6db1 803e
00000050: 1a86 0b3f 183e 283c c82c 4d3e ef89 e73e
00000060: ccc6 373f 8ba3 743f 589e a5be cc37 5cbf
00000070: 9bd4 e9bd 29e5 abbe 9d3d 9cbf 283a 2f3e
0.18429917 -0.11675839 -0.60261446 -0.22870335 -0.8487865 -0.28124273 0.60772103 0.31409603
0.8778051 1.4176021 0.1803289 0.37871876 0.49254856 -0.06599536 -0.45270127 0.5494193
-0.042185 -0.041042637 0.17566895 0.25135365 0.545015 0.010268711 0.20036614 0.45222422
0.71787715 0.95562047 -0.3234737 -0.8602264 -0.114175044 -0.33573273 -1.2206303 0.17112029

conv2.bias f4 [32]
00000000: eb68 8f3c 6ec7 8dbe df77 b2bc 0f22 a4bd
00000010: f2b4 673e 7a02 ec3d 788d 1fbe a0a4 b73d
00000020: 1e0b d0bd 8fda 48be 4ef2 86bd 7201 3fbe
00000030: 1cc0 b4bb d7ab a83e b550 6a3e 4a5c 58be
00000040: 16ae 073e 15f2 c9be db4f 043e acd2 49bc
00000050: f363 c43c 1faf 883d 4218 c4bd 5bd7 e7bc
00000060: 5d68 0fbe e54c f93d 8653 983d bafd b83d
00000070: 9c40 823d 45b5 78be 0708 f6bb f18d a0bd
0.017506083 -0.27691215 -0.021785675 -0.08014309 0.22627619 0.1152391 -0.1558131 0.089669466
-0.101583704 -0.19614623 -0.06589185 -0.18652895 -0.0055160653 0.32943603 0.2288235 -0.21128955
0.13250002 -0.39442506 0.12921087 -0.0123182945 0.02397344 0.06674027 -0.09574939 -0.028300932
-0.14004655 0.121728696 0.07437806 0.090327695 0.063599795 -0.24287899 -0.007508281 -0.07839573

conv2.lin.weight f4 [32, 64]
00000000: b5a2 7a3e a4ac a93e e704 683d 9f03 25bd
00000010: ff18 073e 2fee c43e 143b cc3d a9ac 85be
00000020: 7f4f 2a3f 35b3 023f ed60 903e 38fc b4bd
00000030: 099e 403f d006 963e dcdc da3d 6b31 d33e
00000040: eda4 a1bd 9add 0d3e 603c 893d c004 c03e
00000050: 4df2 4ebe 5081 853d 8db4 073e eda5 d7be
00000060: 2920 fa3c 044a 573e 5ced 583e 04b5 063f
00000070: 475f cbbe 981b 033d 4041 c13e a2f5 bdbd
00000080: 00d0 213e 290d 473d b371 043d 5965 d13e
00000090: 8e7e 133f 3416 8c3e ba82 7a3e 5f2c e13a
000000a0: 1a4a 45be 69a3 383e 2451 8f3d 7327 8d3f
000000b0: 94fe 023f 9c22 98bc 6f68 9e3d 75b5 573e
000000c0: 4746 bc3e c2f8 abbc b5fb 5f3e a75d 5dbd
000000d0: 77e1 c6be 3849 873d 415b d03b 54a9 fa3e
000000e0: 0b34 953d 3e86 a13e 972b 6ebd 5015 353e
000000f0: 4041 8e3e 2dde 803e 6ac7 dd3d 1263 d23d
00000100: ded4 b53c 0fc7 133f bd0e afbe 49c2 d3bd
00000110: c3dd 9bbe a8de 25bf 9bcb a73e 5a5a aa3c
00000120: 121c 54c0 62c5 8fbf 8cd2 f9be bc31 cb3c
00000130: 71a6 97c0 d04b f4bf 2d8b 8b3a 4e5b f33d
00000140: a785 bc3e d41d 98bd ce5a 82be ea7f 383d
00000150: 67e1 51bc 1758 42c0 1df7 c93d 51de 8fc0
00000160: 3b0d 073e e90b edbb 827b 9eba 8155 01bc
00000170: bcd0 ce3d 2ca4 2f3d d005 5d3d 3506 ea3c
00000180: d117 693d 5e2c 973b 54de 9e3e 4b51 15bf
00000190: acdc a3c0 1cb3 0bc1 5be3 14bd 2b3e bebd
000001a0: 5d3f e2bc cbf5 97be f1dc db3d 3fa8 7fc0
000001b0: f04e 2dc0 620a c43d a8da 27be ac5a e6be
000001c0: 0ded d5bf 2a9a 083d cd42 5bbc 3ade 663d
000001d0: 9978 823d e263 413e 5678 083e a4a2 78c0
000001e0: 2025 dcbe 3fbe d53e 6fbe 923d 7386 1fbc
000001f0: 9deb 963d fdd6 8f3d c3ee f2be 2d42 633b
00000200: 0602 d83d a2a4 5d3f 7d5d 713e aa2d c3bd
00000210: 1d82 0c3e fe21 d53d 2065 553f 52b0 82be
00000220: 13c4 833e e432 4f3e 2821 533e 3b6f 963e
00000230: 657b 2d3f 8c29 433e b544 863c 1497 2a3e
00000240: 74c8 383f f163 213d 2998 f43d 1d4e 293e
00000250: 28c1 dfbd 1160 f63d ec90 0cbf f07b 21bf
00000260: b2d3 10be 5784 2c3e 4565 e63c feaa 9b3d
00000270: de48 acbe 3dbd e13e f75a e03d 72f1 303e
00000280: 826a da3d 0473 07be df17 0a3f 91b0 193e
00000290: 0fd0 c43e 5512 a4bd 1851 21be 34b5 5abd
000002a0: ff6d 16bf 4eae 7e3d dc90 443e 0b4b cc3e
000002b0: 5af8 a53e 049a e3be db68 2f3d db16 743e
000002c0: 4538 873d c152 8dbe 6eeb ae3d 406a 8bbe
000002d0: 336e 74be d57a 1e3f 09da 31be 7109 bf3d
000002e0: 5230 6bbe 7414 1a3f 35f1 69be bf83 433d
000002f0: bd5f b13e 9ef3 373e 80bb 483e a0dd 863b
00000300: ee75 833e 2549 573f 2078 cf3d 918f 98bd
00000310: 6751 f03d abc1 043e e66b c03e 1579 27be
00000320: b25e d53e 8bd3 933d 715c c83d 1ab9 55ba
00000330: 4fa5 363f 3ecd 4e3e f990 f73c 4a84 7a3e
00000340: 614b 283f c2bc 313d 613d 143e 3f3f 473e
00000350: a1e1 9bbd 7333 ddbd 04e0 88be 9e9c eebe
00000360: 7591 44be 8718 3d3e b8a8 d03d 776c 863e
00000370: fcfb a8be 91a7 eb3d 61d9 26bd 94da db3d
00000380: ab7c 673e fc8f 0ebe 0d06 723e fe93 703e
00000390: 1ea0 123e 2ef6 1ebe 1a50 513c efc6 1b3e
000003a0: 376c d5be e5fa 433e 4dc4 453e 4103 fe3e
000003b0: 5eb2 103e fbe1 c7be 179d b23c 34e7 503e
000003c0: 0e4f c93d 59d0 febe 7e20 a1bd eeaa 14be
000003d0: 441f 2abd b6e5 b53e c80c 1cbe a333 183e
000003e0: ccff a1bd 1ed4 083f a8de 6ebe e0c9 bf3d
000003f0: 0ef6 6e3e 9c68 aa3d 6ff7 c23d 0661 983d
0.2447613 0.33139527 0.0566453 -0.040286656 0.13193129 0.3846297 0.09972206 -0.26108292
0.6652755 0.510547 0.28198949 -0.088371694 0.7524114 0.29302073 0.10686657 0.4124864
-0.07892785 0.13854066 0.06700969 0.37503624 -0.20209618 0.06518805 0.13252468 -0.4211878
0.030532913 0.21024328 0.21184295 0.5261996 -0.39721128 0.032008737 0.37745094 -0.09275366
0.15802002 0.048596535 0.032334995 0.40897635 0.5761498 0.2736069 0.2446393 0.0017179361
-0.19266549 0.18031086 0.06997898 1.1027664 0.51169705 -0.01857119 0.07734763 0.21065314
0.36772367 -0.02099264 0.21873362 -0.054044392 -0.3884389 0.06605762 0.0063585346 0.48957312
0.07285317 0.3154773 -0.05814704 0.17683911 0.27784157 0.25169507 0.10829051 0.102728024
0.02219623 0.57725614 -0.34190932 -0.10339791 -0.30442628 -0.6479287 0.32772526 0.020795036
-3.3142133 -1.1232111 -0.48793447 0.024803989 -4.7390676 -1.9085636 0.0010646336 0.11882649
0.3682072 -0.07427564 -0.25459903 0.045043863 -0.012810088 -3.0366266 0.09861586 -4.495888
0.13188641 -0.007234086 -0.0012091252 -0.007893921 0.10098407 0.042881176 0.05396062 0.028567413
0.05690748 0.0046134433 0.31028998 -0.5832717 -5.1206875 -8.731228 -0.036349636 -0.09289201
-0.027618105 -0.29679713 0.107355006 -3.994644 -2.707943 0.09572293 -0.16392004 -0.44991052
-1.6712967 0.033350147 -0.013382626 0.056364276 0.063706584 0.18885759 0.13327155 -3.8849268
-0.42997074 0.4174671 0.071652286 -0.009736645 0.073691584 0.07023428 -0.47447786 0.0034676895
0.10547261 0.86579335 0.23570819 -0.09530194 0.1372151 0.10406874 0.8335743 -0.25525147
0.2573553 0.20234257 0.20618117 0.29381737 0.6776641 0.19058818 0.016390184 0.16659194
0.7218087 0.039401952 0.11943085 0.16533704 -0.109255135 0.12030042 -0.54908633 -0.6307974
-0.14143255 0.16847359 0.028124461 0.076009735 -0.33649343 0.4408969 0.1095485 0.17279604
0.10664846 -0.13227469 0.53942674 0.15008761 0.38439986 -0.08011309 -0.15753591 -0.053395465
-0.5876159 0.06217795 0.19195884 0.39901003 0.3241604 -0.44453442 0.042824607 0.23836844
0.066025294 -0.276022 0.085409984 -0.272295 -0.23870163 0.61906177 -0.1736833 0.09327973
-0.22967651 0.6018746 -0.2284592 0.047733065 0.34643355 0.17964026 0.19602776 0.004115775
0.2567591 0.84095985 0.10130334 -0.07449258 0.11734276 0.12964503 0.3758232 -0.16354783
0.4167381 0.07218083 0.09783257 -0.00081528875 0.7134599 0.20195481 0.030220496 0.24464527
0.6574002 0.043392904 0.14476539 0.1945772 -0.07611395 -0.10800829 -0.2673341 -0.46603864
-0.19196112 0.18466388 0.101884305 0.26254627 -0.3300475 0.1150657 -0.040734652 0.1073505
0.22606151 -0.13922113 0.2363512 0.23493955 0.14318892 -0.15523598 0.012775445 0.15212606
-0.41684124 0.19138677 0.19313164 0.49611858 0.14130542 -0.39039597 0.021803422 0.20400697
0.098295316 -0.49768332 -0.078675255 -0.1451833 -0.041533723 0.35526818 -0.1523925 0.14863448
-0.079101175 0.53448665 -0.23327124 0.093646765 0.2333605 0.08320734 0.095198505 0.07440381

bn2.weight f4 [32]
00000000: 71a5 9a3f 2d89 dc3f 4454 e93f 62b7 f53f
00000010: ffa9 fd3f 3fb7 ef3f d581 963f e31d 1040
00000020: 19b2 f83f 99ab bd3f d557 c73f b148 f53f
00000030: 4b00 f03f e823 3040 ed67 0240 38ee de3f
00000040: 933d 2640 8191 3840 c15c db3f 92db f33f
00000050: df1d a13f 12b7 8a3f e6b3 0640 f2e3 993f
00000060: e200 c73f d1f3 b73f b434 b53f e676 fa3f
00000070: cc4f d23f 17ba 2740 bac4 ec3f fde4 e53f
1.2081739 1.7229363 1.8228841 1.9196589 1.9817504 1.8727797 1.1758372 2.2518241
1.9429351 1.4817992 1.5573679 1.9162809 1.875009 2.7521915 2.0375931 1.7416449
2.5975082 2.8838809 1.7137681 1.9051383 1.2587241 1.0837119 2.1047301 1.2022688
1.5547144 1.4371282 1.4156709 1.9567535 1.6430602 2.620733 1.8497536 1.7960507

bn2.bias f4 [32]
00000000: 3a09 cbbc 18ce ac3f a603 96be 3722 d4be
00000010: a4c6 003f 1e5b bbbe 887b e93e b464 1d3f
00000020: 9143 663e c7b4 3c3f 0479 0ebe 5b9f 3fbe
00000030: 46a3 aabe 9f1b ab3e 89a2 8fbe 608a 073f
00000040: 7e95 223f 5a8b 433f 7ee4 353d ba48 673d
00000050: d6b9 863e e08e 72be fada 853f ee4e 8ebe
00000060: f32e 373f 6b93 2e3f b23b c53e 7f07 77be
00000070: d68f 623d b6c0 813f 0fcf 9dbe 4393 e63d
-0.024784673 1.3500395 -0.2929966 -0.41432354 0.503031 -0.36592954 0.4560206 0.61481786
0.22486712 0.73713344 -0.13913351 -0.18713133 -0.33327693 0.3341951 -0.28053692 0.5294552
0.63509357 0.7638451 0.04440736 0.05646584 0.26313657 -0.23687315 1.0457451 -0.27794594
0.71556014 0.6819369 0.38522106 -0.24123953 0.055312954 1.0136936 -0.30822036 0.11258557

bn2.running_mean f4 [32]
00000000: 9562 993e c22d 33c0 4e16 a3bf 2302 65bf
00000010: ade4 e4bc 1cf4 67bf b3b6 0cbf c6ee 863f
00000020: a0ab 8b3f b7c5 a7bd 03bc 6fbf 1571 b8bf
00000030: 7cba c2bf 2bed 163f 009c 79bf 401f 823f
00000040: 5dc3 00bd 77b9 4dbf db49 74bf 3092 cfbf
00000050: 36d4 5fbf 24ee a63f a1f4 0b3e b0b9 ee3e
00000060: e2fb 5ebf 7ca4 ae3d 2807 65bf a264 5f3f
00000070: c029 edbe f4ca 99bf 4c38 5b3f b71d 6c3f
0.29958025 -2.7996678 -1.2741182 -0.89456385 -0.027941072 -0.90606856 -0.54966277 1.0541618
1.0911751 -0.08192008 -0.9364626 -1.440951 -1.521316 0.5895564 -0.9750366 1.0165787
-0.031436313 -0.8036112 -0.95425195 -1.6216488 -0.87433183 1.3041425 0.13667537 0.46626043
-0.8710309 0.08527467 -0.89464045 0.8726293 -0.46320915 -1.2015061 0.8563278 0.9223284

bn2.running_var f4 [32]
00000000: eef4 433f 636a 8441 5933 cb3f 77b5 463f
00000010: b4de 383f 93d6 5b3f bd70 8640 cb20 7c3f
00000020: aba5 6840 3fcc de3f 6273 d53f c0fd cd3f
00000030: b4d5 bc3f 2ce7 3d3f b48e 8b3f 9e23 8e40
00000040: 62e9 f63f 5435 3e40 9a43 5940 d119 d83f
00000050: 20db 7a40 41d2 de3f 7e64 383f fb3c 013f
00000060: 0bfd 1440 1cf9 1040 ed5d e53f 8203 f43e
00000070: b7bb a43f d65d 4b40 e234 b03f 77f4 5340
0.7654561 16.551947 1.5875045 0.77620643 0.7221482 0.8587429 4.201262 0.9848754
3.6351116 1.7406081 1.6675837 1.6093063 1.4752717 0.74180865 1.0902925 4.441848
1.9289973 2.972005 3.394751 1.6882879 3.9196243 1.7407914 0.7202834 0.50483674
2.3279445 2.2652044 1.7919289 0.47658926 1.2869786 3.1776023 1.3766139 3.311796

fc.weight f4 [8, 32]
00000000: df40 a4be 36e6 9f3d 8287 8f3e 6efa d13e
00000010: c7b7 063f 912c 153f bf17 82bf 5597 89bf
00000020: 61e5 43bf 197f 85bf 20dc 183f af72 6e3f
00000030: 672d 5f3f ee21 0a3f 341c 093f c92c edbf
00000040: 8af6 803e 36ee ef3d a5ac 063f d940 5f3f
00000050: 410c 89bf 5071 ffbe 8914 58bf baaa 42bf
00000060: 8ea4 47bf 12eb 8fbf d5ce 4ebf 0300 643f
00000070: ccc7 113f ca24 513e 3ae5 e13d d962 abbf
00000080: a520 493e 9012 8c3e 38d5 043f a5d8 d33e
00000090: ada0 57be 1ea0 f13e 3377 44be 9449 2dbf
000000a0: 6904 2cbf a804 75be c325 cbbe 0fa4 053d
000000b0: f65e e63e 9a98 df3d 64dc d73e 0bcc 12bf
000000c0: c144 913e 0955 c93e 1d89 6dbe 5dff 123e
000000d0: aa16 3abe c1b0 59be 9013 45bf bde0 16be
000000e0: c2cd 30bf b979 53be 1929 10be 8263 20bf
000000f0: 69be b8be bb08 553e 051a 563f 0645 26bf
00000100: 9584 9e3e d6bc e73e 9c68 a03e e075 913e
00000110: e7a9 8cbf bb43 863e 90f2 29bc dbf8 2dbd
00000120: 320a 00bf e158 07be c66a 69bf f829 a4bd
00000130: a4d9 2c3e 62c3 3bc0 feae 5b3e 861c c3be
00000140: d2aa b7bf 2061 bdbd 0844 27bf 5996 0abd
00000150: b2bb ab3c 9be0 46be fbaf 84be d429 a2be
00000160: e7ac c9be bd6c e53c 8038 703d 83ac 0dbd
00000170: 8124 a4be 4f62 f1be 904e cd3e 71b3 bdbe
00000180: 0b44 2a3e b9cb 823e 2931 7abd 9f4a dc3b
00000190: 0920 6cbf a48b abbc 3597 043d 27f1 ba3e
000001a0: 078f 07be 7873 a4bb 865f 31bf b7ec 1dbe
000001b0: cd6a 96bd 3f8b 9ac0 e05b efbd 75f7 f1bd
000001c0: 1190 78c0 71bf 04c0 7e2c 39bf 6078 9dbe
000001d0: bf50 08bd 0d9b 48bc bd61 e63d 4073 55be
000001e0: 59ae bebd 005a d93d 2399 b53d 50c5 2ebb
000001f0: 9a48 6b3d 685c f3bf 94d1 943d e517 62bd
00000200: 2ee2 1d3e 28c0 2dbf a9b5 75be 22fc b2be
00000210: a745 a2bf 21e9 8abe 8d34 cc3d a409 063e
00000220: e028 a53c b5a7 323e db19 f0be d6bd 9cbe
00000230: 8d9f adbe d64e f7bf 3471 a3be 2b36 193d
00000240: 76b9 20c0 65e8 6dc0 93aa e1be 012d bebe
00000250: 4a71 f03c edfb c6bc a477 613e b0e4 cbbd
00000260: 8d45 1d3e e627 563e 1151 373e d6a4 f1be
00000270: af61 9fbe 029e 7ac0 f93d acbe 8562 b43c
00000280: 1a67 f1bd c553 39c0 7596 09bf 5d4b 19bf
00000290: 0c67 90bf b851 01bf 11d2 b43d 2692 7d3e
000002a0: e8a1 883e cf6f 3b3e ca6c a2bd 5c8b e7be
000002b0: b03f 04bf 43ce e1bf 9b14 15bf 9295 3e3e
000002c0: efe5 2fc0 effd 72c0 e0a6 fb3d 35e0 02bf
000002d0: 56f2 a63d b8b4 0f3e 6acb a83e c7d8 b33d
000002e0: b5de 9d3e 929c 7a3e 6983 503e 52b0 16bf
000002f0: 005c 7dbe bd7b 51c0 0c7c e1be 1fb9 6b3e
00000300: d02f 7fbe d184 64c0 c2f4 43bf 8787 65bf
00000310: 3139 71bf ad66 27bf ec8b ce3d f6f6 9c3e
00000320: 123e f03e 8fd0 7d3e d1a8 27be bf38 2dbf
00000330: bbbf 53bf a601 dfbf 9802 56bf 9eee ae3e
00000340: 4ff8 25c0 597e 5fc0 84da 08be a34c 34bf
00000350: 6ffc c03d f29e 2e3e d34b d13e f188 1b3e
00000360: 86df cc3e 24cd 833e 0d35 7b3e 66e8 4fbf
00000370: 4550 ffbe 13ca 3bc0 f553 11bf 5a2d de3e
00000380: df7a ebbe 7b0d 80c0 f50f 45bf f03e 64bf
00000390: cb98 8cbf 465a 49bf 1eb3 96bd 5c1e 8a3e
000003a0: c801 233f 37f4 d43d f576 1bbe 83fb 2cbf
000003b0: a637 5abf 2ad8 b5bf 28e7 5fbf e331 f53e
000003c0: a3f0 bebf b11e 35c0 931d 57be 976b 27bf
000003d0: d105 73bd ec3a 773e a38a c23e 563e 8e3e
000003e0: bc7c bb3e f2e0 ef3d ccb6 dc3d c611 62bf
000003f0: c273 31bf 1b29 26c0 f446 f3be 49f2 143f
-0.32080743 0.07807581 0.28033072 0.41011375 0.5262417 0.5827113 -1.0163497 -1.0749308
-0.7652188 -1.0429412 0.59710884 0.93143743 0.87178653 0.5395802 0.5355866 -1.8529292
0.25188094 0.11715357 0.52607185 0.87208325 -1.0706865 -0.49891138 -0.84406334 -0.7604176
-0.77985466 -1.1243613 -0.8078435 0.8906252 0.5694549 0.2042419 0.110300496 -1.3389541
0.19641359 0.27357912 0.51887846 0.41376224 -0.21057387 0.47192472 -0.19186096 -0.67690396
-0.6719423 -0.23927557 -0.39677247 0.03262716 0.44994324 0.10917778 0.42160332 -0.57342595
0.28372768 0.3932269 -0.23196836 0.14355226 -0.18172708 -0.21258833 -0.76982975 -0.14734168
-0.6906396 -0.20651902 -0.14078178 -0.62651837 -0.3608277 0.20804112 0.8363345 -0.6494907
0.30960527 0.45261258 0.3132981 0.28410244 -1.098935 0.2622355 -0.010372773 -0.042473655
-0.50015557 -0.13217498 -0.9117855 -0.080158174 0.16879898 -2.9338002 0.21453473 -0.381077
-1.4349005 -0.09247041 -0.6533818 -0.03383479 0.020963524 -0.19421618 -0.25915512 -0.31672537
-0.39389727 0.028005952 0.058647633 -0.034588348 -0.320591 -0.47145316 0.40099 -0.37050965
0.16627519 0.25546053 -0.06108204 0.0067227627 -0.9223638 -0.02094061 0.032370765 0.3651211
-0.13238154 -0.0050186478 -0.6928638 -0.15422331 -0.073445894 -4.829498 -0.11687446 -0.11814777
-3.883793 -2.0741847 -0.72333515 -0.307559 -0.03328013 -0.012243998 0.11249111 -0.20844746
-0.09310598 0.10612869 0.08867099 -0.00266679 0.057442285 -1.9012575 0.07266536 -0.05519857
0.15418312 -0.6787133 -0.23995079 -0.34957987 -1.2677506 -0.27130988 0.09970961 0.13089615
0.020161092 0.17446788 -0.46894726 -0.30613583 -0.3391079 -1.9320934 -0.31922305 0.037405174
-2.5113196 -3.7173092 -0.4407545 -0.3714371 0.029350895 -0.02429005 0.22018296 -0.09955728
0.15358563 0.20913658 0.17902018 -0.47196072 -0.31129214 -3.915894 -0.3364103 0.022019634
-0.11787243 -2.895738 -0.53745204 -0.5988062 -1.1281447 -0.5051532 0.088291295 0.24762782
0.26686025 0.1830437 -0.07930906 -0.4522351 -0.5165968 -1.7641071 -0.58234566 0.18611744
-2.748409 -3.7967489 0.12287688 -0.5112336 0.08151691 0.14033782 0.32967693 0.08781581
0.30833974 0.2447379 0.20362629 -0.58862793 -0.24742126 -3.2731774 -0.44039953 0.23019837
-0.24920583 -3.5706065 -0.76545346 -0.89659923 -0.9422789 -0.65391046 0.10085282 0.30657166
0.46922356 0.2478659 -0.16372992 -0.6766471 -0.8271443 -1.7422378 -0.8359771 0.34166425
-2.5932806 -3.4920866 -0.13364607 -0.7042944 0.09423148 0.1705282 0.40878162 0.15188958
0.40014285 0.25742447 0.24531956 -0.81213987 -0.49865928 -2.9342086 -0.56768733 0.43393975
-0.4599218 -4.0016456 -0.76977473 -0.89158535 -1.0984129 -0.7865337 -0.07358383 0.26976287
0.6367459 0.10398143 -0.15182097 -0.67571276 -0.8524116 -1.4206593 -0.8746209 0.47889623
-1.4917186 -2.8299983 -0.21007375 -0.65398544 -0.05933172 0.2414357 0.37996396 0.27781934
0.36618602 0.11712827 0.10777053 -0.8830837 -0.6931726 -2.5962589 -0.4751507 0.581822

fc.bias f4 [8]
00000000: f095 5bbe ff14 39be 6b35 74be 36db ebbd
00000010: 6adf 823e 5425 433e 0555 6d3e 9585 88bb
-0.21443915 -0.18074416 -0.23848502 -0.115164205 0.25561076 0.19057208 0.23176964 -0.004166315
