models/best_model_GAT_MCC.pth (torch, 14082 bytes, 21 tensors)

conv1.att_src f4 [1, 1, 32]
000000 4a 3a 08 bf a7 04 a8 bf 80 e0 89 bf 57 43 f5 3e
       -0.5321394 -1.312642 -1.0771637 0.4790294
000010 e6 26 22 bf 1e 21 81 3f 2e 22 23 40 4c 3b 2e 40
       -0.63340604 1.0088232 2.5489612 2.7223692
000020 6d 1e 9a bf 76 f1 2f bf 93 1d 7e 40 f4 2f 42 bf
       -1.2040535 -0.68727815 3.970555 -0.7585442
000030 2c a7 29 bf 65 8a 41 c0 53 bf e8 3d a7 93 5f 3f
       -0.6627071 -3.024072 0.11364617 0.87334675
000040 3b ee b2 bf 0f 98 fc 3e 2d 75 56 c0 7f 5a 85 3d
       -1.3978952 0.49334762 -3.3509018 0.065114014
000050 b8 30 86 bf 87 ec d0 3e 58 0e e0 3c 6b 15 f3 3e
       -1.0483618 0.40805456 0.02735059 0.47477278
000060 a9 0b a6 be ea 1d 89 be bc 32 69 3f 80 1e bb 3f
       -0.3243077 -0.26780635 0.9109304 1.4618683
000070 63 ac 10 bf 91 5f 20 bf 51 42 76 3f 08 eb ab be
       -0.5651304 -0.6264582 0.9619494 -0.33577752

conv1.att_dst f4 [1, 1, 32]
000000 30 33 4c bd 63 8e 61 be c8 8e 9b 3d ab 5a bf be
       -0.049853504 -0.22026972 0.07595593 -0.37373862
000010 d1 d2 be bd 7f fa 2f be 44 6a a9 bb 91 53 93 be
       -0.09317554 -0.171854 -0.0051701386 -0.28774694
000020 f5 49 5a be 7c ab 8a bc 43 e1 f8 bc 4c d1 32 3e
       -0.21317275 -0.016927473 -0.03038085 0.17462653
000030 f1 9d 0a bf 37 c3 24 bc ed db 17 3d a2 98 01 3f
       -0.5414725 -0.0100563085 0.037074972 0.50623524
000040 d2 47 e0 bd b1 ba 7c 3e be 02 4c be 89 cc 34 be
       -0.10951199 0.24680592 -0.19922921 -0.17656149
000050 9b 28 86 bc 05 54 e7 3d 73 fb 89 bd dc d0 81 3d
       -0.016376784 0.11295322 -0.06737413 0.06338665
000060 60 2a a6 3e db 8b c7 bd b8 4f 2d be 1a d2 37 3e
       0.32454205 -0.09743472 -0.16924942 0.17951241
000070 bb 03 97 be 22 58 b1 3e cd 2d 01 bf b2 a1 4d 3e
       -0.29495034 0.34637552 -0.5046051 0.20081213

conv1.bias f4 [32]
000000 4e fe 49 3c 6c e1 ac 3c f9 93 fe bb 8e 5f cb 3b
       0.012328697 0.021103583 -0.0077691046 0.0062064594
000010 7b 4c b0 3c 81 a5 02 3c 80 d5 77 3d 00 30 af bc
       0.021520844 0.0079740295 0.060506344 -0.021385193
000020 1e fb f9 ba 08 61 89 3c 04 2c 6b bd cb 06 b0 bb
       -0.0019072031 0.0167699 -0.057415023 -0.0053719035
000030 92 bd 17 bb 38 92 b4 3c b9 d0 a9 3b 93 3f 03 bd
       -0.0023153764 0.022042379 0.0051823524 -0.03204305
000040 47 55 b0 3c 48 7c 12 bd a9 d8 bf 3b b2 2c 72 bb
       0.021525038 -0.035763055 0.0058546853 -0.003695291
000050 b9 f2 35 bd 4c 1f 1a ba b6 bf 85 ba ec 6b 78 bc
       -0.04442093 -0.00058792974 -0.0010204229 -0.015162449
000060 23 47 ae bc d2 a9 12 3c 1d 19 0c bd 10 26 15 bc
       -0.021274155 0.008951621 -0.034203637 -0.009103313
000070 60 7e 26 bc fb 94 8a bb 4e f9 2b 3b a4 25 49 bb
       -0.010161966 -0.0042291856 0.0026241126 -0.0030692602

conv1.lin.weight f4 [32, 8]
000000 2a ea eb 3f 79 ad ad 40 bc 88 e5 3f de e7 d7 bc
       1.8430836 5.427426 1.7932353 -0.02635568
000010 2e 83 9c 40 ac 8a ba bf 17 50 9a 3f 30 76 a5 be
       4.891013 -1.4573569 1.2055691 -0.32316732
000020 a4 eb 85 be 07 46 ec 3f 29 24 bc bc 21 4a 8f 3e
       -0.26156342 1.8458871 -0.022966461 0.27986243
000030 52 86 8b 40 42 3f 84 c0 48 f5 62 be a5 75 c6 be
       4.3601465 -4.132722 -0.2216388 -0.3876163
000040 7d a0 28 3d e7 90 1e 40 cc c2 94 3e 59 96 da 3d
       0.04116868 2.4775941 0.29054868 0.10673208
000050 0c 06 a0 40 9d c2 43 c0 ca 3d 10 3f 90 2f 2b 3d
       5.000738 -3.0587533 0.5634428 0.041793406
000060 0a dd 44 bf d5 25 3b c0 44 62 45 bf 79 8c 46 bc
       -0.7689978 -2.924184 -0.77103066 -0.012118452
000070 4f d9 92 c0 e4 4d 96 3f 56 9e 90 be 86 6d 0d 3f
       -4.589027 1.174252 -0.282458 0.55245245
000080 5a e4 da bf f0 c4 92 bd 93 4b c5 bf 8b 07 69 3c
       -1.7100937 -0.07166469 -1.5413688 0.01422299
000090 ab 52 a4 40 4e e0 a6 c0 df 38 95 bf 0d 9e 3e be
       5.1350913 -5.214881 -1.1657981 -0.18614979
0000a0 22 8c f9 3d 1c ab 25 c0 7f 69 87 3e d6 7d 79 3e
       0.12184931 -2.5885687 0.26447675 0.24364409
0000b0 d5 ae a4 c0 9c 0a 69 40 98 96 54 bd 73 4c d6 3e
       -5.146342 3.6412725 -0.05190143 0.418552
0000c0 28 7c a1 39 79 0a d7 bf 2b 3b 42 be 5f 20 0f 3e
       0.00030800817 -1.6800071 -0.18967883 0.13977192
0000d0 bc 17 9c c0 26 3f 6f 40 4d e8 ab 3d 95 10 a9 3e
       -4.8778973 3.7382293 0.08393917 0.33020464
0000e0 c1 5e d8 be f4 de 37 c0 62 ac 20 be 91 9a 84 3e
       -0.42259791 -2.872983 -0.15690759 0.25899175
0000f0 5f f7 9d c0 27 91 60 40 b8 f9 39 3e bd 62 a0 3d
       -4.9364467 3.5088594 0.18161666 0.07831333
000100 09 ad 1b 3f 38 5c 51 40 c0 91 01 3f b0 4b 24 bd
       0.60810906 3.2712536 0.5061302 -0.040111244
000110 6d d1 ab 40 72 e9 47 c0 bb 9e 99 3e 6c 50 e7 3d
       5.3693147 -3.1236234 0.30003914 0.11294636
000120 c2 1d 7f 3f 77 f4 66 40 f1 80 9f 3f 1c dc d5 bc
       0.9965478 3.608671 1.2461225 -0.026105933
000130 ae 5e 92 40 2c a6 10 c0 fe ef 2c 3f a7 3e 97 3d
       4.5740576 -2.2601423 0.675537 0.07384997
000140 f2 1d ae be 98 c2 3e c0 5f 65 9f bd 66 68 7d 3d
       -0.3400722 -2.980627 -0.07783007 0.06186714
000150 4f da 89 c0 70 e5 43 40 70 9b e9 3d d4 90 7d 3e
       -4.307899 3.0608788 0.114066005 0.24762279
000160 7c aa 31 3f 50 fa 89 40 5b ec 2d 3f 01 cb 5b bd
       0.69400764 4.3118057 0.67938775 -0.053660396
000170 90 6c 8c 40 69 7c 26 c0 2e b2 84 3f 13 4c 23 bf
       4.3882523 -2.6013434 1.0366876 -0.63787955
000180 79 cd af be 1e 62 8d 3f 4b be 47 bf 05 29 6a bc
       -0.3433645 1.1045568 -0.7802474 -0.014292006
000190 5b ed 97 40 24 0b 81 c0 20 15 66 bf 85 0c 4a 3e
       4.747724 -4.03261 -0.89875984 0.19731338
0001a0 cb f1 11 3f b1 89 e0 3f 12 8a 3f bb 23 0d 6d 3d
       0.5700957 1.754202 -0.0029226583 0.057873856
0001b0 f7 9d 7c 40 68 31 27 c0 0e 94 fe bd ce bc a4 3c
       3.9471414 -2.6123905 -0.12430583 0.02010956
0001c0 ef 76 06 c0 62 12 88 c0 93 f2 04 c0 8c 29 fe bb
       -2.1010091 -4.252244 -2.0773056 -0.0077564176
0001d0 fd c8 4a c0 b9 e2 24 c0 29 ca e6 be 9e d2 34 3f
       -3.1685174 -2.576338 -0.4507611 0.70633876
0001e0 7a 69 9d 3e c7 5c 91 bf af 60 0b 3f 01 10 58 bd
       0.30744535 -1.1356438 0.544444 -0.052749638
0001f0 8e 62 a7 c0 34 ed 9a 40 22 98 0e 3f d0 19 85 3e
       -5.2307806 4.8414555 0.55700886 0.25996256
000200 87 62 32 bf 84 47 f3 3f 32 b2 29 be 8a 25 09 3c
       -0.6968159 1.90062 -0.16571882 0.008370766
000210 84 1e b3 40 d6 a0 85 c0 96 3e 0a bf a2 04 61 be
       5.597475 -4.1758833 -0.5400175 -0.21974424
000220 f6 e4 0d 3f 58 26 97 bf 24 47 35 3f f8 e6 92 bd
       0.5542749 -1.1808577 0.70811677 -0.0717296
000230 47 5b 85 c0 85 5b 83 40 6e 80 41 3f a7 7f d9 bd
       -4.1673923 4.104922 0.75586593 -0.10620051
000240 80 e9 4a 3e 1a b9 d8 3f 1d 5f 99 3d 49 59 cf 3c
       0.19815636 1.6931489 0.074888445 0.02531113
000250 39 6e 99 40 7b 7b 2f c0 89 4b ab bb 09 9a 85 bd
       4.794705 -2.7419116 -0.0052275104 -0.065235205
000260 a7 d8 28 40 08 00 33 40 df 1d 21 40 8d 4b 00 3c
       2.6382234 2.796877 2.5174482 0.007830513
000270 81 6a e6 bf 84 ee af 40 61 5c e7 3f 05 f1 46 bf
       -1.8001252 5.4978657 1.8075067 -0.77711517
000280 e6 65 ea 3e a8 6d 2c 40 80 4e af 3e c3 11 8b 3c
       0.45780867 2.694193 0.34239578 0.016976243
000290 dd 0b 85 40 71 7a 33 c0 1d 50 fd 3c 4d 06 c1 be
       4.157698 -2.8043482 0.03092199 -0.3770012
0002a0 4f 64 29 40 7d 8a 06 40 27 88 35 40 4f b1 c9 bb
       2.6467474 2.1022027 2.836435 -0.00615517
0002b0 61 d3 91 c0 a3 87 c4 40 b8 70 e4 3f 81 86 26 bf
       -4.557053 6.141557 1.7846899 -0.65048987
0002c0 55 2b 6c 40 71 c4 9a 40 1a cd 6f 40 14 10 29 bc
       3.6901448 4.8364797 3.7468934 -0.010318775
0002d0 26 28 2c bf ee 14 d3 40 06 e8 0b 40 79 c7 71 bf
       -0.6724876 6.596305 2.1860366 -0.94444996
0002e0 7e 92 09 40 b5 5d 97 3f 9d 81 02 40 96 ae 83 bc
       2.1495662 1.1825472 2.039161 -0.01607446
0002f0 95 13 a4 c0 c3 60 9f 40 23 9d fb 3f 75 11 8c 3d
       -5.1273904 4.9805617 1.9657329 0.06839267
000300 fe 22 ba 40 c0 81 f9 40 f2 60 b5 40 db bc 02 bb
       5.8167715 7.7970886 5.668084 -0.0019948992
000310 b2 63 45 40 2d f0 0a 41 9d 4d 25 40 6a a9 15 c0
       3.08421 8.683637 2.5828621 -2.3384652
000320 8e 56 a8 bf cf d4 13 bf 74 3c af bf 15 a2 5f bc
       -1.3151414 -0.57746595 -1.3690324 -0.013649483
000330 4e b2 53 40 a3 3a 95 c0 f7 6e 72 bf f7 7d 63 be
       3.3077579 -4.663408 -0.9470057 -0.2221602
000340 3b 1c 6b 3e fa 89 8d bf 36 64 ff 3e 54 d6 45 3c
       0.22959988 -1.1057732 0.49881142 0.012075026
000350 22 79 a7 c0 1d 51 85 40 c6 7b 9c 3e d8 19 2b 3e
       -5.2335367 4.1661515 0.30563182 0.16709077
000360 98 89 1c bf 7d 5c 35 c0 62 40 e0 bd fa e1 4a be
       -0.6114745 -2.83377 -0.1094978 -0.19812766
000370 0d 26 a3 c0 d3 e4 68 40 6a d8 1d bf d5 42 66 3d
       -5.098395 3.6389663 -0.61658347 0.05621608
000380 43 e0 cf be a4 ed 67 3f 06 38 94 be 16 b3 29 bd
       -0.40600786 0.90596986 -0.28948992 -0.041430555
000390 0d ba 8c 40 33 89 66 c0 c7 6c 70 bf 08 df b5 bd
       4.3977113 -3.602124 -0.9391598 -0.088804305
0003a0 94 3e 31 3f 1d df 15 40 d7 60 21 3f 23 ba 77 bc
       0.6923611 2.3417428 0.6303839 -0.015120062
0003b0 21 38 98 40 e4 64 c9 bf 62 ea 7d 3e a3 9e df be
       4.7568517 -1.5733914 0.24796441 -0.43675718
0003c0 f1 81 28 bf a6 c4 88 c0 75 df 55 bf 38 d3 e7 3d
       -0.65823275 -4.274005 -0.83544093 0.11319584
0003d0 34 50 af c0 b9 56 04 40 2d 7a 68 bf 22 41 39 3e
       -5.4785404 2.0677931 -0.90811425 0.18091252
0003e0 68 4d c6 be dc c9 bd 3e 4d 43 d3 be b3 fb c4 3b
       -0.3873093 0.3706807 -0.41262284 0.00601145
0003f0 25 f9 34 40 99 7f 49 c0 a7 fc e9 3e 78 1f 6a be
       2.8277066 -3.148413 0.4570057 -0.22863567

bn1.weight f4 [32]
000000 d5 8f 69 3f 65 0c 6b 3f 7a ee 72 3f 76 16 a1 3f
       0.91235095 0.9181579 0.94895136 1.258498
000010 3f 66 3b 3f 2b c2 87 3f b3 93 6e 3f 83 c4 6f 3f
       0.7320289 1.060613 0.9319412 0.9365923
000020 07 29 72 3f 8c 09 3d 3f cd ae 62 3f d8 56 47 3f
       0.9459385 0.7384269 0.88547975 0.7786689
000030 78 07 40 3f 7b 77 58 3f 90 fd 8a 3f d0 5b 46 3f
       0.75011396 0.8455731 1.0858631 0.77483845
000040 e6 07 33 3f ae 0a 85 3f 3d 56 60 3f 61 0e 5a 3f
       0.6993393 1.0393884 0.8763159 0.8517819
000050 41 b0 50 3f ed 30 3d 3f b1 d1 82 3f c4 ce 48 3f
       0.8151894 0.7390278 1.0220243 0.784405
000060 34 80 aa 3f e1 c6 70 3f 7d fd 82 3f 45 5c 8b 3f
       1.3320374 0.94053465 1.0233608 1.0887533
000070 ca fa 23 3f 8c 7a 28 3f 31 ab 4f 3f 1a 03 23 3f
       0.6405455 0.6581199 0.8112059 0.6367661

bn1.bias f4 [32]
000000 13 c0 8a be de 6b 85 bf 91 bb 52 bd 93 b5 a2 be
       -0.27099666 -1.0423543 -0.05144841 -0.31779155
000010 82 06 2e be 06 c5 17 be a0 0e ca be 55 14 14 bf
       -0.1699467 -0.14821252 -0.39464283 -0.57843524
000020 f9 4d b3 be 91 bd 0d bf 60 2c 84 be 6b 54 00 bf
       -0.35020426 -0.5536738 -0.25815105 -0.5012881
000030 ae 2e 30 3e a6 32 91 be dd 05 32 3e 70 3a ae 3e
       0.17205307 -0.28358954 0.17385049 0.3402896
000040 21 2f 06 bf 79 c4 0f bd 7b 98 00 bf aa c7 75 be
       -0.52415663 -0.03509948 -0.50232667 -0.24001947
000050 dc 4d 6d 3e 01 48 a7 3e 51 b7 a8 3c 57 de d9 be
       0.23174232 0.32672122 0.020595225 -0.42552444
000060 79 9d 1c 3f 4c 01 30 be 00 0a c1 bd e5 49 7c bf
       0.61177784 -0.17187995 -0.094257355 -0.98550254
000070 a1 74 fa be bc 95 b2 3e 25 fe 28 be dc 25 b0 be
       -0.48917106 0.34879863 -0.16503198 -0.34403884

bn1.running_mean f4 [32]
000000 33 81 dd c3 9b 34 9c 45 9c d5 f0 44 d0 e3 60 c3
       -443.00937 4998.5757 1926.6753 -224.8899
000010 07 09 7f 43 60 41 86 45 3b 36 19 45 73 bf 8e 45
       255.03526 4296.172 2451.3894 4567.931
000020 e1 ce 29 c4 43 12 d6 c3 8b 85 85 44 46 f3 65 c4
       -679.2325 -428.14267 1068.1732 -919.80115
000030 fa ff 69 c3 0c 50 7c 44 05 69 13 c3 2f 27 71 c4
       -233.99991 1009.25073 -147.41023 -964.61224
000040 f9 aa 2f 43 91 8a a2 c4 59 e3 ef 43 48 d7 17 43
       175.66786 -1300.3302 479.77615 151.84094
000050 82 60 a6 43 2f a9 de c2 2a a0 2e c3 fb 00 95 c3
       332.75397 -111.33044 -174.62564 -298.00766
000060 ae fe b1 c1 d9 3c 6e c3 24 56 51 43 26 d7 5d c5
       -22.249355 -238.23769 209.33649 -3549.4468
000070 6f 57 31 c4 39 69 84 c3 1a 09 f7 44 10 e2 ed 42
       -709.36615 -264.82205 1976.2844 118.94153

bn1.running_var f4 [32]
000000 74 09 0f 48 1f 2a 89 4b 0a d6 22 4a 87 d1 0c 47
       146469.81 1.797843e+07 2.6679065e+06 36049.527
000010 d5 97 3e 47 24 73 4a 4b dc d7 83 4a 8d f4 64 4b
       48791.832 1.3267748e+07 4.320238e+06 1.5004813e+07
000020 32 69 a2 48 f0 92 02 48 e5 37 48 49 42 72 15 49
       332617.56 133707.75 820094.3 612132.1
000030 51 0b 17 47 98 26 33 49 fd 5c 62 46 55 5f 24 49
       38667.316 733801.5 14487.247 673269.3
000040 1b a3 b0 46 67 30 95 49 2f 1d 22 48 24 45 69 46
       22609.553 1.2221569e+06 166004.73 14929.285
000050 f3 87 9b 47 a7 55 2a 46 07 e7 c7 46 16 c0 84 47
       79631.9 10901.413 25587.514 67968.17
000060 73 bf bd 44 77 df 1a 47 18 e8 f2 46 df 39 0a 4b
       1517.9828 39647.465 31092.047 9.058783e+06
000070 13 9d af 48 a8 1d 48 47 58 f0 2b 4a e1 df 1f 46
       359656.6 51229.656 2.817046e+06 10231.97

conv2.att_src f4 [1, 1, 16]
000000 fb a4 72 be d4 99 d5 3e a4 cc 10 3f 73 a0 13 3c
       -0.23695748 0.41718924 0.56562257 0.009010422
000010 30 86 a8 3c a3 c4 31 bf 55 e2 71 bf 33 15 d0 be
       0.020571798 -0.6944067 -0.9448598 -0.40641174
000020 2b de e8 bd 4d 2c f2 3e 58 f8 e9 be 22 91 07 3f
       -0.113705 0.47299424 -0.45697284 0.5295583
000030 43 9e 83 3e 12 12 55 3d 7b ca 35 bf f4 82 3e 3f
       0.25706682 0.052019186 -0.71012086 0.7441857

conv2.att_dst f4 [1, 1, 16]
000000 45 b3 9d be fc 78 06 be 38 0b cd 3e 2d 83 e4 be
       -0.30800834 -0.1313209 0.40047622 -0.4463133
000010 96 a8 2e 3e 36 87 ad be 2f f8 aa be e0 6a 16 bf
       0.17056498 -0.3389222 -0.33392474 -0.5875683
000020 fa 46 83 be 7a dc 39 3f b9 a5 c5 3e bd 95 cc 3c
       -0.25640088 0.72602046 0.38603 0.024973745
000030 1d 02 b1 be 6d 6f 1d 3e 68 06 f9 be 99 b2 67 3e
       -0.34571925 0.15374537 -0.486377 0.22626723

conv2.bias f4 [16]
000000 7c 8e 89 bd aa 81 c3 bd 20 b1 39 3e c0 20 56 bd
       -0.0671663 -0.09546216 0.18133974 -0.052277327
000010 87 2f 16 bc 4e 2c cf 3b 36 b6 a7 bc 63 8f 51 be
       -0.009166605 0.00632242 -0.020472627 -0.20464854
000020 80 b9 f3 3e 5e 78 f6 bd 19 8a 08 3e e8 55 5b 3b
       0.47602463 -0.12034677 0.1333393 0.0033467952
000030 79 78 35 3e 89 70 ab 3d c2 45 43 be 94 e8 4f be
       0.17721738 0.08371074 -0.19069579 -0.20303565

conv2.lin.weight f4 [16, 32]
000000 c7 a2 e9 bc 3e 49 21 3f 67 c4 f7 3d 87 84 89 be
       -0.028520001 0.63002384 0.12098008 -0.26858923
000010 f9 96 b6 3d 80 72 d8 bd 2b fe e9 3e f1 70 a5 3e
       0.089155145 -0.10568714 0.45701727 0.3231273
000020 cf f9 9c be 71 78 93 be ad ce a3 3e 19 65 0e be
       -0.3065934 -0.28802827 0.3199362 -0.13905753
000030 ec 01 9a 3e f3 eb 17 be 4b 6e 10 be 4f 73 61 3d
       0.3007959 -0.14836101 -0.14104573 0.055041607
000040 05 09 d5 3d 35 65 29 3e d6 66 61 3d 88 11 43 be
       0.10402111 0.16542514 0.055029713 -0.19049656
000050 d6 c3 96 bd 78 bd 36 3e 5a da 83 be 16 47 41 be
       -0.073615715 0.17845714 -0.25752527 -0.18874773
000060 3d a7 4e be e8 2f 88 3e a5 92 1f 3d 35 9b 91 bf
       -0.20180984 0.2659905 0.03895821 -1.137549
000070 2c de 55 be d3 04 c6 bc 54 a9 30 be 99 8a f2 bd
       -0.20885533 -0.024172222 -0.17252094 -0.11842842
000080 dc ff 4d 3e 5e 40 a7 bd 1f 6a 1f bd 02 73 ef be
       0.20117134 -0.08166574 -0.038919564 -0.46767431
000090 f0 3d 09 be f1 93 fd bd e3 dc 05 3e b1 d0 b9 bc
       -0.13402534 -0.12381733 0.13072543 -0.02268252
0000a0 23 f8 f4 3d d5 57 7e 3d 81 c0 d1 bc 6a 0f c5 3e
       0.11961391 0.062095482 -0.025604488 0.38488322
0000b0 e0 59 8c 3d f7 b3 2c be a0 48 98 be f1 6e 95 3e
       0.0685308 -0.16865526 -0.29742908 0.29186204
0000c0 6b d9 9e 3d 9d 67 88 3e 62 13 f3 bd 97 14 47 3e
       0.07756313 0.2664155 -0.11868931 0.19441448
0000d0 4c 13 41 3e a3 08 11 3f 30 ff b3 3e 9c da 95 3e
       0.18855017 0.56653804 0.3515563 0.29268348
0000e0 74 8c 29 3e 99 be 63 be 84 6a 01 be 9f 16 9a be
       0.16557485 -0.22240676 -0.12638289 -0.30095384
0000f0 16 64 63 be 8d 45 17 be ab b5 18 be 9c 04 6d 3d
       -0.22206149 -0.14772625 -0.14913051 0.057865724
000100 70 f7 d7 3d 36 1b c0 be 0d 25 46 bd fb b1 af be
       0.10545242 -0.3752076 -0.048375178 -0.34315476
000110 68 2a b0 bd 4a 51 fe 3d c6 bd 75 bd 10 b2 ad be
       -0.08601838 0.124178484 -0.059995435 -0.33924913
000120 7b 34 0c 3f 93 45 43 bd ad 04 b1 3d 0e cb c5 3d
       0.5476758 -0.047673773 0.0864347 0.0965787
000130 1c 38 80 3d 43 92 11 3e 14 6b 83 be 30 5f c8 3d
       0.06260702 0.1421595 -0.25667632 0.097837806
000140 c9 e3 cc 3b 20 0d b4 3e c2 94 04 be a1 35 ea 3e
       0.00625274 0.35166264 -0.12947372 0.4574404
000150 c6 06 91 3d 26 b0 0e 3e cd f2 1f 3e c2 bd 21 3f
       0.0708137 0.13934383 0.15619965 0.6318017
000160 81 75 a6 3d 2f 4f 40 be 3b c4 1e 3e d4 64 6e 3f
       0.08127881 -0.18780206 0.15504543 0.931226
000170 f4 f7 e5 bd 8d 5c c3 3e 1f c3 ca bd 6a 1d 92 3d
       -0.11228934 0.38156548 -0.09900498 0.071345165
000180 2c e9 c2 bd 52 30 7a 3d 50 27 0b be 8b 2c 0f 3c
       -0.0951713 0.061081238 -0.13589215 0.008738647
000190 11 66 03 be 1d d2 4f 3e 58 48 8c 3c f6 d4 63 3e
       -0.12831904 0.20294996 0.01712434 0.22249207
0001a0 f6 99 9d 3e ca 45 19 be ea da 81 be 6f af 34 be
       0.30781525 -0.14968029 -0.2536233 -0.17645048
0001b0 37 79 9c 3e 40 2f 7f 3d 39 49 c2 3d b2 2e 3c 3d
       0.3056123 0.06230092 0.09486622 0.04594297
0001c0 7c b9 c9 bb af eb 94 3e b0 43 9b be c0 ea 1b 3c
       -0.0061561447 0.29086062 -0.3032508 0.009516418
0001d0 8b 77 46 3e 70 62 d5 39 70 04 62 bd dc 39 90 be
       0.1938154 0.00040699868 -0.055180013 -0.28169143
0001e0 ec 5f 01 bf de 4c 9a 3e 20 4d e0 3d c6 aa 1c 3e
       -0.5053699 0.3013677 0.109522104 0.1529952
0001f0 8e 82 62 3e d2 c6 d6 3c 0d 93 05 be e3 83 2c be
       0.22120115 0.026217852 -0.13044377 -0.16847186
000200 c4 ca 2b bc 04 a6 78 bf 42 fc de be 73 e8 d0 3d
       -0.010485355 -0.9712832 -0.43551832 0.10200586
000210 1e f9 7f 3e 94 69 b2 be 6f 9a 63 be 61 8a a0 be
       0.24997374 -0.34846175 -0.2222688 -0.31355575
000220 9b 48 61 3e 8e 90 43 be 58 96 a7 3d c7 44 b0 be
       0.22000353 -0.19098112 0.08182973 -0.34427473
000230 c2 a7 f8 bd 0c 02 6a be e0 1e 32 3e 0e cb 87 bd
       -0.12141372 -0.22852343 0.1739459 -0.066305265
000240 d5 05 24 be 8b c9 06 3e b4 bd a5 3c 11 7f 95 3e
       -0.1601785 0.1316282 0.020232059 0.29198506
000250 f7 d0 8e 3b d7 60 ef bd 9e c1 9b bd 06 65 18 3d
       0.0043584066 -0.116883926 -0.07605289 0.03720572
000260 0d 58 95 be 48 6c 93 3e 61 f6 bd bc da 4d 97 be
       -0.2916874 0.2879355 -0.023188772 -0.29551584
000270 4d 09 7d be 40 55 b3 bd 39 ee c9 3d 33 98 91 3e
       -0.24710579 -0.087564945 0.098598905 0.2843643
000280 f2 43 4a 3e ad 8d 3f 3f c5 83 93 3e 35 f5 2c 3e
       0.19752482 0.74825555 0.2881147 0.16890414
000290 84 24 8d 3e 7e f1 09 3e eb aa e2 3e 82 e4 d0 3d
       0.27566922 0.13471028 0.44271025 0.101998344
0002a0 f8 98 22 3e 22 94 ef 3e ca 20 d9 3d 21 8a bd 3d
       0.15878665 0.46792704 0.10601957 0.092548616
0002b0 44 1a b7 3e 1b 79 d3 3e 79 00 e5 be 98 9f a4 bd
       0.35762227 0.41303334 -0.44726923 -0.080382526
0002c0 22 9b d0 3e d8 4f c9 3e 35 54 91 3e 4b 4b b2 bd
       0.40743357 0.39318728 0.28384557 -0.08705767
0002d0 01 9a 87 be cf 57 d7 3d bf 53 8e 3e 6b 91 71 3e
       -0.26484683 0.10514795 0.27798268 0.23590629
0002e0 fd a1 53 3e fc 0e 08 bd d3 b4 65 3e 09 d9 ff bc
       0.20667262 -0.033217415 0.2243226 -0.03123142
0002f0 ef c1 31 3e 64 d5 69 bb 5f 66 e7 3e 85 fd 63 3d
       0.17359136 -0.003568017 0.4519529 0.055661697
000300 a9 21 11 3e ce ba 8e 3d de 5e 38 bd 45 1a ee be
       0.14172997 0.06969224 -0.045012347 -0.46504417
000310 18 b8 87 be 79 63 56 3e 29 f0 b4 3d ab d2 b3 3d
       -0.2650764 0.20936383 0.088348694 0.08780416
000320 d8 f7 20 3e 43 df d0 be c7 74 4b 3e 03 9e 98 3d
       0.15719545 -0.40795335 0.19868766 0.07452013
000330 34 0f 85 be e6 49 34 bd d0 7f 21 be d3 18 d1 be
       -0.25988162 -0.044015788 -0.15771413 -0.40839252
000340 f2 4c 4a 3b b2 b2 02 bd e8 9a 0c bf 62 e3 97 3d
       0.0030868617 -0.0319087 -0.5492387 0.07416417
000350 2f f4 ae be c8 34 b8 bd e3 b0 e7 3c b1 63 05 3e
       -0.34170672 -0.08994442 0.028282588 0.1302631
000360 67 55 fa 3e a7 54 ce bd ae a2 69 bd 83 41 21 bf
       0.48893282 -0.1007474 -0.05703991 -0.6299059
000370 86 bf 77 3d 59 93 4d 3d 83 81 8d bd 7a a9 dd bd
       0.060485385 0.05018935 -0.06909468 -0.10823341
000380 78 94 ae 3d 2c 09 48 3e 76 fd 3b 3d 4b 66 df 3e
       0.08524412 0.19534749 0.045896016 0.4363273
000390 43 f5 86 3e df 37 31 be ee a8 3c bd 85 a2 90 3e
       0.26358995 -0.1730647 -0.04605954 0.28248993
0003a0 58 e5 aa be 83 65 c7 3d 96 95 46 3e e7 65 07 3e
       -0.333781 0.09736159 0.19393 0.13222466
0003b0 3c 82 5a 3e b4 6b 47 bc 24 7f b0 3e c5 6d 3a be
       0.21338743 -0.0121716745 0.34472 -0.18205936
0003c0 ae f9 d2 bb 35 c1 48 be 90 a5 1f be 77 3c 7f be
       -0.0064384555 -0.19604953 -0.15590501 -0.2492541
0003d0 a9 05 7d be 2b 83 ef bd 94 9e c4 be 1d 25 d9 bd
       -0.2470919 -0.1169494 -0.38402236 -0.10602782
0003e0 7f 03 8d be 26 8f b4 3d 92 18 6f be 8b c7 ac be
       -0.2754173 0.08816366 -0.23349217 -0.3374599
0003f0 22 f2 63 be 20 a3 0a bf a2 dc 4c 3e 94 96 20 3d
       -0.22260335 -0.5415516 0.2000604 0.039206102

bn2.weight f4 [16]
000000 0f 2e f6 3f 61 17 af 3f a8 81 a4 3f a8 bb 26 40
       1.9232806 1.367901 1.2852068 2.6052036
000010 f6 a0 ac 3f 41 4c 94 3f 18 b3 a1 3f 53 6f f3 3f
       1.3486621 1.1585771 1.263278 1.9018348
000020 49 45 af 3f 35 89 07 40 95 43 8b 3f fa 44 38 40
       1.3693019 2.1177495 1.0879999 2.87921
000030 1c 07 74 3f 84 4d c6 3f 6b 96 87 3f c1 78 19 40
       0.9532335 1.5492406 1.0592779 2.3979952

bn2.bias f4 [16]
000000 ee 6a 0b 3f f6 7c be bd 1d 15 ac bd 2c 1d 40 3e
       0.54460037 -0.09301178 -0.084024645 0.18761128
000010 f1 03 cb be 55 9a 74 bc ab 58 d1 bd cf 89 36 3e
       -0.39651445 -0.014929374 -0.1022199 0.17826007
000020 1c c2 a0 3d e1 2e 1b 3f e9 92 2f bf f8 81 b9 3f
       0.078495234 0.60618407 -0.6858354 1.4492788
000030 86 d8 a4 3e 09 bb 64 3f d4 7d b7 3f 8f 11 78 3f
       0.32196444 0.89347893 1.4335275 0.9690179

bn2.running_mean f4 [16]
000000 9c f8 21 be 88 bc cf 3e 2b 8c 72 3f 18 17 7b bd
       -0.15817493 0.40573525 0.9474513 -0.06130132
000010 12 70 1a bf f2 db b3 3f b5 50 c8 be 30 82 6a bf
       -0.60327256 1.4051497 -0.39124075 -0.916049
000020 80 be 13 3e 95 23 eb 3e b6 06 00 3e a4 ec 6a bf
       0.14428139 0.45925584 0.1250256 -0.91767335
000030 c5 12 c5 3f c6 94 e9 3e eb de 77 bf 2e f8 f8 be
       1.5396353 0.45621318 -0.9682452 -0.48626846

bn2.running_var f4 [16]
000000 78 29 ac 3e 61 37 27 3f c9 46 ca 3e 4a 29 78 3d
       0.33625388 0.65318877 0.3950713 0.06058625
000010 5d c6 96 3e 34 0e 8f 3f 55 39 44 3e fb 37 1b 3f
       0.29448214 1.117621 0.19162495 0.60632294
000020 64 72 3f 3e 46 17 7b 3e 1d ed bb 3d 53 48 19 3f
       0.1869598 0.24520597 0.09176085 0.59875983
000030 ae 72 0b 3f f6 e6 e5 3e 12 2b 9f 3f 73 f1 a1 3e
       0.5447186 0.44902772 1.2435019 0.31629524

fc.weight f4 [8, 16]
000000 49 f9 65 3f b7 94 90 bf 82 e9 68 bf 47 86 66 3f
       0.89833504 -1.1295384 -0.90981305 0.9004864
000010 32 8b 55 3f a5 c8 d1 bd 33 3a a5 be ec e7 25 3f
       0.8341552 -0.10243348 -0.32270965 0.6480701
000020 85 49 06 3f 92 d2 ce bf 35 38 bf bf 2a 76 a4 3e
       0.5245593 -1.6158011 -1.4939028 0.32121402
000030 b1 8e 37 bf 77 b6 cf bf 5b 93 12 bc fc f3 0c 3f
       -0.71702105 -1.6227559 -0.008946265 0.5505979
000040 f9 c6 da be e5 47 20 bf 51 83 e5 be 71 1f 2b 3f
       -0.4272993 -0.626097 -0.4482675 0.6684485
000050 2a 9b 9c 3d 3b a2 ec 3e c4 b6 ae 3e b8 ba 94 3e
       0.07646783 0.46217522 0.34123814 0.29048705
000060 73 fa ff be 8c 2f 91 bf a8 83 5d bf 00 fc bf 3e
       -0.49995765 -1.1342635 -0.86529016 0.37496948
000070 7f b0 d4 3e 49 4c 48 be c1 9f 3f 3e b7 25 c9 3c
       0.41540906 -0.1956035 0.18713285 0.024554117
000080 44 8b 2c c0 0f 1c 25 be c3 fb d1 be 78 18 85 3e
       -2.696 -0.16123985 -0.4101239 0.2599523
000090 e6 12 fe bd 53 34 9d 3e 9f a1 bf 3e 24 75 c4 be
       -0.12405948 0.30703983 0.37427995 -0.3837062
0000a0 26 87 65 bf c1 05 5c bf f1 72 ee be df 86 64 bf
       -0.89659345 -0.8594628 -0.46572068 -0.89268297
0000b0 4b bc e3 3c 2d 20 8f 3e 38 ae 38 3f d6 c0 ab be
       0.027799746 0.27954236 0.72140837 -0.3354556
0000c0 ff c3 cc bf 03 cf 8c 3b 98 11 27 be 0f f3 34 be
       -1.5997313 0.0042971387 -0.16315305 -0.17670844
0000d0 53 94 85 bd f9 41 9a bd 04 17 11 3e 2a ee 24 bf
       -0.06522431 -0.075321145 0.14168936 -0.6442591
0000e0 7b 07 68 bf da 6e 92 be 5b 1c 41 3e 4c d5 47 c0
       -0.90636414 -0.28600198 0.18858473 -3.1223936
0000f0 32 b5 25 be d6 0f 43 3e 5e 8c 11 3f 7e 44 51 bf
       -0.16182402 0.1904901 0.5685481 -0.81745136
000100 d9 b0 9d bf bb 01 30 bd b8 7f 11 bb 9b 24 0e bf
       -1.2319595 -0.0429704 -0.002220137 -0.55524606
000110 d3 75 3d be cb 71 ab be 8b 97 91 be 75 8b 40 bf
       -0.18501978 -0.33485255 -0.2843593 -0.75212795
000120 91 40 81 bf d1 12 0b 3e bc a9 8e be 23 0b 6e c0
       -1.0097829 0.13581397 -0.27863872 -3.7194297
000130 25 11 88 be e7 52 3d 3e 23 90 c8 bd 1b c3 a5 bf
       -0.2657558 0.18488656 -0.09793117 -1.2950166
000140 fe 41 a3 bf 6e a3 35 bc f9 17 e6 3c 89 93 74 bf
       -1.2754514 -0.011086328 0.028087603 -0.9553762
000150 70 be 0d bf 2e f9 86 be 64 36 d0 be fb 83 7c bf
       -0.5536871 -0.26361984 -0.40666497 -0.98638886
000160 e7 a9 60 bf 83 5d de 3e a2 77 23 3d da 7f 41 c0
       -0.8775925 0.4343072 0.039909013 -3.0234284
000170 e1 8b 53 be e9 3e 7d 3d d9 fc d4 bf cd 93 d7 bf
       -0.20658828 0.061827574 -1.6639663 -1.684198
000180 14 ed 4f bf 9a 35 39 3c 61 7e 1a 3e 10 56 b3 bf
       -0.8122113 0.0113042835 0.15087272 -1.4010639
000190 83 64 4b bf 31 2b 5a be 48 16 01 bf 37 bd 99 bf
       -0.79450244 -0.21305539 -0.50424623 -1.2010869
0001a0 18 92 95 bf fe 60 23 3f 11 5f 58 bc 09 ea 65 c0
       -1.1685209 0.63819873 -0.013206259 -3.5924094
0001b0 98 95 f6 3c 73 d2 89 3d 3b 55 35 c0 5f f4 0e c0
       0.030100629 0.06729593 -2.833327 -2.2336652
0001c0 27 67 9c bf 32 b1 37 3b bf e6 35 3e f0 ed ab bf
       -1.221898 0.00280292 0.17763804 -1.3431988
0001d0 20 1a a1 bf bb ca c6 be e3 f9 23 bf 0e 14 94 bf
       -1.2586098 -0.38826546 -0.6405317 -1.156862
0001e0 bb 94 67 bf 5a 28 34 3f d6 da 24 3e 5a a0 1a c0
       -0.9046132 0.7037407 0.16099104 -2.416037
0001f0 15 ec f2 bd 75 ca 0b bd 54 5a 91 c0 8e 82 06 c0
       -0.11861435 -0.034128625 -4.5422764 -2.1017184

fc.bias f4 [8]
000000 83 3f be be 08 22 fd bd 3a a0 97 3e 2c 59 bb 3e
       -0.3715783 -0.123600066 0.2961443 0.3659147
000010 54 47 29 3e 7a 10 fe ba 64 20 be be c2 97 3b bf
       0.16531116 -0.0019383573 -0.37134087 -0.7327844

attention.gate_nn.0.weight f4 [16, 16]
000000 6a e3 82 3e 99 1f cd be a8 26 86 3c c9 07 ad 3e
       0.25564128 -0.4006317 0.016375855 0.33795002
000010 62 89 3f 3d 48 2e 93 bd b6 70 54 bd f7 0c 2b 3d
       0.046761878 -0.07186562 -0.051865302 0.04176041
000020 7c 87 a0 3e a9 bf 0c 3c 45 10 be be 38 a1 de bc
       0.31353366 0.008590617 -0.37121788 -0.027176484
000030 04 41 d6 be a4 37 00 bf 50 a4 76 3e 66 3e 36 3c
       -0.41846478 -0.500849 0.24086118 0.011123275
000040 1b c7 ed 3e ba cf fa 3d ad 35 c9 3d 18 ba 53 be
       0.46440968 0.12246652 0.09824691 -0.20676458
000050 aa 0f 33 3e fe 1f 39 bd 48 76 87 bd 21 cf 69 be
       0.17486444 -0.045196526 -0.06614357 -0.2283292
000060 e4 7c 9d be 3a 01 f2 bb 80 df 2e bf e8 22 36 be
       -0.30759346 -0.0073854 -0.68309784 -0.17786753
000070 4b c6 ff 3d 5b 7f cf bd bf 03 81 3e ab ff 44 be
       0.12488993 -0.10131713 0.2519817 -0.19238155
000080 e2 60 85 3e 95 f4 9a 3e 79 0a 6c 3e 07 86 ba bc
       0.26050478 0.30264726 0.2305087 -0.022768987
000090 c7 e8 90 3d 7a 33 a4 3e 82 24 9f 3e 27 91 e0 3e
       0.07075649 0.32070524 0.3108254 0.43860742
0000a0 c2 04 9b 3e 09 94 bb 3d 38 9d b4 3e 16 35 31 3f
       0.30277067 0.09159095 0.35276198 0.6922163
0000b0 46 06 8f 3e 34 ed 32 be 88 9b 45 3e fe 6a 4f 3e
       0.27934474 -0.17473298 0.19297612 0.20255658
0000c0 28 3f 5e 3e 60 a1 f1 be 63 4c fe be f0 67 46 bd
       0.2170378 -0.47193432 -0.49667653 -0.048438966
0000d0 ca 01 1f bd 89 ce 42 be 44 41 37 be 3a 7b 47 be
       -0.038820066 -0.190241 -0.1789599 -0.19480601
0000e0 dc 5b 8f bd 9a 14 5b be c9 dc 3e 3e 74 7c 2d be
       -0.06999943 -0.21394578 0.1863891 -0.16942006
0000f0 e5 2a 6c be 23 74 bb be 6f e9 fb be f6 d3 a8 3d
       -0.23063238 -0.36612043 -0.49201533 0.08243553
000100 73 1d ca 39 ef d2 2f be a3 d4 ed be b5 69 42 be
       0.00038550384 -0.17170309 -0.4645129 -0.18985637
000110 81 dc 16 3d c3 78 a8 bd 11 e4 c6 3d c8 d5 dc 3d
       0.036831383 -0.082261585 0.09711469 0.10782963
000120 7e b8 88 3e 23 69 aa be 43 17 b9 bd bb 47 ad be
       0.26703256 -0.33283338 -0.0903764 -0.33843789
000130 ae ac 23 bf ef b9 bc be 5c 3e 6a 3d d5 a4 91 3e
       -0.63935363 -0.36860606 0.057188377 0.2844607
000140 ba 22 45 3e 5f b4 cc be 8f ee 5b be ba b3 e4 bb
       0.19251528 -0.39981362 -0.21477722 -0.006979433
000150 6a d2 63 be e8 8a 08 bf 7a f0 84 bd 88 f1 23 3d
       -0.22248235 -0.53336954 -0.0649118 0.040025264
000160 7e 19 ee bd ac 64 01 bf bd 81 b0 bd 5c 40 94 3e
       -0.11625956 -0.5054424 -0.086184956 0.28955352
000170 a2 4d 90 be c1 9c 7a be 5b 45 e0 3c 9c 1d 65 ba
       -0.2818423 -0.2447386 0.027376821 -0.0008740069
000180 65 96 b6 bd 6a 28 06 3d b2 ce 08 3a e5 98 6b be
       -0.08915404 0.032753386 0.0005218788 -0.23007543
000190 67 a6 bb 3d 59 2c b2 3d aa a3 17 be dd 70 92 3d
       0.09162598 0.08699865 -0.14808527 0.07150433
0001a0 1d 1d cd be 8d 98 3b be 9b 1e 5b be cc 68 0c be
       -0.40061274 -0.18319912 -0.21398394 -0.13711852
0001b0 0a e1 eb 3d cb f4 84 3c 52 9c b5 3c 69 ec 3e be
       0.11517532 0.016230008 0.022169266 -0.18644871
0001c0 a8 c3 fd 3d e6 4f 5c bc 4b a6 ba 3d 13 a8 b4 bd
       0.12390834 -0.013446784 0.09113749 -0.0882112
0001d0 ff 01 6b 3e 17 6c ac bd 65 14 5b 3e 14 61 71 3e
       0.2294998 -0.08419054 0.21394499 0.23572189
0001e0 35 51 00 be 71 49 b7 3d e7 45 dd 3e 45 d7 a5 be
       -0.12530978 0.08949555 0.43217394 -0.323908
0001f0 1c 3f 7e bd e4 b1 af be 92 ee 0a 3c 48 91 0b be
       -0.062071905 -0.34315407 0.008479731 -0.13629639
000200 5a 98 cd be 0e 48 b9 bc 71 51 36 be f5 39 f9 bd
       -0.40155298 -0.022617366 -0.17804505 -0.121692576
000210 6e cc 22 be 17 c9 39 3e 71 9d 61 bd 35 b9 69 3e
       -0.15898296 0.18143116 -0.05508179 0.22824557
000220 74 ac 84 3e bb e9 6d bd 51 92 79 3e 0a 3b 26 3e
       0.2591282 -0.05808423 0.24372222 0.16233459
000230 1b 79 f4 3d 6e 46 bd be 79 ba 14 be e7 9c 93 3e
       0.119371615 -0.36967796 -0.14524259 0.28830644
000240 29 07 ed be f8 bf 44 3e e3 42 60 3e d3 d9 2c 3e
       -0.46294525 0.19213855 0.21900515 0.16879968
000250 6a 43 ef be 35 30 04 3e 27 c4 9f 3e 23 25 54 bd
       -0.4673112 0.12909015 0.3120434 -0.05179323
000260 1e c5 84 be 51 e1 b3 3e e2 22 1e be 2a ea a9 bd
       -0.25931638 0.3513284 -0.15442994 -0.082966164
000270 d3 72 98 be d4 ba 36 3e 69 62 21 3d 9c ce c5 bd
       -0.29775104 0.17844707 0.039400492 -0.09658548
000280 67 36 97 be d0 69 0d 3f 54 7c 3a 3e b7 0f c5 3d
       -0.29533693 0.5523958 0.1821149 0.09622138
000290 51 d0 aa 3e aa a7 c1 3e 8c d9 5a 3e 93 3c 26 3d
       0.33362058 0.3782323 0.2137205 0.04058511
0002a0 50 24 1a bd 32 ed 7f 3e 32 d9 36 be 3b df 8f bc
       -0.037632287 0.24992827 -0.17856291 -0.0175625
0002b0 81 61 8f bd ee 8a 83 bc d8 3e c2 3c 64 09 5a 3c
       -0.07001019 -0.016057458 0.023711607 0.013307903
0002c0 67 6b eb 3e c3 14 eb 3d 31 cd 97 be 42 37 68 be
       0.4598038 0.11478569 -0.29648736 -0.22677329
0002d0 ee 95 d6 3d 0f da 81 3e d0 a4 9a be 0b 81 5d 3e
       0.104778156 0.25361678 -0.30203867 0.21631257
0002e0 03 f4 f3 3e 44 5e 15 bd 5a 32 77 3e 71 fe ca 3e
       0.47647104 -0.03646685 0.24140301 0.39647248
0002f0 66 c0 8b 3e 77 a8 5f 3d eb 78 ae 3a d6 6f 6d 3e
       0.27295226 0.05460402 0.0013311183 0.23187193
000300 cb 5b 21 be c9 54 05 bd 8d d5 3d bd 3b 96 73 be
       -0.15757672 -0.03255156 -0.046346236 -0.23787777
000310 30 65 a2 bd 29 9f 5b 3d ec e0 84 be a8 38 87 bb
       -0.07929456 0.053618584 -0.25952852 -0.004126627
000320 ea 08 10 3e 8e 47 46 be b4 35 20 be b0 0a 29 3e
       0.140659 -0.19363233 -0.15645486 0.16507983
000330 d8 e0 73 bd d6 dc 50 3e d4 af 94 be 3f 13 e2 bd
       -0.0595406 0.20396742 -0.29040396 -0.11038827
000340 d1 c6 b6 be e1 3e 0d 3e e4 9f 13 3e fd 33 8b 3d
       -0.3569856 0.13793518 0.14416462 0.06797025
000350 39 4e e1 3d 1a 8d a0 3d bb 82 91 3d 5c a0 31 3e
       0.11001248 0.07839413 0.07105013 0.17346328
000360 73 c3 b7 3d 93 6f 14 3e 30 c0 91 be 20 44 21 3f
       0.08972826 0.14495687 -0.2846694 0.62994576
000370 8c 70 dc 3c 86 f0 c9 3e 07 c0 91 bd 83 c3 6c 3e
       0.026909135 0.39441317 -0.071167044 0.23121457
000380 f5 af ac be fd 81 33 be 97 36 8f 3d fd a2 9b bd
       -0.33727995 -0.17530055 0.06992834 -0.07599447
000390 fa 18 9f 3d 1b 54 03 3e 08 aa 19 bd fc 39 b8 bc
       0.07768436 0.12825052 -0.03751567 -0.022488587
0003a0 6a eb 11 3f 53 a0 b6 bc 07 1f a7 3e 61 11 83 bc
       0.5699984 -0.022293245 0.3264086 -0.015999498
0003b0 00 94 d0 bd 30 07 52 bf ea 47 d4 bd 18 b5 0b be
       -0.10184479 -0.8204222 -0.10365279 -0.136433
0003c0 c9 16 58 bc 76 f5 9f 3d dc 37 b4 bd 6c 76 bd 3d
       -0.013189026 0.0781049 -0.08799717 0.09251103
0003d0 27 dd c0 bd 63 e5 3d 3e 2d 9a ab 3d 83 29 16 3e
       -0.094171815 0.18544535 0.08379016 0.14664273
0003e0 a7 cb a1 3d 73 52 40 be 5e 8d c4 3e 20 c5 d0 bd
       0.07900172 -0.18781452 0.38389105 -0.101938486
0003f0 bc 82 c6 bd 63 bf 84 3c a9 76 a0 bc fe fc 34 be
       -0.09692904 0.016204542 -0.019587832 -0.17674634

attention.gate_nn.0.bias f4 [16]
000000 a4 6a 9f be 7d 38 5e 3f cb 49 14 3d 61 ae c5 3e
       -0.31136048 0.86804944 0.036203187 0.38609603
000010 68 94 59 3d fa fb 1c 3f 81 f7 84 3f 5a c5 7b 3e
       0.053120047 0.61321986 1.0388032 0.24587002
000020 b7 3a 10 3f c7 6e e0 bb 1b 83 0b be e5 4e 95 be
       0.5633959 -0.006849143 -0.13624232 -0.29161754
000030 28 dc ba 3e 1e 47 07 3f 32 6a 4a 3e 3d 08 12 3f
       0.3649609 0.5284289 0.19767073 0.5704382

attention.gate_nn.2.weight f4 [1, 16]
000000 3d 60 13 bf cb 65 a3 bf a7 26 c0 3e 8b f4 11 bf
       -0.5756872 -1.276544 0.3752949 -0.5701377
000010 d1 21 1c bf 75 15 44 bf a9 9d b4 bf df 77 28 bf
       -0.609891 -0.7659524 -1.4110614 -0.6580791
000020 c0 91 2f bf 5f 41 9c 3e 84 75 89 3c c3 d7 01 3f
       -0.6858177 0.30518624 0.016779669 0.5071985
000030 26 3d 11 bf 99 b4 53 bf f4 31 4e bf 4b a9 95 bf
       -0.5673393 -0.82697445 -0.8054497 -1.1692289
