models/best_model_GAT_MCC.pth (torch, 19874 bytes, 18 tensors)

conv1.att_src f4 [1, 1, 64]
0	0xbf1ae1ce	-0.605008
1	0xbfe0890d	-1.7541825
2	0x3f1ae1eb	0.60500973
3	0xbfa254dc	-1.2682147
4	0xbe830a4e	-0.255938
5	0xbf8dab9c	-1.1067996
6	0xbee98498	-0.45608974
7	0x3e794944	0.24344355
8	0x3e996c89	0.29965618
9	0x3ee510cf	0.44739386
10	0x3f9ee8dc	1.2414813
11	0x3fa3d313	1.279879
12	0xbe9f1480	-0.31070328
13	0xbf51eac1	-0.8199883
14	0x3f121a23	0.5707113
15	0xbe8856a6	-0.26628608
16	0x3fb4bf32	1.4120848
17	0xbe405b9a	-0.18784943
18	0x3f94e012	1.1630881
19	0x40000f7c	2.000945
20	0x3f194b7e	0.59880817
21	0x3e916098	0.28394008
22	0x3ef61f74	0.48070872
23	0xbf74b4c4	-0.95588326
24	0x3f8f4cca	1.1195309
25	0x3fc6b912	1.5525229
26	0x3e77509f	0.24151848
27	0xc01f4ae7	-2.4889467
28	0xbfb7c843	-1.435799
29	0x3e6118bd	0.21982093
30	0x3f389168	0.7209687
31	0x3dc21e60	0.0947845
32	0xbdb75821	-0.08952356
33	0xbfe935c1	-1.8219529
34	0x3e406125	0.18787058
35	0x4007e363	2.1232536
36	0x3f7989f2	0.9747611
37	0x3fced993	1.6160148
38	0x3e6d1147	0.23151122
39	0x3f080373	0.53130263
40	0xbc6bac9f	-0.014384418
41	0xbf326f1b	-0.69700783
42	0xbe61f070	-0.22064376
43	0xbdf3c650	-0.119030595
44	0x3df9a0cf	0.12188875
45	0xbf80e43d	-1.0069653
46	0x3efcafc8	0.4935286
47	0xbf38953d	-0.7210272
48	0xbf8df187	-1.1089333
49	0xbf655399	-0.89580685
50	0x3dc6c540	0.09705591
51	0x3ebcfc72	0.3691135
52	0xbeaf03cf	-0.34182593
53	0x3eb7c88e	0.358952
54	0x3df0a5d5	0.1175038
55	0x3f768f68	0.9631257
56	0xbecc47a4	-0.39898407
57	0x3e8618ae	0.26190704
58	0xbdf3f8a5	-0.119126596
59	0xbeb52492	-0.35379463
60	0x405efe62	3.4842763
61	0xbeca12c4	-0.39467442
62	0xbdbefd8d	-0.09325705
63	0x3ed8b887	0.42328283

conv1.att_dst f4 [1, 1, 64]
0	0xbe614828	-0.22000182
1	0xbf140b32	-0.5782958
2	0x3e1cb083	0.15301709
3	0x3e02a049	0.12756456
4	0x3e282e50	0.16423917
5	0xbd95d93f	-0.07316827
6	0x3ea1276a	0.31475383
7	0x3c1065d2	0.008813338
8	0x3e79a3c2	0.24378875
9	0x3e61db88	0.22056401
10	0x3d997791	0.074935086
11	0xbdee5e15	-0.116390385
12	0x3cf8909c	0.030342393
13	0xbe254b66	-0.16142043
14	0x3ed27337	0.41103527
15	0xbea4a8f5	-0.32160154
16	0x3e39f2a7	0.18158971
17	0x3bf1cda3	0.00737925
18	0x3e913551	0.2836099
19	0x3f4cd7bb	0.8001668
20	0xbc21945f	-0.009862035
21	0x3e6144f9	0.21998967
22	0xbdb18fd9	-0.08670015
23	0xbabb6cc3	-0.0014299381
24	0xbcd6d5bf	-0.026224969
25	0x3e88eea5	0.2674457
26	0xbbb8b50e	-0.005636818
27	0xbf3f2122	-0.7465993
28	0xbcf3687f	-0.029712914
29	0x3d7c03b1	0.061526958
30	0x3e9e1288	0.30873513
31	0x3e9cc33d	0.30617705
32	0xba504168	-0.00079443166
33	0xbe8a8bef	-0.27059886
34	0xbe074d84	-0.13213164
35	0x3ec8f2b0	0.39247656
36	0x3e3bcdff	0.183403
37	0xbe0f546e	-0.13997051
38	0x3eccb35b	0.39980587
39	0x3e15feab	0.1464793
40	0xbd31e469	-0.04343072
41	0x3e6b1d38	0.22960365
42	0xbe1b6b2d	-0.15177603
43	0xbe0f0084	-0.1396504
44	0xbe2bd529	-0.16780533
45	0x3debfd53	0.11522927
46	0xbdd4e8b5	-0.10395948
47	0x3df4ee2b	0.119594894
48	0xbdcda126	-0.10040502
49	0xbeac14b1	-0.33609536
50	0x3e794c26	0.24345455
51	0xbe8dd4a8	-0.27701306
52	0x3da19931	0.07890547
53	0x3ecd62b5	0.4011437
54	0xbdc83a05	-0.09776691
55	0x3be071b7	0.0068494934
56	0x3e1f4b42	0.15556052
57	0x3d380c6a	0.044933714
58	0xbd0240cd	-0.03180008
59	0x3d9e0060	0.07714915
60	0x3e8d191c	0.2755822
61	0xbe957131	-0.2918792
62	0x3da19a96	0.07890813
63	0x3dd0cb27	0.10194998

conv1.bias f4 [64]
0	0xbc499d0b	-0.012305508
1	0xbbe1a44c	-0.006886041
2	0xbd1c289c	-0.038124666
3	0xbdebb255	-0.115086235
4	0x3d92e9ad	0.07173476
5	0x3c2c5a1a	0.010519529
6	0x3d07f61c	0.033193693
7	0xbcf43bab	-0.029813608
8	0x3c8a73df	0.016900955
9	0xbb1a6228	-0.002355704
10	0xbb3a7b6e	-0.0028454917
11	0x3c52a088	0.012855656
12	0xbda00dea	-0.07815154
13	0xbd79088a	-0.06079916
14	0xbd641203	-0.05568124
15	0xbc08450d	-0.008317244
16	0x3cbcbcd1	0.023039253
17	0x3c40bfb9	0.01176446
18	0x3cc2dead	0.02378782
19	0xbbdd8044	-0.006759675
20	0xbb84468c	-0.00403673
21	0x3d8f2f34	0.06991425
22	0xbc840b19	-0.016118573
23	0xba83385b	-0.0010011302
24	0xbc002be6	-0.007822966
25	0x3d55a9e8	0.05216399
26	0x3c7b62e0	0.015343398
27	0xbb46ebf1	-0.0030353034
28	0xbc01d56d	-0.00792442
29	0x3c307243	0.01076943
30	0x3cd3995e	0.025829967
31	0x3dde5f65	0.10858039
32	0xbc9f8f69	-0.019477563
33	0xba9d5962	-0.0012004788
34	0x3d8b395c	0.0679805
35	0xbc05d287	-0.008167869
36	0xbd278e02	-0.040906914
37	0x3cd0f45f	0.02550715
38	0x3ba8b7c0	0.005148858
39	0x3cbdd346	0.023172032
40	0xbd5ea4a7	-0.054356243
41	0x3d56ad4d	0.052411366
42	0xbcba4be5	-0.022741267
43	0x3acf01dd	0.0015793402
44	0x3bd2bf2d	0.0064314813
45	0xbe0d7b8b	-0.13816659
46	0xbc5aff76	-0.013366571
47	0xbc4ff0d1	-0.012691692
48	0xbcd27110	-0.025688678
49	0xbaa885c9	-0.0012857254
50	0xbd996b83	-0.07491209
51	0xbd1b1cf6	-0.037869416
52	0xbd8cfebc	-0.06884524
53	0xbbc0662f	-0.0058715562
54	0xbbeb91bb	-0.0071890033
55	0x3a134dc9	0.0005619196
56	0xbdcb578d	-0.09928808
57	0x3c35995e	0.011083929
58	0xbcec9bb7	-0.028882844
59	0x3c350e23	0.011050734
60	0xbd59d94f	-0.053185757
61	0xbc2ea4fe	-0.010659454
62	0xbcdfbc31	-0.027311416
63	0x3dc389f3	0.09547796

conv1.lin.weight f4 [64, 5]
0	0xbe67c739	-0.22634591
1	0xc0352210	-2.830204
2	0xbf1028bf	-0.56312174
3	0xbd1978be	-0.037468664
4	0xc16bd4bc	-14.739437
5	0xc081ae3f	-4.0525203
6	0xc0d8681e	-6.7627096
7	0xc07d0673	-3.9535186
8	0x3c80c2a2	0.015717808
9	0xc0f2cc75	-7.587458
10	0xbd1f86cc	-0.03894691
11	0xbfe56979	-1.7922813
12	0x3df6ad74	0.12044802
13	0xbc98248a	-0.01857211
14	0xc18e0530	-17.752533
15	0x3f0c7098	0.54859304
16	0x3f75ad6f	0.95967764
17	0x3eb03755	0.34417215
18	0x3e09b76b	0.13448875
19	0x41926fd2	18.3046
20	0xbf6433be	-0.8914145
21	0xbfa03709	-1.2516795
22	0xbf879005	-1.0590826
23	0x3f4425c3	0.7662012
24	0x414256a9	12.146157
25	0xc02d1077	-2.70413
26	0xc0487268	-3.1319828
27	0xc024b9b6	-2.573835
28	0x3dc89a04	0.09795001
29	0x416da5c3	14.852969
30	0x3dcfcc4f	0.10146391
31	0xbe05746b	-0.13032691
32	0xbd5ecdd5	-0.054395515
33	0x3e08b47c	0.133501
34	0x4187cf15	16.976114
35	0xbe649c9e	-0.2232537
36	0xc02899c5	-2.6343853
37	0xbdd8421f	-0.105594866
38	0x3ebfa028	0.37426877
39	0xc1658657	-14.345298
40	0x3fd46133	1.6592163
41	0x3fd91acf	1.6961306
42	0x3fbae9a0	1.4602547
43	0xbe8ee55d	-0.27909365
44	0xc1233807	-10.201179
45	0x3ffbca49	1.9671108
46	0x409bcfd7	4.869121
47	0x3ff091d0	1.8794498
48	0xbc87f9eb	-0.016598662
49	0x415270bd	13.152524
50	0x4029a024	2.6503992
51	0x4084d3ed	4.15087
52	0x4042df0c	3.0448637
53	0x3d56ef6a	0.052474417
54	0xc169a7cb	-14.603465
55	0x3c21cb92	0.009875195
56	0xc00390e5	-2.0557187
57	0x3e02b3ac	0.12763852
58	0xbe4a0313	-0.19727735
59	0xc182b577	-16.338606
60	0xbf9d1480	-1.2271881
61	0xc094d54a	-4.6510363
62	0xbf612012	-0.8793956
63	0xbdb9ddd8	-0.090755165
64	0xc019b529	-2.4016821
65	0x3e23f527	0.16011487
66	0xbfc5ae86	-1.5443885
67	0x3df8972f	0.12138211
68	0xbcaee068	-0.02134724
69	0xc03cbf4a	-2.9491754
70	0xbcb8b958	-0.022549316
71	0x406ec7cd	3.7309449
72	0xbea55fd9	-0.32299688
73	0xbd0a3e61	-0.033750895
74	0x4175335c	15.325039
75	0xbfc001d7	-1.5000561
76	0xc0166b9b	-2.3503177
77	0xbfdbd394	-1.7173944
78	0x3e8b0e62	0.2715941
79	0x411dea1a	9.869654
80	0x409018e3	4.503038
81	0x4105f4b5	8.372243
82	0x408dd1b0	4.4318466
83	0x3dafe192	0.08587946
84	0x410a2f7b	8.636592
85	0xbf7bfd24	-0.98433137
86	0xc030ec78	-2.764433
87	0xbf89dd02	-1.0770571
88	0x3ee77fab	0.4521459
89	0x40a67da6	5.202838
90	0x40c06de7	6.013416
91	0x411f58cb	9.959178
92	0x40ccb43f	6.3970027
93	0x3e29d68a	0.16585746
94	0xc1c2eff8	-24.367172
95	0x408dc97b	4.430845
96	0x40dfa173	6.988458
97	0x408496fb	4.14343
98	0x3d8e7667	0.06956177
99	0xc105e33a	-8.367975
100	0x3fad6916	1.3547695
101	0x40bf68ee	5.981559
102	0x3f767aff	0.9628143
103	0xbcfc7f02	-0.03082228
104	0x41734c19	15.206079
105	0x3ff46dca	1.9096005
106	0x400d4472	2.2073026
107	0x3fea2dfd	1.8295285
108	0xbf7d63c7	-0.98980373
109	0xc13e3d89	-11.890023
110	0xbecbb7aa	-0.39788562
111	0x3f9e1b16	1.2352016
112	0x3d6acc5b	0.057323795
113	0xbc36ea12	-0.011164205
114	0x40a56cd3	5.169534
115	0xbfa557ae	-1.2917383
116	0xc08d4567	-4.414722
117	0xbfa47e92	-1.2851126
118	0xbc38353c	-0.011243161
119	0xc01ad10b	-2.419009
120	0x406b33ff	3.6750486
121	0x40d5512a	6.6661577
122	0x4073050d	3.7971833
123	0x3e2cfb9f	0.16892861
124	0xc112ee40	-9.1831665
125	0x3d8a3c13	0.067497395
126	0xc03f67be	-2.990707
127	0x3efa8897	0.48932335
128	0x3e95d017	0.29260322
129	0xc190f7ee	-18.12106
130	0x3f26a554	0.6509602
131	0xbfd2d39f	-1.6470832
132	0x3ee419e2	0.44550997
133	0xbe2ab6d1	-0.16671301
134	0xc180d199	-16.102343
135	0xc0d4b7f3	-6.6474547
136	0xc12b802b	-10.718791
137	0xc0cbc12c	-6.3673306
138	0x3c597a82	0.013273837
139	0xc05483de	-3.3205485
140	0xc02bd8db	-2.6851108
141	0xc0e7fd06	-7.2496367
142	0xc028c8ab	-2.6372478
143	0x3c835a6e	0.016034331
144	0xc1557ebe	-13.343443
145	0xbfad4eb7	-1.3539647
146	0xbf6d6b5a	-0.9274193
147	0xbfaf2123	-1.3681988
148	0x3e398ea1	0.18120815
149	0xc1628dd7	-14.159629
150	0x401f71c4	2.4913187
151	0x407a3e9a	3.910071
152	0x403071d4	2.7569475
153	0xbd418aaf	-0.0472514
154	0xc1426f73	-12.152209
155	0x3d764e9a	0.060133554
156	0x3fb2f093	1.3979667
157	0x3d9cc7ad	0.07655273
158	0x3eb88117	0.36035988
159	0xc006a71b	-2.1039493
160	0x3ffa888e	1.9572923
161	0x401677a6	2.3510528
162	0x3fed80a7	1.8554887
163	0xbca71139	-0.020393955
164	0x41714003	15.078128
165	0xc081b58f	-4.053413
166	0xc0c9eafa	-6.3099337
167	0xc08b1b77	-4.3471026
168	0x3c90c79d	0.017673308
169	0x412f1b95	10.944234
170	0x3ea88131	0.32911065
171	0xbfe7048b	-1.8048261
172	0x3ef2ef17	0.47448036
173	0xbf6babc0	-0.92058945
174	0xc13bf97c	-11.748409
175	0x40aaf128	5.341938
176	0x412b33c2	10.700136
177	0x40afd0ad	5.494223
178	0x3cc955b2	0.024576996
179	0x410c0934	8.752247
180	0x3f288995	0.65834934
181	0x40df347d	6.9751573
182	0x3f263877	0.6492991
183	0x3c8a8363	0.016908353
184	0x41844340	16.532837
185	0xbc3cb22b	-0.011517088
186	0xc08d9b66	-4.4252195
187	0x3e38eb74	0.18058568
188	0x3ec2c771	0.38042787
189	0xc190cb5c	-18.099297
190	0x4007f5f6	2.1243873
191	0x40523dd5	3.285024
192	0x400508f9	2.0786726
193	0xbe27c39a	-0.1638321
194	0x413abc0c	11.67091
195	0x40179dae	2.368999
196	0x40839aac	4.112631
197	0x401a86cb	2.414477
198	0x3ea9b67d	0.3314704
199	0xc167fd36	-14.499319
200	0xbf48db64	-0.78459764
201	0xc001878f	-2.0238988
202	0xbf5c041c	-0.8594377
203	0x3f38715e	0.72047985
204	0xc0dfa938	-6.9894066
205	0xbec98943	-0.39362535
206	0x40398a73	2.8990753
207	0xbf329ccc	-0.69770503
208	0x3eeac45d	0.45852938
209	0x4188c8bb	17.098013
210	0x3f1f0831	0.62121874
211	0x40006a41	2.0064852
212	0x3eaae4b7	0.3337762
213	0xbf86ba7b	-1.0525659
214	0x414d5992	12.834368
215	0xbdab7952	-0.083727494
216	0xc010598a	-2.255465
217	0xbebaf0f3	-0.36511955
218	0xbee0b5cb	-0.43888697
219	0xc110fee8	-9.062233
220	0x3eb6cbc3	0.35702333
221	0xbe423d3c	-0.18968672
222	0x3d210da6	0.039319657
223	0x3eb771bd	0.35828963
224	0xc107a384	-8.477421
225	0xbe948526	-0.29007834
226	0x4064eac9	3.5768301
227	0xbe34dd79	-0.1766261
228	0xbc27f946	-0.0102523025
229	0x419213f2	18.259739
230	0x3f126b54	0.5719502
231	0x404a6f2c	3.1630354
232	0x3ed0f885	0.40814605
233	0x3e890383	0.26760492
234	0x40c54808	6.165043
235	0xbfa3e3ea	-1.2803929
236	0xc0308990	-2.7583961
237	0xbf9a4cf9	-1.205474
238	0xbc8b3fcd	-0.016998196
239	0x40fb5ad9	7.85484
240	0xbf0cf4b1	-0.5506087
241	0x3ea13db6	0.31492394
242	0xbf3d85ce	-0.74032295
243	0x3d70c8ee	0.05878537
244	0x418f750a	17.932148
245	0xc05a75ed	-3.4134476
246	0xc0ce0ced	-6.439078
247	0xc0487ec5	-3.1327374
248	0x3cd378ef	0.025814502
249	0xc12da91e	-10.853788
250	0x3e0e50d3	0.1389802
251	0xbf5b50e2	-0.8567029
252	0x3ecc6938	0.39924026
253	0xbf465219	-0.7746902
254	0xc0db37e0	-6.8505707
255	0xbdb17338	-0.08664554

bn1.weight f4 [64]
0	0x3f448452	0.76764405
1	0x3f16d962	0.5892545
2	0x3eddbd5a	0.43308526
3	0x3f26406e	0.6494206
4	0x3f81dc92	1.0145438
5	0x3f050bf9	0.51971394
6	0x3ee219de	0.4416036
7	0x3f3f38d8	0.7469611
8	0x3efc17ba	0.49236852
9	0x3ee1c35e	0.44094366
10	0x3f432ee9	0.76243454
11	0x3f90daf7	1.1316823
12	0x3ef287a8	0.47369123
13	0x3f65c24a	0.89749587
14	0x3ecca015	0.39965883
15	0x3f908f0e	1.1293657
16	0x3f7636b3	0.96177214
17	0x3f509cbf	0.81489176
18	0x3fb0ec9f	1.3822211
19	0x3f008cbc	0.50214744
20	0x3eb68e52	0.35655457
21	0x3fb1ff97	1.3906125
22	0x3f1cf601	0.6131287
23	0x3f3b2840	0.7310829
24	0x3f22c149	0.6357618
25	0x3f1d5535	0.6145814
26	0x3f5de3ca	0.86675704
27	0x3ebbe60f	0.36698958
28	0x3e4b72a6	0.19867954
29	0x3f4dc519	0.8037887
30	0x3f66b036	0.90112627
31	0x3f4805bf	0.7813377
32	0x3f3c9520	0.73665047
33	0x3f4ce191	0.8003169
34	0x3fb383aa	1.4024556
35	0x3f09452f	0.5362119
36	0x3ea4cab2	0.32185894
37	0x3f933c58	1.150279
38	0x3f3a7278	0.72830915
39	0x3ed1f414	0.4100653
40	0x3f396413	0.72418326
41	0x3f55a6b8	0.8345752
42	0x3f9ebdfb	1.2401727
43	0x3f6b3be7	0.9188828
44	0x3ee8cbfe	0.45468134
45	0x3f56400e	0.8369149
46	0x3f1b84e9	0.6074968
47	0x3f1dda15	0.6166089
48	0x3f3147ac	0.6924999
49	0x3f2050a1	0.6262303
50	0x3fa83762	1.3141901
51	0x3f9640bd	1.1738507
52	0x3f7df3b1	0.9919997
53	0x3f5a3e4b	0.852513
54	0x3f1ec83c	0.62024283
55	0x3ea8dd0c	0.32981145
56	0x3f344c5d	0.7042902
57	0x3f35d2ec	0.71024966
58	0x3f466a9c	0.77506423
59	0x3f9593c6	1.1685722
60	0x3fded529	1.7408801
61	0x3f077a66	0.5292114
62	0x3f02a972	0.51039803
63	0x3f259ee9	0.646956

bn1.bias f4 [64]
0	0xbf46cd8c	-0.7765739
1	0xbe85dd28	-0.2614529
2	0xbf6e2536	-0.9302553
3	0xbf6cce5b	-0.92502373
4	0xbf3f6884	-0.74768853
5	0xbe21a5f7	-0.15785967
6	0xbf8485f1	-1.0353376
7	0xbfb17b74	-1.38658
8	0xbe516093	-0.20446996
9	0xbe353806	-0.17697152
10	0xbed6048c	-0.41800344
11	0xbf78cdac	-0.9718883
12	0xbd2888a5	-0.04114594
13	0xbfa29b17	-1.270358
14	0xbed3193e	-0.41230196
15	0xbf0d10ed	-0.5510395
16	0x3d18798e	0.0372253
17	0xbf701174	-0.9377663
18	0x3f0c95bb	0.5491597
19	0xbe64504b	-0.22296254
20	0xbf6a798b	-0.9159171
21	0xbe368817	-0.17825352
22	0xbeaf2ca2	-0.3421374
23	0xbea31832	-0.31854397
24	0xbe2d5eba	-0.16930667
25	0xbf542bfa	-0.828796
26	0xbf6a8127	-0.9160332
27	0xbeabc314	-0.3354727
28	0x3f22b1e1	0.6355267
29	0xbec780ec	-0.38965547
30	0xbf335e7f	-0.70066065
31	0xbf47d00a	-0.7805182
32	0xbf8ac4c6	-1.08413
33	0xbd83e779	-0.06440634
34	0xbf1c81a7	-0.61135334
35	0x3dfedfa1	0.124449976
36	0x3f0fbc7f	0.56147
37	0xbf5570cd	-0.83375245
38	0xbf4d0993	-0.80092734
39	0xbeb0948f	-0.3448834
40	0xbf7b5a4f	-0.98184675
41	0xbf73fdc2	-0.9530908
42	0x3eeef5bb	0.46671852
43	0xbeeadc27	-0.45871088
44	0xbe8d2204	-0.27565014
45	0xbf11482c	-0.5675075
46	0xbef1fd3c	-0.47263515
47	0xbf3d5d49	-0.73970467
48	0xbf5d5c8e	-0.8646935
49	0xbde4ad79	-0.111659
50	0xbe9d7dd6	-0.30760068
51	0xbf78c062	-0.9716855
52	0xbf21f563	-0.63265055
53	0xbf4d63dc	-0.802305
54	0xbf71bfd5	-0.9443334
55	0xbf3dffd3	-0.7421848
56	0xbf34f10d	-0.70680314
57	0x3d2406e7	0.040045645
58	0xbf6526da	-0.8951241
59	0xbea2e4ab	-0.31815085
60	0x3fb03175	1.3765093
61	0xbeb5d1ce	-0.3551163
62	0xbe9b3059	-0.30310324
63	0xbedd37e2	-0.43206698

bn1.running_mean f4 [64]
0	0xc41cef86	-627.74255
1	0x4365a350	229.63794
2	0xc388c8f6	-273.57
3	0x4505c2bf	2140.1716
4	0x46403c1b	12303.026
5	0x44c11d4c	1544.9155
6	0x4504b18a	2123.0962
7	0x45bd0028	6048.0195
8	0xc58b7068	-4462.051
9	0xc381b758	-259.43237
10	0x445b5fad	877.49493
11	0xc544e104	-3150.0635
12	0xc4bb8e8e	-1500.4548
13	0xc3b8890d	-369.0707
14	0xc401d7c1	-519.37115
15	0x4587a18d	4340.194
16	0x44b21518	1424.6592
17	0x45e27fe0	7247.9844
18	0x452a1727	2721.447
19	0x4490b2a5	1157.5826
20	0xc3e98fa7	-467.12228
21	0xc6786df3	-15899.487
22	0xc329e6ef	-169.90208
23	0xc354570a	-212.34
24	0x452c4e2c	2756.8857
25	0x4593fa66	4735.3
26	0xc52619d2	-2657.6138
27	0x43300c9c	176.04926
28	0x436c11b5	236.06917
29	0x4537936f	2937.2146
30	0xc43abb3d	-746.9256
31	0x45b49e9d	5779.8267
32	0xc3a4482a	-328.56378
33	0x4382d48a	261.66046
34	0xc6671622	-14789.533
35	0x43d9e441	435.78323
36	0x438c0f5c	280.12
37	0x45c01439	6146.528
38	0xc522e207	-2606.1267
39	0x45a7b732	5366.8994
40	0x4634bd00	11567.25
41	0x45e5c71f	7352.89
42	0xc684883c	-16964.117
43	0xc5dd8c8f	-7089.57
44	0x45b3700a	5742.005
45	0xc3446572	-196.39627
46	0x45876bb6	4333.464
47	0xc393ae77	-295.363
48	0x4465ca89	919.1646
49	0x43c2229b	388.27036
50	0xc6432554	-12489.332
51	0x45fb3197	8038.1987
52	0xc4a7b619	-1341.6906
53	0xc5bd978f	-6066.945
54	0x45b900f9	5920.1216
55	0xc43eebb5	-763.6829
56	0xc331e21b	-177.88322
57	0x459c6958	5005.168
58	0x4602171b	8325.776
59	0x43e06244	448.7677
60	0xc1d9e5de	-27.23724
61	0xc59b4dbd	-4969.7173
62	0x44e52587	1833.1727
63	0xc3e9da3a	-467.7049

bn1.running_var f4 [64]
0	0x489a10c1	315526.03
1	0x47370b76	46859.46
2	0x476be13f	60385.246
3	0x4a616f77	3.6935338e+06
4	0x4ce91fe1	1.2222439e+08
5	0x49ed699a	1.9448832e+06
6	0x4a5e13cc	3.638515e+06
7	0x4be14c28	2.9530192e+07
8	0x4b75a599	1.6098713e+07
9	0x475f285a	57128.35
10	0x4914cba6	609466.4
11	0x4af46805	8.0087065e+06
12	0x49dd94cf	1.8151939e+06
13	0x47d6ba90	109941.125
14	0x4854a1b3	217734.8
15	0x4b687e9b	1.5236763e+07
16	0x49c48356	1.6098348e+06
17	0x4c21e2e7	4.2437532e+07
18	0x4ab42722	5.903249e+06
19	0x498156eb	1.0595494e+06
20	0x482ea215	178824.33
21	0x4d42b525	2.0416571e+08
22	0x46b9f337	23801.607
23	0x470c4ffa	35919.977
24	0x4ab9c233	6.0869375e+06
25	0x4b8a07e7	1.8091982e+07
26	0x4aae18f1	5.7048245e+06
27	0x46ef1db6	30606.855
28	0x473d3482	48436.508
29	0x4ad50165	6.9797625e+06
30	0x48e0f9a2	460749.06
31	0x4bcdab4e	2.6957468e+07
32	0x47af9e51	89916.63
33	0x476ca852	60584.32
34	0x4d2861f7	1.7656203e+08
35	0x480b0d3f	142388.98
36	0x47727580	62069.5
37	0x4be8a8cf	3.0495134e+07
38	0x4aa814ff	5.5077115e+06
39	0x4bb0e6f4	2.318692e+07
40	0x4cce121f	1.0804044e+08
41	0x4c2683ab	4.3650732e+07
42	0x4d5d8ab1	2.3230338e+08
43	0x4c1aaf84	4.0549904e+07
44	0x4bcb0461	2.6609858e+07
45	0x46fdbeb3	32479.35
46	0x4b67192d	1.5145261e+07
47	0x47857e77	68348.93
48	0x49272f93	684793.2
49	0x47f9a982	127827.016
50	0x4cf027f6	1.2591096e+08
51	0x4c46f08a	5.2150824e+07
52	0x49b1ff0e	1.4581458e+06
53	0x4be31bd8	2.97676e+07
54	0x4bd78268	2.8247248e+07
55	0x48e9ab38	478553.75
56	0x46c42d0f	25110.53
57	0x4b9a2b7d	2.0207354e+07
58	0x4c559b35	5.5995604e+07
59	0x48206db5	164278.83
60	0x45549d89	3401.846
61	0x4b97ed35	1.9913322e+07
62	0x4a25bf4a	2.7156025e+06
63	0x482bd91a	175972.4

conv2.att_src f4 [1, 1, 32]
0	0xc0fc0ab5	-7.876307
1	0x41663386	14.387579
2	0xc14b0295	-12.68813
3	0xc12c9f9a	-10.788965
4	0xc14aaceb	-12.667216
5	0xc0ea1d10	-7.3160477
6	0xc1274ad1	-10.455766
7	0x40800afe	4.001342
8	0xc12dc488	-10.860481
9	0xc000937b	-2.0090015
10	0x40883e18	4.25758
11	0xc11aa680	-9.665649
12	0x40ede16d	7.433768
13	0x3fdf43c9	1.7442561
14	0xbfa78b09	-1.3089305
15	0xc0b65fce	-5.699195
16	0x41661ebf	14.382506
17	0x40cae4c8	6.3404274
18	0xc1341295	-11.254537
19	0xc150ca9d	-13.049466
20	0x4114ce0f	9.300307
21	0x41375e7c	11.460567
22	0xc089c0a4	-4.3047657
23	0xc081b453	-4.053262
24	0xbf5b4510	-0.85652256
25	0x4165d392	14.364153
26	0xc161e685	-14.118779
27	0xc100652f	-8.024703
28	0xc15ac2ee	-13.67259
29	0xc077d662	-3.87246
30	0x3fc6be35	1.5526797
31	0xc1157e56	-9.343344

conv2.att_dst f4 [1, 1, 32]
0	0xbfa544a3	-1.2911571
1	0x3fd16051	1.6357518
2	0xbfbb9c52	-1.465708
3	0xbffa71ee	-1.9566019
4	0xbf52d593	-0.8235714
5	0xbed36898	-0.41290736
6	0xbfbf955c	-1.4967456
7	0xbf8ae6dc	-1.0851703
8	0xbf88c186	-1.0684059
9	0x3bf10fa8	0.0073566027
10	0x3f1a0101	0.6015778
11	0xbf13a88c	-0.5767906
12	0x3f68a9cc	0.9088409
13	0x3f965db4	1.1747346
14	0xc007d27b	-2.1222217
15	0x3f2c1f98	0.6723571
16	0x4002bd1b	2.042792
17	0x3eec8cb9	0.46201113
18	0xbfea3707	-1.8298043
19	0xbfa99824	-1.3249555
20	0x3fb2c72a	1.396703
21	0x3fe317df	1.774166
22	0xbeaac534	-0.3335358
23	0xbf16fd96	-0.5898069
24	0xc009b08a	-2.1514
25	0x3fc07e28	1.50385
26	0xc02fc3bd	-2.746322
27	0x3f83e5dc	1.0304523
28	0xbffb9afd	-1.9656674
29	0xbfa56ee7	-1.292447
30	0xbf086598	-0.5328002
31	0xbf8ee488	-1.1163492

conv2.bias f4 [32]
0	0xbe5a98cc	-0.2134735
1	0xbedf1f10	-0.43578386
2	0x3e8e4d4c	0.27793348
3	0x3dea4ca2	0.11440398
4	0x3c890477	0.016725762
5	0xbece9642	-0.40349013
6	0xbd2b064a	-0.041754045
7	0xbe15545a	-0.14582959
8	0xbe151b2a	-0.14561144
9	0x3e54e494	0.2079032
10	0x3d5030c1	0.050827745
11	0xbe26f859	-0.16305675
12	0x3ef735d7	0.48283264
13	0x3d9a99be	0.07548855
14	0xbd71993f	-0.058984037
15	0x3dbdf2d4	0.092748314
16	0xbdef4398	-0.11682814
17	0x3e9b8df0	0.30381727
18	0x3d5de0b2	0.054169364
19	0x3d48d952	0.049035378
20	0x3cb4a6a9	0.022052126
21	0xbdc1c30a	-0.09461029
22	0xbcdf2db1	-0.027243467
23	0xbd8d21f2	-0.0689124
24	0x3b4b48cb	0.003101873
25	0xbea6b582	-0.32560354
26	0xbdf79f16	-0.1209089
27	0xbde2d0e9	-0.11075003
28	0x3eb20630	0.34770346
29	0xbe7e32f5	-0.24824126
30	0x3f01375f	0.50475115
31	0x3ec2bacd	0.38033143

conv2.lin.weight f4 [32, 64]
0	0xc000d78b	-2.0131557
1	0xbdfd5218	-0.12369174
2	0x3e822ca7	0.25424692
3	0x3e85bd28	0.26120877
4	0x3ead3fb5	0.33837667
5	0x3e0c5320	0.13703585
6	0x3fa55540	1.2916641
7	0x3ffc462f	1.9708918
8	0xbe1dbf9f	-0.15405129
9	0xbeb15665	-0.34636226
10	0xbeafa4f5	-0.3430554
11	0xc091bf35	-4.5545907
12	0x3e3f3b62	0.18674996
13	0x3d85cc75	0.06533138
14	0xbfe60792	-1.797106
15	0x3ef276dc	0.47356308
16	0xbd27e759	-0.040992115
17	0x3e2241fc	0.15845484
18	0x3c64d51a	0.013966823
19	0xbea5fa66	-0.324176
20	0x3f217348	0.6306653
21	0xbe9f4780	-0.31109238
22	0xbee38c64	-0.44443047
23	0x3cac90e4	0.021065183
24	0x3d4cde62	0.05001677
25	0x3da324d6	0.0796601
26	0xbfb8af91	-1.4428579
27	0xbd85a15f	-0.0652492
28	0x3e620297	0.220713
29	0x3d95ba7b	0.07310959
30	0xc00509e1	-2.078728
31	0xbfbc5e3b	-1.4716257
32	0x3e854b67	0.2603409
33	0x3de28d18	0.11062068
34	0xbefca76e	-0.4934649
35	0xbdc5c714	-0.09657112
36	0xbdc6a3fe	-0.09699248
37	0x3d641111	0.05568034
38	0xbf9be448	-1.2179041
39	0xbe9d6901	-0.30744174
40	0x3e6e82ec	0.2329213
41	0x3f00c0f7	0.5029444
42	0xbeb2826d	-0.34865132
43	0xbf0627d6	-0.52404535
44	0xbf0f4475	-0.5596383
45	0xbf4aeed4	-0.7927067
46	0xbeeb81b5	-0.45997396
47	0xbeb4c8be	-0.35309404
48	0xbf1543bd	-0.58306485
49	0x3d928fdc	0.07156345
50	0xbd7e12f3	-0.06202979
51	0x3f010a7f	0.5040664
52	0xbf48716c	-0.7829807
53	0xc05b1711	-3.4232829
54	0xbeece851	-0.46270993
55	0xbd96f649	-0.07371194
56	0xbf48cb20	-0.78434944
57	0x3d9cfb83	0.076651596
58	0x3e176ca9	0.14787544
59	0x3e6836f9	0.2267722
60	0xbdef1354	-0.116736084
61	0xbf58002f	-0.8437528
62	0xbc6ff02a	-0.014644662
63	0xbf10aec4	-0.5651667
64	0xbeec2cdc	-0.46127975
65	0xbe7e930b	-0.2486078
66	0xbdbfdaa6	-0.09367876
67	0xbe7c30cc	-0.2462799
68	0x3e347572	0.17622927
69	0xbdb4d7d9	-0.08830232
70	0xbfea8a59	-1.832347
71	0xbf4ef495	-0.8084195
72	0x3e9f2338	0.31081557
73	0x3e4081a6	0.18799457
74	0x3e82d5e7	0.2555382
75	0xbed42dc7	-0.41441175
76	0xbe02d620	-0.12776995
77	0x3da3f5e8	0.08005887
78	0xbe041345	-0.12897976
79	0xbd8865c3	-0.066600345
80	0x3e896db5	0.26841512
81	0xbdb82cf2	-0.08992948
82	0x3f2beab9	0.67155033
83	0x3e2061e8	0.15662348
84	0xbece7738	-0.40325332
85	0xbe052b19	-0.13004722
86	0xbe22e4dd	-0.15907617
87	0x3da0aeb6	0.078458235
88	0x3e4b9c64	0.19883877
89	0xbe834226	-0.25636405
90	0x3e1786c3	0.14797501
91	0xbe04442e	-0.12916633
92	0x3cced64d	0.025248671
93	0xbdb88dae	-0.09011398
94	0xbea899bd	-0.32929793
95	0xbe6e8182	-0.23291591
96	0xbe7760a9	-0.24157967
97	0xbdde405b	-0.108521186
98	0xbed7e152	-0.42164093
99	0x3ecf96e7	0.40544817
100	0x3e3a87af	0.18215822
101	0x3e388850	0.18020749
102	0x3efd77fa	0.49505597
103	0xbcb1af03	-0.021689897
104	0x3d2f5e58	0.042814583
105	0x3de5fd53	0.112299584
106	0xbe61a24a	-0.22034565
107	0x3d953a04	0.07286456
108	0x3e004572	0.12526491
109	0xbe172c7c	-0.14763063
110	0x3d126311	0.03573901
111	0x3dd4c6be	0.103894696
112	0xbe59fcd0	-0.21287847
113	0xbe822d3b	-0.25425133
114	0xbe64b6ab	-0.22335307
115	0xbc8b2186	-0.016983759
116	0xbd1322f2	-0.035922
117	0x3e1300dc	0.14355797
118	0xbeb6fa9b	-0.35738072
119	0x3c46fd0a	0.01214529
120	0xbe98686d	-0.2976717
121	0x3eb6c29c	0.3569535
122	0xbe4fbcb2	-0.20286825
123	0xbe1c68e1	-0.15274383
124	0x3f6d0378	0.9258342
125	0xbddcf42d	-0.1078876
126	0x3cd4b7e5	0.025966594
127	0xbbbb15fa	-0.005709407
128	0xbf965542	-1.1744769
129	0x3dfc5d38	0.123224676
130	0x3d732b89	0.05936769
131	0x3ea9e28d	0.33180657
132	0x3eb2e3a8	0.34939313
133	0x3db5f3c5	0.08884386
134	0x3fdeb5fd	1.7399288
135	0x401e4cd5	2.4734395
136	0xbde8f79b	-0.11375352
137	0xbbf1fa55	-0.007384578
138	0xbeaaed04	-0.33383954
139	0xc012f147	-2.2959764
140	0x3e87c2aa	0.26515704
141	0xbdf9f375	-0.12204639
142	0xbf63b40a	-0.8894659
143	0x3eb4e301	0.3532944
144	0xbdcb1b3f	-0.09917306
145	0x3ec92f16	0.39293736
146	0xbd5d621e	-0.05404865
147	0xbe394622	-0.1809316
148	0x3ef02acb	0.46907648
149	0xbe79b530	-0.24385524
150	0xbe610d9c	-0.21977848
151	0x3e0b574c	0.1360752
152	0xbc49eea5	-0.012324964
153	0xbdbdd8a3	-0.09269836
154	0xbf8fd1a4	-1.1235852
155	0x3d8f42f0	0.06995189
156	0x3e6bdaf9	0.2303275
157	0x3dbd91ac	0.092563
158	0xbfa3adfb	-1.278747
159	0xbf68fc52	-0.9101001
160	0x3dcf66b2	0.101270095
161	0x3e89a296	0.26881856
162	0xbe9f8850	-0.31158686
163	0xbe438bda	-0.19096318
164	0x3dedbfd4	0.11608854
165	0x3d396f5c	0.045272216
166	0xbed1c866	-0.40973204
167	0x3ced4833	0.028965091
168	0x3ea3e822	0.3201304
169	0x3e49e5e3	0.19716601
170	0xbefdae5d	-0.4954709
171	0xbde237a5	-0.110457696
172	0x3e5fb005	0.2184449
173	0xbef9d38a	-0.48794204
174	0xbeb028e4	-0.34406197
175	0xbedb9c4b	-0.4289268
176	0x3e0d72de	0.1381335
177	0x3e8cdca5	0.27512088
178	0x3de9bd3e	0.11413048
179	0x3e64e159	0.22351588
180	0xbd80e449	-0.06293542
181	0xbfb6a67b	-1.4269556
182	0xbec1d229	-0.37855652
183	0x3e7b29b4	0.24527627
184	0xbf1778cd	-0.591687
185	0xbe058e45	-0.13042553
186	0x3caaa79b	0.020831874
187	0x3ea24a2e	0.3169722
188	0xbf0ca726	-0.5494255
189	0xbf16bd41	-0.5888253
190	0xbd196c4a	-0.037456788
191	0xbeb9fcb2	-0.36325604
192	0xbe7427d8	-0.23843324
193	0x3e57de4d	0.21080895
194	0x3eb484d0	0.35257578
195	0x3e0bd68f	0.13656066
196	0x3e89e07f	0.2692909
197	0x3dfbd785	0.122969665
198	0x3fc99f7d	1.5751797
199	0x3fbd59ca	1.4793026
200	0x3ebdb927	0.37055323
201	0x3ef3fb3b	0.4765261
202	0xbe99cc60	-0.30038738
203	0xbdb58b83	-0.088645004
204	0x3e6d3b1d	0.23167081
205	0x3e5854d4	0.2112611
206	0xbee510f1	-0.44739488
207	0xbd21c6ef	-0.03949636
208	0xbe3fdfaa	-0.18737665
209	0x3d3d2ec8	0.046187192
210	0xbee3dfe5	-0.44506755
211	0xbe1ba12b	-0.151982
212	0x3f28d268	0.65946054
213	0x3d199da3	0.03750385
214	0xbd46049b	-0.048344236
215	0x3f0eaa7e	0.557289
216	0xbc8b59d8	-0.017010614
217	0x3ea56f88	0.32311654
218	0xbdcb8d81	-0.09939099
219	0x3e9a0221	0.3007975
220	0x3f026d48	0.50948
221	0x3ebd497d	0.3697013
222	0xbf8a1b90	-1.0789661
223	0xbe68bd2d	-0.22728415
224	0xbd9e7dba	-0.07738824
225	0x3efb306f	0.4906039
226	0xbd899786	-0.06718354
227	0xbe8aea13	-0.2713171
228	0xbd40b221	-0.047044877
229	0x3d24c9e2	0.040231593
230	0xbe42188f	-0.18954681
231	0xbe337c49	-0.1752788
232	0x3ea63215	0.32460085
233	0xbe0d6f06	-0.13811883
234	0xbe81723d	-0.2528247
235	0x3f0718e9	0.52772385
236	0x3bec4582	0.0072104344
237	0xbea38f5c	-0.31945312
238	0x3e4967da	0.19668522
239	0x3e925a65	0.2858459
240	0xbd72a3b1	-0.05923814
241	0x3cc8526f	0.02445337
242	0x3c7969a6	0.015222942
243	0x3d6236ec	0.05522816
244	0xbc92e355	-0.017930666
245	0x3e931234	0.28724825
246	0xbeb090d1	-0.34485486
247	0xbc9978f2	-0.018734429
248	0x3d8d271c	0.06892225
249	0x3d1c0fe3	0.03810109
250	0xbacb9ad8	-0.0015533818
251	0x3e320d0f	0.17387794
252	0xbf4a3af4	-0.78996205
253	0x3e69d09b	0.22833483
254	0xbe8d726b	-0.27626356
255	0xbd3fef8c	-0.04685931

bn2.weight f4 [32]
0	0x40445b39	3.0680678
1	0x3fcc747c	1.5973048
2	0x3fe76b83	1.8079685
3	0x3fbedaee	1.4910562
4	0xbe14daeb	-0.14536636
5	0x3fb27345	1.3941427
6	0x400e0348	2.2189503
7	0x3f0aaf76	0.5417398
8	0x3fbf061e	1.4923742
9	0x3fc7ebf0	1.5618877
10	0x400334b7	2.0500925
11	0x3fea8573	1.8321975
12	0x4013fd55	2.3123372
13	0x3faa7b08	1.3318796
14	0x3f971cd7	1.1805676
15	0x3fa5a0f7	1.2939748
16	0x3fdfef52	1.749491
17	0x4011d604	2.2786875
18	0x3fe6bed0	1.8026981
19	0x4022d420	2.544197
20	0x3fac8291	1.3477346
21	0x3fbc2aee	1.4700601
22	0x3fe90ad0	1.8206425
23	0x3fcb4f46	1.5883567
24	0x3facc307	1.3497018
25	0x3fc7f412	1.5621359
26	0x4033beab	2.8085124
27	0x4018b745	2.386186
28	0x4011c272	2.277493
29	0x40008796	2.0082755
30	0x402eb2a3	2.7296531
31	0x3fb57923	1.4177593

bn2.bias f4 [32]
0	0x3f6a84eb	0.91609067
1	0x400dcf24	2.2157679
2	0x3f1f4b14	0.62223935
3	0xbeb002f4	-0.34377253
4	0xbd65aa37	-0.056070533
5	0x3fc0689d	1.5031925
6	0xbd3dbddc	-0.046323642
7	0x3f863816	1.0485866
8	0xbf278be1	-0.65447813
9	0xbf152f7c	-0.5827558
10	0xbe82643c	-0.25467098
11	0xbf21f563	-0.63265055
12	0xbeb6d751	-0.35711148
13	0x3de87eb1	0.113522895
14	0xbf8a1c4b	-1.0789884
15	0xbdbcdbe6	-0.0922163
16	0x3f8902d7	1.0703992
17	0xbfc92cf1	-1.571684
18	0xbf5eecbe	-0.8707999
19	0xbed54eda	-0.4166172
20	0xbf7ca2a9	-0.986857
21	0xbfb7b393	-1.4351677
22	0x3eb039d8	0.3441913
23	0x3eb6d1ab	0.3570684
24	0xbf99ced0	-1.2016239
25	0x400511dc	2.079215
26	0xbf3527f9	-0.7076412
27	0x3f374346	0.71587026
28	0xbf35590f	-0.7083902
29	0x3f3184ee	0.6934346
30	0x3eb143c4	0.34622014
31	0x3ed12c7c	0.4085425

bn2.running_mean f4 [32]
0	0xc0052aca	-2.0807366
1	0x3fd92a15	1.6965967
2	0xbfb5ede3	-1.4213222
3	0xbfa544f9	-1.2911674
4	0xc0290185	-2.6407177
5	0xc0abc6ee	-5.3680334
6	0xbf81d9ac	-1.0144553
7	0xbf491ab5	-0.78556377
8	0xbf518e37	-0.8185763
9	0xbe6a3ced	-0.22874804
10	0x3fd9f24f	1.7027072
11	0x3e923c63	0.28561696
12	0x3ff9cfeb	1.9516577
13	0x3fe2ef1f	1.7729224
14	0xc03be08b	-2.93558
15	0x3fad0d82	1.3519747
16	0x3fd8dd4f	1.6942538
17	0x4078d7d8	3.888174
18	0xbfd1b375	-1.6382891
19	0xbfcea906	-1.6145332
20	0x403fc49a	2.9963746
21	0x400553d7	2.0832422
22	0x3ea56cd7	0.323096
23	0xbfc70501	-1.5548402
24	0xc0010d74	-2.016446
25	0x3fcdb0c6	1.6069572
26	0xbff61a37	-1.922675
27	0x3fefc9bf	1.8733443
28	0xbfd40f3a	-1.6567147
29	0xc006234f	-2.095905
30	0xbd2733eb	-0.040820997
31	0xbe4f0a4c	-0.20218772

bn2.running_var f4 [32]
0	0x410a2c34	8.635792
1	0x3fa37803	1.2771
2	0x40d754cb	6.7291007
3	0x400bc4ec	2.1838942
4	0x40ab8a98	5.360668
5	0x425dde98	55.467377
6	0x40a2eb32	5.0912104
7	0x403ab172	2.9170804
8	0x3ec2479a	0.37945253
9	0x3fa25420	1.2681923
10	0x417826d7	15.509482
11	0x403e94ed	2.9778397
12	0x3eb6962d	0.3566145
13	0x3fa9cfbd	1.3266522
14	0x4141912f	12.097945
15	0x3f9220a0	1.1416206
16	0x403dd5eb	2.9661815
17	0x422eb5ce	43.677544
18	0x3fdad3d9	1.7095901
19	0x3f42f698	0.7615752
20	0x40c7ea7b	6.247373
21	0x400478c7	2.0698717
22	0x40369291	2.8526957
23	0x4002ad8d	2.0418427
24	0x40929077	4.580135
25	0x3f924511	1.1427327
26	0x3f4bc5c9	0.7959867
27	0x40244ef6	2.5673194
28	0x400cef1c	2.202094
29	0x40264ec7	2.5985582
30	0x405a8824	3.4145594
31	0x40e16f73	7.0448546

fc.weight f4 [8, 32]
0	0x3e2ca3a1	0.16859294
1	0xbfbe20ed	-1.4853798
2	0x3e3a3618	0.18184698
3	0x3f10eef2	0.566146
4	0xbe77b7ab	-0.24191158
5	0xbddc2acd	-0.10750351
6	0x3f35a1b8	0.7094989
7	0xbf72470a	-0.94639647
8	0x3e24b03e	0.16082856
9	0x3f3826b8	0.7193408
10	0xbfe49c38	-1.7860174
11	0xc03dce43	-2.9657142
12	0x3f522c54	0.8209889
13	0x3ec2c41f	0.38040254
14	0xbfa302ce	-1.2735231
15	0x3f085e52	0.5326892
16	0xbfcfe069	-1.624036
17	0xbf976abb	-1.1829447
18	0x3f238721	0.63878065
19	0x3fb1a966	1.3879821
20	0xbf7eacef	-0.99482626
21	0x3e86c792	0.26324135
22	0x3f433f9e	0.7626895
23	0xbf0c0416	-0.54693735
24	0xbf4aa487	-0.791573
25	0xbfa8f720	-1.3200417
26	0x3fbfc5fc	1.4982295
27	0x3f1ccd9e	0.61251247
28	0x3ebb1432	0.36538845
29	0xbed77dfc	-0.42088306
30	0x3e99d02f	0.30041644
31	0x3f19e7d5	0.6011937
32	0x3e9ef31b	0.3104485
33	0xbf937686	-1.1520545
34	0xbd3bae04	-0.04582025
35	0xbe4d8b8e	-0.20072767
36	0x3e88bec7	0.26708052
37	0xbd1de7ee	-0.038551264
38	0xbcab1175	-0.020882348
39	0xbf0156ad	-0.5052288
40	0x3f46289e	0.77405727
41	0xbed5962e	-0.4171614
42	0xbfa17f64	-1.2617002
43	0xbdf16b90	-0.11788094
44	0xbdd856da	-0.105634406
45	0xbdfb9ebf	-0.12286138
46	0x3fa67188	1.3003397
47	0x3ee90bc3	0.45516786
48	0xbf217eef	-0.6308431
49	0xbf92d2a2	-1.147053
50	0x3f50a52e	0.81502044
51	0x3f0932c7	0.53593105
52	0xbec810ad	-0.39075223
53	0x4001d903	2.0288703
54	0xbeac15ad	-0.33610287
55	0xbe885827	-0.26629755
56	0x3f7cdae0	0.98771477
57	0xbf583280	-0.84452057
58	0x3f292314	0.6606915
59	0x3f15884c	0.584111
60	0xbf4f1fc0	-0.8090782
61	0xbea569ed	-0.32307377
62	0x3d95c70b	0.07313355
63	0xbe8adaea	-0.27120143
64	0xbf0cd230	-0.5500822
65	0xbf12d590	-0.5735712
66	0xc02ef832	-2.7338986
67	0x3f139408	0.5764775
68	0xbd29bd70	-0.041440427
69	0xbcbb19c7	-0.02283944
70	0x3f856238	1.0420599
71	0xbeb50713	-0.3535696
72	0x3f1966bd	0.5992239
73	0xbfa49c31	-1.2860166
74	0xbee44b55	-0.44588724
75	0x3e4f1838	0.20224082
76	0x3f34823c	0.7051122
77	0xbe8ca27f	-0.27467725
78	0x3ed83265	0.42225948
79	0x3e984c4f	0.2974572
80	0xbed5a8e4	-0.41730416
81	0xbf36de12	-0.714326
82	0x3f119cf4	0.56880116
83	0x3e2f4c32	0.1711891
84	0xbe9ed622	-0.31022745
85	0x3fa2e312	1.2725546
86	0xbe1e9ddf	-0.1548991
87	0xbe3fbe01	-0.18724824
88	0x3f3380cc	0.70118403
89	0xbebe3980	-0.37153244
90	0x3e55df88	0.20886052
91	0x3e512dfb	0.20427696
92	0xbeb4a667	-0.35283205
93	0xbec4e798	-0.38457942
94	0xc0723aeb	-3.784846
95	0xbfe5dc25	-1.7957808
96	0xc08fa907	-4.489383
97	0xbc08be90	-0.008346215
98	0xc01e7edd	-2.4764931
99	0x3f464dda	0.7746254
100	0xbf318255	-0.69339496
101	0xbf9403b7	-1.1563634
102	0x3f86dd36	1.0536258
103	0xbdd27b82	-0.102774635
104	0x3e2b8780	0.16750908
105	0xbf911dde	-1.133724
106	0xbe7d545c	-0.24739212
107	0x3e1c85af	0.15285371
108	0x3ec36e8d	0.3817028
109	0xbe94ad6a	-0.29038554
110	0xbef1a587	-0.471966
111	0x3d1b8e8e	0.037977748
112	0xbddf2488	-0.1089564
113	0xbeca36e2	-0.39494997
114	0x3e39b6c3	0.18136124
115	0xbe237eb5	-0.15966304
116	0xbe1166b9	-0.14199342
117	0x3f52d767	0.8235993
118	0x3f0384c2	0.5137445
119	0x3d004f3b	0.03132556
120	0x3db1d15c	0.0868251
121	0x3dc05d24	0.09392765
122	0xbe1e7a60	-0.1547637
123	0xbeaf0ad1	-0.3418794
124	0x3f09e431	0.5386382
125	0xbe793c7c	-0.24339479
126	0xc0c7af31	-6.2401357
127	0xbeccb6a7	-0.39983103
128	0xc13293a9	-11.16105
129	0x3e8c8b16	0.27449864
130	0xc00838bf	-2.1284635
131	0x3f032049	0.5122114
132	0xc00176a4	-2.0228662
133	0xc03f9c73	-2.993924
134	0xbe632336	-0.221814
135	0x3e1dcbbc	0.1540975
136	0xbf041a22	-0.51602376
137	0xbf3cb846	-0.7371868
138	0xbe5cc656	-0.21560034
139	0x3e3aa786	0.18227968
140	0xbe20cf47	-0.1570407
141	0xbf200b43	-0.62517184
142	0xbf05d7ca	-0.5228239
143	0xbdb3c34b	-0.087774836
144	0x3e1d8879	0.15384091
145	0xbe97594a	-0.2956031
146	0xbf019860	-0.5062313
147	0xbf0d5e00	-0.5522156
148	0xbea1a3cd	-0.31570283
149	0xbf0d81af	-0.55276006
150	0xbdc312f4	-0.095250994
151	0x3eaa65c6	0.33280772
152	0x3d9609de	0.07326101
153	0x3e8af3e2	0.27139193
154	0xbf08ffd1	-0.53515345
155	0xbf31bdfe	-0.6943053
156	0x3f7a064f	0.97665876
157	0xbe68b6cd	-0.22725983
158	0xc06baa6f	-3.6822774
159	0xbef56776	-0.47930497
160	0xc11d32d0	-9.824905
161	0x3efc52c1	0.49281886
162	0xbfac0375	-1.3438555
163	0x3d5eca28	0.05439201
164	0xc04915d5	-3.1419575
165	0xc0c2977f	-6.080993
166	0xbf3b048d	-0.7305382
167	0x3ef77710	0.48333025
168	0xbf910be6	-1.1331756
169	0xbe55b3e6	-0.20869407
170	0xbeb5fcf1	-0.3554454
171	0x3c5c477a	0.013444776
172	0xbf218fee	-0.63110244
173	0xbf5b29ce	-0.85610664
174	0xbf16c8d5	-0.58900195
175	0xbe85b941	-0.261179
176	0x3eb6a817	0.35675117
177	0xbdab4692	-0.083630696
178	0xbf83232f	-1.0245112
179	0xbf5ff01c	-0.8747575
180	0xbeb4defb	-0.3532637
181	0xbf7e7672	-0.99399483
182	0xbeb4c80c	-0.35308874
183	0x3f35f5d4	0.7107823
184	0xbe2bf860	-0.16793966
185	0x3f027ce8	0.5097184
186	0xbf5c3dc3	-0.8603174
187	0xbf448185	-0.7676013
188	0x3faab884	1.333756
189	0x3ece8ae1	0.4034033
190	0xc08a6c07	-4.325687
191	0xbe203775	-0.15646155
192	0xc0fc2b04	-7.880251
193	0x3f256a47	0.6461529
194	0xbff579e3	-1.9177822
195	0xbdb863d7	-0.09003418
196	0xc06d1b27	-3.7047822
197	0xc10d1577	-8.81774
198	0xbfaa84c3	-1.3321766
199	0x3f2fea79	0.6871715
200	0xbfe8dcc6	-1.8192375
201	0xbd57233d	-0.05252384
202	0x3d66454a	0.056218423
203	0xbe328c36	-0.17436299
204	0xbf8fce16	-1.1234767
205	0xbf5f5160	-0.87233543
206	0xbf401fc6	-0.7504848
207	0xbebb4058	-0.36572528
208	0x3ee3670a	0.4441455
209	0x3edc343d	0.43008605
210	0xbfc8f09c	-1.5698428
211	0xbf9e3131	-1.2358762
212	0xbee3a5ce	-0.44462436
213	0xbfa586d4	-1.2931771
214	0xbf41350c	-0.7547157
215	0x3f7101d5	0.9414342
216	0xbecf1d4f	-0.40452048
217	0x3f23855c	0.63875365
218	0xbf9d119f	-1.2271003
219	0xbf6856aa	-0.9075724
220	0x3fe2c196	1.7715328
221	0x3f96c7b4	1.1779695
222	0xc08110d0	-4.0333023
223	0xbf812faf	-1.0092677
224	0xc0e1581c	-7.0420055
225	0x3f1bb906	0.608292
226	0xbfb70e3a	-1.4301217
227	0xbe2dc5cf	-0.16969989
228	0xc0832871	-4.0986867
229	0xc13ea2cd	-11.914746
230	0xbfbd040f	-1.4766864
231	0x3f5e788a	0.8690268
232	0xbff256f1	-1.8932782
233	0x3ecc7d06	0.39939135
234	0x3e3c715f	0.18402623
235	0xbe7a89d0	-0.24466634
236	0xbf9ac003	-1.2089847
237	0xbf429222	-0.7600423
238	0xbf5e1da7	-0.86763996
239	0xbf30ca84	-0.69059014
240	0x3ece920e	0.40345806
241	0x3f7dfbd1	0.99212366
242	0xbfcaaa25	-1.5833174
243	0xbf9c7073	-1.2221817
244	0xbebde6ce	-0.37090153
245	0xbf8d76b3	-1.1051849
246	0xbfcbac75	-1.5912005
247	0x3f59acfb	0.8502957
248	0xbf023438	-0.5086093
249	0x3f250e23	0.64474696
250	0xbf97d3b9	-1.1861488
251	0xbf90969e	-1.1295965
252	0x3fdd8c92	1.7308524
253	0x400bb8ae	2.183147
254	0xc08008a8	-4.0010567
255	0xbfe02413	-1.7511009

fc.bias f4 [8]
0	0xbf98369e	-1.1891668
1	0xbf27ed88	-0.6559682
2	0xbebfc775	-0.3745686
3	0xbe9e5db6	-0.3093087
4	0x3f006429	0.5015283
5	0x3f2a673d	0.6656378
6	0x3f48a6ea	0.7837969
7	0xbd7b1c97	-0.061306562
