models/best_model_GAT.pth (torch, 19010 bytes, 18 tensors)

conv1.att_src f4 [1, 1, 64]
0	0x3fc39a40	1.5281448
1	0x3e293f40	0.16528034
2	0x3e45008a	0.19238487
3	0xbf2b3938	-0.66884184
4	0x3f22e193	0.6362545
5	0xbf395d49	-0.72407967
6	0x4019d778	2.4037762
7	0xbfa66439	-1.2999336
8	0xbe54a604	-0.20766455
9	0x3e93b157	0.28846237
10	0x3f580ec0	0.84397507
11	0xbea11fc8	-0.3146956
12	0x403a7065	2.91311
13	0x3e1d0b7d	0.15336414
14	0xbf3900d8	-0.7226691
15	0xbfdfbd76	-1.7479694
16	0xbf24fd87	-0.6444935
17	0xbd9c6956	-0.07637279
18	0xbfbebdb3	-1.4901642
19	0xbc772f3d	-0.015086946
20	0x4054b7c5	3.3237164
21	0xbdbb99f7	-0.09160226
22	0x3fb89cef	1.4422892
23	0x3ead938d	0.33901635
24	0xbea7ce1b	-0.32774433
25	0x3da0c58b	0.07850178
26	0xbf4c81d6	-0.79885614
27	0xbf0dc65f	-0.55380815
28	0x3f87cffe	1.0610349
29	0xbf92e467	-1.1475953
30	0x3f6e203d	0.9301794
31	0x3f28a4c0	0.6587639
32	0xbe82a857	-0.25519058
33	0xbeb531df	-0.3538961
34	0x3f55e841	0.83557516
35	0xbed6e771	-0.4197345
36	0xbe2600ff	-0.16211317
37	0x3ff939df	1.9470786
38	0x3f1de1a1	0.6167241
39	0xbd9ffa0c	-0.078113645
40	0xbf0caa0f	-0.5494699
41	0x4046bbf5	3.105222
42	0xbfac3577	-1.3453816
43	0x3f2b276d	0.66857034
44	0x3e6f333b	0.23359387
45	0x3f13a2a9	0.57670075
46	0xbee70418	-0.4512031
47	0x3f259cae	0.646922
48	0xbefbb3ff	-0.49160764
49	0x3f807f32	1.0038817
50	0x3fc08869	1.5041629
51	0x3eed8839	0.46392992
52	0x3ed9f1b3	0.42567214
53	0xbf869a39	-1.0515815
54	0xbd263838	-0.040580958
55	0xbe30ecc4	-0.17277819
56	0xbf04dc03	-0.5189821
57	0xbfa5a5e7	-1.2941254
58	0x3d894f7e	0.06704615
59	0x3fd611a5	1.6724135
60	0x3e4e9253	0.20173006
61	0xbf53508d	-0.82544786
62	0x3cb4bd9b	0.022063067
63	0xbf99a59b	-1.2003664

conv1.att_dst f4 [1, 1, 64]
0	0x3e67fdf0	0.22655463
1	0x3eab89ae	0.3350348
2	0xbe6c9e74	-0.2310732
3	0x3e615f83	0.22009091
4	0x3e9ceb19	0.30648115
5	0x3d9750b4	0.0738844
6	0xbe908358	-0.28225207
7	0x3e0dd52f	0.13850854
8	0xbcd5e9ed	-0.026112521
9	0x3e521267	0.20514832
10	0xbe28d1f0	-0.16486335
11	0x3dc600d1	0.096681245
12	0x3ceafeb3	0.028685903
13	0x3ccc1f28	0.0249172
14	0x3d1b41b7	0.037904467
15	0x3e19dd7a	0.15025893
16	0xbe106de3	-0.14104418
17	0xbd5b42b7	-0.05353042
18	0xbe6cc3d5	-0.23121579
19	0xbe249757	-0.16073357
20	0x3c2191f8	0.009861462
21	0x3d890882	0.06691076
22	0x3e0934fd	0.1339912
23	0x3e9dff68	0.30858922
24	0x3d05ad23	0.03263582
25	0xbc8ae030	-0.016952604
26	0x3df35165	0.11880759
27	0x3d861fa4	0.06549004
28	0x3e95f906	0.29291552
29	0x3e1cab95	0.15299828
30	0x3de13e0b	0.10998162
31	0x3e8c357d	0.27384558
32	0x3df6acb5	0.1204466
33	0x3e863c0e	0.26217693
34	0x3df09cca	0.11748655
35	0xbd62e4f4	-0.055394128
36	0x3ea220da	0.3166569
37	0xbe0e5c8d	-0.13902493
38	0xbe53da1e	-0.20688674
39	0x3ea149d0	0.31501627
40	0x3dd4ac25	0.103843965
41	0xbdd5d4a7	-0.10440951
42	0x3ea0a847	0.31378385
43	0x3e05560d	0.13021107
44	0x3e3e6ad0	0.18595433
45	0xbd17ad5a	-0.037030555
46	0x3ee2c2d4	0.44289267
47	0xbe4a417a	-0.1975154
48	0x3e7a229d	0.24427266
49	0x3dd54006	0.10412602
50	0xbdddc992	-0.10829462
51	0xb9fd5688	-0.0004832039
52	0x3ec705d0	0.38871622
53	0xbdd128de	-0.10212873
54	0xbd1bc10d	-0.038025904
55	0x3d8186ad	0.063245155
56	0xbe4b9976	-0.1988276
57	0x3e329bc4	0.17442232
58	0x3e6eb881	0.2331257
59	0x3ea5eb95	0.32406297
60	0x3edb2ed3	0.42809162
61	0x3e926c9f	0.28598496
62	0x3e02dd97	0.12779842
63	0x3ddfa9b4	0.1092104

conv1.bias f4 [64]
0	0x3c0cb2ab	0.00858752
1	0xbd80a8f0	-0.06282222
2	0x3b170ec0	0.0023049563
3	0xb8b57639	-8.652773e-05
4	0x3ca533c6	0.020166289
5	0xbb59f09c	-0.0033254987
6	0x3bceb7ad	0.006308517
7	0x3bbca4ff	0.0057569738
8	0x3c68bcf9	0.014205211
9	0x3cbf56cb	0.023356816
10	0x3bf37e64	0.0074308384
11	0xbb28f018	-0.0025777873
12	0xbacd9800	-0.0015685558
13	0xbb982960	-0.004643604
14	0x3c6d9528	0.014500894
15	0x3b575184	0.0032854984
16	0x3ca03982	0.019558672
17	0xbcf99c36	-0.030469995
18	0x3bb6cd63	0.005578683
19	0xbddbdd32	-0.10735549
20	0xbc828439	-0.01593219
21	0xbca0c182	-0.019623522
22	0xbb071286	-0.0020610406
23	0xbd99d35c	-0.07511017
24	0xbb205bc2	-0.0024468754
25	0xbd30e6ab	-0.043188732
26	0x3c8015df	0.015635429
27	0x3d8b5cc8	0.06804806
28	0x3c5e8939	0.013582521
29	0xbb111063	-0.0022135011
30	0x3c71bbd4	0.014754254
31	0xbd3d3912	-0.046197005
32	0x3cc87e8e	0.024474408
33	0x3d3989c2	0.04529739
34	0xbbe131b8	-0.006872382
35	0x3cb74cc0	0.022375464
36	0xb9b1cc44	-0.0003391226
37	0xb9955539	-0.0002848299
38	0xbd2e1dd0	-0.0425089
39	0xba9ffe26	-0.001220648
40	0x3d080d8c	0.033216044
41	0xbbc67873	-0.006056839
42	0x3b4f5052	0.0031633568
43	0xbe0675dd	-0.13130899
44	0xbcd51226	-0.02600963
45	0x3d0dc92c	0.03461568
46	0xbb3ab3ea	-0.0028488585
47	0x3d4a83b3	0.049442004
48	0xbcc68ca3	-0.024236983
49	0xbba21002	-0.004945756
50	0x3a5529d1	0.00081315363
51	0x3c3a351f	0.011365204
52	0xbc84ea20	-0.01622492
53	0xbb2bf9b6	-0.0026241369
54	0x3d80e6c7	0.06294017
55	0x3d462841	0.048378233
56	0xbc4890b4	-0.012241531
57	0xbd4c091c	-0.049813375
58	0x3d0f94af	0.035053905
59	0x3c2ccf63	0.010547492
60	0x3a70ac7d	0.0009180976
61	0xbc925bde	-0.017866071
62	0x3c2b542b	0.010457079
63	0x3c234084	0.009964112

conv1.lin.weight f4 [64, 5]
0	0x401e16ea	2.4701486
1	0x40526d3e	3.2879176
2	0x402b08dc	2.6724157
3	0xbe7e3fb0	-0.24828982
4	0xbf14f62b	-0.5818812
5	0xbde3b6ce	-0.111188516
6	0x4014fbfd	2.3278801
7	0x3d8532fa	0.06503864
8	0x3eb0de31	0.3454452
9	0x3dc6cf48	0.097075045
10	0xbeb70391	-0.35744908
11	0xc008c1da	-2.1368318
12	0x3dfdae5d	0.12386773
13	0xbfbe6067	-1.487317
14	0xbd0a622d	-0.033785034
15	0xbfe89d34	-1.8172975
16	0xc017ae09	-2.3699973
17	0xbffbaf3c	-1.9662852
18	0x3d1fb569	0.038991366
19	0x3e831293	0.25600109
20	0x3fc1ab1b	1.5130342
21	0x4033e194	2.8106432
22	0x3fe4aee9	1.7865878
23	0x3e7db69d	0.24776693
24	0xbf374430	-0.7158842
25	0xbfd5155b	-1.6647142
26	0xbfe870a2	-1.8159373
27	0xbfd3c252	-1.6543677
28	0x3e57fbde	0.21092173
29	0x3dc5f34b	0.09665545
30	0x40c5a03e	6.175811
31	0x40e7c3b0	7.2426376
32	0x40cb9586	6.3620024
33	0x3cb322db	0.021867206
34	0xbf985a66	-1.1902587
35	0xc00813c3	-2.1262062
36	0xc09c287e	-4.879943
37	0xbfd58752	-1.6681921
38	0xbc84dbd7	-0.016218109
39	0xbee2169f	-0.44157884
40	0xbed1378c	-0.4086269
41	0xbff8610e	-1.9404619
42	0xbf054bbc	-0.52068686
43	0xbcfa649e	-0.030565556
44	0xbf1caf7a	-0.61205256
45	0x3e6f3343	0.23359399
46	0xbf253f19	-0.64549404
47	0xbd8bc34d	-0.0682436
48	0x3e54bbdb	0.20774786
49	0xbf17d09e	-0.593027
50	0x3ff4375f	1.9079398
51	0x40813ac0	4.0384216
52	0x3fe9a984	1.8254857
53	0xbea0a4f4	-0.3137585
54	0xbdbcb9c8	-0.092151225
55	0xbfce1b80	-1.6102142
56	0x3ee38ef8	0.44445014
57	0xc0005b1b	-2.0055606
58	0x3c74873b	0.01492482
59	0x3f10e2a3	0.5659582
60	0x4103701e	8.214872
61	0x41442b00	12.260498
62	0x41034d9b	8.206447
63	0xbc8d2fb1	-0.017234655
64	0xbf51adb1	-0.8190566
65	0xbf715501	-0.9427033
66	0xbfe02a52	-1.7512915
67	0xbf4b6531	-0.7945128
68	0x3d3cbfc2	0.046081312
69	0xbf2a1c7c	-0.66449714
70	0xbf78f5bf	-0.9724998
71	0xc0405edd	-3.00579
72	0xbfba8dae	-1.4574487
73	0xbdbb6a1f	-0.091511
74	0xbde2bab3	-0.11070766
75	0xc05375de	-3.304069
76	0xc0b01433	-5.5024657
77	0xc06c3f78	-3.6913738
78	0x3cd7fa0f	0.026364354
79	0x3eafd54b	0.34342417
80	0xbfa23e98	-1.2675352
81	0xbfda4d5a	-1.7054856
82	0xbfc294cf	-1.5201663
83	0xbe30eeec	-0.17278641
84	0xbe12d3f2	-0.14338663
85	0xbd90c944	-0.07069638
86	0x3f6b876b	0.92003506
87	0xbd26991a	-0.040673353
88	0xbf1d7272	-0.61502755
89	0x3d222f90	0.03959614
90	0xc048dccb	-3.1384761
91	0xc0581297	-3.3761346
92	0xc062449d	-3.5354378
93	0x3d024558	0.031804413
94	0x3eb7b37e	0.3587913
95	0x3e41e7c4	0.18936068
96	0xbfcae1d9	-1.5850173
97	0x3e12b93b	0.14328472
98	0x3dcb41ab	0.099246345
99	0xbf1644b5	-0.5869859
100	0x410f2a4d	8.947827
101	0x41262a80	10.385376
102	0x410cc30d	8.79762
103	0xbbf6b57b	-0.0075289584
104	0xc0e2729e	-7.0764914
105	0x3f10a048	0.5649457
106	0xbe5d1f56	-0.21593985
107	0x3f2cdc7a	0.6752392
108	0xbc71d2d7	-0.014759741
109	0xbe4745b1	-0.19460179
110	0x4021142e	2.5168567
111	0x4091f39a	4.5609865
112	0x4025069c	2.5785284
113	0xbecb5d74	-0.39719737
114	0xbeed211a	-0.46314317
115	0x3d514b23	0.051097047
116	0xbf937e91	-1.1523
117	0x3d6244ef	0.05524152
118	0x3e3b52fd	0.18293376
119	0xbead05f6	-0.3379361
120	0x3df61f9a	0.12017746
121	0xbfcee280	-1.6162872
122	0xbe3e424c	-0.18579978
123	0x3ed5fccf	0.4179444
124	0x3dbd92b4	0.09256497
125	0x3d635293	0.05549867
126	0x3fc02621	1.5011636
127	0xbd3f609c	-0.046722993
128	0x3e7ef729	0.24898972
129	0xbd4f821f	-0.050661203
130	0xbfa61d28	-1.2977648
131	0xc09093c2	-4.518037
132	0xbf8d37c7	-1.1032647
133	0x3d28be22	0.04119695
134	0xbe9851e0	-0.29749966
135	0x3d2cfc9c	0.042233095
136	0x3ffa3b85	1.9549414
137	0xbcf61af6	-0.030042153
138	0xbf8ad54b	-1.0846342
139	0x3f4ff1e6	0.8122848
140	0x401d7a13	2.4605758
141	0x406ba7b9	3.682112
142	0x402b46ac	2.6761885
143	0xbd9a2144	-0.07525876
144	0xbef3b383	-0.47597894
145	0xc02aeef7	-2.6708353
146	0xc036e2c2	-2.8575902
147	0xc03bf074	-2.936551
148	0xbc5739aa	-0.013136307
149	0x3ef781a6	0.483411
150	0x402659b3	2.5992248
151	0x3febc01a	1.8418
152	0x402508f0	2.5786705
153	0xbe56634f	-0.2093632
154	0xbf04d2c7	-0.5188412
155	0x3f9d1646	1.2272422
156	0x3fcdce74	1.607863
157	0x3f6d5f9b	0.9272401
158	0xbd22bdb0	-0.03973168
159	0xbf2fd816	-0.68689096
160	0xbf690436	-0.9102205
161	0x3e5f1430	0.21785045
162	0xbfa2466c	-1.2677741
163	0x3e7096b6	0.23494992
164	0x3f0f8419	0.5606094
165	0x3e0b43e6	0.1360012
166	0x3f96371e	1.173557
167	0xbde379b7	-0.111072
168	0x3eaad05c	0.3336209
169	0x3f00ee7a	0.50363886
170	0x3ea3b3f2	0.31973225
171	0xbf64b7a8	-0.8934274
172	0x3f3594a6	0.70929945
173	0x3e55cf3d	0.20879836
174	0xbf31f3fc	-0.69512916
175	0x3f4c9626	0.7991661
176	0xc0674cb5	-3.6140568
177	0x3f1ee245	0.6206401
178	0x3dad0039	0.08447308
179	0xbf02e79d	-0.51134664
180	0xbf967947	-1.1755761
181	0xc01fc908	-2.496645
182	0xbf7a566a	-0.9778811
183	0xbeb94c3c	-0.36190975
184	0x3e18fa68	0.14939272
185	0x40688449	3.633074
186	0x40b5fad4	5.6868687
187	0x407bd2a4	3.9347315
188	0x3c5475e1	0.012967558
189	0xbdbca995	-0.09212033
190	0xbe2285c2	-0.15871337
191	0xbfaa73dc	-1.3316607
192	0x3e97d21f	0.29652497
193	0x3e18af8d	0.14910717
194	0xbf4b5b43	-0.7943613
195	0xbf12c79f	-0.5733585
196	0x3fa07401	1.2535402
197	0xbeb5ef68	-0.35534215
198	0x3e1afe58	0.15136087
199	0x3f4145de	0.75497234
200	0xbed444a2	-0.41458613
201	0xbf9004eb	-1.1251501
202	0xbed34b78	-0.41268516
203	0xbecba7d7	-0.3977649
204	0x3de0bed3	0.10973897
205	0x410da5e0	8.852997
206	0x412df39b	10.871974
207	0x410fa687	8.978156
208	0xbc0692d8	-0.008213721
209	0xc1469427	-12.41117
210	0xc05e0e29	-3.4696143
211	0xc07f2931	-3.9868891
212	0xc06254e0	-3.5364304
213	0xbdbe55e2	-0.092937246
214	0x3f3b6656	0.7320303
215	0xbc99d58c	-0.018778585
216	0xbfeae529	-1.8351184
217	0x3e269f33	0.16271667
218	0x3e7bad71	0.24577881
219	0xbf5f67c4	-0.8726771
220	0xbf1c01b1	-0.6094008
221	0xc001284d	-2.0180848
222	0xbf5514f3	-0.8323509
223	0x3c7956e8	0.015218474
224	0xbeb2cbd9	-0.34921148
225	0x3dc3e403	0.09564974
226	0xc01e3b15	-2.472356
227	0x3e54fc37	0.20799337
228	0x3f018c00	0.5060425
229	0xbf4bbcfe	-0.79585254
230	0xbf7e7d5a	-0.9941002
231	0xbf3c46b0	-0.7354536
232	0xbf8bdbc9	-1.0926448
233	0xbead708e	-0.33874935
234	0x3eda2417	0.4260566
235	0x3e60480f	0.21902488
236	0xbfc923da	-1.5714066
237	0x3d9b9b95	0.07598034
238	0x3ebf2ae0	0.373374
239	0xbf5cba23	-0.8622152
240	0xbf8dd83b	-1.1081613
241	0xc03205bb	-2.7815998
242	0xbf2333f1	-0.6375113
243	0xbeac2539	-0.3362215
244	0xbec36dd2	-0.38169724
245	0x3f8ffaa8	1.1248369
246	0x4033dcbb	2.8103473
247	0x3f98f52d	1.1949822
248	0xbd6c8946	-0.0577481
249	0x3e6d2f7d	0.23162647
250	0x40959550	4.6744766
251	0x40dad144	6.838045
252	0x40921f28	4.5663033
253	0x3c92a6d8	0.017901823
254	0xbdf21e66	-0.11822204
255	0xbfbc7d8d	-1.4725815

bn1.weight f4 [64]
0	0x3ec5d4ae	0.38638824
1	0x3edfb8bc	0.4369563
2	0x3fdeb473	1.7398819
3	0x3f3826a5	0.71933967
4	0x3ea658e4	0.32489693
5	0x3f1b6762	0.60704625
6	0x3f3515d3	0.70736426
7	0x3eee8e66	0.46593016
8	0x3eb5eb78	0.3553121
9	0x3e7638e1	0.24045135
10	0x3f18a6a0	0.5962925
11	0x3ee4f154	0.4471537
12	0x3e848539	0.2588289
13	0x3ee37c18	0.44430614
14	0x3f1bea41	0.6090432
15	0x3f04512f	0.51686376
16	0x3e61b458	0.22041452
17	0x3f67bd57	0.90523285
18	0x3f2ae0c9	0.66749245
19	0x3e9807e6	0.29693526
20	0x3f839196	1.0278804
21	0x3efe33df	0.4964895
22	0x3f2f8ec0	0.68577194
23	0x3edbb62c	0.42912424
24	0x3ef39a14	0.4757849
25	0x3f08110e	0.53151023
26	0x3f2ef96b	0.6834933
27	0x3fbc8ee7	1.473111
28	0x3ef53e25	0.47898975
29	0x3f2a425a	0.66507494
30	0x3f19f51f	0.6013965
31	0x3f1fb9ed	0.62393075
32	0x3ee48bcd	0.4463791
33	0x3f366572	0.71248543
34	0x3ea2e23a	0.31813222
35	0x3e9a81d0	0.30177164
36	0x3f19845f	0.5996761
37	0x3f06f364	0.52715135
38	0x3f1cac2e	0.61200225
39	0x3f12e319	0.57377774
40	0x3ef14abc	0.4712733
41	0x3fe5fe30	1.7968197
42	0x3f746220	0.95462227
43	0x3f2e7c9e	0.681589
44	0x3ed3e5c0	0.41386223
45	0x3f78a836	0.9713167
46	0x3e2c71a8	0.16840231
47	0x3f364477	0.7119822
48	0x3ec0d6c6	0.3766386
49	0x3f0222ef	0.50834554
50	0x3f12ed29	0.5739313
51	0x3eafefcd	0.3436264
52	0x3f146526	0.5796684
53	0x3ecc3b62	0.39889055
54	0x3f3a0e5c	0.7267816
55	0x3f5993b1	0.84990984
56	0x3efb1460	0.49038982
57	0x3f8a4752	1.0803015
58	0x3ec9ff11	0.39452413
59	0x3f4b14f8	0.7932887
60	0x3f114f21	0.56761366
61	0x3f135135	0.5754579
62	0x3f174442	0.5908853
63	0x3f05adf8	0.5221858

bn1.bias f4 [64]
0	0xbe16ae20	-0.14714861
1	0x3e0f44c1	0.13991071
2	0x3e7e5fe1	0.24841262
3	0xbed05af3	-0.4069439
4	0xbe66468e	-0.22487852
5	0xbeaad680	-0.33366776
6	0x3f0e1a0a	0.5550848
7	0xbf13b3db	-0.5769631
8	0xbe8ca215	-0.2746741
9	0xbe886e1f	-0.26646516
10	0xbe3722c7	-0.1788436
11	0xbd1b4c5e	-0.037914626
12	0x3ebac8f1	0.3648143
13	0xbe8f5354	-0.27993262
14	0xbee32e61	-0.44371322
15	0xbe97e5bc	-0.2966746
16	0xbe63a315	-0.2223018
17	0xbe03cd8e	-0.12871382
18	0xbea6ff8e	-0.32616848
19	0xbebd4692	-0.36967903
20	0x3f2a44a1	0.6651097
21	0xbf5f326f	-0.8718633
22	0xbedcad01	-0.43100742
23	0xbcd58721	-0.026065411
24	0xbf4e74d1	-0.80647
25	0xbe2d108d	-0.16900845
26	0xbefb1556	-0.49039716
27	0xbf4b1fd9	-0.7934547
28	0xbeb9fb11	-0.3632436
29	0xbe713d0f	-0.23558448
30	0xbf03f340	-0.51543045
31	0xbfb3a16d	-1.4033638
32	0xbe9c96b6	-0.30583733
33	0xbe47fab2	-0.19529226
34	0x3ebf7baf	0.3739905
35	0xbed19d2f	-0.40940234
36	0xbf08c606	-0.5342716
37	0x3f170f71	0.59007937
38	0xbed136ba	-0.40862066
39	0x3daa00f1	0.08300961
40	0xbe843af4	-0.25826228
41	0x3e99f270	0.30067778
42	0xbdb98161	-0.0905788
43	0xbe71a6dd	-0.2359881
44	0x3d21d8dd	0.039513458
45	0x3ecfeac1	0.4060879
46	0xbd7ec186	-0.062196277
47	0xbf2004fd	-0.6250761
48	0xbdf0c785	-0.11756805
49	0xbf042111	-0.51612955
50	0x3f04bc65	0.5184997
51	0x3bf8f2b7	0.0075972932
52	0xbf22455f	-0.633871
53	0xbe87bd44	-0.26511586
54	0xbedd183b	-0.4318255
55	0xbedc94ac	-0.43082178
56	0xbe6658af	-0.22494768
57	0xbf831067	-1.0239381
58	0xbd527bce	-0.0513876
59	0x3f015e17	0.50534195
60	0xbece8c26	-0.403413
61	0xbf03026e	-0.5117558
62	0xbf6509a2	-0.89467824
63	0xbed3bd9d	-0.413556

bn1.running_mean f4 [64]
0	0xc57dd12d	-4061.0735
1	0x45b0fe5e	5663.796
2	0xc6be7187	-24376.764
3	0x441e1df1	632.46783
4	0x457e28c7	4066.5486
5	0x4557bc0c	3451.753
6	0x43b913e2	370.15533
7	0xc3876f10	-270.86768
8	0xc3fb9b84	-503.21497
9	0x45549213	3401.1296
10	0xc5a081d3	-5136.228
11	0x435fa83e	223.6572
12	0xc3803db9	-256.4822
13	0x443c3538	752.83154
14	0xc4bc14a4	-1504.645
15	0x43d219e2	420.2022
16	0xc5314a4d	-2836.6438
17	0xc61d29ac	-10058.418
18	0x43ff04a5	510.0363
19	0x44c881e8	1604.0596
20	0xc2b94c55	-92.649086
21	0xc370630b	-240.38689
22	0xc5cb2d24	-6501.6426
23	0x4539c67a	2972.4048
24	0x45d6b1c8	6870.2227
25	0x45804384	4104.4395
26	0x4427c589	671.0865
27	0xc68b148a	-17802.27
28	0xc499225d	-1225.0739
29	0xc3640150	-228.00513
30	0xc555fb8f	-3423.7224
31	0xc422068f	-648.1025
32	0x457070da	3847.0532
33	0x45aa1165	5442.1743
34	0x4556019a	3424.1
35	0x44ad2db7	1385.4286
36	0xc5b97aac	-5935.334
37	0x4354126e	212.07199
38	0x4518def1	2445.9338
39	0x451b071e	2480.4448
40	0xc5cbc20b	-6520.2554
41	0xc2c6bab4	-99.364655
42	0xc4bfbea8	-1533.958
43	0x457b8c54	4024.7705
44	0x436ce1fb	236.88274
45	0x4601fdee	8319.482
46	0xc5ad99ea	-5555.2393
47	0x45be6ce7	6093.613
48	0xc5ac453b	-5512.654
49	0xc46bb765	-942.86554
50	0x4391f7bc	291.93542
51	0x4528ee04	2702.876
52	0x44301cf1	704.4522
53	0xc38974c9	-274.91238
54	0x4531a0a0	2842.039
55	0x43a24f45	324.6193
56	0x44343d96	720.9623
57	0xc52eb93e	-2795.5776
58	0xc493a3d6	-1181.1199
59	0x4379afa6	249.68613
60	0xc3ca35a7	-404.41916
61	0xc58c16ca	-4482.8486
62	0x455ab608	3499.377
63	0xc48b10ab	-1112.5209

bn1.running_var f4 [64]
0	0x4b5e53ed	1.4570477e+07
1	0x4bd74eec	2.8220888e+07
2	0x4df951e4	5.228617e+08
3	0x48af22a3	358677.1
4	0x4b5d6b29	1.4510889e+07
5	0x4b20702f	1.0514479e+07
6	0x47d2a071	107840.88
7	0x47718fdd	61839.863
8	0x48580c96	221234.34
9	0x4b1b55f1	1.0180081e+07
10	0x4bb182d8	2.3266736e+07
11	0x473152f1	45394.94
12	0x4789874c	70414.59
13	0x48f5317a	502155.8
14	0x49f1ae50	1.97985e+06
15	0x48202f6c	164029.69
16	0x4ad75f89	7.0573485e+06
17	0x4ca9cc01	8.902247e+07
18	0x4868f8fa	238563.9
19	0x4a0a2f63	2.2640248e+06
20	0x464a2127	12936.288
21	0x4749b218	51634.094
22	0x4c0e3ec3	3.7288716e+07
23	0x4aed45bd	7.7749425e+06
24	0x4c1e77bc	4.154136e+07
25	0x4b622c82	1.482253e+07
26	0x48c3cfe7	401023.22
27	0x4d84fa25	2.7887325e+08
28	0x49a365c6	1.3385528e+06
29	0x47260a0d	42506.05
30	0x4b1e176f	1.0360687e+07
31	0x48b619fd	372943.9
32	0x4b4711ae	1.304619e+07
33	0x4bc6d3ea	2.6060756e+07
34	0x4b1d407f	1.0305663e+07
35	0x49cdd5c6	1.6862008e+06
36	0x4bec3b26	3.0963276e+07
37	0x47073148	34609.28
38	0x4aa09556	5.261995e+06
39	0x4aa55228	5.417236e+06
40	0x4c0ea461	3.7392772e+07
41	0x4660ca78	14386.617
42	0x49f9332f	2.0414459e+06
43	0x4b597eba	1.4253754e+07
44	0x474329db	49961.855
45	0x4c68506d	6.0899764e+07
46	0x4bceee8b	2.7122966e+07
47	0x4bf946ea	3.2673236e+07
48	0x4bcbd4b9	2.671653e+07
49	0x4940971b	788849.7
50	0x4782b535	66922.414
51	0x4ac4e1be	6.451423e+06
52	0x48d491f8	435343.75
53	0x47758eac	62862.67
54	0x4ad8dc27	7.1060675e+06
55	0x47b7c8de	94097.734
56	0x48e311b1	465037.53
57	0x4ad1a2d7	6.8693555e+06
58	0x4995845d	1.2248436e+06
59	0x473f6642	48998.258
60	0x48079955	138853.33
61	0x4b869339	1.7639026e+07
62	0x4b243b5f	1.0763103e+07
63	0x4983d68b	1.0800174e+06

conv2.att_src f4 [1, 1, 32]
0	0x40664e72	3.598538
1	0xc05e2887	-3.4712236
2	0x4035f8c5	2.8433087
3	0xbfcdb371	-1.6070386
4	0x3fb0f4d4	1.3824716
5	0x4038c6f0	2.8871422
6	0xc038dc1b	-2.8884342
7	0xc059eeab	-3.4051921
8	0xc05af3dc	-3.421134
9	0x40474ac2	3.1139379
10	0x3fcfb1dd	1.6226155
11	0x3fac7a55	1.3474833
12	0x403fb8e1	2.995659
13	0x405e9178	3.4776287
14	0x3f74f6bf	0.95689005
15	0x40689f8b	3.6347377
16	0x3fcc9c25	1.5985152
17	0xc02a9ffc	-2.6660147
18	0xc06e3f33	-3.7226074
19	0xc03f90c7	-2.9932115
20	0xc01ccb1b	-2.4498966
21	0xc0833643	-4.1003737
22	0x40585a3e	3.380508
23	0x4069ff6d	3.656215
24	0xbcbd2554	-0.023089088
25	0xc061f99f	-3.5308607
26	0x3f896529	1.0733997
27	0xc018979e	-2.384254
28	0x3fdde5ab	1.7335714
29	0x3fd99bbe	1.7000654
30	0xc0698b09	-3.649111
31	0x3fed1708	1.8522654

conv2.att_dst f4 [1, 1, 32]
0	0xbe1ce54e	-0.15321848
1	0xbf3b483c	-0.73157096
2	0x3cbe63fc	0.023241036
3	0xbe754830	-0.23953319
4	0x3d7f627a	0.062349774
5	0xbe78dfc5	-0.24304111
6	0xbf0910fd	-0.5354155
7	0xbe000374	-0.12501317
8	0x3e2911b4	0.1651066
9	0x3eaf870c	0.3428272
10	0xbe36a792	-0.1783736
11	0xbee48593	-0.4463316
12	0x3e7ed8af	0.24887346
13	0x3dc8acc1	0.09798575
14	0x3c9886d5	0.01861898
15	0x3c9b880c	0.01898577
16	0x3d0ad89f	0.033897992
17	0xbe46f765	-0.19430311
18	0xbe857903	-0.26068887
19	0xbecc1f47	-0.39867613
20	0xbdc17e9c	-0.09447977
21	0xbe37323e	-0.1789026
22	0xbe98b62b	-0.29826483
23	0x3e8c398d	0.27387658
24	0x3e140687	0.14455615
25	0xbe15ada1	-0.14617015
26	0xbebd8629	-0.3701642
27	0x3e82ccc0	0.25546837
28	0x3e2d2615	0.16909058
29	0xbec56293	-0.3855177
30	0xbe7bec54	-0.24601871
31	0xbd562a49	-0.05228642

conv2.bias f4 [32]
0	0xbfc02902	-1.5012515
1	0x3cad6251	0.021165045
2	0xbfbfbefb	-1.4980158
3	0x3f382cdf	0.7194347
4	0xbd85d983	-0.06535628
5	0xbcb306f5	-0.021853903
6	0x3faf498f	1.3694323
7	0x3fe41848	1.781991
8	0x3fa45388	1.2837992
9	0x3e9a0b4f	0.30086753
10	0x3d837ff2	0.06420888
11	0xbdd1e1e9	-0.10248167
12	0x3dd15596	0.10221402
13	0x3e3a2922	0.18179753
14	0xbd229b32	-0.039698787
15	0xbd25b7f3	-0.04045863
16	0xbed773da	-0.42080575
17	0x3f5749ca	0.8409697
18	0x3fc2efa4	1.5229383
19	0x3fc46612	1.5343649
20	0x3d000cef	0.031262334
21	0x3d9b691e	0.07588409
22	0x3bdbbb0b	0.006705647
23	0xbfce9a59	-1.6140853
24	0xbdebf2a0	-0.115208864
25	0x3fc4d997	1.5378903
26	0xbeaa9ae8	-0.3332131
27	0x3f6c9196	0.92409647
28	0xbe06acbd	-0.13151832
29	0xbc33f360	-0.010983318
30	0x3f6e88b6	0.93177354
31	0x3f014279	0.50492054

conv2.lin.weight f4 [32, 64]
0	0xbdfa88de	-0.122331366
1	0x3db4e20e	0.08832179
2	0xbec1f14c	-0.37879407
3	0xbe08cfc4	-0.13360506
4	0x3e30199d	0.1719727
5	0x3daacff9	0.08340449
6	0x3eb27b68	0.34859776
7	0xbd2053af	-0.039142307
8	0x3d013015	0.031539995
9	0xbe01a95a	-0.12662259
10	0x3db057a4	0.08610466
11	0x3db8b78d	0.090193845
12	0x3e24c4ba	0.1609067
13	0x3cb4dee7	0.022078944
14	0xbcfce264	-0.03086967
15	0xbe00db13	-0.1258357
16	0xbe471507	-0.19441615
17	0xbe9c84a0	-0.30569935
18	0xbd55840f	-0.052127894
19	0xbd036b64	-0.032084838
20	0x3f30a978	0.6900859
21	0xbf0e0d66	-0.55489194
22	0x3defb040	0.11703539
23	0x3e91486d	0.2837557
24	0xbfade34c	-1.358499
25	0x3d686569	0.056737337
26	0xbe54b543	-0.20772271
27	0xbec1ef14	-0.37877715
28	0x3dc918f1	0.0981921
29	0xbe4f3393	-0.20234518
30	0x3e34b104	0.17645651
31	0xbf2503df	-0.6445903
32	0xbe0b8716	-0.1362575
33	0x3e8fbcea	0.28073817
34	0x3e9043df	0.28176782
35	0xbde179a9	-0.11009533
36	0x3d9148fe	0.07094
37	0x3ebc5782	0.36785513
38	0x3ccf9e24	0.025343962
39	0x3e71e6b4	0.23623163
40	0xbd89dd7d	-0.06731699
41	0x3f7be87e	0.9840163
42	0xbea52520	-0.32254887
43	0xbdb312a6	-0.08743791
44	0xbdd264db	-0.10273143
45	0x3dd76e21	0.10519052
46	0xbdc2ed07	-0.09517866
47	0x3e7455cf	0.23860858
48	0xbe844ba0	-0.25838947
49	0x3ee05278	0.4381292
50	0x3e1a6277	0.15076624
51	0xbd7a56b0	-0.061117828
52	0x3e5d6d64	0.2162376
53	0xbd304184	-0.04303123
54	0x3e1d6b34	0.15372926
55	0xbd2fa932	-0.042885967
56	0x3d708f09	0.05873016
57	0xbf4c792b	-0.7987239
58	0x3df8335c	0.12119171
59	0x3deb2131	0.1148094
60	0xbdf11c08	-0.11772925
61	0xbe3a4913	-0.18191938
62	0xbf4f471f	-0.809679
63	0xbd43b4f1	-0.04777998
64	0xbd44d1eb	-0.048051756
65	0xbc00ef6f	-0.007869585
66	0x3e8ae97c	0.2713126
67	0x3f509882	0.8148271
68	0x3c07ba20	0.008284122
69	0x3edf5d98	0.43626094
70	0xbec64c9e	-0.3873033
71	0x3ee890b1	0.4542289
72	0xbddd29fa	-0.10799022
73	0x3eafbcfd	0.34323874
74	0xbe1e4ae9	-0.15458263
75	0xbe116e5d	-0.14202257
76	0xbe4b8231	-0.19873883
77	0x3e298857	0.16555916
78	0xbd8ba121	-0.06817842
79	0x3de68912	0.11256613
80	0x3df4c12e	0.119509086
81	0x3e5fd9f7	0.2186049
82	0x3dea9172	0.11453523
83	0xbdf937a6	-0.12168817
84	0xbed5f530	-0.41788626
85	0x3f0d0a7b	0.55094117
86	0x3daf4ccf	0.08559572
87	0xbdde9865	-0.10868911
88	0x3f64e3c3	0.89410037
89	0xbbbecd46	-0.0058228103
90	0x3edd9a34	0.4328171
91	0x3d0b6a25	0.034036774
92	0xbdc45c57	-0.09587925
93	0x3e3b8970	0.18314147
94	0x3c2a0506	0.010377174
95	0x3ed70f8d	0.42004052
96	0x3ed6c0d4	0.4194399
97	0x3e7c5023	0.24639945
98	0xbebd975c	-0.3702954
99	0x3dcfc532	0.10145034
100	0xbd89c0bd	-0.06726215
101	0xbe09a7e9	-0.13442959
102	0x3eb5234f	0.353785
103	0xbd5b7ee7	-0.05358782
104	0xbd170f32	-0.036879726
105	0xbf0c197d	-0.5472639
106	0x3eb910ba	0.36145574
107	0x3d8eb82c	0.06968722
108	0x3d0efb69	0.034907732
109	0xbe1035a2	-0.1408296
110	0x3df57f9b	0.119872294
111	0x3ef972ec	0.4872049
112	0x3e359e80	0.17736244
113	0x3de28f53	0.11062493
114	0xbddac5c2	-0.106822506
115	0xbcc01876	-0.023449164
116	0x3dad0d75	0.08449832
117	0x3e8f05e6	0.27934188
118	0x3ef517f6	0.47869843
119	0x3edba30e	0.42897838
120	0x3f5eb638	0.86996794
121	0xbf01c764	-0.5069487
122	0xbe8e7d4f	-0.27829978
123	0xb98752e2	-0.0002581096
124	0x3e99834e	0.2998299
125	0x3d057e58	0.032591194
126	0x3ee67db7	0.45017788
127	0x3daf95eb	0.085735165
128	0xbd3d808c	-0.04626517
129	0x3db1894d	0.08668766
130	0xbed31df5	-0.41233793
131	0xbdc70179	-0.09717078
132	0x3e653ff1	0.22387673
133	0xbe267521	-0.16255619
134	0x3e963816	0.29339665
135	0x3dd7c983	0.10536482
136	0xbe842cac	-0.25815332
137	0x3e3d0b65	0.18461378
138	0x3e58e74d	0.21181984
139	0xbe49534d	-0.19660683
140	0x3df88b02	0.12135889
141	0xbe35c04c	-0.17749137
142	0xbd6d83b7	-0.05798694
143	0xbdf49b2e	-0.11943661
144	0xbe93691d	-0.28791133
145	0xbd0980f4	-0.033570245
146	0xbd6af3e9	-0.057361517
147	0xbdb1d708	-0.08683592
148	0x3f2ad78f	0.66735166
149	0xbe6f15af	-0.23348115
150	0x3e04ea7b	0.12980072
151	0xbde8db49	-0.1136995
152	0xbf88d9be	-1.069145
153	0x3e6a773f	0.22897051
154	0x3e02eea3	0.12786345
155	0xbed054ae	-0.40689605
156	0xbc08245b	-0.008309449
157	0x3d17bdd3	0.037046265
158	0x3e612de7	0.21990167
159	0x3f1e35a0	0.61800575
160	0x3d0a7c17	0.033809748
161	0x3df9cc55	0.12197176
162	0x3e2b6305	0.16736992
163	0xbf7f5ed2	-0.9975406
164	0xbe2fc9b8	-0.17166793
165	0x3e9cf6c6	0.30657023
166	0x3ec13c52	0.37741333
167	0x3dcd010c	0.10009965
168	0x3bd693df	0.0065483893
169	0x3f22d3b2	0.6360427
170	0xbe08fe2b	-0.13378207
171	0x3e91491b	0.28376088
172	0x3d442d49	0.04789475
173	0xbd3f892f	-0.046761688
174	0xbd937db8	-0.07201713
175	0x3e7cf397	0.24702297
176	0xbdc49662	-0.09598996
177	0x3f2b1f1f	0.6684436
178	0x3e73e4b9	0.2381772
179	0xbd8431a8	-0.06454784
180	0x3ebdb8f7	0.3705518
181	0xbe0dc972	-0.13846377
182	0x3e4f7b5c	0.20261902
183	0xbbbd6450	-0.0057797804
184	0x3ee44784	0.44585812
185	0xbf27bbf7	-0.65521187
186	0x3d7ca35d	0.061679233
187	0x3e6516ac	0.2237193
188	0x3ddb6951	0.10713447
189	0xbbca60df	-0.0061760987
190	0xbef594e6	-0.47965163
191	0xbcaba1e5	-0.02095122
192	0x3e9b4553	0.30326328
193	0x3f008484	0.502022
194	0xbee20c09	-0.44149807
195	0x3e6f79df	0.23386334
196	0x3dbc6ca2	0.092004076
197	0xbe6a1621	-0.22860004
198	0xbe020ad6	-0.12699446
199	0xbde06a60	-0.109577894
200	0xbe78c530	-0.24293971
201	0xbcf8e08c	-0.03038051
202	0x3e5df485	0.21675308
203	0x3e634f9c	0.22198337
204	0xbdbfee72	-0.09371652
205	0x3e032e4a	0.12810627
206	0xbe9250cb	-0.28577265
207	0xbded83ef	-0.1159743
208	0x3d5e1632	0.054220386
209	0xbe1bd8c1	-0.15219404
210	0x3cdec15f	0.027191816
211	0x3e7299c7	0.23691474
212	0xbe829e18	-0.2551124
213	0x3e702836	0.2345284
214	0xbf13f262	-0.5779172
215	0x3e3265a0	0.1742158
216	0x3fb04081	1.3769685
217	0x3dcb6f8a	0.09933384
218	0xbdab141e	-0.083534464
219	0xbebeeede	-0.37291616
220	0xbeacefd4	-0.33776724
221	0xbe35d2c5	-0.17756183
222	0xbea41e48	-0.32054353
223	0x3f675c09	0.9037481
224	0x3cf6b12f	0.030113785
225	0x3dc7611e	0.097353205
226	0x3daf8dba	0.08571954
227	0x3ee33583	0.44376764
228	0xbe16a2fe	-0.14710614
229	0xbea7a8bd	-0.32745925
230	0x3d6b777e	0.057487004
231	0xbc0f551a	-0.008748317
232	0x3e4828e2	0.19546846
233	0x3e696c5d	0.22795244
234	0xbba6ba28	-0.0050881095
235	0x3ea19739	0.31560686
236	0x3c70a18d	0.014686954
237	0x3ee5db19	0.4489372
238	0x3e05239f	0.1300187
239	0x3e4aebc8	0.19816506
240	0x3e70eb58	0.23527277
241	0xbea8af26	-0.32946128
242	0x3da44b1f	0.08022141
243	0x3e305615	0.17220338
244	0xbeac3814	-0.33636534
245	0x3de8236d	0.11334882
246	0x3eaa099b	0.33210453
247	0xbe24cfe8	-0.16094935
248	0x3e55bce4	0.20872837
249	0xc0241272	-2.5636258
250	0x3ece2b7a	0.40267545
251	0xbe13e8ee	-0.14444324
252	0x3d8449c5	0.06459383
253	0xbd93a027	-0.07208281
254	0x3f0e63b0	0.5562086
255	0x3d8d3d34	0.06896439

bn2.weight f4 [32]
0	0x3f3ea4f3	0.7447044
1	0x3fa889c1	1.3167039
2	0x3f747196	0.9548582
3	0x3fd3ad93	1.6537346
4	0x3fa2a765	1.2707335
5	0x3f49a594	0.7876828
6	0x3f9b1927	1.2117051
7	0x3f92a7dc	1.1457477
8	0x3fdd3d8e	1.728441
9	0x3fd29f91	1.6454946
10	0x3fcf6727	1.6203355
11	0x3fa0548d	1.2525803
12	0x3fa0a1c2	1.2549365
13	0x3fa95ec3	1.3232044
14	0x3f9d7812	1.2302268
15	0x3f6948a5	0.9112647
16	0x3fab6d68	1.3392763
17	0x4003e833	2.0610473
18	0x3fd85097	1.6899594
19	0x3f9e203d	1.2353588
20	0x3f97b2d7	1.1851453
21	0x3f98d782	1.1940768
22	0x3f58798e	0.8456048
23	0x3f4b3c84	0.79389215
24	0x3f9bf48b	1.2184004
25	0x3f820f55	1.0160929
26	0x3f68ef22	0.9098989
27	0x40188a95	2.3834584
28	0x3f8e7c9f	1.1131781
29	0x3f51fbe7	0.82025
30	0x3ff632d6	1.9234264
31	0x3ffa9a07	1.9578255

bn2.bias f4 [32]
0	0x3f657652	0.8963367
1	0xbf339514	-0.7014935
2	0x3f72a7df	0.947874
3	0x3e99ad6d	0.30015126
4	0x3ae7883a	0.00176645
5	0xbf29952c	-0.66243243
6	0x3f0a884b	0.54114217
7	0x3f08aa68	0.5338502
8	0x3ec571bf	0.38563344
9	0xbe9ca764	-0.3059646
10	0xbeee41bd	-0.4653453
11	0x3d62e5fd	0.055395115
12	0x3e6eed1d	0.23332639
13	0x3ec85bed	0.39132634
14	0xbdaf056d	-0.08545957
15	0xbf2b4b6d	-0.66911966
16	0x3f25a1bb	0.64699906
17	0x3e1b4766	0.15163955
18	0x3e492b50	0.19645429
19	0x3f12dbe3	0.5736677
20	0xbefe805e	-0.4970731
21	0xbdd9f220	-0.10641885
22	0xbee0ff20	-0.43944645
23	0x3f838837	1.0275944
24	0xbe415dc7	-0.1888343
25	0x3f089bc4	0.5336268
26	0x3f29d42c	0.66339374
27	0x3e7bb608	0.24581158
28	0x3f133ca2	0.57514393
29	0xbec8f070	-0.3924594
30	0x3e58bd68	0.21166003
31	0xbf9b4d96	-1.2133052

bn2.running_mean f4 [32]
0	0x3ef89470	0.4855075
1	0xbeefe101	-0.46851352
2	0x3e840275	0.25783125
3	0x3f0a156d	0.53938943
4	0x403f6c67	2.9909914
5	0x3f6b4639	0.91904026
6	0x3f540689	0.8282247
7	0x3f96dc1a	1.178592
8	0x3f076d04	0.5290072
9	0xbf5c22e2	-0.85990727
10	0xbf9c4ee1	-1.2211572
11	0x403cd384	2.95041
12	0x3feaa1d3	1.8330635
13	0x3fe84a84	1.814774
14	0x3fbf33f1	1.4937726
15	0x3f928efc	1.1449885
16	0x40362919	2.8462584
17	0x3f40fd6d	0.753867
18	0xbed34c6b	-0.4126924
19	0x3f6b8337	0.9199709
20	0xbe54bc3d	-0.20774932
21	0xbffd4264	-1.9785886
22	0x400fab40	2.2448273
23	0xbd9fd345	-0.07803968
24	0x3ff59a0c	1.9187636
25	0x3f12d94a	0.57362807
26	0x400d82bc	2.2111044
27	0x3fe036aa	1.7516682
28	0x403bd94c	2.9351377
29	0xbf834146	-1.0254295
30	0x404db73b	3.2143085
31	0x3fbfedf0	1.4994488

bn2.running_var f4 [32]
0	0x3f88257f	1.0636443
1	0x4001f99a	2.0308595
2	0x3f68f2d3	0.9099552
3	0x3fb485ae	1.4103296
4	0x40e47ac3	7.1399856
5	0x3f86cf08	1.0531931
6	0x3fc7b163	1.5601009
7	0x3fd849c8	1.6897516
8	0x4015b448	2.3391285
9	0x3f0eb410	0.55743504
10	0x3f28dc9f	0.6596164
11	0x410b8818	8.720726
12	0x3f83a0a3	1.0283397
13	0x3f926be3	1.1439174
14	0x3f97e1e7	1.1865815
15	0x3f02377a	0.508659
16	0x413a4233	11.641162
17	0x3f95ecb1	1.1712857
18	0x3fd24fdc	1.6430621
19	0x3ff5ac09	1.9193126
20	0x3fa9ee6a	1.3275883
21	0x4018bb1f	2.386421
22	0x3f9ab109	1.2085277
23	0x3f73c57c	0.9522321
24	0x405019a6	3.2515655
25	0x3ffbba11	1.9666158
26	0x413e4c68	11.893654
27	0x3f54cd3e	0.83125675
28	0x414e1652	12.880449
29	0x4005b6d7	2.0892847
30	0x4056f324	3.3585901
31	0x4048c35d	3.136924

fc.weight f4 [2, 32]
0	0xbf228c9e	-0.63495815
1	0x3f8e0e61	1.1098138
2	0xbf5a4b80	-0.85271454
3	0x3efcbf0a	0.493645
4	0xbe8dff6d	-0.27733937
5	0xbea1eb03	-0.31624612
6	0x3f0755c4	0.5286524
7	0x3f0b8c24	0.5451071
8	0x3ea85d07	0.32883474
9	0x3f494d93	0.78633994
10	0x3f49bfa3	0.7880804
11	0xbeabee01	-0.3358002
12	0xbeb64acf	-0.3560395
13	0xbe7d99ab	-0.24765651
14	0xbdc8c920	-0.098039865
15	0xbec529a9	-0.38508347
16	0xbf50cfa6	-0.81566846
17	0x3eefd6cb	0.46843562
18	0x3ef6d341	0.4820805
19	0x3f121025	0.57055885
20	0x3f34e5bf	0.70663065
21	0x3e753045	0.23944195
22	0xbe9b9179	-0.30384424
23	0xbef85c39	-0.4850786
24	0xbea2dcbd	-0.31809035
25	0x3ee6885e	0.45025915
26	0xbe940126	-0.28907126
27	0x3f86ece3	1.0541042
28	0xbee204f1	-0.44144395
29	0x3e94fee4	0.29100716
30	0x3f79c871	0.97571474
31	0xbfced2f2	-1.6158125
32	0x3f2f7c77	0.68549293
33	0xbf504f64	-0.8137114
34	0x3f2ad6dc	0.667341
35	0xbf226b59	-0.6344505
36	0x3eaa93cb	0.33315882
37	0x3ecb8c76	0.397556
38	0xbf097293	-0.5369045
39	0xbebf5c24	-0.37374985
40	0xbf22a0cf	-0.63526624
41	0xbf23c892	-0.6397792
42	0xbf069830	-0.5257597
43	0x3e93d1fa	0.28871137
44	0x3ed96006	0.42456073
45	0x3eff1431	0.49820092
46	0x3eba75b5	0.36417928
47	0x3ed228ed	0.4104685
48	0x3f247c32	0.64252007
49	0xbf4ec829	-0.8077417
50	0xbef0ed2c	-0.47055948
51	0xbeed44bc	-0.46341503
52	0xbf007c8b	-0.5019004
53	0xbeaf91d2	-0.3429094
54	0x3e67ef42	0.22649863
55	0x3f2375a5	0.63851386
56	0x3e60289a	0.21890488
57	0xbeeb15b3	-0.45914993
58	0x3ee18edf	0.44054314
59	0xbf809477	-1.0045308
60	0x3e929b9d	0.2863435
61	0xbec9a630	-0.39384604
62	0xbf615f3e	-0.88035953
63	0x3fc55016	1.5415065

fc.bias f4 [2]
0	0xbf0f8e16	-0.5607618
1	0x3f080dda	0.53146136
