models/best_model_GAT_MCC.pth (torch, 50978 bytes, 18 tensors)

conv1.att_src f4 [1, 1, 128]
0	0x3e97bc1a	0.29635698
1	0xbe07b1d9	-0.13251437
2	0xbe8d1025	-0.2755138
3	0xbf0b8e0c	-0.5451362
4	0xbfe0f7ff	-1.7575682
5	0x3d704d2a	0.05866734
6	0xbeb00d07	-0.3438494
7	0xbfc459f4	-1.5339952
8	0xbf06dd0b	-0.52681035
9	0x3f865e5f	1.049755
10	0xbf27d48a	-0.65558684
11	0x3fb5cb0e	1.4202592
12	0xbfabc4f2	-1.3419478
13	0x3e68f003	0.22747807
14	0x3ea36209	0.31910732
15	0xc01ad7c2	-2.4194188
16	0x3f917cdd	1.136623
17	0xbdefa8a2	-0.11702086
18	0xbe63f2f6	-0.22260651
19	0x3e553cc1	0.20823957
20	0x3e967d25	0.29392353
21	0x40879f89	4.2382245
22	0xbe3b2c9d	-0.18278737
23	0xbeb95916	-0.3620078
24	0xc00d5532	-2.208325
25	0x3f1ac6da	0.60459673
26	0x3e8bb1e1	0.27284148
27	0xbea67efd	-0.3251876
28	0xbf1af0b9	-0.60523564
29	0x403c71c4	2.9444437
30	0xbecca416	-0.39968938
31	0x3eb6f1c3	0.35731325
32	0xbf7c8183	-0.9863512
33	0xbf0f30a4	-0.55933595
34	0xbdf124ac	-0.11774573
35	0x3e8b8693	0.2725111
36	0xbe373ca0	-0.1789422
37	0xbebd030e	-0.36916393
38	0xbe94393d	-0.2894992
39	0xbf50fbaa	-0.8163401
40	0xc00f2d8b	-2.2371547
41	0x3de6ff4e	0.11279164
42	0x3f103966	0.56337583
43	0xbe8141d7	-0.25245544
44	0xbee67750	-0.45012903
45	0x3e6a1101	0.22858049
46	0xbf04ca84	-0.51871514
47	0xbf2d150b	-0.67610234
48	0x3e814b38	0.252527
49	0xc05b2f23	-3.424752
50	0x3fa43a26	1.2830245
51	0xc03a20d6	-2.9082541
52	0x4111796b	9.092143
53	0x3ed0f9b5	0.4081551
54	0x3e43e044	0.1912852
55	0xc03a1991	-2.9078104
56	0xbf066d32	-0.5251037
57	0xbdc84c0e	-0.09780131
58	0xbe3f543e	-0.1868448
59	0xbd322278	-0.043489903
60	0x3f923829	1.1423389
61	0x3e2f07c1	0.17092802
62	0x3fa88d58	1.3168135
63	0xc0c6491f	-6.196426
64	0x3f3a29cf	0.72720045
65	0xbec955ec	-0.39323366
66	0x3f354199	0.7080322
67	0xbed168c8	-0.40900254
68	0xbfff8351	-1.996195
69	0xbdd48244	-0.10376409
70	0x3fedc65b	1.8576158
71	0x3f1833e0	0.59454155
72	0x400eb917	2.230047
73	0x3ef6e533	0.4822174
74	0xbf73eaed	-0.95280343
75	0xbebfbf07	-0.3745043
76	0x3f17a20c	0.5923164
77	0xbebd0c8e	-0.3692364
78	0xbe9dfcaf	-0.30856845
79	0x3e1e28d4	0.15445262
80	0xbea14764	-0.3149978
81	0x3f1bc538	0.60847807
82	0xbe352c70	-0.17692733
83	0x3fa3a47e	1.2784574
84	0x3ee26814	0.4422003
85	0x3f4baed9	0.7956367
86	0xbe023373	-0.12714939
87	0x3ef54ac9	0.4790862
88	0xbe5754de	-0.21028468
89	0xbe0ef4b8	-0.1396054
90	0x40355d52	2.8338208
91	0xbf39a6c0	-0.72520065
92	0x3e8d225f	0.27565286
93	0x3de15944	0.11003354
94	0xbee124a5	-0.4397327
95	0x3f29f005	0.66381866
96	0xc05c259b	-3.4397953
97	0x3f93be56	1.1542461
98	0x3ecff354	0.40615332
99	0x3ea42b17	0.32064125
100	0x3f664a9c	0.89957595
101	0xbe206b1b	-0.15665857
102	0xbd99d325	-0.07510976
103	0x3f8ee2ef	1.1163005
104	0x3f4271a8	0.75954676
105	0x3e1d5e33	0.15367965
106	0x3dec796c	0.11546597
107	0xbeab2ab9	-0.33431032
108	0x3e64692e	0.22305748
109	0xbf132658	-0.5748038
110	0xbe9e5a2a	-0.30928165
111	0x3e78c8fa	0.24295416
112	0xbe9c51a3	-0.30531034
113	0xbee1d356	-0.4410655
114	0x3dfba108	0.12286574
115	0xbe665d4c	-0.22496527
116	0xbec6cca0	-0.3882799
117	0xc0a697d0	-5.206032
118	0x3ea67cf3	0.32517204
119	0xbf2673f1	-0.6502066
120	0xbef6ca31	-0.48201135
121	0xbfb4f4d7	-1.4137219
122	0xbe9e306f	-0.30896327
123	0x3fc3c147	1.5293359
124	0x40986830	4.762718
125	0xbd2da321	-0.0423919
126	0x3eb17530	0.3465972
127	0xbebb6444	-0.36599934

conv1.att_dst f4 [1, 1, 128]
0	0x3ebbe7a6	0.3670017
1	0xbec3e77e	-0.38262552
2	0xbe972ac3	-0.29524812
3	0x3db912cc	0.09036788
4	0xbdc76198	-0.097354114
5	0x3e664876	0.22488579
6	0x3d6de644	0.058080927
7	0x3d34fabc	0.04418443
8	0x3e0edbdf	0.13951062
9	0x3e811b63	0.25216207
10	0x3e321e0d	0.17394276
11	0xbd0265cc	-0.031835362
12	0x3e82bb27	0.2553341
13	0x3d9a82bc	0.07544467
14	0x3ebbb70d	0.36663094
15	0x3de15bf9	0.110038705
16	0xbd792174	-0.06082292
17	0xbef91ab0	-0.48653173
18	0x3e997e2d	0.29979077
19	0xbeea08dc	-0.45709884
20	0xbe0367b1	-0.12832524
21	0xbe4653ff	-0.1936798
22	0x3d667bfe	0.056270592
23	0x3da347e7	0.07972699
24	0x3e045e4e	0.129266
25	0x3e4608bb	0.19339268
26	0x3ebe7ec0	0.37206078
27	0xbe30565d	-0.17220445
28	0x3e78ffe9	0.24316372
29	0xbc172aad	-0.009226483
30	0x3eb5446d	0.35403767
31	0x3e31fac2	0.17380813
32	0x3e6ab6e8	0.22921336
33	0x3e87764c	0.2645744
34	0xbe0bc4fb	-0.13649361
35	0xbcdad07a	-0.026710737
36	0xbe842928	-0.2581265
37	0xbd0106e0	-0.031500697
38	0xbe330778	-0.17483318
39	0xbdb51fe4	-0.08843973
40	0xbdaabf56	-0.08337276
41	0x3effba04	0.49946606
42	0x3c2a6622	0.010400327
43	0xbe99d196	-0.30042714
44	0x3dff56cc	0.12467727
45	0x3f0c285f	0.547491
46	0xbd80552d	-0.06266246
47	0x3d6c8b66	0.05775013
48	0xbea4d3c5	-0.32192817
49	0x3db5e6e4	0.088819295
50	0xbde1cb2c	-0.1102508
51	0x3d6c739b	0.057727437
52	0xbbebd1f6	-0.00719666
53	0xbdf880da	-0.121339515
54	0x3d357f19	0.044310663
55	0x3e9880a6	0.2978565
56	0xbd9fa83f	-0.07795762
57	0x3e081631	0.13289715
58	0x3da63f72	0.0811757
59	0x3eb54b54	0.35409033
60	0x3d1797c7	0.03700998
61	0xbc064524	-0.008195195
62	0xbc81a5ff	-0.015826223
63	0x3cbc911b	0.02301841
64	0x3d8f1a04	0.06987384
65	0x3ec5be00	0.3862152
66	0xbdc10990	-0.09425652
67	0x3e292919	0.16519584
68	0x3d50cdfe	0.0509777
69	0x3dab1433	0.08353462
70	0xbd25b1b0	-0.04045266
71	0xbdf5de59	-0.120053
72	0xbdc71969	-0.097216435
73	0xbdbdd7aa	-0.0926965
74	0x3e3ce157	0.18445335
75	0x3e749862	0.23886254
76	0xbdd6c668	-0.10487062
77	0x3d0902c1	0.033449892
78	0x3e2f7bd4	0.1713708
79	0xbebca402	-0.36843878
80	0xbd55590a	-0.052086867
81	0xbe71e18c	-0.23621196
82	0x3e661480	0.22468758
83	0xbde5cfa9	-0.11221249
84	0x3e7a6c0c	0.24455279
85	0x3cf756e5	0.030192802
86	0xbe2e1afa	-0.17002478
87	0xbe9fe18f	-0.31226775
88	0xbec87659	-0.39152792
89	0x3e832bb2	0.25619274
90	0xbd7cb2bb	-0.06169389
91	0xbdef294f	-0.11677801
92	0xbf188d7f	-0.59590906
93	0x3ef69be4	0.4816581
94	0x3d9fc99d	0.078021266
95	0xbe586e28	-0.21135771
96	0x3e71f6e1	0.23629333
97	0xbe06dcc4	-0.13170153
98	0x3d6c8541	0.05774427
99	0xbdac2633	-0.084057234
100	0x3dcb08b7	0.099137716
101	0x3e94cef9	0.29064158
102	0xbd25f4da	-0.04051671
103	0x3e6ccf1a	0.23125878
104	0x3dba7386	0.091040656
105	0x3d18c4eb	0.03729717
106	0x3e4375c5	0.19087894
107	0xbe34d9ce	-0.17661211
108	0xbe06f21f	-0.131783
109	0x3e43ef4f	0.19134258
110	0xbdd1c4f7	-0.10242646
111	0x3e7d9ba1	0.24766399
112	0x3e2ee578	0.17079723
113	0x3e2b86a1	0.16750576
114	0x3ea68ea8	0.32530713
115	0xbd907cb3	-0.070550345
116	0x3e8e2d66	0.2776901
117	0xbd6eb41f	-0.058277246
118	0x3dde4515	0.1085302
119	0x3e86b244	0.2630788
120	0x3e309364	0.17243725
121	0xbe5a0cdf	-0.21293972
122	0xbc0d0f65	-0.008609627
123	0xbd9017b5	-0.07035772
124	0x3e643671	0.22286393
125	0xbd2bbc37	-0.041927543
126	0xbb6e6cba	-0.0036380724
127	0xbeb710cf	-0.3575501

conv1.bias f4 [128]
0	0xb997d327	-0.00028958285
1	0xba4a73b7	-0.00077229313
2	0x3b60f5cc	0.0034326194
3	0xbd20d07a	-0.03926132
4	0x3cbd31f2	0.023095105
5	0x3be622d2	0.007023194
6	0xbba5d7ab	-0.00506111
7	0x3c182a1c	0.009287383
8	0xba9205de	-0.0011140665
9	0x3db5ef5d	0.088835455
10	0x3b8fdf12	0.0043906057
11	0xbd3da600	-0.046300888
12	0x3d69bc67	0.05706444
13	0xbc66be10	-0.0140834
14	0xbe04044e	-0.12892267
15	0x3d7c69d1	0.061624352
16	0xbbb3c945	-0.0054866397
17	0xbacb9f62	-0.0015535171
18	0xbb7715de	-0.0037702243
19	0x391de438	0.00015057705
20	0x3dae8c82	0.085228935
21	0xbd30a421	-0.043125276
22	0x3c394432	0.011307763
23	0x3c086d9f	0.008326917
24	0xbcf65e67	-0.030074311
25	0xbda1b191	-0.07895196
26	0x3c329efd	0.010902164
27	0x3c1c7fd5	0.009551962
28	0xbce6fa32	-0.028195474
29	0x3db0d8a9	0.08635075
30	0x3b48f5ab	0.0030664008
31	0x3c83c351	0.016084345
32	0xbd4d4468	-0.050114065
33	0xbd54dc65	-0.051967997
34	0xbab5c7ae	-0.0013868713
35	0x3e4a603b	0.19763272
36	0xbad66d24	-0.0016359431
37	0x3cd8ce99	0.026465701
38	0xbb511fa6	-0.0031909733
39	0xbd0b84ac	-0.034062073
40	0xbd52db6f	-0.0514788
41	0x3ae08a31	0.0017131028
42	0xbc996b3c	-0.018727891
43	0x3a5c945c	0.0008414441
44	0xbb02fefc	-0.0019988408
45	0xbb8a3df4	-0.004218811
46	0x3cb3844f	0.021913676
47	0xbd84b625	-0.06480054
48	0x3bf9481d	0.0076074735
49	0xbda10854	-0.078629166
50	0xbd43470c	-0.047675177
51	0x3d1869db	0.037210327
52	0x3d9167e8	0.07099897
53	0x3d55af39	0.05216906
54	0xbcbb0f1b	-0.022834351
55	0x3d6c0698	0.057623476
56	0x3b19eb31	0.0023486132
57	0x3bf71cdc	0.007541282
58	0xbaead7a2	-0.0017917047
59	0xbad77100	-0.0016436875
60	0xbb963ef2	-0.0045851404
61	0xbc808378	-0.01568769
62	0xbaeb7a19	-0.0017965465
63	0xbd250e68	-0.040296942
64	0xbd86b6dc	-0.065778464
65	0xbaf9dccd	-0.0019062996
66	0x3da990fd	0.082796074
67	0xbcc712c5	-0.024300942
68	0x3dd2255d	0.10261033
69	0xbd377f56	-0.04479917
70	0x3be23f49	0.006904517
71	0xbcbe25b8	-0.023211345
72	0x3c933d24	0.01797349
73	0xbb614438	-0.0034372937
74	0x3d4341c5	0.047670145
75	0xbcd754d0	-0.026285559
76	0xbc5930c0	-0.013256252
77	0x3c4ee6bc	0.012628254
78	0xbc5197b4	-0.0127925165
79	0x3b77a21f	0.003778584
80	0xbc165987	-0.009176618
81	0x3b8d036a	0.0043033855
82	0xbc63c636	-0.013902238
83	0x3cebd1a6	0.028786492
84	0x3b91f30b	0.004454022
85	0xbc9235fa	-0.017848004
86	0x3b9803cd	0.004639125
87	0x3a09089c	0.0005227418
88	0x3ba4c04b	0.005027806
89	0x39c2f366	0.0003718391
90	0xbd9c500d	-0.07632456
91	0x3c018d71	0.007907257
92	0xbae6bb87	-0.0017603495
93	0x3c8781da	0.01654141
94	0x3c457a71	0.012053118
95	0xbc373051	-0.011180953
96	0xbdb923a3	-0.0904
97	0x3d0d41d0	0.03448659
98	0xbc0056bb	-0.007833178
99	0x3c94f54e	0.018183377
100	0x3c5c2f91	0.013439075
101	0xbc6e9c7d	-0.014563677
102	0x3c011dd3	0.007880646
103	0xbc460bc6	-0.012087768
104	0xbcd28fa5	-0.02570326
105	0xbc9f7ef1	-0.01946971
106	0x3bba19ee	0.0056793606
107	0xbd643c61	-0.055721644
108	0x3c9c917a	0.019112337
109	0x3b12dcc6	0.0022409423
110	0xbce197fc	-0.027538292
111	0x3d6935b6	0.05693599
112	0x3c9f7e70	0.01946947
113	0xbcbfa76f	-0.023395268
114	0x3ba02035	0.004886652
115	0xbafb7bf6	-0.0019186724
116	0xbcf01507	-0.029306902
117	0xbc608d53	-0.013705569
118	0xbc109281	-0.008823992
119	0x3cc06558	0.023485824
120	0x388557ba	6.3582745e-05
121	0x3c4cbd59	0.012496316
122	0xbbc07b0b	-0.005874043
123	0xbde34321	-0.11096788
124	0xbd68c013	-0.0568238
125	0x3c19d467	0.00938902
126	0x3ba913dc	0.005159838
127	0x3bf6966b	0.0075252554

conv1.lin.weight f4 [128, 8]
0	0x3f956e84	1.1674352
1	0x3dfc0d5e	0.12307237
2	0x3f9d368b	1.228227
3	0xbc379b1d	-0.0112064155
4	0xc15219fe	-13.131346
5	0x40974a02	4.727784
6	0x403b44e1	2.926079
7	0xc04b4a40	-3.1764069
8	0xc01faec6	-2.4950423
9	0xbfe8c6bd	-1.818565
10	0xc0195a95	-2.3961537
11	0x3c37a68a	0.01120914
12	0x411ec2e6	9.922583
13	0xc0b49416	-5.643077
14	0xc05dec61	-3.4675524
15	0x400efc88	2.2341633
16	0xbf559dec	-0.83444095
17	0x3ef15bca	0.47140342
18	0xbf7df972	-0.9920875
19	0x3c7d7039	0.0154686505
20	0x414d9114	12.847919
21	0xc084b49d	-4.1470475
22	0xbfc836e1	-1.5641748
23	0x400d32c4	2.2062235
24	0xbe1898c5	-0.14902027
25	0x3fe34187	1.7754372
26	0xbef4143e	-0.47671694
27	0x3d53fe2b	0.051756065
28	0x4177ff2b	15.499797
29	0xc067bb0a	-3.620791
30	0xbdadae87	-0.08480554
31	0x4036fa69	2.8590338
32	0x3d8784c1	0.06617118
33	0x4009d7b5	2.1537907
34	0x3e51b0ea	0.20477644
35	0x3da2c321	0.07947374
36	0x419841fc	19.032219
37	0xc04a9d27	-3.1658418
38	0x3d13cc93	0.03608377
39	0x4069caee	3.6530108
40	0x3fdd24e7	1.7276887
41	0x3f99348b	1.196916
42	0x3fe3ca84	1.7796178
43	0xbbc69cd0	-0.006061174
44	0xc0ac6fb8	-5.3886375
45	0x4099d504	4.807253
46	0x40750130	3.8281975
47	0xbfb6f768	-1.4294252
48	0xbf7343c6	-0.9502529
49	0x3f34354d	0.7039383
50	0xbf3ba949	-0.73305184
51	0xbc562287	-0.013069755
52	0x4161279d	14.072171
53	0xc068977b	-3.6342456
54	0xbf99c55a	-1.2013352
55	0x402125b5	2.5179265
56	0x3e2c0463	0.16798548
57	0x4021e36f	2.5295064
58	0x3e483121	0.19549991
59	0x3dacd69b	0.0843937
60	0x4195ff8b	18.749777
61	0xc03120d9	-2.7676299
62	0x3d535940	0.051598787
63	0x40635bd3	3.5524795
64	0x3eb1c0ce	0.3471741
65	0x40209f1b	2.509711
66	0x3f27dd93	0.6557247
67	0x3c6fe220	0.014641315
68	0x417e937f	15.91101
69	0xbffd80b8	-1.9804907
70	0x3e805fc0	0.2507305
71	0x403caf6d	2.9482071
72	0x3e29fd7c	0.16600603
73	0xbfebb75d	-1.8415333
74	0xbd6dc8d0	-0.058052838
75	0xbe596d9b	-0.21233217
76	0xc15a88c4	-13.65839
77	0x4003bb86	2.0583205
78	0xbe916180	-0.283947
79	0xc002722b	-2.0382183
80	0x3e099bae	0.13438293
81	0x4023d34f	2.5597723
82	0x3ed5d9c6	0.4176771
83	0xbd0e0c23	-0.034679543
84	0x417fd9d2	15.990679
85	0xc020d9d6	-2.5132957
86	0x3e9e3cca	0.30905753
87	0x402dd0a4	2.7158594
88	0x3df421bf	0.11920499
89	0xbfedbe72	-1.8573744
90	0x3bda33c6	0.006659004
91	0xbe122903	-0.14273457
92	0xc19500a7	-18.625319
93	0x4050a774	3.2602205
94	0x3e79a253	0.24378328
95	0xc05a1de9	-3.4080756
96	0x3d29f16c	0.041490003
97	0x4021695c	2.5220556
98	0x3ec1a6c7	0.37822554
99	0x3bd6d2b0	0.0065558776
100	0x4197002c	18.875084
101	0xc038b342	-2.885941
102	0xbdd89f6b	-0.105772816
103	0x405ea44e	3.4787784
104	0x3e631d9b	0.22179262
105	0xbfd47c5a	-1.6600449
106	0x3ef3a30f	0.4758534
107	0x3e903e62	0.28172594
108	0xc11f6dcc	-9.964306
109	0x4047cfce	3.1220584
110	0x3ec73282	0.38905722
111	0xbfd8a018	-1.6923857
112	0x40ea947b	7.330625
113	0x4022ecb7	2.545698
114	0x40f002a8	7.5003242
115	0xbb41a542	-0.0029547964
116	0xc1516bdc	-13.088833
117	0x41751a08	15.318855
118	0x40779657	3.868551
119	0xc18ffb6b	-17.997763
120	0x3e85c364	0.26125634
121	0x40099373	2.1496246
122	0x3c5f331d	0.013623026
123	0xbc3430e4	-0.010997985
124	0x419e1cb8	19.764023
125	0xc0349a9d	-2.8219368
126	0xbea037c3	-0.31292543
127	0x4075dcfa	3.8416123
128	0x3e15710d	0.14593907
129	0xc014842d	-2.3205674
130	0x3d42112f	0.04737967
131	0x3e71a319	0.23597373
132	0xc18f3154	-17.899086
133	0x403839c9	2.878527
134	0x3e9f6b34	0.31136477
135	0xc05c172c	-3.4389143
136	0xbfbed3f9	-1.4908439
137	0xbe3baf30	-0.18328547
138	0xbf9b4551	-1.2130529
139	0x3c0b09e9	0.0084862495
140	0x40e957fb	7.29199
141	0xc080ae20	-4.0212555
142	0xc0151d69	-2.32992
143	0x3f92dd32	1.1473753
144	0x4002d7f4	2.0444307
145	0x40901bc1	4.503388
146	0x3ffdbed1	1.9823858
147	0xbb1b9f74	-0.0023746165
148	0x4145eb24	12.369907
149	0x3f827f95	1.0195185
150	0x402c0697	2.6879022
151	0x3fe577d3	1.7927192
152	0xbf62ebd0	-0.8864107
153	0xc05d62bd	-3.4591515
154	0xbf99da25	-1.2019697
155	0x3c2f062e	0.010682626
156	0xc120248f	-10.008925
157	0x3f516593	0.81795615
158	0xbff1ce2c	-1.8891044
159	0xbfdcd07a	-1.7251122
160	0x3f003556	0.50081384
161	0xbffcbe2a	-1.9745533
162	0x3eb40d1e	0.35166258
163	0xbf38de43	-0.72214144
164	0xc13b3590	-11.700577
165	0x40409994	3.0093737
166	0x3f29179f	0.6605167
167	0xbff981f4	-1.9492784
168	0xbe1fd32e	-0.15607902
169	0xc02d1572	-2.704434
170	0xbe05c67a	-0.13063994
171	0x3d34d597	0.044149008
172	0xc1a743ac	-20.908043
173	0x40389646	2.884172
174	0x3dec12f9	0.11527056
175	0xc08cde4e	-4.402137
176	0x3fb2a227	1.3955735
177	0x405fd0c3	3.4971168
178	0x3f9e09c0	1.2346725
179	0xbe42a53b	-0.19008343
180	0x412d76dc	10.841518
181	0xbecb267d	-0.39677802
182	0x3fb53661	1.415722
183	0x3fdb4c49	1.7132655
184	0xbebf6b8d	-0.37386742
185	0x3fa5c300	1.2950134
186	0xbe5a0b3b	-0.21293347
187	0x3e5d3dc9	0.216056
188	0x4130c988	11.049202
189	0xc03b77fb	-2.929198
190	0x3ed2b232	0.41151577
191	0x3fd82196	1.688525
192	0x3e852977	0.26008198
193	0x4005c3c9	2.0900748
194	0x3dc538d2	0.09629978
195	0xbddad708	-0.10685545
196	0x419c1950	19.51236
197	0xc004bad1	-2.0739024
198	0xbd8d260f	-0.06892025
199	0x406ee95d	3.7329934
200	0x3e2163be	0.15760705
201	0xbfda643c	-1.7061839
202	0x3ebf18d2	0.37323624
203	0xbe5eb438	-0.21748435
204	0xc17b8c7d	-15.721799
205	0x406641f9	3.5977767
206	0x3e8f9d29	0.2804959
207	0xc02a49bb	-2.6607502
208	0x3f812a0d	1.0090958
209	0xbef4c077	-0.4780309
210	0x3f9c5fb3	1.2216705
211	0xbe2530e4	-0.16131932
212	0xc149722a	-12.590372
213	0x4080b111	4.0216146
214	0x3fc38fb0	1.5278225
215	0xc00bc51f	-2.1839063
216	0xbec192b1	-0.3780723
217	0x3f8b7e71	1.0897962
218	0xbeb9f157	-0.3631694
219	0xbd1e719e	-0.038682573
220	0x4141dfb0	12.117111
221	0xc052c6a4	-3.293374
222	0xbea4a016	-0.32153386
223	0x40060fff	2.0947263
224	0x3f32738f	0.6970758
225	0x405b74f8	3.4290142
226	0x3f30291a	0.68812716
227	0x3c6b50e4	0.014362548
228	0x41814bb3	16.161963
229	0xc0064936	-2.0982184
230	0x3f85ed80	1.0463104
231	0x4028d2bb	2.637862
232	0xbde32e33	-0.11092796
233	0xc00bf628	-2.1868992
234	0xbd8ef0d6	-0.069795296
235	0xbdda9d21	-0.10674501
236	0xc19f604f	-19.922026
237	0x40339b61	2.8063586
238	0x3eaf6d00	0.34262848
239	0xc0713f47	-3.7694871
240	0x3f99969f	1.1999091
241	0x4064bbfe	3.5739741
242	0x3f93f26f	1.155836
243	0x3d304d44	0.043042436
244	0x416f86a4	14.970371
245	0xbf8164aa	-1.0108845
246	0x3fb94c40	1.4476395
247	0x402dbd3f	2.7146757
248	0x3eeec0e0	0.46631527
249	0xbf45c0ed	-0.77247506
250	0x3f4d1ff9	0.8012691
251	0xbc65b450	-0.014020041
252	0xc15ac4c4	-13.6730385
253	0x405311d1	3.2979624
254	0x3fd498ff	1.6609191
255	0xc0261318	-2.5949154

bn1.weight f4 [128]
0	0x3ea7bde8	0.32762074
1	0x3f4d4dba	0.80196726
2	0x3f0e3240	0.55545425
3	0x3efd43af	0.494657
4	0x3f4b6b13	0.7946026
5	0x3f1b09a7	0.60561603
6	0x3f460296	0.77347696
7	0x3f203372	0.625785
8	0x3e3e124c	0.18561667
9	0x3f771379	0.9651409
10	0x3c9d0cee	0.019171204
11	0x3f09c80b	0.53820866
12	0x3f0e528b	0.555947
13	0x3f033829	0.5125757
14	0x4016967d	2.352935
15	0x3f2da558	0.6783042
16	0x3f12f654	0.57407117
17	0x3ed34ecb	0.41271052
18	0x3f31528f	0.692666
19	0x3ef340b1	0.47510293
20	0x3f94cbb5	1.1624666
21	0x3f640032	0.890628
22	0x3f2c9a17	0.6742262
23	0x3f928010	1.1445332
24	0x3f0d112f	0.55104345
25	0x3f652439	0.89508396
26	0x3f2a8f99	0.6662536
27	0x3ee33a9d	0.44380656
28	0x3ef30631	0.4746566
29	0x3f9077ae	1.1286523
30	0x3eb56e3e	0.3543567
31	0x3f56b2cd	0.8386658
32	0x3f11ae7c	0.5690687
33	0x3f28121e	0.65652645
34	0x3f283246	0.6570171
35	0x3faad510	1.3346272
36	0x3e49fcc9	0.19725336
37	0x3f611b19	0.8793197
38	0x3f223f89	0.63378197
39	0x3f18d6b0	0.5970259
40	0x3f31bac6	0.6942562
41	0x3ea60b9e	0.32430738
42	0x3ef6f8e8	0.48236775
43	0x3f45a2ea	0.7720171
44	0x3f198c38	0.5997958
45	0x3f142842	0.5787393
46	0x3f45ba45	0.7723735
47	0x3f109db8	0.5649066
48	0x3f0b9ca0	0.54535866
49	0x3ef3a687	0.47587988
50	0x3f175e1e	0.59127986
51	0x3f0fe597	0.562097
52	0x3f0029ae	0.500636
53	0x3f602aa6	0.87565076
54	0x3f6cbcac	0.9247539
55	0x3eba7d8b	0.36423907
56	0x3f36471f	0.7120227
57	0x3f0878db	0.5330941
58	0x3edca975	0.43098035
59	0x3f3834f6	0.7195581
60	0x3f255a04	0.6459048
61	0x3f1bbd02	0.6083528
62	0x3f20b1cc	0.62771297
63	0x3f802276	1.0010517
64	0x3ed80c4d	0.42196885
65	0x3ec2252a	0.3791898
66	0x3f74ed99	0.95675045
67	0x3f240621	0.6407185
68	0x3effff14	0.49999297
69	0x3eebd748	0.46062684
70	0x3f616496	0.88044107
71	0x3f04969b	0.51792306
72	0x3f91f552	1.1402991
73	0x3efdee16	0.49595708
74	0x3f64ee4c	0.8942611
75	0x3f15e094	0.58545804
76	0x3f006121	0.50148207
77	0x3eb25c18	0.34835887
78	0x3f4b5697	0.79429
79	0x3f07a5cb	0.52987355
80	0x3edad1d3	0.42738208
81	0x3efa7609	0.4891818
82	0x3fa90187	1.3203591
83	0x3f654b43	0.89567965
84	0x3ecff10e	0.40613598
85	0x3f4e94b8	0.80695677
86	0x3ebc9e92	0.3683973
87	0x3f4213b6	0.75811327
88	0x3f04294f	0.5162553
89	0x3f0055ef	0.50131124
90	0x3f92b985	1.1462866
91	0x3eb0ba05	0.34516922
92	0x3f09d038	0.5383334
93	0x3fa3bda0	1.2792244
94	0x3f3c24fb	0.7349393
95	0x3f1ab573	0.6043312
96	0x3f68dd4f	0.9096269
97	0x3f65b17f	0.8972396
98	0x3f02cf5e	0.5109767
99	0x3f6f41d9	0.9345985
100	0x3f8660c7	1.0498284
101	0x3f321cd9	0.6957527
102	0x3f5a452f	0.85261816
103	0x3f962960	1.1731377
104	0x3eebaf1a	0.4603203
105	0x3e0e4c6a	0.13896337
106	0x3ee67816	0.45013493
107	0x3f7b268b	0.98105687
108	0x3f10c673	0.5655281
109	0x3de72d5b	0.11287948
110	0x3eb54082	0.35400778
111	0x3f7137e0	0.94225883
112	0x3e6ef1bf	0.23334406
113	0x3f049e41	0.51803976
114	0x3eeab51b	0.45841298
115	0x3ee38109	0.44434384
116	0x3ecb03cc	0.39651334
117	0x3f7316f2	0.94956887
118	0x3e495446	0.19661054
119	0x3e9b9914	0.30390227
120	0x3e9b6533	0.30350646
121	0x3f2b4097	0.6689543
122	0x3ed5dd48	0.41770387
123	0x3f8ef164	1.1167417
124	0x3ef81297	0.48451683
125	0x3e24f2df	0.16108273
126	0x3f15489c	0.5831392
127	0x3f2ce6c4	0.6753962

bn1.bias f4 [128]
0	0x3f299b2d	0.66252404
1	0xbd296d09	-0.04136375
2	0xbeca434c	-0.39504468
3	0xbf251013	-0.6447765
4	0xbf166d6f	-0.5876073
5	0xbdf7a3cd	-0.120917894
6	0xbee004f3	-0.43753776
7	0xbf0f2b11	-0.5592509
8	0xbe0f6316	-0.14002642
9	0x3ef4cb08	0.4781115
10	0x3f022427	0.50836414
11	0x3e8b14a9	0.271642
12	0x3f1e3054	0.6179249
13	0xbf2345f3	-0.6377861
14	0x3fb14a25	1.3850752
15	0xbebab0a2	-0.36462885
16	0x3e1d86be	0.15383431
17	0xbf019e75	-0.5063241
18	0xbd3cf309	-0.046130214
19	0xbf00f04d	-0.5036667
20	0xbe092250	-0.13391995
21	0xbfbeb8e2	-1.4900172
22	0xbf378ae5	-0.7169631
23	0xbf993244	-1.1968465
24	0xbebbec9c	-0.36703956
25	0x3a637692	0.0008677031
26	0xbf35fcbf	-0.71088785
27	0x3d6eec99	0.058331106
28	0x3f084b9d	0.53240377
29	0xbec4baf4	-0.38423884
30	0xbec392b2	-0.38197857
31	0xbf04ccd9	-0.5187507
32	0x3ea4c679	0.32182673
33	0xbd979c37	-0.074028425
34	0xbe4870f5	-0.1957434
35	0xbfa3452e	-1.2755487
36	0xbd821e2e	-0.063534126
37	0xbf1a25c9	-0.60213906
38	0xbedab540	-0.42716408
39	0xbf16b0f1	-0.5886374
40	0xbe100b2c	-0.14066762
41	0xbe07be28	-0.13256133
42	0xbea68b9f	-0.32528397
43	0xbbc48d4e	-0.00599829
44	0xbed449ab	-0.41462454
45	0x3c99d475	0.018778065
46	0xbe897947	-0.2685034
47	0x3ed7a1da	0.4211567
48	0xbf17ac74	-0.5924752
49	0xbe1ec30b	-0.1550409
50	0xbe798f21	-0.24371006
51	0xbe9cf08e	-0.3065228
52	0xbd8ea7ad	-0.06965575
53	0x3eab910a	0.33509094
54	0xbeb73d81	-0.3578911
55	0xbf55dfd2	-0.8354465
56	0xbf19b621	-0.6004353
57	0xbeeb91ff	-0.46009824
58	0xbea4d6fd	-0.32195273
59	0xbeaf7a97	-0.34273216
60	0xbeb57aae	-0.3544516
61	0xbe463fec	-0.19360322
62	0xbe2fa3ce	-0.1715233
63	0xbf107533	-0.5642883
64	0xbf2a1551	-0.66438776
65	0xbe1e0ed7	-0.15435348
66	0xbf4594af	-0.7718
67	0xbccc04bf	-0.024904607
68	0x3f0dcc70	0.5539007
69	0x3e960c3e	0.29306215
70	0xbf3543ff	-0.7080688
71	0xbf161a2a	-0.58633673
72	0xbea2a6c0	-0.31767845
73	0xbf1b4c96	-0.60663736
74	0x3e83359d	0.2562684
75	0xbe8702e8	-0.26369405
76	0xbe86cae5	-0.2632667
77	0xbdef2d66	-0.11678581
78	0xbeb0cddb	-0.34532055
79	0xbe1eafff	-0.15496825
80	0xbf490ff9	-0.7854
81	0xbea46fd4	-0.32116568
82	0xbf97709e	-1.1831243
83	0xbdddfed3	-0.108396195
84	0xbe93a933	-0.28840026
85	0xbeb0fac1	-0.3456631
86	0xbe8fd36c	-0.2809099
87	0xbeb9e2e7	-0.36305925
88	0xbec67166	-0.3875839
89	0xbebe7f13	-0.37206325
90	0xbf713eb1	-0.94236284
91	0xbf047635	-0.5174287
92	0xbe9f4809	-0.31109646
93	0xbe4eb258	-0.2018522
94	0xbe9d6054	-0.30737555
95	0xbece899b	-0.4033936
96	0xbed5ea3d	-0.41780272
97	0xbf29625c	-0.6616571
98	0xbdaee4b7	-0.08539718
99	0xbf0180ef	-0.5058736
100	0xbefe793b	-0.49701867
101	0xbdce91cc	-0.10086402
102	0xbdf2f8de	-0.11863874
103	0xbf4bcf50	-0.7961321
104	0xbc387c9c	-0.011260178
105	0x3e148add	0.14506097
106	0xbe741841	-0.23837377
107	0xbe8a98cf	-0.2706971
108	0xbec3167b	-0.3810309
109	0x3d92d80b	0.07170113
110	0xbec91da7	-0.39280435
111	0x3ea3f769	0.32024696
112	0xbed40961	-0.41413406
113	0x3f141da0	0.57857704
114	0xbe9d1b36	-0.30684823
115	0xbf22506d	-0.6340397
116	0xbeeb9ff2	-0.46020466
117	0xbf19a2b9	-0.6001392
118	0xbe2bd84f	-0.16781734
119	0x3eabda35	0.33564916
120	0xbeba03b0	-0.36330938
121	0xbf363b76	-0.7118448
122	0xbf444967	-0.76674503
123	0xbf52d3a6	-0.823542
124	0x3f06cdca	0.5265776
125	0xbf2857c0	-0.65758896
126	0xbe675db8	-0.22594345
127	0xbe9428ed	-0.28937474

bn1.running_mean f4 [128]
0	0xc35f37a5	-223.21736
1	0x434c5490	204.33032
2	0x4395c825	299.56363
3	0x446d7fc0	949.9961
4	0x44b4aaf4	1445.3423
5	0xc2f71790	-123.54602
6	0xc35541e2	-213.25735
7	0x44bfa2f9	1533.0929
8	0x43917fec	290.9994
9	0xc56e4e3f	-3812.8904
10	0xc4130ead	-588.2293
11	0xc520bf43	-2571.9539
12	0x432ed336	174.82504
13	0x459c0f0e	4993.882
14	0xc205fd60	-33.497437
15	0xc32631a5	-166.19392
16	0x45828a9a	4177.325
17	0x432d90b5	173.56526
18	0xc24940a0	-50.31311
19	0x435543fc	213.26556
20	0xc6498357	-12896.835
21	0x443d8401	758.06256
22	0xc5510dbb	-3344.8582
23	0x45726de5	3878.8684
24	0xc4ea785a	-1875.761
25	0xc573fa09	-3903.6272
26	0xc534e13e	-2894.0776
27	0xc4268916	-666.14197
28	0x4385c41f	267.5322
29	0xc4f14e5a	-1930.4485
30	0x44480aa0	800.166
31	0xc388e151	-273.76028
32	0x44ef67b2	1915.2405
33	0xc4fd6d2c	-2027.4116
34	0xc37917c6	-249.09286
35	0xc672de73	-15543.612
36	0xc35f7d14	-223.48859
37	0xc5878431	-4336.524
38	0xc5571286	-3441.1577
39	0x43885d2f	272.728
40	0x449cf591	1255.674
41	0xc3349400	-180.57812
42	0xc3a078f8	-320.94507
43	0xc3871379	-270.15213
44	0x4384ac32	265.34528
45	0xc2e49b6b	-114.30355
46	0xc490168d	-1152.7047
47	0xc5587758	-3463.459
48	0x451c6f9d	2502.9758
49	0x44281987	672.39886
50	0xc4925f9f	-1170.9882
51	0xc48c6e37	-1123.4442
52	0x444b98a4	814.385
53	0xc5bdf273	-6078.306
54	0xc318a644	-152.64948
55	0xc37f4c6e	-255.29855
56	0x44a7aec1	1341.461
57	0x43533903	211.2227
58	0xc38854d6	-272.66278
59	0xc2d20ad9	-105.02119
60	0xc485cb8d	-1070.361
61	0x438d41e2	282.5147
62	0x44855e75	1066.9518
63	0x4442d1a1	779.27545
64	0x45908b27	4625.394
65	0xc35d8393	-221.51396
66	0xc5ce9677	-6610.808
67	0x4565604e	3670.019
68	0x452af46c	2735.2764
69	0xc617b59c	-9709.402
70	0xc55bafdb	-3514.991
71	0x44972e3e	1209.4451
72	0x453fa4ba	3066.2954
73	0x457c3cd0	4035.8008
74	0x453f9109	3065.0647
75	0x43ad455a	346.5418
76	0x4308b12c	136.69208
77	0xc38a9e13	-277.23495
78	0xc3322727	-178.15294
79	0xc2ae810d	-87.25205
80	0x43d95c4f	434.72116
81	0xc388cc17	-273.59445
82	0xc49fad29	-1277.4113
83	0x45b40331	5760.399
84	0xc3a23099	-324.37967
85	0xc3c27dd8	-388.98315
86	0xc386de9a	-269.73907
87	0xc453431a	-845.04846
88	0xc384ce2e	-265.61078
89	0xc3830a53	-262.08066
90	0x456282e7	3624.1814
91	0x43458033	197.50078
92	0x439277e4	292.93665
93	0xc2f66de1	-123.21461
94	0xc48157fe	-1034.7498
95	0xc580cd35	-4121.651
96	0xc49bbf1c	-1245.9722
97	0x459f5844	5099.033
98	0x435dae74	221.68146
99	0xc4bf0d9d	-1528.4254
100	0xc559e2b0	-3486.168
101	0xc396f3a3	-301.9034
102	0x4380fac7	257.9592
103	0x45590698	3472.412
104	0x4507e926	2174.5718
105	0x43810b25	258.08707
106	0x42f73e39	123.62153
107	0xc5b0e441	-5660.5317
108	0xc5b1aa53	-5685.2905
109	0xc3598895	-217.53352
110	0xc38bed18	-279.8523
111	0xc5af4020	-5608.0156
112	0x4413665e	589.5995
113	0xc36db0fb	-237.69133
114	0xc4aa4d5c	-1362.4175
115	0x436f523d	239.32124
116	0x435130bb	209.19035
117	0x44858552	1068.1663
118	0xc486d7e3	-1078.7465
119	0x427ab225	62.67397
120	0x43a4a2e1	329.2725
121	0x447d6166	1013.52185
122	0xc3955069	-298.6282
123	0xc5959791	-4786.946
124	0x4533cfd2	2876.9888
125	0x442b5681	685.3516
126	0x4360720d	224.44551
127	0xc3afecc0	-351.8496

bn1.running_var f4 [128]
0	0x4724d9ba	42201.727
1	0x470f1f0b	36639.043
2	0x478f247a	73288.95
3	0x492f560f	718176.94
4	0x49ca3742	1.6565522e+06
5	0x465f8aed	14306.731
6	0x470bdaeb	35802.918
7	0x49e37f71	1.8636621e+06
8	0x47817ea5	66301.29
9	0x4b2fffa9	1.1534249e+07
10	0x4886b941	275914.03
11	0x4aa03c58	5.250604e+06
12	0x46d2cc99	26982.299
13	0x4b96e678	1.97788e+07
14	0x453ac6a3	2988.4148
15	0x46a9f860	21756.188
16	0x4b53424c	1.3845068e+07
17	0x46c7b48e	25562.277
18	0x4544a462	3146.274
19	0x47145878	37976.47
20	0x4cfbd2d6	1.3202808e+08
21	0x48dee07e	456451.94
22	0x4b07a7e8	8.890344e+06
23	0x4b363110	1.1940112e+07
24	0x4a2a76da	2.7928865e+06
25	0x4b38a2b3	1.2100275e+07
26	0x4acb5455	6.6626985e+06
27	0x48abd882	351940.06
28	0x4758e361	55523.38
29	0x4a348c00	2.95808e+06
30	0x48f5318f	502156.47
31	0x4770a132	61601.195
32	0x4a315458	2.905366e+06
33	0x4a46ee15	3.2592692e+06
34	0x47359cf2	46492.945
35	0x4d36e514	1.9177914e+08
36	0x47168819	38536.098
37	0x4b6397df	1.4915551e+07
38	0x4b0f2420	9.380896e+06
39	0x4767791b	59257.105
40	0x4998aa6c	1.2506375e+06
41	0x46e2fdb9	29054.861
42	0x47a0813f	82178.49
43	0x4758df3e	55519.242
44	0x4751cff0	53711.938
45	0x4648b291	12844.642
46	0x49808bda	1.0530512e+06
47	0x4b11521b	9.523739e+06
48	0x4a980583	4.9814415e+06
49	0x48af2c45	358754.16
50	0x4984a57c	1.0866395e+06
51	0x4974a76c	1.00210275e+06
52	0x49007f53	526325.2
53	0x4bdfd213	2.9336614e+07
54	0x46a8e7df	21619.936
55	0x474a912f	51857.184
56	0x49af29ef	1.4349419e+06
57	0x470351f0	33617.938
58	0x4772c660	62150.375
59	0x4635e69a	11641.65
60	0x495d514b	906516.7
61	0x476e363a	60982.227
62	0x495cb127	903954.44
63	0x48eb515c	481930.88
64	0x4b817c9e	1.6972092e+07
65	0x471f890b	40841.043
66	0x4c045ac9	3.4695972e+07
67	0x4b233021	1.0694689e+07
68	0x4ab529e1	5.9363685e+06
69	0x4c8eccef	7.48686e+07
70	0x4b159c24	9.804836e+06
71	0x498e31e3	1.1648604e+06
72	0x4ae3c653	7.4637215e+06
73	0x4b4548bc	1.2929212e+07
74	0x4ae34924	7.447698e+06
75	0x47b6c7ab	93583.336
76	0x46938bc5	18885.885
77	0x4778b396	63667.586
78	0x46d98c15	27846.041
79	0x45ad9fdf	5555.984
80	0x480fbda3	147190.55
81	0x475c8728	56455.156
82	0x49a02509	1.3119051e+06
83	0x4bc8ec43	2.6335366e+07
84	0x47a7cb45	85910.54
85	0x47e854a4	118953.28
86	0x475a2456	55844.336
87	0x49075cc2	554444.1
88	0x4752564b	53846.293
89	0x475e7212	56946.07
90	0x4b1f17c5	1.0426309e+07
91	0x46f73c85	31646.26
92	0x478afaf9	71157.945
93	0x4673f087	15612.132
94	0x494df630	843619.0
95	0x4b4d81ae	1.3468078e+07
96	0x49965ead	1.2318296e+06
97	0x4b9d75e2	2.063866e+07
98	0x4727c426	42948.15
99	0x49e0d14a	1.8417052e+06
100	0x4b134189	9.650569e+06
101	0x47961ccb	76857.586
102	0x475a1f82	55839.508
103	0x4b120a05	9.570821e+06
104	0x4a651286	3.7531215e+06
105	0x474a3b51	51771.316
106	0x4628039e	10752.904
107	0x4bc200b0	2.542832e+07
108	0x4bc37f03	2.562407e+07
109	0x471a5cb4	39516.703
110	0x4770f506	61685.023
111	0x4bbe9ab1	2.4982882e+07
112	0x4885504f	273026.47
113	0x473636ff	46646.996
114	0x49b525e1	1.4839641e+06
115	0x472a79d4	43641.83
116	0x4705a4b3	34212.7
117	0x495d0112	905233.1
118	0x49629ec0	928236.0
119	0x45843b0b	4231.3804
120	0x47a94185	86659.04
121	0x4946a26d	813606.8
122	0x47878768	69390.81
123	0x4b8ab5b7	1.8180974e+07
124	0x4ac875b1	6.5686645e+06
125	0x48b588ae	371781.44
126	0x472262a0	41570.625
127	0x47ba7e94	95485.16

conv2.att_src f4 [1, 1, 64]
0	0x407a95a2	3.9153829
1	0x40540c6a	3.3132577
2	0x407434b3	3.8157165
3	0x4068284b	3.6274593
4	0xc05fd5cf	-3.4974248
5	0xc030c9d0	-2.7623177
6	0x40236e99	2.5536253
7	0xc042fe7f	-3.0467832
8	0x405c5553	3.4427078
9	0xc04f2b29	-3.2370093
10	0x404c267a	3.1898484
11	0x4042f4a5	3.046182
12	0x4086133f	4.1898494
13	0x402d5094	2.708043
14	0x400e52ba	2.2237992
15	0x4042b926	3.0425506
16	0xc042d63b	-3.0443256
17	0x4044ba5d	3.0738747
18	0x4050e25f	3.2638166
19	0xbfe382c7	-1.7774285
20	0xc079012c	-3.8906965
21	0xc05ce614	-3.4515429
22	0xc065edf0	-3.5926476
23	0xc0313af6	-2.7692237
24	0x40152b3f	2.3307645
25	0xbd835b18	-0.06413859
26	0xc01a519d	-2.4112313
27	0xc0306cc5	-2.7566388
28	0x3fd6222b	1.6729177
29	0x3fd46e7b	1.6596216
30	0xc046e268	-3.1075687
31	0x406bc482	3.683869
32	0xc0576deb	-3.3660839
33	0xc05108bf	-3.2661588
34	0xbffb7e20	-1.9647865
35	0xc02f3c22	-2.7380452
36	0xc04cd89f	-3.2007215
37	0xc085ae18	-4.1775017
38	0x403d542e	2.958263
39	0x403077ab	2.757304
40	0x403d95d6	2.9622703
41	0xc081e6f8	-4.0594444
42	0x4053e99b	3.3111331
43	0xc07d4a10	-3.9576454
44	0x3fccbd2d	1.5995232
45	0xc0801766	-4.0028563
46	0x3f3bf46a	0.7341982
47	0xc070c465	-3.761987
48	0xc03bfc2e	-2.9372668
49	0xc055900a	-3.3369164
50	0xc008cbaa	-2.1374307
51	0x4071f451	3.780537
52	0x40790c3f	3.8913724
53	0xc06c8c9e	-3.6960826
54	0xc0273824	-2.6128016
55	0x40387853	2.882344
56	0x4087e4d9	4.2466855
57	0xc03e2671	-2.9710963
58	0xc05a413a	-3.410231
59	0xbff09c05	-1.8797613
60	0x40299a60	2.6500473
61	0xc0498e38	-3.1493053
62	0xc062021a	-3.5313783
63	0xc06a07a7	-3.656717

conv2.att_dst f4 [1, 1, 64]
0	0x3e2bffba	0.1679677
1	0xbe98aa4a	-0.2981742
2	0xbe3cb141	-0.18426992
3	0xbddf90b9	-0.109162755
4	0x3ef59b8f	0.47970244
5	0x3df0f569	0.11765558
6	0x3e9a9d2c	0.30198038
7	0xbe59ac5c	-0.21257156
8	0xbedb6b0c	-0.42855108
9	0x3eb09eb7	0.3449609
10	0xbe601604	-0.21883398
11	0xbe4c5196	-0.19952998
12	0x3ec9294a	0.39289314
13	0xbee5c800	-0.4487915
14	0xbf073ad6	-0.5282415
15	0x3e7359de	0.2376475
16	0x3e86a18c	0.26295125
17	0xbdab21a5	-0.083560266
18	0x3e476e97	0.1947578
19	0x3e66ce6c	0.22539681
20	0xbdceda32	-0.10100211
21	0x3eec6878	0.46173453
22	0xbe8cc928	-0.2749722
23	0x3e96c59f	0.29447648
24	0xbe831700	-0.25603485
25	0x3d7cdda9	0.06173483
26	0x3e3e7560	0.18599463
27	0xbe3d09c2	-0.18460754
28	0x3e6b7d33	0.22996978
29	0xbc179b76	-0.009253373
30	0x3db379d6	0.08763473
31	0xbe53da77	-0.20688806
32	0xbe22e38f	-0.15907119
33	0x3e7d3bf2	0.24729899
34	0x3e84c4ba	0.2593134
35	0x3e3bd5de	0.18343303
36	0xbe0f9662	-0.1402221
37	0x3f047d62	0.5175382
38	0xbed20f4d	-0.410273
39	0xbdaea421	-0.08527399
40	0xbe9a9790	-0.30193758
41	0x3e3a08f3	0.18167476
42	0xbe7d0711	-0.24709727
43	0x3d971143	0.07376339
44	0x3d6aabc0	0.0572927
45	0xbd158305	-0.036501903
46	0xbed94fde	-0.42443746
47	0x3ed294ea	0.41129237
48	0xbe21acd1	-0.1578858
49	0x3e0a6576	0.13515267
50	0xbd5570dc	-0.052109584
51	0x3dbccbbf	0.09218549
52	0xbdfb834c	-0.12280902
53	0xbd051429	-0.03248993
54	0xbe7691d0	-0.2407906
55	0xbe917c42	-0.28415114
56	0x3ddc745d	0.10764382
57	0x3e9d1b90	0.3068509
58	0x3ed9c00a	0.42529327
59	0xbdc4e987	-0.09614854
60	0x3e112f08	0.14178097
61	0x3db648cd	0.089006044
62	0x3e5c3b21	0.21506931
63	0xbe17a7f0	-0.14810157

conv2.bias f4 [64]
0	0xbdcf178d	-0.10111914
1	0xbd5231c4	-0.05131699
2	0xbd678539	-0.056523535
3	0xbd9344a2	-0.07190825
4	0x3e26f7f2	0.16305521
5	0x3de9f1e2	0.114230886
6	0x3d8fcf35	0.070219435
7	0xbe8bdc95	-0.27316728
8	0x3da4d883	0.08049109
9	0xbd5c2612	-0.053747244
10	0x3cb3c666	0.02194519
11	0xbcd581bf	-0.026062844
12	0xbd844810	-0.06459057
13	0xbda8ad3c	-0.08236167
14	0xbca0405e	-0.019561943
15	0x3d9f9c58	0.07793492
16	0xbefe4cf4	-0.49668086
17	0xbd204db4	-0.039136603
18	0xbd4748cd	-0.048653413
19	0xbd2c5f8a	-0.0420833
20	0xbc3e295b	-0.01160654
21	0x3e8b928d	0.27260247
22	0x3b7a346f	0.0038178226
23	0xbe802dba	-0.25034887
24	0xbda92f74	-0.08261004
25	0x3d7555dd	0.05989634
26	0x3df1aca4	0.11800507
27	0xbe4f5808	-0.20248425
28	0xbd47bb3f	-0.048762556
29	0x3e0c2cfb	0.13689034
30	0x3b563991	0.003268812
31	0xbe6040a3	-0.21899657
32	0x3d96867d	0.0734987
33	0x3d86f76b	0.0659016
34	0xbf0510de	-0.5197886
35	0x3bf1e200	0.0073816776
36	0x3e7be69a	0.24599686
37	0xbd3bb936	-0.045830928
38	0xbd04884e	-0.032356553
39	0x3ca75807	0.020427717
40	0x3d9037d9	0.07041902
41	0x3c25c9b2	0.010118889
42	0xbebdf33b	-0.37099633
43	0x3cd87330	0.026422113
44	0xbc741be3	-0.014899227
45	0x3c223bba	0.009901935
46	0xbdd59fc8	-0.104308665
47	0x3deadfda	0.114684775
48	0x3d3974fc	0.04527758
49	0x3e50beda	0.20385304
50	0xbe707d73	-0.23485355
51	0xbda46281	-0.08026601
52	0xbe241ea9	-0.16027321
53	0x3ded76ba	0.11594911
54	0xbcc6f700	-0.0242877
55	0x3d8d7de0	0.069087744
56	0x3e5ca49c	0.21547168
57	0xbd20d56c	-0.039266035
58	0x3e013c0a	0.1262056
59	0xbe3228e5	-0.17398413
60	0x3b80db98	0.0039324276
61	0xbea8b0cd	-0.32947388
62	0x3d6b5c5e	0.057461135
63	0x3b2b8a4b	0.0026174958

conv2.lin.weight f4 [64, 128]
0	0x3dbf0b8d	0.09328375
1	0xbd99705f	-0.07492136
2	0x3dacb980	0.08433819
3	0xbd805b83	-0.062674545
4	0x3e4e1ae3	0.20127444
5	0x3d4e847d	0.05041932
6	0xbc74eefb	-0.0149495555
7	0x3e3eb603	0.1862412
8	0x3e4c539f	0.19953774
9	0xb885b86a	-6.376284e-05
10	0x3ddcd511	0.10782827
11	0xbd5bdf8b	-0.053679984
12	0x3eae1db4	0.34007037
13	0xbcbe6855	-0.023243109
14	0x3d16630b	0.03671555
15	0x3e867509	0.26261166
16	0x3f000a28	0.500155
17	0x3deddc0a	0.11614235
18	0x3e94ef8b	0.29089007
19	0x3dcfa0b8	0.101380765
20	0x3c6bcb89	0.014391788
21	0xbf3f6e44	-0.74777627
22	0x3d835be2	0.0641401
23	0xbec461b7	-0.383558
24	0x3e335a3f	0.17514895
25	0x3dcc3d52	0.099726334
26	0xbe16ccc2	-0.14726546
27	0x3ce93bab	0.028470835
28	0x3e229bc3	0.15879731
29	0x3e8a0fe2	0.26965243
30	0x3dc6b59d	0.09702609
31	0x3df7121b	0.12064
32	0x3eca84e5	0.39554515
33	0x3e12a026	0.14318904
34	0xbd589493	-0.052876066
35	0x3ea8c140	0.32959938
36	0x3dc6aade	0.09700559
37	0x3e8fd397	0.28091118
38	0x3e87bf72	0.2651325
39	0x3dc3efc4	0.09567216
40	0x3ef7f43a	0.48428518
41	0x3dfb2a25	0.12263898
42	0x3e1210ea	0.14264265
43	0xbe5f1d1d	-0.2178845
44	0x3e7445b1	0.2385471
45	0xbcbd4249	-0.023102896
46	0xbe39c2cd	-0.18140717
47	0x3d5045aa	0.050847687
48	0xbdb713e7	-0.08939343
49	0x3ee8714b	0.45398936
50	0x3e33c5f0	0.17555976
51	0x3e814bf7	0.2525327
52	0x3e1b8861	0.15188743
53	0xbe198b44	-0.14994532
54	0x3ea48013	0.32128963
55	0xbd9fa1dc	-0.07794544
56	0x3e30e596	0.1727508
57	0x3ec2a784	0.3801843
58	0x3e7f1fbf	0.24914454
59	0xbad9d348	-0.0016618753
60	0xbd8a349b	-0.06748315
61	0x3eed202f	0.46313617
62	0x3e3924aa	0.18080392
63	0x3e7af587	0.24507724
64	0x3dc06f68	0.09396249
65	0x3e6cd5a4	0.23128372
66	0x3f03128a	0.51200163
67	0x3ece5d21	0.40305427
68	0x3e0ac3de	0.1355128
69	0xbbca89a0	-0.006180957
70	0x3e9cb104	0.30603802
71	0x3c45463a	0.012040669
72	0x3b906edd	0.004407747
73	0x3d85f318	0.06540507
74	0x3eb3570d	0.35027352
75	0x3eaa41f1	0.33253434
76	0xbd150983	-0.036386024
77	0x3d949fd3	0.072570466
78	0x3eb00e53	0.3438593
79	0x3d408c9c	0.047009096
80	0x3d92512c	0.071443886
81	0xbbed2395	-0.0072369077
82	0x3f130474	0.5742867
83	0x3ea3dce9	0.3200448
84	0x3eb766cd	0.35820618
85	0x3d7affee	0.06127923
86	0xbe4bbc51	-0.19896056
87	0x3e70c4aa	0.23512521
88	0x3d2ec1a7	0.04266515
89	0x3e44fdf3	0.19237499
90	0xbe06bb91	-0.13157488
91	0xbb0b2637	-0.0021232495
92	0xbe11a823	-0.14224295
93	0x3dd05d91	0.101740964
94	0x3e70413c	0.23462385
95	0x3bfb78e5	0.007674324
96	0xbcde4ae8	-0.027135327
97	0x3e3c8dbf	0.18413447
98	0x3d4bfaa5	0.04979958
99	0x3f052520	0.52009773
100	0x3e8ca338	0.27468276
101	0x3ea83853	0.32855472
102	0xbd99bb3f	-0.075064175
103	0xbbd5f9d1	-0.0065300246
104	0x3e397571	0.18111207
105	0x3d1ef4b6	0.038807593
106	0x3ea11efc	0.31468952
107	0x3e952a6d	0.2913393
108	0xbd3c2816	-0.045936666
109	0x3dd94b19	0.10610027
110	0x3e11c308	0.14234555
111	0x3a518b4d	0.0007993475
112	0x3e3d92d8	0.18513048
113	0x3da49644	0.080364734
114	0x3e155df4	0.14586622
115	0x3e4e19e7	0.20127068
116	0x3e033ca2	0.12816098
117	0x3e64976a	0.22323385
118	0x3d3ddc5f	0.04635274
119	0x3bd7e0e8	0.00658809
120	0xbe0727c9	-0.1319877
121	0x3e8a900b	0.2706302
122	0xbde7cb0f	-0.11318027
123	0x3f0d19fb	0.5511777
124	0x3e9b7722	0.3036433
125	0x3dac355d	0.08408616
126	0x3d85e233	0.06537285
127	0xbe6704a5	-0.22560365
128	0x3e144814	0.1448062
129	0xbe8148eb	-0.25250944
130	0xbd32e4eb	-0.043675344
131	0xbe863b3a	-0.2621706
132	0xbe43511f	-0.19073914
133	0xbd4bffba	-0.049804427
134	0x3d886df1	0.06661595
135	0xbd9ddaa5	-0.07707719
136	0xbcc2212f	-0.023697464
137	0xbe8088de	-0.2510442
138	0xbd0d77f8	-0.03453824
139	0xbe4250c4	-0.18976122
140	0x3e28745d	0.16450639
141	0xbec68e6f	-0.38780543
142	0x3f7f6781	0.9976731
143	0xbdab73c1	-0.08371688
144	0x3d12d3a7	0.03584638
145	0xbda692a0	-0.08133435
146	0x3dd12e2a	0.10213883
147	0xbdf6e648	-0.120556414
148	0xbda2c2f8	-0.079473436
149	0x3e89cca3	0.26913938
150	0xbeb7f590	-0.35929537
151	0xbe596ae0	-0.21232176
152	0x3e722c95	0.23649819
153	0xbec4b808	-0.38421655
154	0xbe855ea4	-0.26048768
155	0xbdfcebb6	-0.12349646
156	0x3df35b87	0.11882692
157	0xbdf6cac9	-0.12050397
158	0x3e6a9ec3	0.22912125
159	0x3e881494	0.265782
160	0x3eee576f	0.46551082
161	0x3d44144b	0.047870915
162	0xbe2e8115	-0.17041428
163	0xbe693034	-0.22772294
164	0xbcdec120	-0.027191699
165	0x3ebf5bb3	0.37374648
166	0x3e4c263e	0.19936463
167	0xbd8fbd02	-0.07018472
168	0xbda00e41	-0.07815219
169	0xbd999905	-0.07499889
170	0xbe029dbf	-0.12755488
171	0xbe0101cf	-0.12598346
172	0xbd97447e	-0.07386111
173	0xbcf19bc8	-0.029493228
174	0xbd50b505	-0.050953884
175	0xbedceb67	-0.43148348
176	0xbe8d82bd	-0.27638808
177	0x3e53349a	0.20625535
178	0xbe053b2c	-0.13010854
179	0xbdc605ef	-0.096691005
180	0x3df240a7	0.11828738
181	0xbea35518	-0.3190086
182	0x3dc7636f	0.09735762
183	0xbee2647c	-0.44217288
184	0xbd81b179	-0.06332678
185	0x3e151967	0.14560471
186	0x3e33e233	0.17566757
187	0x3e7304ea	0.23732343
188	0xbeaa808f	-0.33301207
189	0xbd9ab5a2	-0.07554175
190	0xbce7ad88	-0.028280988
191	0x3df62959	0.12019605
192	0xbec9a66f	-0.3938479
193	0x3b4cdb9f	0.0031258834
194	0x3e126f26	0.14300212
195	0x3d30c117	0.043152895
196	0x3e7b10b4	0.2451809
197	0xbe13de42	-0.14440253
198	0x3ebbeba9	0.36703232
199	0xbe7fc1ab	-0.24976222
200	0x3e46bb5b	0.19407408
201	0xbe96c9a2	-0.2945071
202	0x3e8b002b	0.27148566
203	0x3d6e49ac	0.058175728
204	0xbde7e38c	-0.11322698
205	0x3e088bb0	0.13334537
206	0x3ca84d6a	0.020544726
207	0xbea32d55	-0.31870523
208	0xbc3449b0	-0.011003897
209	0xbe9ad904	-0.30243695
210	0x3dfc68e9	0.123246975
211	0x3dae6de6	0.08517055
212	0x3d85e582	0.06537916
213	0xbe27ff89	-0.16406073
214	0xbecbd063	-0.39807424
215	0xbc8d092c	-0.017216288
216	0xbe17f4ae	-0.14839432
217	0xbdaed83c	-0.08537337
218	0x3be775b3	0.0070635914
219	0xbe5caa7f	-0.21549414
220	0xbe888699	-0.2666519
221	0x3e8615fa	0.26188642
222	0x3cf464ee	0.029833283
223	0xbe0e80ad	-0.13916273
224	0xbdf36557	-0.118845634
225	0x3c928e39	0.017890083
226	0xbe7ba2bb	-0.24573795
227	0xbe2ec0e4	-0.1706577
228	0x3e7a8dc1	0.24468137
229	0x3e660bf5	0.22465499
230	0xbe347e5c	-0.17626327
231	0x3cb02551	0.021502169
232	0x3d293791	0.041312758
233	0xbd9a53a1	-0.07535482
234	0xbdaf7917	-0.08568018
235	0x3d25c142	0.040467508
236	0x3d8ae24d	0.06781445
237	0xbe33e678	-0.17568386
238	0xbe1433b6	-0.14472851
239	0xbdab0b8c	-0.08351812
240	0x3e2aa922	0.16666082
241	0x3d674d47	0.05647018
242	0x3dee25fd	0.116283394
243	0x3d9ac2bb	0.07556673
244	0xbdcd2d4f	-0.100184076
245	0xbcb4f584	-0.022089727
246	0xbd6f4c8a	-0.058422603
247	0x3c2515fd	0.010076043
248	0xbca169e4	-0.019703813
249	0x3b925e51	0.00446681
250	0xbef510d8	-0.47864413
251	0x3d2e0a96	0.042490564
252	0x3cb9a169	0.022659974
253	0xbe568437	-0.20948873
254	0xbd70c51f	-0.05878174
255	0xbdd9f2a3	-0.106419824

bn2.weight f4 [64]
0	0x3f97a041	1.1845781
1	0x3fcfc457	1.6231793
2	0x401a9f36	2.4159675
3	0x3ffe2fd1	1.9858342
4	0x3ff9eef2	1.9526045
5	0x40068133	2.1016357
6	0x3fe2a497	1.7706479
7	0x3fa4e049	1.2880946
8	0x400244ac	2.0354414
9	0x3fd6836e	1.6758859
10	0x3f9edced	1.2411171
11	0x3f82ba8f	1.0213183
12	0x3fc4c7c1	1.537346
13	0x3faa8de9	1.3324558
14	0x3f2326cf	0.6373109
15	0x3fc2128c	1.516191
16	0x3fcceaa5	1.6009108
17	0x3f586019	0.84521633
18	0x3fa749ef	1.3069438
19	0x3fab947b	1.3404688
20	0x3fd7f37e	1.6871183
21	0x3ffa65fc	1.9562373
22	0x3fc80421	1.562626
23	0x4009d1b9	2.1534255
24	0x3ff40da0	1.9066658
25	0x3fdf2dbc	1.7435832
26	0x3fd08f2f	1.6293696
27	0x3faf4c09	1.3695079
28	0x3f7cb552	0.9871417
29	0x3fd6128d	1.6724411
30	0x3fa7f061	1.3120233
31	0x3f82d268	1.0220461
32	0x3fe0f813	1.7575706
33	0x3fbc5302	1.4712832
34	0x3fcb73cc	1.5894713
35	0x3f6f62e3	0.93510264
36	0x40093692	2.1439557
37	0x3fb6cb78	1.4280844
38	0x3ff74bda	1.9320023
39	0x3fbe19c5	1.4851614
40	0x3fc8b4cf	1.5680178
41	0x3fbccca4	1.4749951
42	0x3ff170f4	1.8862596
43	0x3fe91045	1.820809
44	0x3fc82a55	1.5637919
45	0x3fbc4358	1.4708052
46	0x3fa0f1ac	1.2573752
47	0x3fa4566b	1.2838873
48	0x3f9b084e	1.2111909
49	0x3fedfe2a	1.859319
50	0x3fa40bec	1.2816138
51	0x3f6aca44	0.9171488
52	0x4006358f	2.097019
53	0x3fe718b8	1.8054419
54	0x3faeced5	1.365687
55	0x3fd917fb	1.6960443
56	0x40080253	2.1251419
57	0x3fe4bc3e	1.7869947
58	0x3fccbfaf	1.5995997
59	0x3fe4dee0	1.7880516
60	0x3fc55d35	1.541907
61	0x400e7aa7	2.226236
62	0x3fdef47f	1.7418364
63	0x4004aafd	2.0729363

bn2.bias f4 [64]
0	0x3d8ce5b4	0.0687975
1	0xbfc5a86f	-1.5442027
2	0x3fa0d598	1.2565184
3	0x3fb509a2	1.4143565
4	0x3e9340ef	0.28760478
5	0x3d2d2358	0.042270035
6	0xbe038d5c	-0.12846893
7	0xbe9f54ef	-0.31119487
8	0x3fc11806	1.5085456
9	0xbe6f0b44	-0.23344141
10	0xbcd2fec0	-0.02575624
11	0xbe832e5a	-0.256213
12	0xbd736203	-0.059419643
13	0x3e235666	0.15950927
14	0x3e0b0efd	0.13579936
15	0x3db4b69d	0.08823893
16	0x3fb4e946	1.4133689
17	0x3e8f5f4c	0.28002393
18	0xbe7a5521	-0.24446537
19	0xbf0920cb	-0.53565663
20	0x3f345ca3	0.7045385
21	0xbea364e5	-0.31912914
22	0x3e6dbcf9	0.23216619
23	0x3ed07f48	0.40722108
24	0x3da929bb	0.082599126
25	0xbf8b0dcf	-1.0863589
26	0x3e1ae7d0	0.15127492
27	0x3fea2430	1.8292294
28	0xbf4f39c5	-0.80947524
29	0xbedbe672	-0.42949253
30	0xbe902bb4	-0.28158343
31	0x3e8bdecd	0.2731842
32	0x3e92a377	0.2864034
33	0x3e296344	0.16541773
34	0x3f49e937	0.7887148
35	0xbeb9de33	-0.36302337
36	0x3f18cfe3	0.5969221
37	0x3e9cc638	0.3061998
38	0x3e10afe9	0.14129604
39	0xbecabd7d	-0.39597693
40	0xbf6326f5	-0.8873132
41	0x3c148620	0.009065181
42	0x3e6b9571	0.23006226
43	0x3ec8e45a	0.39236718
44	0xbf548499	-0.8301483
45	0xbe41e648	-0.18935502
46	0xbe212915	-0.15738328
47	0x3f118aa4	0.56852174
48	0xbedfaf71	-0.4368854
49	0xbdb74151	-0.08948005
50	0xbeab1683	-0.33415613
51	0xbf756330	-0.95854473
52	0x3faa2b58	1.3294477
53	0xbed6369e	-0.41838545
54	0xbf2fc9de	-0.686674
55	0xbe0385ea	-0.12844053
56	0x3f4356fe	0.76304615
57	0x3d04a44c	0.03238325
58	0x3e288a7b	0.16459076
59	0x3d261b0d	0.04055314
60	0xbf9db8b6	-1.2321994
61	0x3f0e9f9a	0.5571228
62	0xbd873e22	-0.06603648
63	0xbeac1a64	-0.33613884

bn2.running_mean f4 [64]
0	0x40402bed	3.002681
1	0x3fd7d0d6	1.6860607
2	0x3fca41b3	1.58013
3	0x3ffe27a3	1.9855846
4	0xbf62c84a	-0.88586867
5	0x3c660091	0.014038221
6	0x40640319	3.562689
7	0x3ff48c5c	1.9105334
8	0x40053ccf	2.0818365
9	0xbfc8ad34	-1.5677857
10	0x40072d64	2.1121454
11	0x408736cb	4.2254386
12	0x3fba98ae	1.4577844
13	0x40230733	2.5473144
14	0x3f5e4803	0.8682863
15	0x401d697c	2.4595633
16	0xc0099573	-2.1497467
17	0xbf111361	-0.56670195
18	0xbffcd673	-1.9752945
19	0xc03f6ae2	-2.9908986
20	0xbfd3b4c0	-1.6539536
21	0xbfbe3198	-1.4858885
22	0xbf86d3e4	-1.0533414
23	0xbff22ffc	-1.8920894
24	0x3feb1742	1.8366473
25	0x3f7ea683	0.99472827
26	0xbf8d2682	-1.1027377
27	0xc09b108a	-4.845769
28	0x402e291b	2.7212589
29	0x3fbea3e8	1.489377
30	0xc01603ef	-2.34399
31	0x3fee6cad	1.8626915
32	0xc014745e	-2.3196025
33	0xbea73e0f	-0.32664534
34	0xc012252f	-2.2835195
35	0x403ea1a5	2.978616
36	0xbfd2fe79	-1.6483909
37	0xbf6e4aef	-0.9308309
38	0x4009117a	2.1416917
39	0x3fbb8960	1.4651299
40	0x3fb07602	1.3786013
41	0x3e000e3b	0.12505428
42	0x3fdfb8ce	1.7478273
43	0xc0664363	-3.597863
44	0x3ff4783a	1.909919
45	0xbfd29dfc	-1.6454463
46	0x3f9becda	1.2181656
47	0xbfe24c9b	-1.7679628
48	0xc00a45e3	-2.1605155
49	0xbfde5413	-1.7369407
50	0xbf8122fc	-1.0088801
51	0x405a35d3	3.4095352
52	0x400344e5	2.05108
53	0xc01d5984	-2.4585886
54	0x3fee9410	1.8638935
55	0x40250a47	2.5787523
56	0x40284044	2.6289225
57	0xbf2a6299	-0.665567
58	0xc05c4586	-3.4417434
59	0xc0043390	-2.0656471
60	0x3fdcee79	1.7260276
61	0xc0070cbe	-2.1101527
62	0x3f7dadc9	0.990933
63	0xbff0996e	-1.8796823

bn2.running_var f4 [64]
0	0x40a6df92	5.2147913
1	0x3ff9bc21	1.9510537
2	0x3fa7ce7e	1.3109891
3	0x4041e6e9	3.0297186
4	0x409b36b5	4.850428
5	0x3ff232dc	1.8921771
6	0x40f87279	7.7639737
7	0x40172253	2.36147
8	0x4027a658	2.6195278
9	0x3fd3803c	1.6523509
10	0x40455b0d	3.0836823
11	0x4120e45f	10.055755
12	0x4118cab6	9.54949
13	0x4010b713	2.261174
14	0x4000181e	2.001472
15	0x3fb76e06	1.4330451
16	0x40f2e40e	7.5903387
17	0x40778650	3.8675728
18	0x412354e3	10.208224
19	0x4125f0ea	10.371317
20	0x4083e24c	4.121374
21	0x40825410	4.0727615
22	0x40db85bb	6.8600745
23	0x40c54eab	6.165853
24	0x4101f1c6	8.121527
25	0x3f12e55a	0.5738121
26	0x40b9da10	5.807869
27	0x4283a3ba	65.81978
28	0x40507f59	3.2577727
29	0x400e392d	2.2222397
30	0x40a8dcee	5.276969
31	0x3fc4e6f1	1.5382978
32	0x3fca9c3f	1.5828933
33	0x40ce2302	6.4417734
34	0x4107a841	8.478578
35	0x41095ad2	8.584673
36	0x3fc404ff	1.5314025
37	0x40e8792a	7.2647905
38	0x401070a3	2.2568748
39	0x3fad571a	1.3542206
40	0x3f456a82	0.77115643
41	0x40c20042	6.0625315
42	0x4138d710	11.5525055
43	0x41462cb7	12.385917
44	0x413be785	11.744023
45	0x40c0aa3d	6.020781
46	0x404618b0	3.0952568
47	0x40a55efd	5.1678452
48	0x406d964d	3.7122986
49	0x3fd7eb18	1.686862
50	0x3f7eff14	0.9960797
51	0x40e5869e	7.172683
52	0x403f00ac	2.984416
53	0x407a3bfe	3.9099116
54	0x40fcff77	7.9061847
55	0x41cb122c	25.383873
56	0x40626819	3.5376036
57	0x412cfe24	10.812046
58	0x40e443a3	7.1332564
59	0x3fba747c	1.4566798
60	0x3f7bbd01	0.9833527
61	0x40a75b35	5.2298837
62	0x3fb4676e	1.4094064
63	0x407ffd42	3.9998326
