models/best_model_GAT_MCC.pth (torch, 20642 bytes, 18 tensors)

conv1.att_src f4 [1, 1, 64]
0.8314815 0.9457022 -2.3351283 0.23879932 -3.883627 2.282265 0.6425592 0.92174834
-0.29352063 0.14990975 0.731085 -0.6075362 -0.22326215 0.4560509 0.9682877 -0.52785265
-0.5701909 2.3462236 -0.9352709 -0.79646987 -1.1838859 1.5579352 2.0294757 -0.015789546
-0.68384665 -0.32788384 0.7604257 -0.22648469 3.811284 0.4717546 6.304092 2.2799923
0.18193464 -0.80882853 3.445141 -1.8282573 4.418913 5.363564 0.054492753 -0.18021432
-0.5351434 -5.0918565 1.016988 2.459892 1.6386378 -2.0664854 5.7379994 4.9585795
-8.085744 0.34147906 -0.83385026 -0.28389746 -0.26318327 -1.1948293 -0.5071066 1.2695017
0.30510828 -0.36909103 0.91281456 -0.06752995 7.900584 1.9706993 -0.10170467 -0.20531216
00000000: f9db 543f 8a19 723f be72 15c0 cf87 743e
00000010: 588d 78c0 a110 1240 c27e 243f b3f7 6b3f
00000020: 5648 96be f181 193e 6328 3b3f 7e87 1bbf
00000030: d59e 64be 817f e93e b4e1 773f 5a21 07bf
00000040: 08f8 11bf 8728 1640 ea6d 6fbf 73e5 4bbf
00000050: 9389 97bf 6c6a c73f eee2 0140 1459 81bc
00000060: 9310 2fbf 64e0 a7be 42ab 423f 9aeb 67be
00000070: 14ec 7340 d289 f13e 1fbb c940 65eb 1140
00000080: 134d 3a3e 630f 4fbf 317d 5c40 5604 eabf
00000090: bc67 8d40 51a2 ab40 cb33 5f3d 1a8a 38be
000000a0: 28ff 08bf 7df0 a2c0 aa2c 823f df6e 1d40
000000b0: e2be d13f 4c41 04c0 b19d b740 afac 9e40
000000c0: 355f 01c1 58d6 ae3e 3677 55bf 025b 91be
000000d0: f5bf 86be 2bf0 98bf bdd1 01bf 087f a23f
000000e0: 2737 9c3e 80f9 bcbe 37ae 693f 244d 8abd
000000f0: 96d1 fc40 e03f fc3f 8a4a d0bd 5a3d 52be

conv1.att_dst f4 [1, 1, 64]
0.07798482 0.067621164 0.18939379 0.27636608 0.1963377 -0.3727229 -0.09924041 -0.11398695
0.34159264 0.0017738711 -0.07858118 0.32453465 0.27853772 -0.30605644 -0.6180576 -0.2575225
-0.13871165 -0.014469394 0.32500073 -0.16043456 0.16433664 0.017954333 0.020819545 0.288531
0.032434966 -0.1996638 -0.15270755 -0.12611558 -0.552909 0.5819859 0.07727994 0.2057869
0.29030734 -0.3643168 -0.23405352 0.27636248 -0.5872908 0.28873 -0.22799714 0.17683096
-0.15151078 -0.24304219 -0.4294222 0.202003 -0.2875586 0.091016404 -0.011288457 -0.065444365
0.39287007 0.13706328 0.05391869 -0.17137992 -0.24333706 0.087291345 0.018392634 0.08361771
0.18696396 0.06815022 -0.04817673 -0.31379777 0.033353288 -0.38339224 -0.040739875 0.37839535
00000000: 81b6 9f3d f77c 8a3d 72f0 413e db7f 8d3e
00000010: c00c 493e 89d5 bebe 8e3e cbbd fd71 e9bd
00000020: 3be5 ae3e 3d81 e83a 2bef a0bd 6829 a63e
00000030: 7f9c 8e3e 6eb3 9cbe 0639 1ebf fdd9 83be
00000040: 6d0a 0ebe 0a11 6dbc 7f66 a63e f548 24be
00000050: dd47 283e f714 933c c08d aa3c 56ba 933e
00000060: 87da 043d ab74 4cbe 5e5f 1cbe 7124 01be
00000070: 728b 0dbf 07fd 143f f244 9e3d cdb9 523e
00000080: 2aa3 943e bb87 babe baab 6fbe 627f 8d3e
00000090: b158 16bf 6bd4 933e 1578 69be 2d13 353e
000000a0: a425 1bbe 0de0 78be 3add dbbe e0d9 4e3e
000000b0: e13a 93be cf66 ba3d 38f3 38bc b207 86bd
000000c0: 4426 c93e 515a 0c3e d8d9 5c3d 387e 2fbe
000000d0: 5a2d 79be cec5 b23d 26ac 963c c33f ab3d
000000e0: 7b73 3f3e 5892 8b3d f654 45bd 1aaa a0be
000000f0: 759d 083d fd4b c4be dbde 26bd 09bd c13e

conv1.bias f4 [64]
-0.0013672151 -0.1040185 -0.051250696 -0.016232353 -0.120110504 -0.014179677 -0.023820449 -0.028660359
0.0008686552 0.0003373301 -0.031528156 -0.0055938256 -0.024811778 -0.08458971 -0.048013635 -0.0026999644
-0.11716315 0.07252553 0.08516675 0.0020859349 0.0030615602 -0.012304071 0.04159442 -0.03019527
-0.009582574 -0.003937052 -0.0319788 0.0010060706 0.040749725 -0.011432221 0.026058687 -0.057898887
0.02059944 -0.019865656 0.033025205 0.027198091 0.14834176 0.018196855 0.024438696 -0.022342533
0.00162598 0.040941637 0.019583559 0.037986226 0.063747 -0.070914224 -0.09257744 -0.04699782
-0.10208284 0.030543687 0.008918568 -0.0015705478 -0.0100400075 0.05261356 -0.012499134 0.034118555
-0.19224347 0.022032047 -0.018691242 -0.003640738 -0.064083315 0.07346946 0.0086834235 -0.004190857
00000000: 2034 b3ba a707 d5bd 40ec 51bd b6f9 84bc
00000010: 7ffc f5bd e051 68bc 1a23 c3bc 21c9 eabc
00000020: 77b6 633a aedb b039 ab23 01bd 694c b7bb
00000030: 1242 cbbc 5f3d adbd f2a9 44bd e3f1 30bb
00000040: 3cf3 efbd 4488 943d e86b ae3d 2eb4 083b
00000050: 75a4 483b 0497 49bc e95e 2a3d 125c f7bc
00000060: 3a00 1dbc 6302 81bb 34fc 02bd 21de 833a
00000070: 2fe9 263d 364e 3bbc 0779 d53c 6227 6dbd
00000080: 28c0 a83c 4dbd a2bc 7045 073d 88ce de3c
00000090: e7e6 173e 9211 953c a933 c83c b007 b7bc
000000a0: d61e d53a 6bb2 273d b36d a03c 7297 1b3d
000000b0: ca8d 823d 7a3b 91bd 3e99 bdbd c980 40bd
000000c0: cf10 d1bd c136 fa3c 2f1f 123c d7da cdba
000000d0: d87e 24bc 5181 573d 2bc9 4cbc e6bf 0b3d
000000e0: 79db 44be 8d7c b43c 601e 99bc 7399 6ebb
000000f0: 1d3e 83bd 2877 963d eb44 0e3c 7553 89bb

conv1.lin.weight f4 [64, 8]
0.46479672 -2.1021523 0.28019455 -0.20677604 -24.974758 4.3946176 0.3510376 -6.0070853
-0.69792 -2.525507 -0.6258084 0.07889912 -21.714415 2.5390244 2.0712032 -5.8089356
0.523662 3.2691016 0.1613477 0.08200604 28.221468 -3.2784076 -0.10619157 7.337786
1.2153493 -1.675332 1.0345042 0.3495531 -14.22511 4.3313513 1.2244551 -3.0758271
0.042251438 2.9449165 0.19087182 0.22855917 30.105898 -4.280113 0.17718245 7.7640185
0.06643578 -3.3478203 -0.27841324 -0.061141223 -28.288303 3.6204364 0.099585496 -7.4535584
-1.0866108 -4.418468 -1.0072585 -0.008997497 -23.002811 2.009973 -0.73772126 -5.8217654
-0.75361025 -4.233986 -0.7590666 0.16708389 -24.675272 2.013719 -0.613802 -6.248577
1.7649028 5.2635975 2.0285683 0.22165744 18.046652 -0.048333365 2.4370887 4.302633
3.1891942 1.3433443 2.7425287 0.03380261 -12.86965 6.982178 3.5014288 -3.7262077
-0.9957107 -3.927596 -0.9562025 0.27710757 -22.910486 2.5409682 -0.67469937 -5.924811
1.4789151 4.6942315 1.5135361 -0.019846875 23.409481 -0.69281316 1.6439925 5.2931943
2.8404942 6.4220963 2.5845606 0.59505963 16.092138 1.3665817 3.9873412 3.5472112
-0.97289526 -4.215504 -0.9623044 -0.73104036 -22.46015 1.8707124 -0.38453114 -5.5607696
-0.40527755 -2.9335158 -0.72360545 -0.23244171 -24.914265 2.5345929 0.83902735 -6.367633
0.25901607 3.5097637 0.34377804 -0.12048889 19.15706 -2.0947578 -0.19193 4.3283687
0.27099982 3.348775 0.031578284 0.08931572 18.515339 -1.954093 0.53004664 4.2632318
-0.090861455 -3.4632103 -0.003232098 0.47773787 -27.636852 3.6039307 0.0402724 -6.7941804
0.02752409 2.7745628 -0.10864381 0.08050916 23.510277 -3.6323805 -0.38262868 5.592902
-0.8268315 1.6563082 -1.0701815 -0.46185613 24.694424 -5.191179 -1.0217277 6.215249
0.2639585 3.2136996 0.24789694 0.06654908 25.96537 -3.1715405 0.76722205 6.3980637
-0.11982199 -2.962244 0.12814511 0.48145437 -26.32925 3.6231384 -0.37861708 -6.5256357
-0.20174506 -3.5029576 -0.275466 0.2368359 -27.528938 2.876001 0.27319333 -7.0562615
7.083602 5.2792296 7.022338 -0.009138975 3.0687673 12.159192 5.0312014 -5.4225516
0.071165614 3.0622346 0.50977105 0.25771213 22.627758 -3.1529708 0.47112596 5.506113
0.7921828 4.4666014 0.81660914 -0.058386296 15.998396 -1.7029519 3.2764492 3.503598
-0.41523674 -3.9443095 -0.8782144 0.04474917 -23.324602 2.5873187 -0.18735904 -5.940199
0.8467107 3.454419 0.6481318 -0.16594996 13.4464655 -1.3108753 0.6322784 2.9246368
0.24935366 -2.361097 -0.04196434 -0.017223243 -29.411854 4.532584 0.72457063 -8.316527
3.5310662 1.5521098 3.0880034 0.03143039 -22.069525 8.627058 3.8035083 -8.346821
0.16236822 -3.1458473 -0.15131117 0.32343954 -30.324865 3.8780384 0.029166287 -8.010341
-0.24081556 -3.0392313 0.058927726 0.29500118 -27.65688 4.001904 -0.2102144 -6.909518
00000000: d6f9 ed3e aa89 06c0 a975 8f3e 19bd 53be
00000010: 4ecc c7c1 b5a0 8c40 33bb b33e 0b3a c0c0
00000020: e3aa 32bf e8a1 21c0 fb34 20bf dd95 a13d
00000030: 1fb7 adc1 607f 2240 988e 0440 cde2 b9c0
00000040: b60e 063f f638 5140 5538 253e c8f2 a73d
00000050: 91c5 e141 6ed1 51c0 f77a d9bd 25cf ea40
00000060: 9190 9b3f 4771 d6bf a26a 843f a0f8 b23e
00000070: 0d9a 63c1 6e9a 8a40 f2ba 9c3f 5ada 44c0
00000080: d80f 2d3d 8379 3c40 e773 433e 6a0b 6a3e
00000090: e1d8 f041 b0f6 88c0 516f 353e d772 f840
000000a0: 7b0f 883d b042 56c0 2e8c 8ebe 386f 7abd
000000b0: 724e e2c1 3bb5 6740 7bf3 cb3d 8d83 eec0
000000c0: 1016 8bbf 1764 8dc0 d9ed 80bf 3d6a 13bc
000000d0: c205 b8c1 66a3 0040 4ddb 3cbf e74b bac0
000000e0: 9aec 40bf d07c 87c0 3052 42bf 0a18 2b3e
000000f0: f566 c5c1 c6e0 0040 2122 1dbf 58f4 c7c0
00000100: 56e8 e13f 646f a840 10d4 0140 2bfa 623e
00000110: 8b5f 9041 35f9 45bd 43f9 1b40 2baf 8940
00000120: c21b 4c40 b5f2 ab3f 9785 2f40 9b74 0a3d
00000130: 16ea 4dc1 016e df40 6917 6040 307a 6ec0
00000140: e5e6 7ebf bc5d 7bc0 b0c9 74bf 0be1 8d3e
00000150: ad48 b7c1 399f 2240 19b9 2cbf 0d98 bdc0
00000160: 174d bd3f 2537 9640 8dbb c13f ea95 a2bc
00000170: 9e46 bb41 345c 31bf 596e d23f d961 a940
00000180: a8ca 3540 d081 cd40 7169 2540 d455 183f
00000190: b3bc 8041 26ec ae3f 9930 7f40 8205 6340
000001a0: aa0f 79bf 69e5 86c0 9559 76bf 7625 3bbf
000001b0: 63ae b3c1 8173 ef3f 44e1 c4be d3f1 b1c0
000001c0: 8a80 cfbe b9be 3bc0 353e 39bf 3305 6ebe
000001d0: 6a50 c7c1 c536 2240 7fca 563f a6c3 cbc0
000001e0: c19d 843e f89f 6040 ad03 b03e e1c2 f6bd
000001f0: a941 9941 8310 06c0 4c89 44be ff81 8a40
00000200: 7dc0 8a3e 5452 5640 3b58 013d 29eb b63d
00000210: 6a1f 9441 b81f fabf 23b1 073f 656c 8840
00000220: 9215 babd 3da5 5dc0 9bd1 53bb 0f9a f43e
00000230: 4618 ddc1 cda6 6640 acf4 243d ed69 d9c0
00000240: 337a e13c 7092 3140 a580 debd fde1 a43d
00000250: 0c15 bc41 ec78 68c0 e8e7 c3be 0ef9 b240
00000260: 3bab 53bf e801 d43f b5fb 88bf 6878 ecbe
00000270: 2e8e c541 231e a6c0 f9c7 82bf 52e3 c640
00000280: 9225 873e 41ad 4d40 b2d8 7d3e e24a 883d
00000290: 14b9 cf41 85fa 4ac0 aa68 443f f0bc cc40
000002a0: 3b65 f5bd 6895 3dc0 7938 033e 3081 f63e
000002b0: 4ea2 d2c1 80e1 6740 19da c1be 02d2 d0c0
000002c0: 4296 4ebe 7530 60c0 e109 8dbe 1c85 723e
000002d0: 443b dcc1 6610 3840 ffdf 8b3e e5cc e1c0
000002e0: deac e240 73ef a840 feb6 e040 a4bb 15bc
000002f0: af66 4440 0d8c 4241 9aff a040 8b85 adc0
00000300: 47bf 913d a7fb 4340 5b80 023f d8f2 833e
00000310: a605 b541 46ca 49c0 6c37 f13e 1432 b040
00000320: 7ecc 4a3f 66ee 8e40 4c0d 513f 7826 6fbd
00000330: 6ef9 7f41 54fa d9bf 58b1 5140 f33a 6040
00000340: e999 d4be 916f 7cc0 a9d2 60bf e84a 373d
00000350: c998 bac1 a196 2540 0cdb 3fbe 1c16 bec0
00000360: 08c2 583f 3315 5d40 f7eb 253f c9ee 29be
00000370: b924 5741 c3ca a7bf ffdc 213f 402d 3b40
00000380: 9156 7f3e 371c 17c0 cde2 2bbd c217 8dbc
00000390: 7a4b ebc1 ee0a 9140 767d 393f 7f10 05c1
000003a0: fdfc 6140 89ab c63f d9a1 4540 27bd 003d
000003b0: 638e b0c1 6e08 0a41 ae6c 7340 948c 05c1
000003c0: db43 263e 9055 49c0 51f1 1abe de99 a53e
000003d0: 5399 f2c1 c831 7840 23ee ee3c 5b2a 00c1
000003e0: 5b98 76be c482 42c0 335e 713d 650a 973e
000003f0: 4a41 ddc1 990f 8040 7242 57be c51a ddc0

bn1.weight f4 [64]
0.9488682 0.7709256 0.8005046 0.2951743 1.0469595 0.5185243 0.44607657 0.6752494
0.28380534 0.48926815 0.54126173 0.3307207 0.3968354 1.2016106 0.81486773 0.63375366
0.2803064 1.1562618 0.5448127 0.695238 0.36911616 1.1459683 0.772066 0.6995553
0.7273842 1.122434 0.4163801 0.6637314 0.38167965 1.1585755 1.3327534 1.0985916
0.95090646 0.3112918 0.480869 0.8132114 1.0065761 0.7407418 0.6084606 0.9968928
0.38759324 1.3526745 0.57141125 0.1987593 0.920339 1.1590668 0.98317575 0.99108744
0.6722232 0.5154187 0.6849887 0.7713483 0.6346029 1.1623172 0.7951154 0.94692016
1.8132918 1.0235074 0.001706283 0.44837254 0.9193525 0.7604731 0.78213495 0.9772366
00000000: 07e9 723f 615b 453f dfed 4c3f 1621 973e
00000010: c502 863f 02be 043f 2664 e43e 25dd 2c3f
00000020: ef4e 913e 5b81 fa3e 2190 0a3f 3954 a93e
00000030: 022e cb3e 60ce 993f 2c9b 503f ae3d 223f
00000040: 5284 8f3e 6300 943f d878 0b3f 1efb 313f
00000050: cbfc bc3e 17af 923f 1ea6 453f 0e16 333f
00000060: da35 3a3f ebab 8f3f c62f d53e 4dea 293f
00000070: 846b c33e 344c 943f aa97 aa3f a69e 8c3f
00000080: 9b6e 733f a461 9f3e 7634 f63e 9f2e 503f
00000090: 7cd7 803f 41a1 3d3f 13c4 1b3f 5e34 7f3f
000000a0: 9f72 c63e 7024 ad3f 0248 123f 8f87 4b3e
000000b0: 569b 6b3f 4d5c 943f 68b1 7b3f e8b7 7d3f
000000c0: d216 2c3f 7bf2 033f 6b5b 2f3f 1577 453f
000000d0: 5675 223f cfc6 943f af8c 4b3f 5c69 723f
000000e0: f219 e83f 4a02 833f 5ba5 df3a 1691 e53e
000000f0: af5a 6b3f 5dae 423f ff39 483f 2e2c 7a3f

bn1.bias f4 [64]
-0.16167605 -1.0224724 -1.0423245 -0.16493842 -1.1477348 0.28648576 -0.37537324 -0.13459197
-0.58439535 -0.24557608 -0.70584553 -0.117786914 -0.34594032 -0.9281617 -0.49346825 -1.3464826
-0.5169527 -0.8504365 -0.7481554 -0.4695727 -0.95420915 -0.31590405 -0.95956665 0.7813086
-0.5124288 -0.9708834 -0.015899679 -0.6997817 0.4235291 -0.085727885 -0.9923845 -0.7211016
0.5997595 -1.2613568 -0.61785567 -1.0268463 -0.94212306 -0.9408268 0.16684224 0.90197146
-0.28931022 0.015028427 -0.49250126 0.02811092 -1.4954733 -0.9401679 -0.5417082 -1.2759504
-0.69807464 -0.294302 -0.1972466 -0.3584457 -0.36501902 -1.1222906 0.062018957 -0.59153956
0.52047104 -0.43102568 0.7680167 -0.47733578 -1.156514 -0.5172752 -0.08431818 1.1494244
00000000: 688e 25be 60e0 82bf e46a 85bf 9ee5 28be
00000010: f9e8 92bf 43ae 923e ec30 c0be 7ad2 09be
00000020: ef9a 15bf 4c78 7bbe 4bb2 34bf 443a f1bd
00000030: 171f b1be 019c 6dbf dfa7 fcbe 8b59 acbf
00000040: 0357 04bf 35b6 59bf 1d87 3fbf d56b f0be
00000050: 0d47 74bf 2dbe a1be 29a6 75bf d703 483f
00000060: 892e 03bf d18b 78bf 0b40 82bc e524 33bf
00000070: ced8 d83e 1a92 afbd e90c 7ebf 1d9a 38bf
00000080: d789 193f 2474 a1bf ca2b 1ebf b36f 83bf
00000090: fa2e 71bf 06da 70bf b1d8 2a3e 9ae7 663f
000000a0: 7820 94be cb39 763c 2029 fcbe df48 e63c
000000b0: ab6b bfbf d8ae 70bf 63ad 0abf 5852 a3bf
000000c0: 05b5 32bf c0ae 96be 03fb 49be 3286 b7be
000000d0: c6e3 babe 38a7 8fbf 9707 7e3d 236f 17bf
000000e0: 973d 053f 66af dcbe be9c 443f 5b65 f4be
000000f0: a708 94bf 266c 04bf 03af acbd 5720 933f

bn1.running_mean f4 [64]
-3162.5017 1230.0458 1237.0189 5404.2515 3491.805 -920.13324 -159.53549 2580.7449
3441.8127 530.05096 4283.8047 -303.38846 9186.396 -11240.923 -3554.277 -1876.6748
1351.04 7371.5566 1214.5128 -7134.3096 1001.4902 7427.7134 3666.636 -113.66133
3937.7927 -867.5961 670.1848 -2580.5298 -258.45435 493.669 4998.983 4560.223
270.63177 -1949.3304 2771.9707 1019.96204 2481.5557 3158.0854 -12768.451 -133.76018
-3298.1985 -3382.5166 994.67896 4487.307 10367.333 2291.0017 -2390.5596 2462.6602
233.84412 890.81104 -493.1944 58.898945 -102.18086 -2664.9778 107.34103 4036.9001
-63.89703 -11976.761 1819.5593 -1367.7988 3462.0386 -4808.274 421.2575 187.36829
00000000: 07a8 45c5 77c1 9944 9ba0 9a44 03e2 a845
00000010: e13c 5a45 8708 66c4 1689 1fc3 eb4b 2145
00000020: 011d 5745 4383 0444 70de 8545 b9b1 97c3
00000030: 9689 0f46 b1a3 2fc6 6f24 5ec5 9895 eac4
00000040: 48e1 a844 745c e645 69d0 9744 7af2 dec5
00000050: 5f5f 7a44 b51d e845 2d2a 6545 9a52 e3c2
00000060: af1c 7645 27e6 58c4 d48b 2744 7a48 21c5
00000070: 283a 81c3 a2d5 f643 dd37 9c45 c981 8e45
00000080: de50 8743 93aa f3c4 883f 2d45 92fd 7e44
00000090: e418 1b45 5e61 4545 ce81 47c6 9bc2 05c3
000000a0: 2d23 4ec5 4468 53c5 74ab 7844 753a 8c45
000000b0: 55fd 2146 0730 0f45 f468 15c5 90ea 1945
000000c0: 18d8 6943 e8b3 5e44 e298 f6c3 8598 6b42
000000d0: 9a5c ccc2 a58f 26c5 9bae d642 674e 7c45
000000e0: 8f96 7fc2 0b23 3bc6 e671 e344 90f9 aac4
000000f0: 9e60 5845 3142 96c5 f6a0 d243 485e 3b43

bn1.running_var f4 [64]
9.455967e+06 1.4267345e+06 1.443447e+06 2.7536558e+07 1.1507843e+07 798014.25 23868.26 6.296419e+06
1.1130653e+07 253897.16 1.7356954e+07 90876.86 7.947782e+07 1.1928491e+08 1.192051e+07 3.328957e+06
1.7209656e+06 5.1312148e+07 1.3939822e+06 4.8014556e+07 943565.2 5.21004e+07 1.2698658e+07 18208.756
1.4621914e+07 716102.5 423544.8 6.308827e+06 63365.48 218313.62 2.3601508e+07 1.9639666e+07
61074.227 3.5870728e+06 7.257866e+06 982272.25 5.815719e+06 9.420676e+06 1.5406974e+08 22673.777
1.0262216e+07 1.0807711e+07 930077.4 1.9014954e+07 1.014861e+08 4.954232e+06 5.392945e+06 5.7293215e+06
51397.24 739952.06 227969.53 3947.833 8524.897 6.719827e+06 11480.56 1.5407857e+07
7655.5156 1.3556478e+08 3.1182945e+06 1.7378219e+06 1.1322694e+07 2.1821374e+07 174203.23 27341.535
00000000: 5f49 104b 7429 ae49 b833 b049 5716 d24b
00000010: 8398 2f4b e4d3 4249 8578 ba46 c626 c04a
00000020: 1dd7 294b 4af2 7748 4d6c 844b 6e7e b147
00000030: 8897 974c 9684 e34c 7ee4 354b f42e 4b4a
00000040: 2d14 d249 85bd 434c f229 aa49 3729 374c
00000050: d35c 6649 4cbf 464c 22c4 414b 8341 8e46
00000060: da1c 5f4b 68d4 2e49 1acf ce48 b687 c04a
00000070: 7b85 7747 6832 5548 b210 b44b b9d6 954b
00000080: 3a92 6e47 03f0 5a4a 147e dd4a 04d0 6f49
00000090: 4e7b b14a 84bf 0f4b afee 124d 8e23 b146
000000a0: c896 1c4b 9fe9 244b d611 6349 9512 914b
000000b0: c291 c14c f030 974a 6294 a44a 53d8 ae4a
000000c0: 3dc5 4847 01a7 3449 62a0 5e48 54bd 7645
000000d0: 9733 0546 a612 cd4a 3d62 3346 f11a 6b4b
000000e0: 203c ef45 df48 014d 5a53 3e4a ef22 d449
000000f0: 46c5 2c4b df7b a64b cf1e 2a48 129b d546

conv2.att_src f4 [1, 1, 32]
-5.99128 -6.668184 5.4376345 3.2662036 -4.827577 -4.6387696 -6.5248103 5.1316423
-0.63968086 -5.482094 -0.8146572 8.036766 -4.1199727 0.09907976 -1.0580386 -0.3979674
0.7600076 -4.075875 3.0362613 -5.301758 2.4127111 -7.3705406 -4.2152457 -4.0011096
-7.497247 -5.1181645 -4.0439873 -3.2491505 -3.0919468 4.887177 2.5080116 7.5556927
00000000: 91b8 bfc0 c361 d5c0 1a01 ae40 7b09 5140
00000010: 837b 9ac0 cd70 94c0 3fcb d0c0 6a36 a440
00000020: 20c2 23bf 506d afc0 608d 50bf 9896 0041
00000030: d1d6 83c0 54ea ca3d cf6d 87bf 62c2 cbbe
00000040: dc8f 423f 916d 82c0 1b52 4240 00a8 a9c0
00000050: dc69 1a40 78db ebc0 4be3 86c0 1709 80c0
00000060: 73e9 efc0 01c8 a3c0 5868 81c0 15f2 4fc0
00000070: 75e2 45c0 c163 9c40 4383 2040 3cc8 f140

conv2.att_dst f4 [1, 1, 32]
0.34512982 0.13319814 0.13676545 -0.084622376 0.5253382 -0.4548762 -0.13857055 0.14946504
-0.97003967 0.46307322 0.21549821 -0.4699757 -0.5046298 -0.112744525 0.8446892 0.25245833
-0.27697155 -0.01702517 -0.34971565 -0.865283 -0.646411 0.27633753 -0.6806116 -1.0072973
0.6352687 0.5211673 -0.20659456 -0.08644478 -0.47442782 -0.31230727 -0.24287032 -0.4095519
00000000: dbb4 b03e 1865 083e 3e0c 0c3e 7f4e adbd
00000010: 907c 063f 89e5 e8be 70e5 0dbe 5d0d 193e
00000020: 8554 78bf ef17 ed3e 90ab 5c3e a8a0 f0be
00000030: 6b2f 01bf 9ae6 e6bd 8d3d 583f 3842 813e
00000040: 37cf 8dbe 5f78 8bbc ee0d b3be 3083 5dbf
00000050: 317b 25bf 1d7c 8d3e 903c 2ebf 1eef 80bf
00000060: f8a0 223f 386b 053f 868d 53be f609 b1bd
00000070: 34e8 f2be bde6 9fbe ffb2 78be c9b0 d1be

conv2.bias f4 [32]
-0.010080462 0.09833315 0.20919853 0.05137722 0.22122186 0.42844525 0.33945283 0.092613645
0.2055039 -0.19610684 -0.061756674 -0.048033416 0.1374839 0.25823218 0.12613975 -0.5908496
0.2538707 0.38887852 -0.007391631 0.17848995 -0.123714596 0.8682341 -0.03464993 1.0589856
0.18775874 -0.35690704 -0.54009074 0.055564135 -0.6804116 0.023956979 0.15798014 -0.25846285
00000000: 8628 25bc e462 c93d 2438 563e eb70 523d
00000010: fc87 623e 2d5d db3e c3cc ad3e 39ac bd3d
00000020: 9d6f 523e 3bd0 48be 91f4 7cbd b0be 44bd
00000030: 94c8 0c3e 0237 843e c72a 013e eb41 17bf
00000040: 57fb 813e 161b c73e 7f35 f2bb 12c6 363e
00000050: 145e fdbd 9744 5e3f 16ed 0dbd d78c 873f
00000060: d443 403e 85bc b6be 6343 0abf 3897 633d
00000070: 742f 2ebf 6d41 c43c 8cc5 213e 3e55 84be

conv2.lin.weight f4 [32, 64]
0.11611516 0.087727696 0.24594459 -0.12771915 0.029920807 0.29335958 0.06116853 -0.1060121
-0.100077994 -0.31649548 0.1517541 -0.0394787 -0.06842281 0.04119156 0.24763243 -1.1282424
0.036151707 -0.05464072 0.2990043 0.014082773 -0.5327005 0.2045407 0.063079424 -0.23981602
-0.016828721 -0.10885605 0.027694535 0.32742068 -0.0075610303 -0.2907103 -0.028973851 0.09259411
-0.5015536 -0.35059583 -0.025738332 0.04608906 -0.024213761 0.19191934 0.17701295 -0.5773964
-0.08778138 0.16967 0.09572419 -0.22225948 -0.51597995 0.17673226 0.2716465 -0.10211069
0.08508871 -0.25925964 0.12613977 0.17173482 0.19841546 0.2564381 -0.30582038 0.23000214
-0.60440725 0.054241233 -0.051241912 0.08742583 0.18707204 -0.08297817 0.42087838 -0.5692738
0.5285194 0.16497505 0.0520859 -0.02292386 0.15754537 0.07586551 0.18580507 0.28489852
-0.11143431 0.26082867 0.1013105 0.025334498 0.032286543 0.17262283 0.3960872 -0.57075036
0.18761787 0.32642207 0.124628864 0.29332882 0.8156569 0.19115375 0.1259658 0.0051470054
0.0033889099 -0.752667 0.15429299 -1.210935 -0.33865005 -0.37064916 0.11135526 0.46951327
-0.2701263 0.15978281 0.08039895 -0.055153094 0.069268085 -0.06331004 0.32970303 -0.017788867
0.25500396 0.65815794 0.17927606 -0.0028347734 -0.27424726 0.3483231 0.32445586 0.04943142
-0.019125301 0.28946367 0.36511782 0.3992539 0.28243098 -1.0689013 0.16822684 0.39496785
-0.2139719 0.32867476 0.04020935 -0.4106213 0.25287405 0.493724 0.15462293 -0.41365892
-0.16035707 3.634494 -0.12576112 -0.016384259 0.037554126 0.13260429 0.008026818 -0.11425464
0.3956417 -0.058638927 -0.15275629 -0.010305883 -0.09623351 -0.8672986 -0.21690995 -0.38522717
0.43925795 0.07757457 -0.26850858 -0.59005356 0.34108102 -0.13607328 -0.10086993 -0.0052328343
0.96467125 -0.7491249 -0.05572686 -0.3626681 0.12770481 0.057249863 -0.19720908 0.17657332
0.29436108 6.1211495 -0.09172094 0.12877643 0.05107746 0.11249904 0.08518761 -0.14690451
-0.5356087 -0.55776656 -0.2887608 -0.102510005 -0.2460049 0.12648071 -0.34379902 -0.30909002
-0.08673989 -0.15405092 -0.23520432 -0.59818536 -0.4667602 -1.3150954 -0.20289098 0.09337384
-0.26059037 -0.43209213 -0.18384215 -0.69062847 -0.11756945 -0.63275033 -0.18818803 0.48627663
-0.21094792 -0.4856247 0.07039127 -0.13415638 -0.026175192 -0.41289276 -0.2565252 0.03520283
0.33966938 0.023180366 0.09988379 0.14147763 0.22310606 0.12272286 -0.287974 0.89174026
0.2404921 -0.18036684 -0.15150648 -0.20760812 0.102913104 -0.005749022 -0.068087 0.12786844
-0.44381458 0.14220512 0.12812953 -0.36558348 -0.16849376 0.6075724 -0.34152535 -0.23105069
0.45316505 -0.14336812 0.25643963 -0.16261724 -0.07688045 0.19840664 -0.33172253 0.4604687
0.15810029 -0.39332768 -0.1222393 0.11070277 0.8503013 -0.14290662 0.20012529 0.2846008
-0.083317675 0.01957421 -0.13668393 -0.27552575 -0.30274546 -0.51745313 0.07329046 -0.30007523
0.714223 0.13953327 0.06359317 -0.32273218 -0.03735734 0.12643567 -0.2588 0.36819372
00000000: c9cd ed3d 94aa b33d e6d8 7b3e cfc8 02be
00000010: 7b1c f53c 3a33 963e da8b 7a3d df1c d9bd
00000020: b1f5 ccbd b20b a2be 6d65 1b3e 6bb4 21bd
00000030: 4221 8cbd 7bb8 283d 5b93 7d3e 3f6a 90bf
00000040: d013 143d f3ce 5fbd 1717 993e 6ebb 663c
00000050: 0f5f 08bf 1e73 513e c92f 813d 5592 75be
00000060: 63dc 89bc ecef debd a6df e23c afa3 a73e
00000070: 85c2 f7bb fbd7 94be 925a edbc fba1 bd3d
00000080: d165 00bf 4c81 b3be 32d9 d2bc e2c7 3c3d
00000090: f05b c6bc 8186 443e e242 353e 40d0 13bf
000000a0: b9c6 b3bd f9bd 2d3e 0b0b c43d fd97 63be
000000b0: 4317 04bf 4df9 343e 4015 8b3e 691f d1bd
000000c0: fd42 ae3d aebd 84be c92a 013e 41db 2f3e
000000d0: 6c2d 4b3e db4b 833e 7d94 9cbe ae85 6b3e
000000e0: 6fba 1abf 0e2c 5e3d 0ae3 51bd 500c b33d
000000f0: d08f 3f3e 75f0 a9bd 5f7d d73e eebb 11bf
00000100: 0c4d 073f 38ef 283e 0658 553d d2ca bbbc
00000110: 9353 213e 605f 9b3d af43 3e3e 38de 913e
00000120: ac37 e4bd 568b 853e e17b cf3d 4b8a cf3c
00000130: e53e 043d 0ac4 303e f1cb ca3e b21c 12bf
00000140: e61e 403e cb20 a73e 6b3d ff3d 322f 963e
00000150: e4ce 503f cfbd 433e 2efd 003e 36a8 a83b
00000160: 7918 5e3b c9ae 40bf fbfe 1d3e ebff 9abf
00000170: 8a63 adbe bac5 bdbe 3a0e e43d 0b64 f03e
00000180: ff4d 8abe 1b9e 233e 34a8 a43d 36e8 61bd
00000190: 6ddc 8d3d b2a8 81bd d6ce a83e f5b9 91bc
000001a0: e18f 823e 0a7d 283f 2594 373e 9bc7 39bb
000001b0: 236a 8cbe 6857 b23e 141f a63e 9a78 4a3d
000001c0: aaac 9cbc 9534 943e b9f0 ba3e 026b cc3e
000001d0: cb9a 903e c2d1 88bf a843 2c3e 3a39 ca3e
000001e0: 731b 5bbe 0f48 a83e 8fb2 243d f43c d2be
000001f0: b578 813e 64c9 fc3e 7955 1e3e 1acb d3be
00000200: a534 24be 8d9b 6840 86c7 00be 4838 86bc
00000210: 5bd2 193d 6bc9 073e ea82 033c 56fe e9bd
00000220: 8d91 ca3e 5f2f 70bd 256c 1cbe 02da 28bc
00000230: 1316 c5bd 4807 5ebf a41d 5ebe 7f3c c5be
00000240: 6be6 e03e 6bdf 9e3d f579 89be c00d 17bf
00000250: 2ca2 ae3e cb56 0bbe e594 cebd 3278 abbb
00000260: b2f4 763f a6c6 3fbf d941 64bd a2af b9be
00000270: 0dc5 023e d57e 6a3d 2df1 49be a3cf 343e
00000280: 7fb6 963e 75e0 c340 30d8 bbbd f8dd 033e
00000290: 9936 513d e665 e63d d776 ae3d 236e 16be
000002a0: a71d 09bf cac9 0ebf 75d8 93be c4f0 d1bd
000002b0: b5e8 7bbe 2984 013e 6d06 b0be 0c41 9ebe
000002c0: afa4 b1bd 86bf 1dbe 67d9 70be ad22 19bf
000002d0: 31fb eebe 0c55 a8bf a7c2 4fbe c93a bf3d
000002e0: 1a6c 85be 2e3b ddbe 1e41 3cbe 07cd 30bf
000002f0: 40c8 f0bd edfb 21bf 5db4 40be 40f9 f83e
00000300: bb02 58be cda3 f8be 4c29 903d 4a60 09be
00000310: 5b6d d6bc ae66 d3be 4557 83be d830 103d
00000320: 25e9 ad3e c0e4 bd3c df8f cc3d 83df 103e
00000330: ea75 643e 1f56 fb3d 5471 93be 1749 643f
00000340: 9043 763e 16b2 38be 8424 1bbe 3997 54be
00000350: 1bc4 d23d 4b62 bcbb 3271 8bbd f2ef 023e
00000360: aa3b e3be 389e 113e 6334 033e c22d bbbe
00000370: a189 2cbe dd89 1b3f 69dc aebe 8d98 6cbe
00000380: 4005 e83e 18cf 12be 0e4c 833e 2285 26be
00000390: 7f73 9dbd 1c2b 4b3e 89d7 a9be 8ec2 eb3e
000003a0: 0be5 213e 3f62 c9be 9958 fabd 22b8 e23d
000003b0: 59ad 593f 1d56 12be a5ed 4c3e 32b7 913e
000003c0: 75a2 aabd 185a a03c dff6 0bbe b611 8dbe
000003d0: 7401 9bbe cf77 04bf 4f19 963d 76a3 99be
000003e0: 52d7 363f cfe1 0e3e 233d 823d 273d a5be
000003f0: 0304 19bd 5a78 013e 6f81 84be e383 bc3e

bn2.weight f4 [32]
1.9949622 1.9465036 1.7009227 2.202813 2.4482992 2.4654202 1.7229918 2.1409662
2.2591271 2.1602142 1.6672832 2.1901069 2.1297824 1.4651763 1.785609 0.52673143
1.2276185 2.487122 1.4955208 1.8580979 2.1681402 2.390844 2.0837443 1.528623
2.5384576 1.9920261 1.7882259 2.3462286 3.0780692 1.9151136 1.8140223 2.1400244
00000000: ec5a ff3f 0827 f93f d6b7 d93f e3fa 0c40
00000010: efb0 1c40 72c9 1d40 ff8a dc3f 9705 0940
00000020: 8a95 1040 f340 0a40 8969 d53f b62a 0c40
00000030: 5b4e 0840 e68a bb3f d68e e43f dfd7 063f
00000040: 9a22 9d3f 022d 1f40 3a6d bf3f 27d6 ed3f
00000050: cfc2 0a40 9703 1940 115c 0540 eba9 c33f
00000060: 1776 2240 b6fa fe3f 96e4 e43f 9c28 1640
00000070: 16ff 4440 7122 f53f e231 e83f 29f6 0840

bn2.bias f4 [32]
0.50526345 0.22076136 -1.4330317 -2.0297215 -0.23679581 0.2566414 -0.87294185 1.2699808
0.56411976 -0.10083712 -0.40097657 2.1224377 -0.013939325 1.8464525 -0.2469688 0.91394097
-1.1854795 0.37105286 -1.1697111 0.24305242 -1.240848 0.4253068 -0.041952234 1.1260312
-0.88438725 -0.22693874 0.7134393 0.27287686 0.82790095 1.9368742 1.1457231 1.0463998
00000000: f258 013f 440f 623e 956d b7bf f5e6 01c0
00000010: 9a7a 72be 8066 833e 1e79 5fbf bb8e a23f
00000020: 276a 103f b183 cebd cd4c cdbe 05d6 0740
00000030: c461 64bc 8e58 ec3f 64e5 7cbe 09f8 693f
00000040: cbbd 97bf a4fa bd3e 18b9 95bf bce2 783e
00000050: 1bd4 9ebf d0c1 d93e 1bd6 2bbd ca21 903f
00000060: 3467 62bf a162 68be f5a3 363f 84b6 8b3e
00000070: 51f1 533f 7eeb f73f 0ea7 923f 6ef0 853f

bn2.running_mean f4 [32]
-2.2671833 0.6590008 -0.3617371 1.6019884 -2.4610364 -0.744145 0.41082582 2.1671076
1.7107444 -1.9298381 -1.2213635 2.6432815 -2.248743 -2.503299 -0.91035676 -2.761718
0.6713309 -0.17099933 0.4069546 -0.10717293 1.8980764 -2.579358 -1.8942124 0.23900051
-2.44831 -2.127496 -2.011464 0.44101158 -1.347357 2.0149612 2.3320498 1.7443868
00000000: 8819 11c0 47b4 283f 9b35 b9be f50d cd3f
00000010: 9f81 1dc0 4980 3ebf c357 d23e e4b1 0a40
00000020: acf9 da3f ef04 f7bf a455 9cbf 862b 2940
00000030: 68eb 0fc0 0d36 20c0 240d 69bf fdbf 30c0
00000040: 58dc 2b3f 731a 2fbe 5a5c d03e 7b7d dbbd
00000050: 2bf4 f23f 3414 25c0 8d75 f2bf 8dbc 743e
00000060: 1cb1 1cc0 e528 08c0 d4bb 00c0 45cc e13e
00000070: 3276 acbf 20f5 0040 4e40 1540 1148 df3f

bn2.running_var f4 [32]
0.914016 1.5881566 3.4132419 0.757891 1.544672 2.2760057 14.913621 1.061548
2.2078722 0.54655993 0.37778068 1.4039335 2.13623 31.078693 1.1239259 29.890913
0.3032539 2.1975198 0.7715316 1.8126991 0.81730336 2.5132072 1.4826725 1.5965713
1.9969689 0.86329323 3.2931113 0.8146577 1.8516029 1.1793356 1.6258729 1.2861704
00000000: f4fc 693f b748 cb3f 8e72 5a40 2505 423f
00000010: d0b7 c53f 14aa 1140 319e 6e41 cee0 873f
00000020: c74d 0d40 5aeb 0b3f 786c c13e 18b4 b33f
00000030: feb7 0840 2aa1 f841 cedc 8f3f 9720 ef41
00000040: 1844 9b3e 2aa4 0c40 1883 453f 8606 e83f
00000050: cb3a 513f 63d8 2040 36c8 bd3f 735c cc3f
00000060: ad9c ff3f c900 5d3f 56c2 5240 688d 503f
00000070: 5301 ed3f 78f4 963f 9a1c d03f 3ba1 a43f

fc.weight f4 [8, 32]
0.81361985 0.7822802 -1.7045641 2.8067217 -0.06851576 0.35855368 0.36131132 -1.6929642
0.9328909 1.1436113 0.10507968 -1.6369233 0.13833281 0.12464805 -2.054306 0.11052056
0.8705007 0.32476 -2.1776726 0.70311886 2.1216457 -0.12472635 0.4429911 0.22383848
-0.5378378 0.7983733 0.21903013 0.5556535 0.25609383 -1.0048976 -1.4553299 -1.736331
0.23586802 0.32144332 -0.15244706 1.7488698 -0.5118629 0.3591076 0.77797526 -0.75809526
1.063499 0.4865664 0.6124283 -1.0326768 -0.4570421 0.12051795 0.22108027 0.23823968
0.85235095 0.08758836 -0.55426484 -0.24021831 0.40662697 -0.22168331 -0.17287019 0.24292414
-1.2382907 0.664539 0.2606787 -0.10016177 0.47617558 -0.92672956 -0.6004552 -0.78070426
0.021050815 0.00487459 -0.2396661 0.89116937 -0.28868654 -1.3724883 0.54596144 -0.35603878
0.4565092 0.1606295 0.61102396 -0.41224253 0.86071974 -0.044471934 0.40500847 0.046218593
0.40202686 -2.6115646 -0.37340525 -2.2611866 1.4388152 -0.8520203 1.9362354 -0.52926904
-0.37060878 0.39229345 -0.13896368 -2.217895 -0.39315024 -0.45801023 -0.31301087 -0.4109999
-0.1830533 -0.25013205 0.018497799 0.17743985 0.58313876 -2.8372324 -0.050002232 0.0041928897
-0.120070815 -0.1145122 0.3777667 0.08182628 1.7345387 -0.98644984 0.30076733 -0.6010062
-0.2463081 -2.7449076 -0.16406302 -2.9264324 0.60013634 -1.1296893 2.174158 -0.90658015
0.7411586 0.09991808 -0.84919035 -2.1412156 -4.674407 0.09121532 0.02964826 -0.06051968
-0.40353662 -0.3927316 0.13290404 -0.5635631 1.0079906 -1.9504976 -0.19904473 0.13603885
-0.32168943 -0.45960465 -0.048973087 0.22595473 1.7947254 -1.3491488 0.2046294 -0.47072345
-1.208291 -1.2107115 0.007040463 -0.73836184 -0.26636663 -0.13342889 1.4613458 -4.9554634
0.956239 -0.22653778 -5.2278695 -0.5875571 -6.189226 0.2187357 0.10596244 0.15454169
-0.64177334 -0.61942726 0.25510135 -1.072612 1.5427042 -2.753616 -0.46324688 0.34029374
-0.53545827 -0.74059546 -0.43678388 0.47019854 1.1619289 -3.7857594 -0.078382365 -0.7562741
-2.5919735 -1.0527303 0.07892455 -1.0445005 -0.90114254 0.7768683 0.34234765 -4.0367303
1.3805878 -0.51905835 -8.077796 -1.0175985 -5.0417867 0.5153836 0.32985592 0.40103522
-0.92653364 -0.8106541 0.33640355 -1.5052327 1.6977915 -2.6307957 -0.60754013 0.48275426
-0.66413003 -1.0821337 -0.82864237 0.5822182 0.92256624 -5.834803 -0.298282 -1.8910689
-3.677011 -1.667644 0.17144626 -1.3212383 -1.4489276 1.3041006 -0.3082214 -2.1027508
1.5884513 -0.88029546 -5.227718 -1.3883458 -4.218839 0.68490076 0.5037416 0.5605138
-0.79473996 -1.1484872 0.43925053 -1.60364 1.7667925 -3.093629 -0.8585004 0.52950805
-0.8127774 -1.0262198 -0.83597887 0.6346118 -0.13508642 -8.295294 -0.27050018 -4.611591
-4.4074526 -2.61187 0.3891378 -1.6566162 -1.710895 3.0092325 -1.0172517 -0.47379613
1.366662 -0.81601375 -4.981926 -1.8596221 -3.0300713 0.7418497 0.49719748 0.6160308
00000000: 6449 503f 8443 483f 282f dabf 54a1 3340
00000010: fe51 8cbd 5994 b73e ccfd b83e 0db3 d8bf
00000020: f0d1 6e3f db61 923f 0434 d73d b486 d1bf
00000030: 1ea7 0d3e 7a47 ff3d c079 03c0 9a58 e23d
00000040: 22d9 5e3f f146 a63e fd5e 0bc0 99ff 333f
00000050: 0bc9 0740 8770 ffbd bbcf e23e ea35 653e
00000060: bdaf 09bf 3162 4c3f 6f49 603e 4f3f 0e3f
00000070: bb1e 833e 7ca0 80bf 4048 babf 1840 debf
00000080: 6387 713e 3894 a43e 151b 1cbe f7da df3f
00000090: 7209 03bf f4dc b73e 6329 473f 8812 42bf
000000a0: bc20 883f 3b1f f93e 1ac8 1c3f c12e 84bf
000000b0: 6c01 eabe 1dd2 f63d de62 623e 1af5 733e
000000c0: ac33 5a3f 8761 b33d 4de4 0dbf cafb 75be
000000d0: 6931 d03e f300 63be e204 31be 1bc1 783e
000000e0: 4f80 9ebf 3a1f 2a3f ae77 853e 9d21 cdbd
000000f0: 49cd f33e 263e 6dbf 6fb7 19bf 3cdc 47bf
00000100: c272 ac3c 06bb 9f3b 086b 75be ad23 643f
00000110: b9ce 93be b2ad afbf 21c4 0b3f b74a b6be
00000120: 93bb e93e 0f7c 243e 116c 1c3f 7411 d3be
00000130: 2158 5c3f 3428 36bd 455d cf3e b54f 3d3d
00000140: 77d6 cd3e e023 27c0 f92e bfbe 48b7 10c0
00000150: 192b b83f 011e 5abf 90d6 f73f 2d7e 07bf
00000160: 6fc0 bdbe b0da c83e 7f4c 0ebe fef1 0dc0
00000170: fd4a c9be 5180 eabe f642 a0be 946e d2be
00000180: 5372 3bbe 4f11 80be b288 973c cbb2 353e
00000190: 9548 153f 3795 35c0 24cf 4cbd 8264 893b
000001a0: b0e7 f5bd 5f85 eabd a36a c13e 8994 a73d
000001b0: 5d05 de3f fa87 7cbf 2dfe 993e 8bdb 19bf
000001c0: 3138 7cbe 91ac 2fc0 2300 28be ab4a 3bc0
000001d0: 89a2 193f a999 90bf 6825 0b40 a315 68bf
000001e0: 92bc 3d3f daa1 cc3d 8a64 59bf ad09 09c0
000001f0: be94 95c0 19cf ba3d e8e0 f23c 7ce3 77bd
00000200: 5a9c cebe 1e14 c9be ff17 083e ac45 10bf
00000210: d605 813f e8a9 f9bf 62d2 4bbe c54d 0b3e
00000220: 7ab4 a4be 4d51 ebbe 0198 48bd ad60 673e
00000230: 90b9 e53f e8b0 acbf 5f8a 513e aa02 f1be
00000240: 48a9 9abf 98f8 9abf afb3 e63b 4805 3dbf
00000250: 3561 88be 95a1 08be 610d bb3f 2893 9ec0
00000260: 14cc 743f 85f9 67be b54a a7c0 246a 16bf
00000270: 240e c6c0 40fc 5f3e d602 d93d 2d40 1e3e
00000280: 424b 24bf c992 1ebf a59c 823e 5a4b 89bf
00000290: 5577 c53f 3f3b 30c0 b22e edbe fb3a ae3e
000002a0: cb13 09bf aa97 3dbf 23a2 dfbe ddbd f03e
000002b0: 16ba 943f e249 72c0 ef86 a0bd 2e9b 41bf
000002c0: e5e2 25c0 debf 86bf 32a3 a13d 31b2 85bf
000002d0: 47b1 66bf d7e0 463f 3148 af3e e52c 81c0
000002e0: 1ab7 b03f 02e1 04bf a73e 01c1 ab40 82bf
000002f0: 5156 a1c0 2ef0 033f e0e2 a83e 7d54 cd3e
00000300: 4f31 6dbf 0787 4fbf 163d ac3e 77ab c0bf
00000310: 3b51 d93f f55e 28c0 c087 1bbf 912b f73e
00000320: 6d04 2abf 5b83 8abf e821 54bf 410c 153f
00000330: 4d2d 6c3f b5b6 bac0 6bb8 98be 8c0e f2bf
00000340: 2654 6bc0 5c75 d5bf 9c8f 2f3e 561e a9bf
00000350: 7676 b9bf c5ec a63f 32cf 9dbe 7893 06c0
00000360: 5f52 cb3f 0b5b 61bf 7749 a7c0 51b5 b1bf
00000370: bb00 87c0 a855 2f3f 36f5 003f d57d 0f3f
00000380: 1474 4bbf a101 93bf 72e5 e03e 1344 cdbf
00000390: 4226 e23f 04fe 45c0 afc6 5bbf d78d 073f
000003a0: 2e12 50bf 2c5b 83bf b602 56bf eb75 223f
000003b0: 1854 0abe 86b9 04c1 007f 8abe 2792 93c0
000003c0: da09 8dc0 e128 27c0 123d c73e 000c d4bf
000003d0: 9bfe dabf 4497 4040 4e35 82bf 6895 f2be
000003e0: c8ee ae3f 47e6 50bf f06b 9fc0 1908 eebf
000003f0: b0ec 41c0 dde9 3d3f ab90 fe3e 32b4 1d3f

fc.bias f4 [8]
-0.30991876 -0.6700859 -0.49166855 -0.6007102 0.3578079 0.53696185 1.1339514 0.90975225
00000000: acad 9ebe c08a 2bbf fbbb fbbe 25c8 19bf
00000010: 9932 b73e 5576 093f 5225 913f 86e5 683f
