models/best_model_GAT_MCC.pth (torch, 11618 bytes, 18 tensors)

conv1.att_src f4 [1, 1, 32]
0	0x3e1e69b6	0.15470013
1	0xbea1f318	-0.31630778
2	0xc03b8c81	-2.9304507
3	0xbebcb132	-0.3685394
4	0xc1049c2d	-8.288129
5	0x3f207a96	0.6268705
6	0x3feda0c8	1.8564692
7	0x3f80479d	1.0021855
8	0x3eb5c930	0.35505056
9	0x3e7de77d	0.24795337
10	0xc04f13ed	-3.2355912
11	0x40b32450	5.5981827
12	0x40517920	3.273018
13	0x3f35c72a	0.71007025
14	0xc03e02e1	-2.9689257
15	0xbf8c7dfc	-1.0975947
16	0x40043de4	2.0662775
17	0x3ffce817	1.9758328
18	0xbe6f10bd	-0.23346229
19	0x3f082585	0.5318225
20	0x400054ef	2.005184
21	0xbf732d21	-0.94990736
22	0xbeebd742	-0.46062666
23	0x3f9f0b51	1.2425328
24	0x3f181fa5	0.59423286
25	0x3f846776	1.0344074
26	0x3e57b577	0.21065317
27	0xbf52aae1	-0.8229199
28	0xbf9d22e0	-1.2276268
29	0xbeca34b0	-0.39493322
30	0xc10b66d1	-8.712602
31	0xbf2b53d2	-0.66924775

conv1.att_dst f4 [1, 1, 32]
0	0x3f762f18	0.9616561
1	0x3f331c13	0.6996471
2	0x3f2d33a2	0.6765691
3	0xbf56fd79	-0.8398052
4	0x3eae5bc3	0.34054384
5	0x3eb53834	0.35394442
6	0xbf1aee34	-0.6051972
7	0x3e99b0d7	0.3001773
8	0x3f938688	1.1525431
9	0x3eda77f1	0.42669633
10	0xbe068093	-0.13134985
11	0xbdf2ac2d	-0.11849246
12	0xbeab52a8	-0.334615
13	0xbe5a8501	-0.213398
14	0x3ea3f53c	0.32023036
15	0xbf31dd95	-0.6947873
16	0xbd2194c8	-0.03944853
17	0xbdb8a6d3	-0.09016194
18	0x3f6366a7	0.8882851
19	0xbededc4a	-0.43527442
20	0xbd4f0309	-0.050540004
21	0xbed6312d	-0.41834393
22	0xbf458547	-0.7715649
23	0xbd3c3e34	-0.04595776
24	0xbedf6e7f	-0.4363899
25	0x3ecb170b	0.39666018
26	0x3effb5d0	0.499434
27	0x3f0494db	0.51789635
28	0x3f5dcf92	0.8664485
29	0xbf854b2c	-1.0413566
30	0x3e09aa1e	0.13443801
31	0x3ee27e87	0.44237158

conv1.bias f4 [32]
0	0x3c769dd0	0.015052274
1	0xbb8a96f4	-0.004229421
2	0x3b2788d4	0.0025563734
3	0x3cad2fb2	0.021140907
4	0xbb3834d5	-0.0028107662
5	0x3cd9a4f6	0.026567917
6	0x3c99a8a4	0.018757172
7	0xbccab608	-0.024745002
8	0xbc2a8184	-0.0104068555
9	0x3cddc9bb	0.027073732
10	0xbc4a3f89	-0.0123442495
11	0x3c466904	0.012109999
12	0xbbac9d27	-0.0052677575
13	0xbcdc7926	-0.026913237
14	0xbcb27d88	-0.021788374
15	0xbc4c68d6	-0.012476167
16	0xbd1d6de3	-0.038434874
17	0x3db8c80b	0.0902253
18	0xbdad509f	-0.08462643
19	0xbc237137	-0.009975723
20	0xbe025e78	-0.1273135
21	0x3bc5ed91	0.006040283
22	0xbbcd2753	-0.0062607913
23	0xbd25c333	-0.04046936
24	0x3d2d1bbc	0.042262778
25	0xbdec897e	-0.11549662
26	0x3b833325	0.0040038996
27	0xbc81fa73	-0.015866494
28	0x3d06db95	0.032924253
29	0x3c943d4e	0.018095639
30	0xbc9ae942	-0.018910054
31	0xbc3bc4ac	-0.011460464

conv1.lin.weight f4 [32, 8]
0	0x3eba5c7a	0.3639868
1	0xbd73453b	-0.059392195
2	0x3e8cf891	0.2753339
3	0xbcc26225	-0.02372844
4	0xc17e7531	-15.903611
5	0x405fd35b	3.497275
6	0x4084c6e9	4.149281
7	0xc020e5da	-2.514029
8	0x40815318	4.0413933
9	0x40f65461	7.6978
10	0x406aeae8	3.6705875
11	0x3e15b60b	0.14620225
12	0x41b83f32	23.030857
13	0x3fc2e412	1.5225852
14	0x4051589f	3.271034
15	0x4093cbc9	4.618626
16	0x3e73bdf1	0.23802926
17	0x4095f814	4.686533
18	0x3ebffd24	0.37497818
19	0xbc7cecf1	-0.015437351
20	0x420a3e70	34.560974
21	0xc0ab19c3	-5.3468947
22	0x3f6c4a1f	0.923006
23	0x4112931e	9.160917
24	0xc0b5a61a	-5.676526
25	0xc05e3fe5	-3.4726498
26	0xc0b084fd	-5.516234
27	0x3b858fe7	0.0040759924
28	0x41d29086	26.320568
29	0xc16c9de7	-14.78855
30	0xc09f6032	-4.9804926
31	0x417a6559	15.649743
32	0x3ed1e790	0.4099698
33	0x407ae468	3.9201908
34	0x3e12ef6d	0.14349146
35	0xbde84a92	-0.11342348
36	0x420af038	34.73459
37	0xc094bcb4	-4.648035
38	0x3c5490a7	0.012973941
39	0x41133b0f	9.201919
40	0x40031b8e	2.0485568
41	0x3fbf7654	1.4957986
42	0x40241174	2.5635653
43	0x3d8d022b	0.06885179
44	0xc2029a6a	-32.650795
45	0x412df2d8	10.871788
46	0x40a30f1a	5.0955935
47	0xc1237731	-10.216599
48	0xbf5c3d4c	-0.8603103
49	0xc0b6ac42	-5.7085276
50	0xbf18536d	-0.595023
51	0xbcb1e710	-0.021716624
52	0xc2041f27	-33.030422
53	0x4091cdb7	4.5563617
54	0xbedb873c	-0.42876613
55	0xc11a37b6	-9.638601
56	0x3f3ebdd0	0.7450838
57	0xc039adb8	-2.901228
58	0x3eddc487	0.43314
59	0x3ec1accf	0.37827155
60	0xc1f0333b	-30.025015
61	0x40b9a20f	5.8010325
62	0x3fc8bcf5	1.5682665
63	0xc0f52371	-7.6605763
64	0x402031f5	2.5030491
65	0x3faccbb0	1.349966
66	0x4026cf21	2.6063921
67	0x3eba2afe	0.36360925
68	0xc1b6e643	-22.862432
69	0x41229166	10.160498
70	0x3fc6d726	1.5534408
71	0xc0d1fd09	-6.562138
72	0x4015a459	2.338156
73	0x3f78135d	0.96904546
74	0x403a9df7	2.9158914
75	0x3f07238a	0.52788603
76	0xc196f205	-18.868174
77	0x41069561	8.411469
78	0x4014aff3	2.323239
79	0xc0c13911	-6.038216
80	0x3db2b2a2	0.08725478
81	0x4068a3b8	3.6349926
82	0x3ac9fad3	0.0015409834
83	0x3df3a879	0.11897368
84	0x420a5ca8	34.590485
85	0xc0ba3d1d	-5.81996
86	0xbefac8ed	-0.4898142
87	0x4120c6f8	10.048576
88	0xbf0fbed4	-0.56150556
89	0xc0a408d0	-5.1260757
90	0xbdd90993	-0.10597529
91	0x3dc37e72	0.09545602
92	0xc20e913d	-35.641834
93	0x40ad0098	5.4063225
94	0xbf27890f	-0.6544351
95	0xc126d83c	-10.427792
96	0xbecd712d	-0.4012541
97	0xc0936f1a	-4.607312
98	0xbec072df	-0.3758764
99	0x3e4c4038	0.19946373
100	0xc20c3eba	-35.061256
101	0x40a28779	5.079037
102	0xbd930b06	-0.07179837
103	0xc11fec8b	-9.99525
104	0xbfae2045	-1.3603598
105	0xc0b42a53	-5.6301665
106	0xbfa92e0c	-1.3217177
107	0x3ec5dcf9	0.3864515
108	0xc1d6d1a9	-26.852373
109	0x40505c7a	3.2556443
110	0xbf25cc21	-0.647646
111	0xc0ce5c38	-6.448757
112	0xbda6938a	-0.081336096
113	0x4079dbea	3.9040475
114	0xbdb7fd57	-0.089838676
115	0x3e628ae1	0.2212329
116	0x420eb28c	35.674362
117	0xc0c3930a	-6.111699
118	0xbf508d6e	-0.81465805
119	0x412861af	10.523849
120	0xbf1d43a0	-0.6143131
121	0x400099f6	2.009397
122	0xbf630b59	-0.8868919
123	0x3cae8e07	0.021307958
124	0x42002c79	32.04343
125	0xc0e38e18	-7.1110954
126	0xbfa49aad	-1.2859703
127	0x410e2ae0	8.885468
128	0x3dc16f10	0.094450116
129	0xc074ba1c	-3.8238592
130	0xbe9d2ca0	-0.3069811
131	0x3e42c807	0.19021617
132	0xc1f93f1b	-31.155813
133	0x407aafbc	3.916976
134	0xbe141e83	-0.14464764
135	0xc0f28ed3	-7.5799346
136	0xbe94d9fe	-0.29072565
137	0xc089f2bc	-4.3108807
138	0xbe74d143	-0.23907952
139	0x3e3b1111	0.18268229
140	0xc1edc390	-29.72049
141	0x4056b721	3.3549273
142	0x3dd1e883	0.10249426
143	0xc0e0e851	-7.028359
144	0x40fc43ab	7.8832603
145	0x40cb296c	6.3488064
146	0x40fad26a	7.8381853
147	0xbb9cbb9f	-0.0047831084
148	0x41784dc9	15.5189905
149	0x4146f060	12.433685
150	0x40837807	4.108402
151	0xc139f909	-11.6233
152	0xc006b30c	-2.1046782
153	0xc0f4605a	-7.6367617
154	0xc00bce15	-2.1844532
155	0xbd9c7669	-0.076397724
156	0xc1d4db98	-26.607224
157	0x3fe4b596	1.7867916
158	0xc04f78c2	-3.2417455
159	0xc0e30cb3	-7.0953
160	0x3d07c2a3	0.033144604
161	0xc0984f09	-4.759648
162	0x3e30c690	0.17263246
163	0x3e999af3	0.3000103
164	0xc203256e	-32.786552
165	0x40c9c2e7	6.305042
166	0x3e5a7c38	0.21336448
167	0xc11822f5	-9.508534
168	0xbf0e7e8e	-0.5566186
169	0x403eef13	2.983342
170	0xbf4ad6b1	-0.79233843
171	0x3e9f61b3	0.31129226
172	0x41fb8f74	31.445045
173	0xc0c9b5c9	-6.3034406
174	0xbf863f39	-1.0488044
175	0x410bf1cc	8.746532
176	0xc019917c	-2.3995047
177	0xbf896ae7	-1.0735749
178	0xc0329c35	-2.7907841
179	0x3c5bc4b6	0.013413599
180	0x41dcf6f6	27.620586
181	0xc114e687	-9.306281
182	0xc062e0a0	-3.54496
183	0x40f34ae8	7.602894
184	0x3d8572ec	0.0651606
185	0xc06d58dc	-3.7085485
186	0x3e15d7f5	0.14633162
187	0xbf394dec	-0.72384524
188	0xc1f125ce	-30.14346
189	0x40ada46f	5.4263225
190	0x3eceeaaf	0.40413424
191	0xc10001ce	-8.000441
192	0xc01dea92	-2.467442
193	0xc0d7764d	-6.733191
194	0xbff9764f	-1.948923
195	0x3e73ece8	0.23820841
196	0xc1d87230	-27.055756
197	0x40040e9e	2.0633922
198	0xc034161d	-2.8138497
199	0xc0d4a19e	-6.6447287
200	0x3e01f494	0.12690955
201	0xc074da72	-3.8258328
202	0x3e609ce4	0.21934849
203	0xbf335ff2	-0.70068276
204	0xc1ed6da2	-29.678532
205	0x40c1c4cb	6.0552726
206	0x3edc3cca	0.43015128
207	0xc0ecd60b	-7.4011283
208	0x409cd77e	4.901305
209	0x3ff187dc	1.8869586
210	0x409c96cf	4.8934093
211	0x3ed45dde	0.41477865
212	0xc190f880	-18.121338
213	0x41427a51	12.154862
214	0x404eb050	3.2295113
215	0xc11beab4	-9.744801
216	0x400b19a3	2.1734397
217	0x40e2cdcc	7.0876217
218	0x3fe1da92	1.7644827
219	0xbf8c6ce2	-1.0970728
220	0x41eb7980	29.434326
221	0xc0187d04	-2.3826303
222	0x40131fcb	2.2988155
223	0x40fc46b2	7.88363
224	0x3f27c5e3	0.65536326
225	0x40b3413f	5.6017146
226	0x3f43a8fa	0.7642971
227	0xbd618b36	-0.055064403
228	0x4200038d	32.003468
229	0xc0879e15	-4.238047
230	0x402e7ba5	2.7262967
231	0x41122354	9.133625
232	0xbfdac242	-1.7090533
233	0xbe2375f9	-0.15962972
234	0xbfdf322d	-1.7437187
235	0x3e88b47d	0.26700202
236	0x41ca3902	25.277836
237	0xc0f7801a	-7.7343874
238	0xc00e46b8	-2.2230663
239	0x40cd5f56	6.4178877
240	0x3e1db5bf	0.15401362
241	0x4076220a	3.8458276
242	0x3e7b79ca	0.24558178
243	0x3d361104	0.04444982
244	0x42123a69	36.55704
245	0xc0b2ff19	-5.59364
246	0xbf098021	-0.53711134
247	0x413773e9	11.465798
248	0x404520c4	3.0801249
249	0x40f5e18d	7.683783
250	0x402920c9	2.642626
251	0x3cf77381	0.030206444
252	0x41e83359	29.025072
253	0xbdad8397	-0.084723644
254	0x406037ca	3.503405
255	0x40f3724c	7.6077023

bn1.weight f4 [32]
0	0x3fa8a11b	1.3174165
1	0x3f28edbc	0.65987754
2	0x3f602f6b	0.87572354
3	0x3f5f8953	0.87318915
4	0x3f2f3612	0.6844188
5	0x3f7417d8	0.9534888
6	0x3ec867d3	0.39141712
7	0x3f315188	0.6926503
8	0x3ee059c8	0.43818498
9	0x3f29c99f	0.66323274
10	0x3edbc9e1	0.4292746
11	0x3f6e2257	0.9302115
12	0x3f0ddddb	0.5541665
13	0x3f1e0a3b	0.6173436
14	0x3f404eb3	0.75120085
15	0x3f3aebda	0.7301613
16	0x3f2a5766	0.6653961
17	0x3eca1ff8	0.39477515
18	0x3fa0f8c8	1.2575922
19	0x3f087a6a	0.5331179
20	0x3f2a6477	0.6655955
21	0x3f4b91d2	0.7951938
22	0x3f0f931e	0.5608386
23	0x3f8860ab	1.0654501
24	0x3ec21455	0.37906137
25	0x3f93c333	1.1543945
26	0x3f8a43e2	1.0801966
27	0x3f259d87	0.6469349
28	0x3fad61a1	1.3545419
29	0x3f1dbd1c	0.61616683
30	0x3e7305b8	0.2373265
31	0x3f1bac54	0.60809827

bn1.bias f4 [32]
0	0xbf45277d	-0.7701338
1	0x3edefbc8	0.4355147
2	0xbf2f759b	-0.68538827
3	0x3f60ca12	0.87808335
4	0x3d438696	0.047735773
5	0xbf6a870f	-0.91612333
6	0xbdf06bd5	-0.11739317
7	0xbf1ad235	-0.60477
8	0x3e994f1b	0.29943165
9	0x3d4ac3c6	0.04950311
10	0xbf1ba55f	-0.6079921
11	0xbf436552	-0.7632648
12	0xbec62a73	-0.3870426
13	0xbf11d27b	-0.5696179
14	0x3ed924e6	0.42410964
15	0xbeadf8d6	-0.3397891
16	0xbe4f77f8	-0.20260608
17	0xbe7df53a	-0.24800578
18	0x3ed510c0	0.41614342
19	0xbe511dab	-0.20421474
20	0xbf1220f0	-0.5708151
21	0xbfb22e84	-1.3920445
22	0x3eb5f7bc	0.3554057
23	0xbd982472	-0.074288264
24	0xbe3946d8	-0.18093431
25	0xbb15b2ed	-0.0022842244
26	0xbd30fc4a	-0.04320935
27	0x3dca278b	0.098708235
28	0xbfa6e4bb	-1.3038553
29	0xbe147c4d	-0.14500542
30	0xbed1f7d6	-0.41009396
31	0x3dde798f	0.10863029

bn1.running_mean f4 [32]
0	0xc3c0b80d	-385.4379
1	0x452016fc	2561.4365
2	0xc3434ced	-195.30049
3	0x422140a8	40.31314
4	0xc4f7e0a8	-1983.0205
5	0x4499ad35	1229.4127
6	0xc3b36953	-358.82285
7	0x45ccdc94	6555.5723
8	0x45c52709	6308.8794
9	0x460ee1d8	9144.461
10	0x44fd28f8	2025.2803
11	0x44d10203	1672.0629
12	0x4558aa41	3466.6409
13	0x45d10ba9	6689.4575
14	0x456cccd6	3788.8022
15	0x43a8ef10	337.86768
16	0x454ea494	3306.2861
17	0x45468eb8	3176.92
18	0xc280d489	-64.41511
19	0xc4a6654d	-1331.1656
20	0x45a299e8	5203.2383
21	0x45a6e4a0	5340.578
22	0x435054af	208.3308
23	0xc642af00	-12459.75
24	0x45810092	4128.0713
25	0xc63c70cb	-12060.198
26	0x45e0f71b	7198.888
27	0xc69403eb	-18945.959
28	0xc4657223	-917.7834
29	0x458ee122	4572.1416
30	0x443903f3	740.0617
31	0x4401fb4c	519.9265

bn1.running_var f4 [32]
0	0x47d7add0	110427.625
1	0x4a90f6c6	4.750179e+06
2	0x46c7979e	25547.809
3	0x453c8a2b	3016.6355
4	0x4a2fdc0b	2.8812828e+06
5	0x49842a40	1.082696e+06
6	0x47b69ab9	93493.445
7	0x4befd687	3.1436046e+07
8	0x4bddaed1	2.9056418e+07
9	0x4c6900b0	6.1080256e+07
10	0x4a375e29	3.0042982e+06
11	0x49fa5c91	2.0509621e+06
12	0x4b065ef2	8.80613e+06
13	0x4bfa51f3	3.2809958e+07
14	0x4b207553	1.0515795e+07
15	0x47a638b0	85105.375
16	0x4af47213	8.0099935e+06
17	0x4ae1a353	7.3937055e+06
18	0x45d74476	6888.5576
19	0x499c8a87	1.2823849e+06
20	0x4b9738d0	1.982096e+07
21	0x4b9f8189	2.090677e+07
22	0x47087c61	34940.38
23	0x4cd8d015	1.1367236e+08
24	0x4b3f3fe2	1.253373e+07
25	0x4ccb234f	1.06502776e+08
26	0x4c100d5a	3.776241e+07
27	0x4d7ad9cc	2.630361e+08
28	0x4916fff6	618495.4
29	0x4b6a5073	1.5356019e+07
30	0x48c3b61b	400816.84
31	0x4836e0b6	187266.84

conv2.att_src f4 [1, 1, 16]
0	0x411ae5b3	9.681079
1	0xc1150541	-9.313783
2	0xc125d743	-10.365054
3	0x3fd31408	1.6490488
4	0xc0be9b04	-5.956423
5	0xc02986e3	-2.6488578
6	0x412d629c	10.836575
7	0x3e57c8c9	0.21072687
8	0x3fc7116b	1.555219
9	0x402563a7	2.5842073
10	0x40e00bf0	7.001457
11	0xbfc7c574	-1.5607133
12	0xc0d33ce0	-6.601181
13	0xc050fc26	-3.26539
14	0x41222505	10.134038
15	0xc113123b	-9.191951

conv2.att_dst f4 [1, 1, 16]
0	0x3db3dede	0.08782743
1	0xbfa01b37	-1.2508305
2	0x3f2b96c4	0.67026925
3	0x3f39b60e	0.7254342
4	0x3ee86a74	0.45393717
5	0x3ed39dc3	0.413313
6	0x3fa46500	1.2843323
7	0x3f8fbdc6	1.1229789
8	0x3f5b7654	0.8572743
9	0x3d9a5ad8	0.07536858
10	0xbefeb95d	-0.49750796
11	0x3e6a00b5	0.22851832
12	0xbf38d5a9	-0.7220102
13	0x3e613d31	0.21995999
14	0x3ea95051	0.3306909
15	0xbf50d346	-0.8157238

conv2.bias f4 [16]
0	0xbe308f1c	-0.17242092
1	0x3e81e3be	0.25369066
2	0x3efa633e	0.4890384
3	0xbd561610	-0.052267134
4	0x3f30e310	0.6909647
5	0x3e1a79c3	0.15085511
6	0xbe7724b8	-0.24135101
7	0xbf2d6189	-0.6772695
8	0xbeb8cfe9	-0.36096123
9	0x3db56626	0.08857374
10	0x3eb7dd87	0.359112
11	0xbed8f66b	-0.42375502
12	0xbf2de773	-0.6793129
13	0x3fa426d9	1.2824355
14	0x3f6c19f8	0.92227125
15	0x3f0a8934	0.54115605

conv2.lin.weight f4 [16, 32]
0	0xbeac1be1	-0.3361502
1	0x3ec7353e	0.38907808
2	0xbe50d636	-0.20394215
3	0xbec2a876	-0.3801915
4	0xbe8fef33	-0.28112182
5	0x3c344593	0.011002916
6	0xbda5b7fa	-0.08091731
7	0xbd0d3426	-0.03447356
8	0x3e808491	0.2510114
9	0xbd71bc2e	-0.059017353
10	0xbdf079c9	-0.11741979
11	0x3e721fd1	0.2364495
12	0xbe797e1c	-0.24364513
13	0x3d904810	0.07044995
14	0x3dc7316b	0.097262226
15	0xbe0a8d3b	-0.13530438
16	0xbb9c1721	-0.0047634994
17	0x3e87afa1	0.26501182
18	0x3f40f1e6	0.7536911
19	0x3dcc84ba	0.09986253
20	0xbe8f1a3a	-0.27949697
21	0xbf415f1c	-0.7553575
22	0xbe8410e8	-0.25794148
23	0xbe53c6a8	-0.2068125
24	0xbda768a7	-0.08174258
25	0xbdf05acc	-0.11736068
26	0x3eb77a4b	0.3583549
27	0xbee03bc0	-0.43795586
28	0x3f720d75	0.94551784
29	0xbefc50c4	-0.4928037
30	0xbd973a7f	-0.07384204
31	0x3df42403	0.11920931
32	0x3e880bb3	0.26571426
33	0xbe893939	-0.2680147
34	0x3d39e061	0.04538
35	0x3e1f61f6	0.15564713
36	0xbde2df82	-0.11077787
37	0xbf0ab979	-0.5418926
38	0x3da62672	0.081128016
39	0xbd64de7e	-0.055876248
40	0xbe5d5a29	-0.21616425
41	0xbe57b7ac	-0.21066159
42	0x3e68ebaa	0.22746149
43	0x3f1d46aa	0.6143595
44	0xbe59ba40	-0.21262455
45	0x3ebb3389	0.36562756
46	0xbe4b2e13	-0.19841795
47	0x3e578a3a	0.21048823
48	0x3e50a1de	0.20374247
49	0x3e1f6b0c	0.15568179
50	0xbf44d240	-0.76883316
51	0xbcde4b8c	-0.027135633
52	0x3e758d1c	0.2397961
53	0xbef5d110	-0.48011065
54	0xbe7d5d19	-0.24742545
55	0x3eddfa72	0.43355137
56	0xbd19b5a0	-0.037526727
57	0x3e319d9f	0.17345284
58	0xbeada08d	-0.33911553
59	0x3ddc0b00	0.107442856
60	0xbd0cc0fc	-0.03436373
61	0x3e09eea4	0.1346994
62	0xbd1539dc	-0.036432132
63	0x3d9916bc	0.07475039
64	0xbdae8575	-0.08521549
65	0xbe95323c	-0.29139888
66	0x3fa2c69d	1.2716862
67	0x3f2dacb1	0.6784163
68	0x3de35bab	0.11101469
69	0xbe04f056	-0.12982306
70	0x3dcf4679	0.101208635
71	0x3ed42bef	0.4143977
72	0xbe2db280	-0.16962624
73	0xbf0e36ee	-0.55552566
74	0x3dc928e4	0.098222524
75	0xbbe33b09	-0.006934528
76	0xbe7dd7b1	-0.24789311
77	0xbea01e34	-0.31273043
78	0x3d0588df	0.032601234
79	0x3e88a846	0.26690882
80	0xbde45f51	-0.11150993
81	0x3e81d56a	0.25358135
82	0xbf1ad7e2	-0.6048566
83	0x3b8c06a7	0.004273254
84	0x3e655205	0.22394569
85	0x3eee1884	0.4650308
86	0x3ee4b4ad	0.44669095
87	0x3dccc4f6	0.09998505
88	0x3deec727	0.11659079
89	0x3e8629ee	0.26203865
90	0xbea35a0a	-0.31904632
91	0x3e4c49dc	0.1995005
92	0xbeb01988	-0.3439448
93	0x3d53f316	0.051745497
94	0x3edffc98	0.437474
95	0xbf1bf8f2	-0.60926735
96	0x3e4bff1d	0.19921537
97	0xbdc3ce7d	-0.09560869
98	0x4070cbd9	3.7624419
99	0xbd832a94	-0.064046055
100	0x3e592415	0.2120517
101	0xbd1ecd77	-0.038770165
102	0xbe290e49	-0.16509356
103	0x3ec79134	0.3897797
104	0x3dd21cb2	0.102593794
105	0xbc77ebdd	-0.015131918
106	0xbe28027b	-0.16407196
107	0xbe33e645	-0.1756831
108	0x3e24833d	0.16065688
109	0x3ddc445c	0.10755226
110	0x3db31120	0.08743501
111	0xbda908fc	-0.08253667
112	0xbe142b28	-0.14469588
113	0xbd98a0fb	-0.074525796
114	0xbdc8165d	-0.097698905
115	0x3c8af0be	0.016960498
116	0xbe1f611b	-0.15564387
117	0xbdf197f9	-0.117965646
118	0x3e566a05	0.2093888
119	0x3e99d2fd	0.30043784
120	0xbe057692	-0.13033512
121	0xbe6aeefb	-0.22942726
122	0xbd81a4a0	-0.06330228
123	0x3ec96660	0.39335918
124	0x41bd94b6	23.697613
125	0xbc68b103	-0.014202359
126	0x3efce875	0.493961
127	0x3dbe4a01	0.09291459
128	0xbca740a6	-0.020416569
129	0xbec63649	-0.3871329
130	0xbf33bda3	-0.7021124
131	0x3f3140fb	0.6923978
132	0x3e3f7a9f	0.1869912
133	0xbe61beaa	-0.22045389
134	0x3e8f9532	0.28043514
135	0xbf15240b	-0.5825812
136	0x3c4a545c	0.012349214
137	0x3dbf206b	0.09332355
138	0x3f0a56b4	0.5403855
139	0x3df14fd7	0.11782806
140	0x3e15015c	0.145513
141	0x3f27deab	0.6557414
142	0x3d6ee016	0.058319174
143	0x3e3ff720	0.18746614
144	0xbd85e9ee	-0.06538759
145	0x3dc8a7ae	0.09797607
146	0xbe89acc2	-0.26889616
147	0x3f021178	0.50807905
148	0xbdcdca25	-0.10048322
149	0x3fc6d2ae	1.5533044
150	0x3ec1d226	0.37855643
151	0x3de2c3f8	0.11072534
152	0x3ea09041	0.31360057
153	0x3d9448ce	0.07240449
154	0xbeef0a12	-0.4668737
155	0x3dbd7e5e	0.09252618
156	0xbfc9738d	-1.5738388
157	0x3ec28268	0.37990117
158	0x3e0ed158	0.13947046
159	0xbeaa79b7	-0.33295986
160	0xbedda3b1	-0.4328895
161	0xbcd534e2	-0.026026193
162	0xbf75fe83	-0.9609148
163	0x3d10035a	0.035159446
164	0xbe2395ce	-0.15975115
165	0xbe29023a	-0.16504756
166	0xbe14f6dd	-0.14547296
167	0xbe152974	-0.14566594
168	0x3dce168d	0.10062895
169	0x3e073ad4	0.13206035
170	0x3f16b79d	0.5887392
171	0x3f3a55af	0.7278699
172	0xbbb4b91b	-0.0055152304
173	0x3e4be951	0.19913222
174	0x3e8aeee9	0.271354
175	0x3e8e8c9c	0.2784165
176	0xbe174988	-0.14774144
177	0xbe163f6c	-0.14672631
178	0x3e2d30c2	0.16913131
179	0x3e57d4c0	0.21077251
180	0xbdfd65b0	-0.12372911
181	0x403ce45e	2.9514384
182	0x3e9bca07	0.30427572
183	0xbe81edcd	-0.2537674
184	0x3d7bebfd	0.061504353
185	0xbc1d3cf5	-0.009597053
186	0x3da64b26	0.08119802
187	0xbe927ebf	-0.28612325
188	0xbfcc0346	-1.5938499
189	0x3db586b2	0.08863582
190	0x3ecc0ac5	0.39851967
191	0xbe8c5c37	-0.27414104
192	0x3e5a7c35	0.21336444
193	0x3ed72fac	0.42028558
194	0x3f45292a	0.77015936
195	0xbf288865	-0.6583312
196	0xbe962f97	-0.29333183
197	0x3efb85be	0.49125475
198	0x3e08f721	0.13375522
199	0x3e98c1f9	0.2983549
200	0x3e2a2da4	0.16618973
201	0xbb15e123	-0.0022869788
202	0x3ceda3aa	0.029008705
203	0xbf2d264f	-0.6763658
204	0x3e081e77	0.13292871
205	0xbe4d066c	-0.20021981
206	0x3ee4768f	0.44621703
207	0xbef963f5	-0.48709074
208	0xbedc6f3c	-0.43053615
209	0xbe1c7fa8	-0.15283072
210	0x3ee89bc7	0.4543135
211	0xbe7de620	-0.24794817
212	0x3d1b718d	0.037950087
213	0x3d681d9a	0.056668855
214	0xbe92e476	-0.28689927
215	0xbe6f23ba	-0.23353472
216	0xbd7a37d6	-0.061088406
217	0xbe6976b8	-0.22799194
218	0x3ef2158e	0.4728207
219	0x3e56be23	0.20970969
220	0x403504b4	2.828412
221	0xbe016cd4	-0.12639171
222	0x3eb79a15	0.35859743
223	0x3e59ff4a	0.21288791
224	0xbfa1c6b9	-1.263877
225	0xbe84dc77	-0.2594945
226	0xc0f860e6	-7.7618284
227	0x3d693b4a	0.056941308
228	0x3d858c63	0.06520917
229	0x3e482da0	0.19548655
230	0xbe2abafc	-0.16672891
231	0xbfb53f01	-1.4159852
232	0xbdc033b3	-0.09384861
233	0xbd05b5f8	-0.032644242
234	0x3e839313	0.25698146
235	0x3e7d0eb5	0.24712642
236	0x3e984ba9	0.29745224
237	0x3e1a1d8b	0.15050332
238	0x3e856084	0.26050198
239	0x3df0a561	0.117502935
240	0x3de4a253	0.111637734
241	0xbda6bf90	-0.081420064
242	0xbb4c01f6	-0.0031129098
243	0xbe58fe34	-0.21190721
244	0x3eca79d6	0.39546078
245	0x3ebb2b53	0.3655649
246	0xbe4fec15	-0.20304902
247	0xbdb3c0e6	-0.08777027
248	0x3c8af9e0	0.016964853
249	0xbeb603dc	-0.3554982
250	0x3c5503e2	0.013001414
251	0x3e867564	0.26261437
252	0xc18e8671	-17.815645
253	0xbd11172e	-0.035422496
254	0xbfab0606	-1.3361213
255	0xbd650559	-0.055913303

bn2.weight f4 [16]
0	0x4007a9d4	2.1197405
1	0x4029d199	2.6534178
2	0x4001ca2e	2.027965
3	0x3ff7f58d	1.9371811
4	0x40087122	2.131905
5	0x403e85d3	2.976918
6	0x3fe536f3	1.7907394
7	0x3f9fb30f	1.2476519
8	0x3ffb7a51	1.9646703
9	0x3fb43d87	1.4081277
10	0x3ff91b9f	1.9461554
11	0x3fe9ba8e	1.8260057
12	0x40602e07	3.5028093
13	0x3ff81911	1.938265
14	0x4012a6b3	2.2914245
15	0x401ed93e	2.4820094

bn2.bias f4 [16]
0	0x3f95bd4e	1.1698396
1	0x3e8e427b	0.27785096
2	0xbf5799a3	-0.84218806
3	0xbedfcf45	-0.43712822
4	0x3e748ec5	0.23882587
5	0x3f1ca684	0.6119158
6	0x3f7d6a69	0.98990494
7	0x3fcd35f5	1.6032091
8	0x3ef0783a	0.46966726
9	0xbf9e6cdc	-1.2376971
10	0x3fb2047b	1.3907617
11	0x3f899336	1.074805
12	0x3f4e9216	0.8069166
13	0x3f88d1e1	1.068905
14	0x400d0236	2.20326
15	0xbd89335a	-0.06699248

bn2.running_mean f4 [16]
0	0x3cf5294b	0.029926917
1	0xbed113de	-0.4083547
2	0x3ecd45b2	0.40092236
3	0x3f90aba1	1.1302377
4	0x3f88b70a	1.0680859
5	0x3eab87cc	0.33502042
6	0xbcdc41b6	-0.026886802
7	0xc00a985d	-2.1655495
8	0x3f9ea07c	1.2392726
9	0xbc4a0c18	-0.012331985
10	0x3b933e6d	0.0044935257
11	0xbfeffeef	-1.8749675
12	0xbfbaab87	-1.4583596
13	0x3f36ff4f	0.7148332
14	0x3fb1af0a	1.3881543
15	0x3d1a206b	0.037628572

bn2.running_var f4 [16]
0	0x3e82a2d3	0.2551485
1	0x3e36b40d	0.17842121
2	0x3eec2605	0.46122757
3	0x410fc766	8.986181
4	0x3f3cade4	0.73702836
5	0x3f88b3e7	1.0679902
6	0x3f2b0eea	0.6681963
7	0x4119fa98	9.62368
8	0x3eccebc2	0.4002362
9	0x3f00a002	0.5024415
10	0x3e9c001a	0.30468827
11	0x4096b6af	4.7098002
12	0x3fc7ca3b	1.5608591
13	0x3f754186	0.95803106
14	0x3f2651ad	0.6496838
15	0x3e2329b7	0.15933882

fc.weight f4 [8, 16]
0	0xbfd1e9a9	-1.6399432
1	0x3f89c195	1.0762202
2	0x3d5de75c	0.05417572
3	0xc064e67f	-3.5765684
4	0x3ed83957	0.42231247
5	0x3f5188eb	0.81849545
6	0xc00924da	-2.1428742
7	0x3e0f20a7	0.139773
8	0x3f259fbc	0.6469686
9	0xbff2052b	-1.8907827
10	0xbfae1ecd	-1.360315
11	0x3dc8c439	0.098030515
12	0x3f02ac3c	0.5104406
13	0x3efddbfa	0.4958189
14	0xbfb9d458	-1.4517927
15	0x3f5119a3	0.81679744
16	0xbf35b4e5	-0.7097915
17	0x3f1e0c1f	0.61737245
18	0xbf5e4d5b	-0.86836785
19	0xbf8b546e	-1.0885141
20	0xbf638fbf	-0.88891214
21	0x3b1a2098	0.0023517963
22	0xbef99199	-0.48743895
23	0x3e1b906a	0.15191808
24	0x3f532508	0.8247838
25	0xbe96f8ef	-0.29486796
26	0xbf58b82a	-0.8465601
27	0x3e1a3a3a	0.15061274
28	0x3f0a0ac2	0.53922665
29	0x3e8866b8	0.26640868
30	0xbfcaa7fe	-1.5832517
31	0x3f55cb3f	0.83513254
32	0xbe7587da	-0.23977605
33	0x3e9fca0d	0.3120884
34	0xbf4cfaf1	-0.80070406
35	0xbf0ce42c	-0.5503566
36	0x3c377f8d	0.011199844
37	0xc09bbabe	-4.8665457
38	0xbe546a7d	-0.20743747
39	0x3d32c1b0	0.043641746
40	0x3ef964b8	0.48709655
41	0xbf0d58b1	-0.5521346
42	0xbed481ba	-0.41505224
43	0x3e9dfd0f	0.3085713
44	0xbebaaa67	-0.36458132
45	0xbfc84e8c	-1.5648971
46	0xbf1fbae3	-0.6239454
47	0x3efdc89f	0.49567124
48	0x3d83a8f7	0.06428712
49	0xbde04b57	-0.1095187
50	0x3e9b76e3	0.3036414
51	0xbdb253c0	-0.0870738
52	0x3fa09461	1.2545282
53	0xc088785f	-4.2646937
54	0xbaca8506	-0.0015451021
55	0xbf76d758	-0.9642234
56	0x3ddfdc16	0.1093065
57	0xbeb08401	-0.3447571
58	0x3d01baf4	0.031672433
59	0x3f301c5b	0.68793267
60	0xc06685eb	-3.6019237
61	0xc0951e08	-4.659916
62	0x3d9afddf	0.07567953
63	0x3d7587ba	0.059943892
64	0x3c37b737	0.011213115
65	0xbef13b61	-0.47115615
66	0x3ee759ed	0.45185795
67	0x3d04dc97	0.032436933
68	0x3fb48ca4	1.410542
69	0xbfe00d01	-1.7503968
70	0x3e174a0a	0.14774337
71	0xbfa943a2	-1.3223765
72	0xbe2ca021	-0.1685796
73	0xbdcfd3bb	-0.10147806
74	0x3d1fe61d	0.039037813
75	0xbfeafa85	-1.8357702
76	0xc0deb98a	-6.960149
77	0xc0b346c6	-5.6023893
78	0x3e479bd8	0.19493043
79	0xbeada99f	-0.33918473
80	0x3e63437c	0.22193712
81	0xbf49c13b	-0.7881047
82	0x3f9afc39	1.2108222
83	0x3dd6cee8	0.10488683
84	0x3f8d3403	1.1031498
85	0xbfd71591	-1.6803457
86	0x3e9f043a	0.31057912
87	0xc0731160	-3.7979355
88	0xbf027f8f	-0.5097589
89	0x3dd46b65	0.103720464
90	0x3e94f92c	0.29096353
91	0xc0acba36	-5.397731
92	0xc07e5c09	-3.9743674
93	0xc01ae733	-2.4203613
94	0x3ef29bbb	0.47384438
95	0xbf2e867b	-0.6817395
96	0x3ea4d32f	0.3219237
97	0xbf9846b7	-1.189658
98	0x3fcc6149	1.5967189
99	0x3ec75dcc	0.3893875
100	0x3fa45637	1.2838811
101	0xbfde55dd	-1.7369953
102	0x3ec0c434	0.3764969
103	0xc0c472a0	-6.1389923
104	0xbf626b2d	-0.8844479
105	0x3eac648e	0.33670467
106	0x3edd3ad2	0.4320894
107	0xc0a9c2b6	-5.3050184
108	0xc05b3d46	-3.4256148
109	0xbf420ea2	-0.7580358
110	0x3f1a4855	0.6026662
111	0xbf8bdf0f	-1.0927447
112	0x3ea8c022	0.32959086
113	0xbf944cbd	-1.1585919
114	0x3fde8550	1.7384434
115	0x3f4e9da9	0.8070932
116	0x3fcb024c	1.5860076
117	0xbfeac319	-1.8340789
118	0x3e986b92	0.2976957
119	0xc10f9714	-8.974384
120	0xbfac880c	-1.3479018
121	0x3f39d787	0.72594494
122	0x3ee5ee9e	0.44908613
123	0xc0b8f3dd	-5.7797685
124	0xc0236be5	-2.5534604
125	0x3fbbb821	1.4665567
126	0x3f30cc59	0.6906181
127	0xbf8c6328	-1.096776

fc.bias f4 [8]
0	0xbee2fc3f	-0.44333073
1	0xbe0d2f79	-0.1378764
2	0xbe86e32b	-0.2634519
3	0xbee37350	-0.44423914
4	0x3f2a356d	0.6648777
5	0x3f0137f2	0.5047599
6	0x3f2bc853	0.67102545
7	0xbe4adf21	-0.1981168
