models/best_model_GAT.pth (torch, 19778 bytes, 18 tensors)

conv1.att_src f4 [1, 1, 64]
0.11050304 0.085931785 0.051717002 -0.3907133 -0.2143708 -0.35031748 -0.3047316 0.13507906
0.100007735 -0.22217806 0.27710584 0.23477016 -0.03153634 0.009445271 -0.14668791 -0.19239146
-0.2501036 -0.13466689 0.27265295 0.08624119 -0.31333113 0.26342547 0.019686723 -0.09550292
0.09931436 0.2600646 0.20038427 0.022273704 0.28357375 0.29336494 0.10835055 0.037321817
-0.4023749 -0.13540174 0.14695652 -0.23628668 -0.41638607 0.28812197 -0.24974002 0.2929675
-0.025381774 -0.3988042 -0.16305168 0.036141176 -0.007405822 -0.27325115 -0.03682475 -0.15557294
-0.3634439 0.17575325 0.028840138 0.2403948 -0.31730634 0.12399858 -0.023230134 -0.12626386
-0.25897282 0.039354607 -0.033106565 0.07359613 0.069110446 0.07872714 -0.0024307668 0.082911454
00000000: 6b4f e23d 01fd af3d 35d5 533d 930b c8be
00000010: 0584 5bbe d05c b3be c805 9cbe 2a52 0a3e
00000020: dbd0 cc3d a582 63be d1e0 8d3e 9767 703e
00000030: 402c 01bd 57c0 1a3c 5b35 16be 4402 45be
00000040: 940d 80be 1ee6 09be 2b99 8b3e 399f b03d
00000050: f06c a0be b4df 863e 0d46 a13c 0997 c3bd
00000060: 5465 cb3d 3027 853e 8931 4d3e 5877 b63c
00000070: 9430 913e ee33 963e e5e6 dd3d c3de 183d
00000080: 1504 cebe c1a6 0abe c57b 163e 23f5 71be
00000090: 8e30 d5be b984 933e d9bb 7fbe d6ff 953e
000000a0: 70ed cfbc 1030 ccbe 05f7 26be c508 143d
000000b0: 8aac f2bb 93e7 8bbe 8dd5 16bd 834e 1fbe
000000c0: 5215 babe a9f8 333e 2742 ec3c 0e2a 763e
000000d0: fa75 a2be f8f2 fd3d 1f4d bebc 504b 01be
000000e0: 1698 84be 4c32 213d c09a 07bd 91b9 963d
000000f0: c789 8d3d b23b a13d 804d 1fbb 7bcd a93d

conv1.att_dst f4 [1, 1, 64]
-0.1240524 -0.31514597 0.17946959 0.11016734 0.21996836 0.17573598 0.259141 0.023644146
0.17517722 -0.0964224 -0.20057929 -0.046424184 0.15806146 -0.29764268 0.3112547 -0.28613907
-0.097700946 0.09183275 -0.10536675 0.2234634 -0.30297333 0.15240438 0.1142868 -0.041050103
-0.2455124 0.24499305 -0.046604414 -0.29596975 0.22110298 0.1793158 0.14679608 0.2371218
-0.049824283 0.092264034 -0.1270326 0.0815011 0.076363325 -0.16440925 0.33409017 -0.111045755
-0.032509133 0.19905964 -0.17585091 -0.048248973 -0.12163662 0.1733981 -0.2727971 0.113312185
-0.12300704 -0.07241105 0.23737694 -0.27149808 0.0857897 0.24161507 -0.19240658 -0.18239844
0.091635846 0.015783515 0.07116767 0.158006 0.052963298 -0.1388157 0.23698519 -0.050880414
00000000: 2f0f febd d05a a1be e0c6 373e 6a9f e13d
00000010: 633f 613e 22f4 333e 21ae 843e 5eb1 c13c
00000020: a861 333e 1b79 c5bd a864 4dbe 4927 3ebd
00000030: ddda 213e 9f64 98be c75c 9f3e d280 92be
00000040: 6f17 c8bd cf12 bc3d 86ca d7bd 97d3 643e
00000050: 521f 9bbe e50f 1c3e 330f ea3d 2724 28bd
00000060: 9a67 7bbe 75df 7a3e 45e4 3ebd 5989 97be
00000070: d268 623e 909e 373e b651 163e 0fd0 723e
00000080: 8c14 4cbd edf4 bc3d d514 02be 0cea a63d
00000090: 6064 9c3d e65a 28be de0d ab3e f56b e3bd
000000a0: 4c28 05bd 4ad6 4b3e 4312 34be b7a0 45bd
000000b0: 9f1c f9bd 468f 313e 10ac 8bbe 3810 e83d
000000c0: 1deb fbbd 3f4c 94bd f112 733e cc01 8bbe
000000d0: 83b2 af3d f169 773e 3b06 45be a8c6 3abe
000000e0: 93ab bb3d 6e4c 813c 5bc0 913d 53cc 213e
000000f0: 0bf0 583d b425 0ebe 3fac 723e fb67 50bd

conv1.bias f4 [64]
0.0017032012 -2.0463456e-05 -0.0060888906 -0.0024547214 -0.0013348822 0.0026560454 0.006342055 -0.0061712465
0.0013063311 -0.00048035715 -0.0025351455 0.016068172 -0.0012205673 0.002623157 -0.00033239706 0.00078487245
-0.0014364449 0.00023477798 -0.00031609298 0.0020952902 -0.00047704307 -0.0004049389 0.008613559 0.00057726906
-0.00014195865 0.01585402 0.00022154223 0.0005935334 -0.0042561362 -0.01337376 -0.0005430066 -0.0010213918
-0.0021310237 0.0012214704 -0.00025514074 -0.00054094475 0.013026947 -0.015863113 0.0002487009 -0.0020321012
-0.0005374718 -0.011652976 -0.00013988947 0.00012164231 -2.5185868e-06 0.010831151 -0.0012824321 -0.001922533
0.0006760293 -0.00036878453 0.008841301 -0.0023451473 0.0003738767 0.00016945695 0.0058991024 0.0009059553
-0.003039144 0.0010814309 -0.0008004026 0.00080379413 0.001104682 -0.00010390907 -0.00056794984 0.0004951065
00000000: f33d df3a f0a8 abb7 5185 c7bb 64df 20bb
00000010: 37f7 aeba 0c11 2e3b 03d1 cf3b 2b38 cabb
00000020: 3339 ab3a 72d8 fbb9 af24 26bb 66a1 833c
00000030: 71fb 9fba 46e9 2b3b 9445 aeb9 e6bf 4d3a
00000040: 1847 bcba bc2e 7639 48b9 a5b9 2351 093b
00000050: a31b fab9 fb4d d4b9 e31f 0d3c df53 173a
00000060: bcda 14b9 4ae0 813c ca4d 6839 5a97 1b3a
00000070: 0f77 8bbb 9d1d 5bbc 8e58 0eba 39e0 85ba
00000080: a5a8 0bbb bf19 a03a 69c4 85b9 30ce 0dba
00000090: fa6e 553c 5cf3 81bc 1264 8239 002d 05bb
000000a0: 1fe5 0cba 20ec 3ebc 4baf 12b9 381a ff38
000000b0: fe04 29b6 2475 313c 4817 a8ba 81fd fbba
000000c0: 8f37 313a 6c59 c1b9 1bdb 103c 0bb1 19bb
000000d0: e204 c439 41b0 3139 424d c13b a27d 6d3a
000000e0: 602c 47bb cdbe 8d3a 1cd2 51ba b6b5 523a
000000f0: faca 903a c2e9 d9b8 78e2 14ba 09ca 013a

conv1.lin.weight f4 [64, 5]
0.29136437 -0.08639504 -0.045343004 0.03702929 0.055573955 -1.1877792 -0.99374527 -1.0880274
-0.0072318465 0.21048123 -0.11478925 -0.4927427 0.044745687 0.06988841 0.15721373 0.3144402
1.2861317 0.10051717 0.08388718 0.13665068 -1.4183692 -1.253231 -1.5996858 0.016547542
0.36214304 -1.3948348 -0.67635447 -1.2647507 -0.012255385 0.055330206 0.28859097 0.86849236
0.1336029 -0.016479347 0.27352783 -0.9590905 -1.2108698 -0.84371245 0.0145462705 -0.13791195
1.8560802 1.7707447 1.6593691 0.012429741 -0.27254456 1.2804679 1.8011523 1.1920406
0.006521447 0.3096817 2.264123 2.7136989 2.6583717 0.0073167537 -0.44564033 -0.24083273
-0.17865378 -0.1231247 0.019386234 0.06664742 -0.85094744 -0.51472986 -0.5044184 -0.016025687
0.15565091 -0.40083855 -0.35395113 -0.44022423 0.015466226 0.16299593 0.020242356 0.08224813
-0.28045171 -0.09020847 0.14381224 -1.4413881 -1.5687014 -1.6590093 0.008797372 0.39284328
1.9668492 2.6093802 1.895544 -0.008275644 -0.33015898 -1.1703464 -1.5401969 -1.2699873
0.014282196 0.13276774 1.6019636 2.036738 1.9854264 -0.008747304 -0.3642211 2.397996
2.9840262 2.1095963 0.0064983056 -0.19086587 1.2528127 1.9141953 0.86547387 0.015282251
0.045558922 2.0490646 2.0455203 1.9736367 -0.0066559273 0.11997543 0.01969027 0.30355397
0.47539744 -0.015441052 -0.14546025 -1.2409099 -1.6845473 -1.2341324 0.013746014 0.2317598
2.198438 2.9170034 2.3204927 -0.010878111 -0.31644613 -0.40570116 -1.6272763 0.009816357
0.28917447 0.09675588 0.55628777 -0.1955431 0.35146868 0.041532516 -0.09008456 -2.054438
-2.1009064 -1.7726371 -0.010139348 0.22894959 -0.9496699 -1.6284763 -0.9011827 -0.016154977
0.012539701 0.04573375 -0.035110965 0.033970486 -0.016484559 -0.053441983 1.5382836 1.8777397
1.8036867 0.0074583157 0.13851781 1.0616813 0.9744146 1.0781233 0.017745912 0.2225391
1.2022053 2.2026465 1.087794 -0.011806623 0.20927905 -2.2698898 -2.4148517 -2.563356
0.0049734716 0.1483264 1.3108218 1.2777998 1.4576644 0.017744081 -0.23829296 1.4424323
1.7939968 1.5941627 -0.0029416534 0.1601583 -0.35363698 1.1074396 -0.36329138 0.1940299
0.18274777 -0.19132154 -1.4336821 0.0005375028 0.30763924 0.09375257 2.2333045 2.0833988
2.1741838 0.012959913 -0.10459459 1.1771644 1.5152218 1.2109232 0.01462769 0.00054388127
-1.741023 -2.2590024 -1.8359119 0.012348259 -0.10826544 -0.016910437 1.2348826 -0.32044992
0.30413333 0.34272695 1.8763515 2.0776114 1.5940251 0.010045369 -0.1767622 -1.0447524
-1.1416763 -1.3282111 -0.007854236 -0.10015063 1.0068862 0.6997425 0.69505864 -0.0140626775
-0.023657136 -0.31200764 0.35243016 -0.1986167 -0.021368284 0.010580347 1.0111378 1.4478269
0.8487753 0.01328843 0.15371671 -1.1222695 -1.4985822 -1.0465106 0.013064664 0.2710409
-0.1902722 -0.011299865 -0.37673223 0.021628607 -0.021662882 -1.21031 -1.759855 -0.9292011
-0.005524416 0.21470232 0.27346382 0.45352286 0.5378687 0.20315897 -0.0059952782 -1.0292277
00000000: b62d 953e e2ef b0bd 96b9 39bd 06ac 173d
00000010: 84a1 633d 2609 98bf 1766 7ebf 7b44 8bbf
00000020: 20f9 ecbb 6488 573e a016 ebbd c548 fcbe
00000030: 4147 373d a821 8f3d a3fc 203e 4efe a03e
00000040: f79f a43f f2db cd3d 0bcd ab3d 28ee 0b3e
00000050: 1f8d b5bf e069 a0bf 81c2 ccbf b68e 873c
00000060: d06a b93e f289 b2bf 9125 2dbf 5ae3 a1bf
00000070: cfca 48bc eda1 623d 32c2 933e 8455 5e3f
00000080: 33cf 083e b2ff 86bc d70b 8c3e f486 75bf
00000090: c8fd 9abf 8afd 57bf 7b53 6e3c ca38 0dbe
000000a0: 0994 ed3f c3a7 e23f 3566 d43f 1da6 4b3c
000000b0: f68a 8bbe 5fe6 a33f 298c e63f c994 983f
000000c0: ddb1 d53b 9a8e 9e3e 64e7 1040 3ead 2d40
000000d0: c322 2a40 61c1 ef3b f82a e4be db9c 76be
000000e0: 04f1 36be cd28 fcbd e1cf 9e3c 717e 883d
000000f0: b1d7 59bf 56c5 03bf 9021 01bf 4d48 83bc
00000100: f462 1f3e b63a cdbe 1539 b5be 1265 e1be
00000110: 0e66 7d3c 68e8 263e 4cd3 a53c b571 a83d
00000120: 5e97 8fbe 38bf b8bd 8443 133e 687f b8bf
00000130: 35cb c8bf 6b5a d4bf da22 103c c122 c93e
00000140: b7c1 fb3f 1600 2740 30a1 f23f 9196 07bc
00000150: 990a a9be e9cd 95bf 2c25 c5bf f28e a2bf
00000160: dfff 693c 44f4 073e 250d cd3f ea59 0240
00000170: 7422 fe3f da50 0fbc 307b babe c478 1940
00000180: 49fa 3e40 a003 0740 bdef d43b 5872 43be
00000190: 2b5c a03f 5a04 f53f b28f 5d3f 6862 7a3c
000001a0: fe9b 3a3d e023 0340 cee9 0240 21a0 fc3f
000001b0: f719 dabb aeb5 f53d 7d4d a13c 6d6b 9b3e
000001c0: 4b67 f33e 77fc 7cbc 88f3 14be 23d6 9ebf
000001d0: 3f9f d7bf 0df8 9dbf f636 613c 7152 6d3e
000001e0: 35b3 0c40 2fb0 3a40 f482 1440 1b3a 32bc
000001f0: 3a05 a2be 10b8 cfbe 974a d0bf c9d4 203c
00000200: ad0e 943e f227 c63d e068 0e3f 733c 48be
00000210: b4f3 b33e 001e 2a3d 417e b8bd ea7b 03c0
00000220: 4075 06c0 c6e5 e2bf 821f 26bc c371 6a3e
00000230: 911d 73bf e971 d0bf e9b3 66bf 7157 84bc
00000240: 5173 4d3c 5053 3b3d 84d0 0fbd a324 0b3d
00000250: a00a 87bc fbe5 5abd 7ae6 c43f c659 f03f
00000260: 35df e63f e364 f43b 9dd7 0d3e 2ce5 873f
00000270: 3c73 793f f2ff 893f e05f 913c 4ae1 633e
00000280: dde1 993f 29f8 0c40 d53c 8b3f 9170 41bc
00000290: 3f4d 563e e045 11c0 ee8c 1ac0 060e 24c0
000002a0: 81f8 a23b e0e2 173e 02c9 a73f f28e a33f
000002b0: bf94 ba3f 095c 913c 1203 74be 9fa1 b83f
000002c0: b0a1 e53f 860d cc3f c1c8 40bb 8a00 243e
000002d0: e80f b5be 95c0 8d3f 5401 babe c6af 463e
000002e0: 3b22 3b3e cbe9 43be e582 b7bf 34e7 0c3a
000002f0: e482 9d3e 5901 c03d 76ee 0e40 6856 0540
00000300: d425 0b40 d155 543c b035 d6bd 53ad 963f
00000310: caf2 c13f 88ff 9a3f fba8 6f3c 4193 0e3a
00000320: d7d9 debf 7f93 10c0 29ff eabf 5a50 4a3c
00000330: 45ba ddbd c287 8abc a210 9e3f 0312 a4be
00000340: 5db7 9b3e e879 af3e 492c f03f 96f7 0440
00000350: 0409 cc3f 5595 243c 2601 35be 72ba 85bf
00000360: 7322 92bf d202 aabf 0eaf 00bc c61b cdbd
00000370: a6e1 803f 5322 333f 5def 313f 2567 66bc
00000380: 9ccc c1bc 77bf 9fbe ba71 b43e 2d62 4bbe
00000390: 8a0c afbc 3159 2d3c f76c 813f 6452 b93f
000003a0: 5749 593f b7b7 593c ea67 1d3e 87a6 8fbf
000003b0: 8bd1 bfbf 0ff4 85bf 2c0d 563c dfc5 8a3e
000003c0: b7d6 42be 1223 39bc 0ce3 c0be 7a2e b13c
000003d0: 5b76 b1bc 70eb 9abf ee42 e1bf 20e0 6dbf
000003e0: 2906 b5bb edda 5b3e 7303 8c3e 2634 e83e
000003f0: c3b1 093f e808 503e 0a74 c4bb bcbd 83bf

bn1.weight f4 [64]
0.9195392 0.9864108 0.90499413 0.96825176 1.044779 0.98770815 0.9189569 0.8385002
1.0014085 1.0603135 1.0901489 0.95807713 0.9096753 1.0582395 0.803428 1.1066562
1.0791678 0.91027856 1.1146783 0.99510205 0.95746696 1.0616043 0.948208 1.029796
1.0495969 0.977 0.8941637 0.8843418 0.949398 0.9319438 0.94400734 0.8476602
0.91599584 1.0288244 0.9740817 1.0677421 0.99921805 1.0954862 1.1353693 0.862841
0.9706625 0.9469879 0.91962034 0.99692327 0.8322523 0.78185964 0.9132141 0.9399801
1.0354334 1.0666919 1.0560075 1.0438299 0.8271243 1.0526428 1.1128707 0.9860285
0.9633024 1.0000575 1.0795014 1.1035587 0.9853852 0.87835085 0.9831237 1.0786586
00000000: ec66 6b3f 6b85 7c3f b2ad 673f 59df 773f
00000010: 51bb 853f 71da 7c3f c240 6b3f f3a7 563f
00000020: 272e 803f 5ab8 873f 008a 8b3f 8b44 753f
00000030: 7be0 683f 6474 873f 75ad 4d3f e9a6 8d3f
00000040: 2c22 8a3f 0408 693f c7ad 8e3f 02bf 7e3f
00000050: 8e1c 753f a6e2 873f c2bd 723f 5bd0 833f
00000060: 3159 863f ac1c 7a3f eae7 643f 3964 623f
00000070: bf0b 733f de93 6e3f 77aa 713f 4200 593f
00000080: b47e 6a3f 85b0 833f 6b5d 793f c6ab 883f
00000090: c1cc 7f3f e438 8c3f c853 913f 26e3 5c3f
000000a0: 567d 783f cd6d 723f 3d6c 6b3f 5d36 7f3f
000000b0: 7d0e 553f f427 483f 66c8 693f 89a2 703f
000000c0: 1589 843f 5c89 883f 412b 873f 389c 853f
000000d0: 6bbe 533f 00bd 863f 8c72 8e3f 5d6c 7c3f
000000e0: fc9a 763f e201 803f 1a2d 8a3f 6941 8d3f
000000f0: 3442 7c3f 9adb 603f ffad 7b3f 7c11 8a3f

bn1.bias f4 [64]
-0.14336404 -0.111282974 -0.12918968 -0.14090194 -0.03376518 0.030230086 -0.25909197 -0.1606731
-0.1744882 -0.006138225 -0.35394484 -0.18587372 0.10719104 -0.4258995 -0.17376247 -0.24678577
0.009932363 -0.11887786 -0.020249335 -0.115656056 -0.11635113 -0.010076353 -0.032450162 0.025721617
-0.12588777 -0.015840035 0.018222418 0.08766722 0.485415 0.08384316 -0.2672604 -0.2119612
-0.3670045 0.01771844 -0.29853767 0.073236704 0.6124896 -0.0015903242 -0.4864572 -0.27156606
-0.067957774 -0.29650873 0.07066756 -0.006152618 -0.22153953 -0.032974754 -0.124456115 -0.14751388
-0.39614347 -0.01112597 -0.39807943 -0.20053707 -0.12018368 -0.22240922 -0.08835873 -0.17636417
0.07393994 -0.14039548 -0.0050739264 -0.0032843177 0.5125756 -0.17345071 0.026793761 -0.1255069
00000000: 06ce 12be 54e8 e3bd 4d4a 04be 9948 10be
00000010: 5b4d 0abd 16a5 f73c b4a7 84be 7d87 24be
00000020: 09ad 32be 2a23 c9bb 4238 b5be ae55 3ebe
00000030: fa86 db3d 800f dabe caee 31be 69b5 7cbe
00000040: 5abb 223c 3c76 f3bd efe1 a5bc 15dd ecbd
00000050: 8049 eebd 4a17 25bc 76ea 04bd 24b6 d23c
00000060: b9e8 00be f6c2 81bc 2e47 953c df8a b33d
00000070: 5188 f83e f6b5 ab3d 5bd6 88be 5b0c 59be
00000080: 04e8 bbbe 4326 913c eed9 98be 20fd 953d
00000090: 1ecc 1c3f 6d72 d0ba eb10 f9be b50a 8bbe
000000a0: 722d 8bbd fecf 97be 27ba 903d e79b c9bb
000000b0: 42db 62be 8910 07bd d9e2 febd e10d 17be
000000c0: 51d3 cabe b349 36bc 11d1 cbbe 9759 4dbe
000000d0: dc22 f6bd 3ebf 63be 6cf5 b4bd cf98 34be
000000e0: d36d 973d d5c3 0fbe 2e43 a6bb b53d 57bb
000000f0: 2838 033f 109d 31be 977e db3c e184 00be

bn1.running_mean f4 [64]
506.44388 -106.7216 958.00366 1145.7865 222.1511 -172.41576 -223.8465 196.87073
173.07346 90.37617 107.0426 264.9659 -222.58817 210.49208 -1226.4921 114.58746
-110.62203 191.60446 -117.81346 94.724144 211.54048 -89.51036 -210.24382 184.69661
-143.84813 3959.3054 569.6002 -145.17113 -221.12715 -225.49263 106.29461 244.41353
-161.96858 58.699055 246.5149 -53.225338 2644.279 4211.9404 183.29091 203.39006
163.32674 4145.9355 140.90485 -118.21391 -213.95958 -291.6319 183.01224 176.0028
293.3276 -48.6434 2799.5857 212.52657 193.45662 107.784164 -190.71254 227.48265
-108.72313 221.81033 191.26656 107.92521 191.22864 -195.06407 229.82971 -439.66406
00000000: d138 fd43 7671 d5c2 3c80 6f44 2b39 8f44
00000010: ae26 5e43 6f6a 2cc3 b4d8 5fc3 e8de 4443
00000020: ce12 2d43 99c0 b442 d015 d642 a37b 8443
00000030: 9296 5ec3 f97d 5243 bf4f 99c4 c82c e542
00000040: 7b3e ddc2 be9a 3f43 7ea0 ebc2 c372 bd42
00000050: 5d8a 5343 4e05 b3c2 6b3e 52c3 55b2 3843
00000060: 1fd9 0fc3 e374 7745 6a66 0e44 cf2b 11c3
00000070: 8d20 5dc3 1d7e 61c3 d796 d442 dd69 7443
00000080: f5f7 21c3 d5cb 6a42 d083 7643 bfe6 54c2
00000090: 7744 2545 869f 8345 794a 3743 db63 4b43
000000a0: a553 2343 7c8f 8145 a4e7 0c43 866d ecc2
000000b0: a7f5 55c3 e2d0 91c3 2203 3743 b800 3043
000000c0: efa9 9243 d792 42c2 5ff9 2e45 cd86 5443
000000d0: e574 4143 7e91 d742 69b6 3ec3 8f7b 6343
000000e0: 3e72 d9c2 72cf 5d43 3d44 3f43 b5d9 d742
000000f0: 883a 3f43 6710 43c3 68d4 6543 00d5 dbc3

bn1.running_var f4 [64]
310841.25 13060.049 1.1117902e+06 1.5892866e+06 62108.324 34642.105 61075.562 48090.27
34442.133 9197.05 12126.843 85270.27 59256.164 54275.49 1.8209144e+06 17182.637
16274.655 46110.72 18379.426 9587.179 52914.957 10919.156 54171.004 42876.785
27356.402 1.8993566e+07 391831.62 23851.094 57898.367 61636.52 12486.571 70799.49
33012.105 5254.2695 71325.914 4138.306 8.476877e+06 2.1494624e+07 38161.78 48505.188
34357.445 2.0831146e+07 22642.863 15951.571 56532.285 102731.92 39530.938 38785.664
104919.03 3349.0266 9.485488e+06 55987.113 46255.21 12443.763 45285.31 59900.6
14799.35 59382.668 46350.203 14817.035 44531.773 45712.2 65260.46 235094.23
00000000: 28c7 9748 3210 4c46 72b7 8749 3501 c249
00000010: 539c 7247 1b52 0747 9093 6e47 45da 3b47
00000020: 228a 0647 33b4 0f46 5f7b 3d46 238b a647
00000030: 2a78 6747 7d03 5447 9347 de49 463d 8646
00000040: 9f4a 7e46 b81e 3447 da96 8f46 b7cc 1546
00000050: f5b2 4e47 a09c 2a46 019b 5347 c97c 2747
00000060: ceb8 d546 cfe8 904b f452 bf48 3056 ba46
00000070: 5e2a 6247 85c4 7047 491a 4346 bf47 8a47
00000080: 1bf4 0047 2832 a445 f54e 8b47 7352 8145
00000090: cd58 014b b0fd a34b c811 1547 3079 3d47
000000a0: 7235 0647 d5ed 9e4b bae5 b046 493e 7946
000000b0: 49d4 5c47 f6a5 c847 f06a 1a47 aa81 1747
000000c0: 84eb cc47 6d50 5145 b0bc 104b 1db3 5a47
000000d0: 36af 3447 0d6f 4246 4fe5 3047 9afc 6947
000000e0: 663d 6746 abf6 6747 340e 3547 2484 6746
000000f0: c6f3 2d47 3390 3247 76ec 7e47 8f95 6548

conv2.att_src f4 [1, 1, 32]
-1.5414994 1.39463 -1.8780732 -1.4819659 -1.6639785 -1.5703536 -0.59840775 1.9685732
0.71178085 -1.2153945 1.7187316 0.4241841 -1.3318025 -1.4397477 0.01735737 1.262237
2.1108265 1.3430896 -1.332552 -1.2518531 1.7566628 1.7166058 -1.3358282 -1.5033822
0.49859917 0.8235169 -0.9278815 -1.4369323 -2.0976036 -1.2741826 -1.407867 -0.95561814
00000000: da4f c5bf 3c83 b23f b464 f0bf 0fb1 bdbf
00000010: 3ffd d4bf 5901 c9bf 4031 19bf 35fa fb3f
00000020: 4537 363f 0c92 9bbf 66ff db3f a92e d93e
00000030: 8178 aabf a749 b8bf 0b31 8e3c fb90 a13f
00000040: c817 0740 5cea ab3f 1091 aabf b93c a0bf
00000050: 54da e03f bdb9 db3f 6bfc aabf d46e c0bf
00000060: 6448 ff3e 01d2 523f a489 6dbf 66ed b7bf
00000070: 233f 06c0 6a18 a3bf fc34 b4bf 64a3 74bf

conv2.att_dst f4 [1, 1, 32]
-0.19437793 -0.39668083 -0.23817202 -0.6148617 -0.20019928 0.5085105 -0.13091546 -0.3431156
-0.19179937 -0.030514741 0.3081272 -0.2450613 -0.32688048 -0.06122796 -0.59882236 -0.30856374
0.30970007 -0.028123286 -0.22851367 0.28762782 0.38890076 -0.022694396 0.06748971 0.39769867
-0.6302574 -0.49300107 -0.69563097 0.16254866 0.0067936038 -0.013780642 0.088784836 0.014305927
00000000: 020b 47be c019 cbbe 5ee3 73be 9467 1dbf
00000010: 0a01 4dbe be2d 023f b40e 06be d9ac afbe
00000020: 0e67 44be 0dfa f9bc d9c2 9d3e 59f1 7abe
00000030: e15c a7be 2bca 7abd 6c4c 19bf 11fc 9dbe
00000040: 0291 9e3e ce62 e6bc 7dff 69be f443 933e
00000050: 001e c73e 99e9 b9bc 0c38 8a3d 299f cb3e
00000060: 8d58 21bf a36a fcbe df14 32bf 2873 263e
00000070: e19c de3b 34c8 61bc d3d4 b53d 6863 6a3c

conv2.bias f4 [32]
-0.013993948 -0.015765822 -0.004603602 0.06261114 0.05206502 -0.02937765 0.043846488 0.07910675
-0.046209022 -0.0053131143 -0.04205316 -0.045646183 0.060231943 -0.045964118 0.05838573 -0.0009956094
-0.10067222 0.087365754 -0.085426114 0.0009641292 -0.0003467212 -0.013993516 -0.016884739 -0.0886415
0.06817987 0.040010497 -0.014333566 0.07765785 -0.011850936 0.036751233 -0.013436489 0.069765925
00000000: df46 65bc 5327 81bc d0d9 96bb 453a 803d
00000010: 2142 553d 66a9 f0bc 6098 333d b802 a23d
00000020: ac45 3dbd a219 aebb ef3f 2cbd 7ef7 3abd
00000030: c5b5 763d df44 3cbd e025 6f3d 1c7f 82ba
00000040: 3d2d cebd d1ec b23d e3f3 aebd 9ebd 7c3a
00000050: 22c8 b5b9 0f45 65bc dd51 8abc ad89 b5bd
00000060: e3a1 8b3d 0ce2 233d 55d7 6abc 140b 9f3d
00000070: 6e2a 42bc 7688 163d b824 5cbc 70e1 8e3d

conv2.lin.weight f4 [32, 64]
0.107886575 -0.08193654 -0.029873993 0.17012708 0.210764 0.17175308 0.00012379841 -0.10349591
-0.23612514 -0.1292307 -0.047411915 0.07999002 0.16279103 0.14477953 -0.0119265895 0.28539467
-0.23222604 -0.035724044 -0.20104188 -0.06763239 -0.0058337688 -0.13040507 -0.20936218 -0.046883635
0.12097112 0.045048878 0.10580981 0.078170836 -0.07964225 -0.0034480095 0.021772942 -0.14666808
-0.021156806 0.09063179 -0.035314746 0.09786993 -0.17081337 -0.02761727 -0.3356655 -0.2148889
0.13539106 0.25637013 -0.061967656 -0.10852444 -0.21284612 0.12342159 -0.10276259 -0.13348491
0.29689744 0.13110436 0.0958285 0.27290073 -0.04735055 -0.2095325 -0.008594027 -0.23904409
0.055286672 -0.06922353 0.073061444 0.115741424 0.13889414 0.015810266 -0.12450734 -0.036134068
-0.22248745 -0.21128882 -0.051523995 -0.23788208 0.04565816 -0.2375209 -0.0051296675 0.010237041
0.343778 0.21990037 0.37370518 -0.28703225 -0.17209145 -0.1975658 0.1258 -0.2218704
0.004023052 -0.18841194 0.2623309 0.20285222 0.25037533 0.015586666 0.058958184 -0.0746079
0.116447166 -0.33797383 -0.0382078 -0.09659822 0.19952089 -0.18214141 0.067322515 -0.17216274
-0.089805745 -0.2583697 -0.065071136 0.31959146 -0.12362821 0.07306476 0.5625251 0.08898375
0.006908717 0.048304517 -0.0034560156 0.041293375 0.15732056 0.08691371 0.20682245 -0.120931245
0.0433036 -0.17829143 -0.076260544 -0.06995229 0.012910466 0.16422503 0.24346015 0.19946454
-0.038520195 0.25871536 -0.3361058 -0.33684936 0.20705464 -0.20735207 -0.05567615 0.15849575
-0.2596588 -0.0052199024 -0.22800241 0.171321 0.24288367 -0.015510811 0.10786353 0.14603408
-0.1679544 0.028079411 -0.37561274 -0.117788464 0.09506088 -0.10671125 0.1186323 0.17204434
-0.17748909 0.18382162 -0.29035586 -0.17577508 -0.2958381 -0.08279075 -0.18789415 0.13690715
0.056103054 -0.14495929 -0.17740102 0.27693173 0.10790939 0.13889246 -0.21039367 0.083266065
-0.29602653 0.19337526 0.10154281 -0.30510077 0.19409533 -0.018799722 -0.028962115 0.0056383484
0.2115211 -0.11147633 -0.09587525 0.0997311 0.25081056 0.15955529 -0.12970449 -0.08767679
0.14906293 0.15090175 0.08427164 -0.047994107 0.031730976 0.0065643163 -0.1591904 -0.036272574
-0.1221991 -0.30116096 -0.035636984 0.21515226 -0.13213152 0.029379433 -0.10678326 0.015269407
0.010725136 0.024791576 0.2662582 0.0015635825 0.24844612 0.059356958 0.042458646 0.0801719
0.08902338 0.057055272 -0.33590582 0.19220662 -0.15850656 0.10043275 -0.19428773 -0.0764863
0.05205422 0.062261928 0.018606994 -0.1889583 0.07560389 0.21292831 0.050458595 0.104811676
0.092410974 0.15839285 -0.06578785 -0.1713962 -0.009789579 0.18363304 -0.24520567 -0.18661274
-0.17531641 0.16051942 0.027416507 -0.20589419 -0.18211311 -0.031580996 -0.23744683 -0.007830913
0.19722666 -0.11230401 -0.05425782 0.30438313 0.05585843 -0.106300466 0.15940815 0.14789551
0.29023927 -0.044915166 0.018437704 0.067072555 -0.22009608 -0.23956744 -0.33219504 -0.111394264
0.21976355 -0.15077788 -0.015805941 -0.016418913 -0.1159539 -0.09906879 -0.300693 -0.010114409
00000000: a3f3 dc3d 58ce a7bd 4eba f4bc cb35 2e3e
00000010: 85d2 573e 0ae0 2f3e e2cf 0139 aaf5 d3bd
00000020: caca 71be 0d55 04be ff32 42bd cfd1 a33d
00000030: b1b2 263e 1641 143e be67 43bc 401f 923e
00000040: aacc 6dbe 6053 12bd ecdd 4dbe da82 8abd
00000050: 3329 bfbb e888 05be 0a63 56be 0e09 40bd
00000060: b5bf f73d 2c85 383d d0b2 d83d 0818 a03d
00000070: 7a1b a3bd 00f8 61bb 2b5d b23c 2830 16be
00000080: 0a51 adbc 299d b93d 32a6 10bd 0870 c83d
00000090: b3e9 2ebe 9d3d e2bc 59dc abbe d60b 5cbe
000000a0: f4a3 0a3e f242 833e ccd1 7dbd 1042 debd
000000b0: 55f4 59be 75c4 fc3d 3175 d2bd 45b0 08be
000000c0: f102 983e 3940 063e bc41 c43d a5b9 8b3e
000000d0: a6f2 41bd b08f 56be f6cd 0cbc f9c7 74be
000000e0: 4774 623d 11c5 8dbd 3da1 953d d709 ed3d
000000f0: 443a 0e3e 8884 813c b4fd febd 5101 14bd
00000100: c0d3 63be 195c 58be d30a 53bd 5c97 73be
00000110: 0d04 3b3d ae38 73be c516 a8bb 43b9 273c
00000120: ac03 b03e 902d 613e 4956 bf3e e4f5 92be
00000130: be38 30be b04e 4abe b7d1 003e fe31 63be
00000140: ced3 833b 0fef 40be 3c50 863e 7eb8 4f3e
00000150: 3231 803e 375f 7f3c 237e 713d 07cc 98bd
00000160: da7b ee3d e80a adbe c87f 1cbd 4ad5 c5bd
00000170: 344f 4c3e 4783 3abe 63e0 893d 6e4b 30be
00000180: 13ec b7bd 0949 84be 0444 85bd 7ea1 a33e
00000190: c930 fdbd faa2 953d a501 103f 1d3d b63d
000001a0: 8562 e23b f5da 453d 527e 62bb 3e23 293d
000001b0: a418 213e d1ff b13d 44c9 533e cdaa f7bd
000001c0: 1e5f 313d 0792 36be 7d2e 9cbd 2543 8fbd
000001d0: 6b86 533c 9b2a 283e 9e4d 793e 6f40 4c3e
000001e0: 5ac7 1dbd 5776 843e 0f16 acbe 8577 acbe
000001f0: 2206 543e 1a54 54be ad0c 64bd b64c 223e
00000200: 00f2 84be b70b abbb 7779 69be c66e 2f3e
00000210: 7fb6 783e 0e21 7ebc 8ee7 dc3d f589 153e
00000220: 3dfc 2bbe cb06 e63c 5050 c0be 143b f1bd
00000230: 47af c23d 6e8b dabd 7ef5 f23d 642c 303e
00000240: b3bf 35be bc3b 3c3e 86a9 94be 62fe 33be
00000250: 1778 97be 328e a9bd 5367 40be 6331 0c3e
00000260: 51cc 653d 3570 14be 9da8 35be ffc9 8d3e
00000270: 99ff dc3d d339 0e3e 7071 57be 6687 aa3d
00000280: ca90 97be 2a04 463e adf5 cf3d 2b36 9cbe
00000290: edc0 463e e001 9abc f541 edbc e5c1 b83b
000002a0: fd98 583e b44d e4bd 3e5a c4bd d23f cc3d
000002b0: 3e6a 803e 7662 233e 41d1 04be e48f b3bd
000002c0: f4a3 183e fd85 1a3e 9c96 ac3d 7895 44bd
000002d0: 57f8 013d 7a19 d73b cf02 23be 8d92 14bd
000002e0: 8643 fabd c531 9abe 16f8 11bd e050 5c3e
000002f0: 7c4d 07be 23ad f03c 2fb1 dabd 892c 7a3c
00000300: 7bb8 2f3c b417 cb3c ff52 883e 1ff1 cc3a
00000310: a968 7e3e 4820 733d 1ee9 2d3d 2a31 a43d
00000320: e451 b63d cab2 693d d9fb abbe d0d1 443e
00000330: 8b4f 22be b0af cd3d 5df3 46be d9a4 9cbd
00000340: ce36 553d 5d06 7f3d b26d 983c 497e 41be
00000350: 36d6 9a3d e109 5a3e acad 4e3d 81a7 d63d
00000360: f741 bd3d bc31 223e c8bb 86bd 7c82 2fbe
00000370: 7864 20bc 4d0a 3c3e 3217 7bbe 6917 3fbe
00000380: 2586 33be 345f 243e 9598 e03c edd5 52be
00000390: dc7b 3abe 135b 01bd 4325 73be 3b4d 00bc
000003a0: c9f5 493e a5ff e5bd 733d 5ebd 1bd8 9b3e
000003b0: cfcb 643d 0fb4 d9bd e43b 233e ec71 173e
000003c0: 3e9a 943e f7f8 37bd ab0a 973c 565d 893d
000003d0: de60 61be 2b51 75be 7815 aabe ad22 e4bd
000003e0: b209 613e 8465 1abe 767b 81bc f580 86bc
000003f0: 3d79 edbd 94e4 cabd 6ff4 99be e8b6 25bc

bn2.weight f4 [32]
1.7413689 1.5023834 1.4133263 1.4157393 1.2590171 1.6872133 1.3619454 1.200664
1.2112608 1.1418602 1.5131241 1.2447891 1.424548 1.4356898 1.0774224 1.0500997
1.7300838 1.6120714 1.6217033 1.2020991 1.4090859 1.0603883 1.4568884 1.4092801
1.1178272 1.1506739 1.3404977 1.4998317 1.2688429 1.393574 1.4327872 1.3727522
00000000: 2de5 de3f 194e c03f e0e7 b43f f236 b53f
00000010: 7927 a13f 9bf6 d73f 3a54 ae3f 5caf 993f
00000020: 980a 9b3f 7a28 923f 0dae c13f 4055 9f3f
00000030: 9757 b63f afc4 b73f fae8 893f ab69 863f
00000040: 6373 dd3f 5b58 ce3f f993 cf3f 62de 993f
00000050: ed5c b43f ceba 873f 527b ba3f 4a63 b43f
00000060: f614 8f3f 4849 933f 6e95 ab3f 7cfa bf3f
00000070: 7269 a23f a260 b23f 9265 b73f 58b6 af3f

bn2.bias f4 [32]
0.540526 0.36206678 0.17705761 -0.09574042 0.28970093 0.45215854 0.32089263 0.41914317
0.16911483 -0.04602767 0.28337213 0.31772792 0.07117042 0.15211555 -0.16924806 0.06851905
0.5165314 0.19188611 0.22664936 -0.054067 0.09232132 -0.061488647 0.028198296 0.23933145
0.103537016 0.4216634 0.02335443 0.32891265 -0.2300541 0.21775353 0.35329986 -0.13072488
00000000: e95f 0a3f d160 b93e 974e 353e 8e13 c4bd
00000010: ae53 943e 5381 e73e 0a4c a43e ef99 d63e
00000020: 702c 2d3e 8387 3cbd 2716 913e 3cad a23e
00000030: ccc1 913d 2ec4 1b3e 5d4f 2dbe b753 8c3d
00000040: 673b 043f cb7d 443e c516 683e 5c75 5dbd
00000050: f612 bd3d 85db 7bbd 1d00 e73c 4e13 753e
00000060: 370b d43d 44e4 d73e ca51 bf3c 3d67 a83e
00000070: 4d93 6bbe c8fa 5e3e b8e3 b43e bedc 05be

bn2.running_mean f4 [32]
-0.16377908 0.16689968 -0.43480423 -0.14982167 -1.1276268 0.014359797 -0.16817312 -0.25300533
-0.7346861 -1.0383458 0.4865799 -0.8123788 -0.6296611 -0.19095387 -0.5735923 1.1817988
0.022227172 0.7390423 -0.3472052 -1.1803573 0.72084343 0.7412459 -0.36636698 -0.13816008
-0.84748065 0.1283607 -0.41857672 1.3994988 -0.36316198 0.25238812 -0.07801781 -0.8573526
00000000: b4b5 27be c0e7 2a3e a99e debe da6a 19be
00000010: 1356 90bf 5b45 6b3c 9335 2cbe ea89 81be
00000020: 6314 3cbf 84e8 84bf 0021 f93e 0ff8 4fbf
00000030: 7831 21bf 6989 43be f2d6 12bf 2f45 973f
00000040: c215 b63c e031 3d3f e1c4 b1be f315 97bf
00000050: 3289 383f 4bc2 3d3f 7494 bbbe d679 0dbe
00000060: 7ef4 58bf fd70 033e b04f d6be c722 b33f
00000070: 5ef0 b9be 0439 813e cdc7 9fbd 767b 5bbf

bn2.running_var f4 [32]
0.3851501 1.0390173 0.74083847 0.08628943 0.9042991 0.5537981 0.66413504 0.86416733
0.43566427 0.5510471 0.69101554 2.1280682 0.77990067 0.88095516 0.36643085 0.7476527
0.75343543 0.08111248 0.22717242 0.9577038 0.11034611 2.2530406 0.35323063 1.5240703
1.3314391 0.4048068 0.21156715 0.9189556 0.4247153 0.7505954 1.1483396 0.19977076
00000000: 6532 c53e 85fe 843f 97a7 3d3f 83b8 b03d
00000010: 2580 673f b6c5 0d3f c104 2a3f 123a 5d3f
00000020: 630f df3e 6c11 0d3f 65e6 303f 4532 0840
00000030: 92a7 473f 4786 613f d39c bb3e 2b66 3f3f
00000040: 25e1 403f 4d1e a63d e39f 683e 142c 753f
00000050: 24fd e13d d131 1040 a5da b43e bc14 c33f
00000060: 996c aa3f d642 cf3e 0fa5 583e ad40 6b3f
00000070: 4974 d93e 0527 403f cbfc 923f b590 4c3e

fc.weight f4 [8, 32]
0.38419333 -0.8541906 0.09631309 0.33223945 -0.15038128 0.302897 0.41640735 -0.4880724
-0.19570409 0.11890737 -0.8037632 -0.4950906 0.16227825 0.40110153 -0.08259456 -0.30041966
-1.0917475 -0.6817653 0.1874749 0.1161845 -0.5098666 -0.29137725 0.30208212 0.55176944
-0.3486429 -0.51854664 0.2153798 0.2941403 0.32958752 0.23651327 0.4269661 0.27209285
-0.0023723398 -0.38475984 -0.09266975 0.22015092 0.30835143 0.11849416 -0.027633235 -0.20149507
0.24203902 -0.07701712 -0.45026743 0.011360295 0.086385496 0.11214799 0.15238023 -0.05187562
-0.5284578 -0.33106184 0.26326132 0.09362162 -0.33918428 -0.24514575 0.28552496 -0.24615246
0.13818209 -0.11981768 0.15190546 0.15595806 0.18565021 -0.30998158 -0.19910511 0.16231419
-0.70076525 -0.26477873 -0.425357 -0.0052137077 0.14064774 -0.8083712 -0.7741651 0.25613663
0.3016793 -0.22629455 -0.28715792 0.20951638 0.25674793 0.024060285 0.12080289 0.22471774
-0.20729528 -0.41673943 0.31417787 -0.18926996 -0.27317244 -0.21619304 0.19374757 -0.47924215
0.28190026 0.065873116 -0.103095375 -0.19576898 -0.043401502 -0.3764151 -1.0259495 0.09044008
-0.974373 -0.07347359 -0.6637479 -0.18442532 -0.3861593 -1.32189 -0.62038 0.2542291
0.052004248 -0.04392405 -0.11091874 0.12195989 0.17738186 -0.11634953 -0.017074795 0.1924067
0.06981576 -0.16318984 0.08378653 -0.27130622 -0.09391853 -0.05619686 0.015592603 -0.15308596
0.014391509 0.26408163 -0.34851292 -0.46883607 -0.10730759 -0.30602425 -1.0038685 0.058287732
-0.5428969 0.0068103536 -0.47666603 -0.24524835 -1.0474195 -1.2622794 -0.54416895 -0.005858181
-0.5609492 -0.03998104 -0.027092323 -0.106916785 -0.31285042 -0.17105703 -0.13905041 -0.09733259
0.08645251 0.17339662 -0.20466948 -0.13167897 0.12556808 0.1156047 -0.1267369 -0.20839742
0.09339525 0.038692143 -0.18635911 -0.35950637 -0.14758933 -0.3954445 -0.49530447 -0.19656634
-0.7989088 0.18202622 -0.635352 -0.2871011 -1.234818 -0.8781026 -0.53441656 0.008438871
-0.75817025 -0.056439843 0.19622925 -0.17247272 -0.3426951 -0.4320305 -0.34572446 -0.15807387
0.08886833 0.29429084 -0.38968384 -0.19838047 0.16870077 0.121807136 -0.26839265 -0.06318704
-0.15269853 0.19476892 -0.17248547 -0.48933583 -0.18632042 -0.2733005 -0.6762905 -0.32812178
-0.8166273 0.23846339 -0.6084012 -0.43961975 -1.274923 -0.885187 -0.6006409 -0.0105229085
-0.760787 -0.2672014 0.14316685 -0.18761611 -0.3394703 -0.47887507 -0.24934827 -0.05688147
0.33321518 0.34083042 -0.5705674 -0.115599334 0.2509621 0.22551441 -0.45721322 -0.34589854
-0.1991542 0.1221392 -0.32983118 -0.5888244 -0.435788 -0.29865158 -0.7980907 -0.3930305
-0.85056347 0.096696936 -0.74970514 -0.6044424 -1.0631431 -0.9547226 -0.3895222 0.0021112224
-0.7275827 -0.16372204 0.30046272 -0.15040544 -0.54917514 -0.34304413 -0.36899257 -0.058520555
0.3034884 0.2966878 -0.5589713 -0.3413639 0.22863589 -0.07194397 -0.3945521 -0.22814167
-0.116435386 -0.104113385 -0.31665155 -0.3695499 -0.32069054 -0.31828824 -0.76939005 -0.54698336
00000000: fdb4 c43e 3cac 5abf cc3f c53d 4a1b aa3e
00000010: 8dfd 19be 5115 9b3e 5833 d53e a0e4 f9be
00000020: a766 48be b585 f33d 6dc3 4dbf 847c fdbe
00000030: 452c 263e 2e5d cd3e 5627 a9bd 9bd0 99be
00000040: 62be 8bbf 2c88 2ebf 6cf9 3f3e 24f2 ed3d
00000050: 9e86 02bf 662f 95be 82aa 9a3e c340 0d3f
00000060: 5281 b2be 79bf 04bf 868c 5c3e 8f99 963e
00000070: b2bf a83e 8930 723e 4d9b da3e c14f 8b3e
00000080: 4279 1bbb 3eff c4be a3c9 bdbd 3e6f 613e
00000090: 3de0 9d3e 11ad f23d 185f e2bc b954 4ebe
000000a0: 14d9 773e 27bb 9dbd 7489 e6be 8820 3a3c
000000b0: e1ea b03d d8ad e53d 9009 1c3e 887b 54bd
000000c0: 0349 07bf f080 a9be 30ca 863e b1bc bf3d
000000d0: 90a9 adbe 7d07 7bbe 5430 923e 640f 7cbe
000000e0: 9b7f 0d3e f962 f5bd 1b8d 1b3e 78b3 1f3e
000000f0: 171b 3e3e e8b5 9ebe 36e2 4bbe b135 263e
00000100: 5a65 33bf 1491 87be 65c8 d9be c0d7 aabb
00000110: f605 103e 6af1 4ebf af2f 46bf 5724 833e
00000120: b675 9a3e c2b9 67be 5d06 93be 768b 563e
00000130: 7774 833e 131a c53c 8167 f73d 681c 663e
00000140: 3745 54be df5e d5be ecdb a03e fccf 41be
00000150: 42dd 8bbe b561 5dbe c365 463e 3a5f f5be
00000160: 3b55 903e 7ce8 863d ab23 d3bd aa77 48be
00000170: c6c5 31bd 7bb9 c0be 5052 83bf a638 b93d
00000180: 8270 79bf 5279 96bd 62eb 29bf fed9 3cbe
00000190: acb6 c5be b133 a9bf 39d1 1ebf 512a 823e
000001a0: 6802 553d b4e9 33bd 5d29 e3bd 1bc6 f93d
000001b0: 97a3 353e aa48 eebd 71e0 8bbc 4306 453e
000001c0: 91fb 8e3d 3d1b 27be 4698 ab3d a6e8 8abe
000001d0: 5c58 c0bd ae2e 66bd 1e78 7f3c 91c2 1cbe
000001e0: 5dca 6b3c b535 873e 4970 b2be 480b f0be
000001f0: 15c4 dbbd 36af 9cbe c37e 80bf 1ebf 6e3d
00000200: 4bfb 0abf 6329 df3b 920d f4be 6222 7bbe
00000210: d811 86bf 5f92 a1bf a84e 0bbf fcf5 bfbb
00000220: 5e9a 0fbf 29c3 23bd b8f0 ddbc 30f7 dabd
00000230: ee2d a0be 9329 2fbe 3b63 0ebe 4f56 c7bd
00000240: 030e b13d e28e 313e e094 51be dad6 06be
00000250: eb94 003e 28c2 ec3d 51c7 01be 2266 55be
00000260: 0246 bf3d a77b 1e3d ecd4 3ebe 3811 b8be
00000270: a821 17be b477 cabe 8c98 fdbe b048 49be
00000280: 4a85 4cbf 1565 3a3e 6ea6 22bf eafe 92be
00000290: 840e 9ebf 55cb 60bf 86cf 08bf 3143 0a3c
000002a0: 7217 42bf 772d 67bd 52f0 483e b09c 30be
000002b0: bb75 afbe 1a33 ddbe cc02 b1be 1ede 21be
000002c0: 9900 b63d 4aad 963e a484 c7be 4024 4bbe
000002d0: e5bf 2c3e 0576 f93d c36a 89be 3568 81bd
000002e0: 015d 1cbe 8171 473e 08a0 30be 3a8a fabe
000002f0: c8ca 3ebe 0bee 8bbe 6021 2dbf 94ff a7be
00000300: 7d0e 51bf bf2f 743e 2ec0 1bbf d715 e1be
00000310: ad30 a3bf 9d9b 62bf 9ac3 19bf 4768 2cbc
00000320: f0c2 42bf 9fce 88be 559a 123e 701e 40be
00000330: 0dcf adbe 1d2f f5be 2755 7fbe 8bfc 68bd
00000340: 2e9b aa3e 5381 ae3e b510 12bf 58bf ecbd
00000350: 1b7e 803e 40ed 663e da17 eabe 9d19 b1be
00000360: 14ef 4bbe 1e24 fa3d a2df a8be 32bd 16bf
00000370: 9b1f dfbe dce8 98be ac4f 4cbf 4b3b c9be
00000380: 87be 59bf 0b09 c63d adec 3fbf bdbc 1abf
00000390: 1315 88bf b368 74bf 746f c7be 6f5c 0a3b
000003a0: dc42 3abf c0a6 27be 40d6 993e e203 1abe
000003b0: be96 0cbf 7ba3 afbe 98ec bcbe 40b3 6fbd
000003c0: d562 9b3e 77e7 973e be18 0fbf 40c7 aebe
000003d0: 871f 6a3e 5c57 93bd bc02 cabe f89d 69be
000003e0: ad75 eebd 6639 d5bd 2720 a2be a535 bdbe
000003f0: 8d31 a4be adf6 a2be bff6 44bf 1a07 0cbf

fc.bias f4 [8]
-0.20452982 -0.25812817 -0.07668833 0.098293304 0.032291815 -0.1334307 -0.15937409 -0.24614005
00000000: 4470 51be 6029 84be c50e 9dbd 004e c93d
00000010: 6c44 043d 0fa2 08be f632 23be 230c 7cbe
