models/best_model_GAT_MCC.pth (torch, 20642 bytes, 18 tensors)

conv1.att_src f4 [1, 1, 64]
00000000: 213d 613e d261 6d3e 6dde bfbd 5ee4 783f
00000010: 2afb 05c0 e95f a6bf b4c7 313f 80ca 193f
00000020: db24 a23e 25c1 db3e 7bca 993e 394f 26bf
00000030: 7c08 6a3f b40c 243f bb42 3b3e e1f1 363e
00000040: bf13 80bf 3d70 0fbf 5363 653f a118 783f
00000050: 1567 89be d589 3bbe dbda 163f de98 fbbe
00000060: eca9 063f fb08 e93d e367 b2be 764f e4be
00000070: 0010 233e c0a2 b03d 2e54 5f3e 28f5 103f
00000080: 7e78 603f 7482 febf 5f8d 5dbe 433d 14be
00000090: a8d5 d13e d03a 313e a34c 9a3e 4f69 1e3e
000000a0: 8aa8 3840 92dc d9be 1291 5d3e 608c 10bf
000000b0: 2c07 203f 3c6f 743f 302e 073f 43f0 3b3f
000000c0: 7c49 0d3f 9278 3b3f bd5b 4bc0 6e47 83be
000000d0: d966 cbbf 812c 2bbf 48ee b0bf 4c09 ba3e
000000e0: 286a 41bf 9041 97be 035f 0a40 12f6 74bf
000000f0: b405 4f3f 9701 67bf 02de 353f 7989 3dbe
0.21995975 0.23181847 -0.09368596 0.9722346 -2.0934548 -1.299802 0.6944535 0.60074615
0.31668743 0.42920795 0.30037293 -0.64964634 0.91419196 0.64081883 0.18287174 0.17865707
-1.0006026 -0.5603064 0.8960468 0.9691258 -0.26836458 -0.18314297 0.58927697 -0.49140066
0.5260303 0.11378666 -0.34844884 -0.44591874 0.15924072 0.08624792 0.21809456 0.5662408
0.87683856 -1.9883561 -0.2163596 -0.14476494 0.4098332 0.17307591 0.30136594 0.1546986
2.8852868 -0.42551094 0.21637371 -0.56464195 0.62510943 0.9548223 0.5280485 0.73413485
0.55190253 0.7323085 -3.1774743 -0.25640434 -1.5890762 -0.6686478 -1.3822718 0.36335218
-0.75552607 -0.29542208 2.162049 -0.95687973 0.8086808 -0.902368 0.7104188 -0.18509473

conv1.att_dst f4 [1, 1, 64]
00000000: 1eac 42be 5334 603e 360a 98be 5d44 1a3e
00000010: 2fc2 dd3c 36dc 57bd c872 4ebe 0261 b13e
00000020: d026 17bc fa19 e53c 49e1 ac3e b240 933e
00000030: 3ace aa3d ed1e 8cbd b2e2 88be a36c d33e
00000040: 86da 63bd b989 dfbd cc25 7d3e 727c 943e
00000050: c0c2 54be 3811 73be e40c b13e db74 ef3e
00000060: a5c8 563e 9f4a aabe b485 3e3e c236 f13e
00000070: 496d 22bd d0c6 ecbe 0417 1ebe 3aa3 8cbd
00000080: 52b7 d53d b2da f53d 7a9a d43e a931 7f3e
00000090: 7ef6 b43e 6798 66be 791b a5be 7aba db3e
000000a0: 3738 c6bd 67e9 93be 9a18 a83e b537 af3c
000000b0: be07 2b3e 7e98 a5bd 6566 f33e 891a 8e3e
000000c0: 1828 56bc fdce 1bbd 29a3 473e da35 663e
000000d0: 8a42 583e 643d a83e 3646 fa3d fab9 9ebe
000000e0: 7e63 babd db71 9cbe 9248 f23c 3ace 87bd
000000f0: e635 5e3e 9b4b 3b3e 2de1 a0be 00a2 74be
-0.1901097 0.2189496 -0.2969529 0.15065141 0.027070133 -0.052700244 -0.20160973 0.34644324
-0.009225562 0.027966488 0.3376563 0.28760296 0.08340116 -0.06841836 -0.26735455 0.4129382
-0.055628322 -0.109149404 0.2472145 0.29001194 -0.20777416 -0.23737037 0.34580147 0.4676884
0.20974977 -0.33260056 0.18605691 0.4711209 -0.039655004 -0.46245432 -0.15438467 -0.068670705
0.10435356 0.120046034 0.41524106 0.24921288 0.3534431 -0.22519074 -0.32247522 0.42915708
-0.09678691 -0.2888901 0.3283127 0.021388868 0.16702172 -0.08085726 0.47539058 0.2775462
-0.0130710825 -0.038039196 0.19495834 0.2248148 0.21119133 0.32859337 0.12220423 -0.31001264
-0.09101008 -0.30555615 0.02957562 -0.066311315 0.21700248 0.1829056 -0.31421795 -0.23889923

conv1.bias f4 [64]
00000000: 7695 2e38 c730 86b9 bd59 9bb7 cd46 dab9
00000010: d15b 58ba b1cb cd39 1e66 9dba 95ac c3ba
00000020: 5758 c73a 8851 6636 242a 1436 2e5c 6238
00000030: 233c 83b8 ee5e 54ba f66b 2137 98b7 0fba
00000040: 7a5d c93a a2f6 963a f877 60b9 a784 b4ba
00000050: 0069 c636 0860 be39 ffab bd3a 8edb a338
00000060: 2ce9 4bb8 6b55 4c38 9e85 0939 e2e2 633a
00000070: 788e fbb9 9eea 4737 3c61 bdb7 13d0 123a
00000080: 32f1 b63a 817a b5ba 1093 66b8 21d3 9d38
00000090: 6650 df37 f517 e138 ad9f 13b9 ffaa 34b8
000000a0: 0068 3b38 ce47 9db8 8687 3bb8 e019 7eb9
000000b0: a095 3c3a adfd cc3a fbf9 1437 6767 34b8
000000c0: e060 1bba 44db ab3a ae54 6fba 6041 cfb7
000000d0: c6f6 e636 518c 45bb f2bc c63a 23d0 7bb9
000000e0: a68b 893a 3246 8839 e165 b9ba 4e75 34ba
000000f0: 6bd5 d439 fd57 5eb8 c318 0cb9 617c 9239
4.162403e-05 -0.00025594814 -1.8519228e-05 -0.0004163295 -0.0008253428 0.0003925241 -0.0012008583 -0.0014928753
0.0015208822 3.4320128e-06 2.2078248e-06 5.3968448e-05 -6.257768e-05 -0.0008101304 9.621484e-06 -0.00054823747
0.0015362941 0.0011517594 -0.00021406997 -0.0013772444 5.9130834e-06 0.00036311173 0.0014470814 7.813341e-05
-4.861613e-05 4.8716942e-05 0.00013115114 0.0008693171 -0.00047980598 1.191595e-05 -2.2575834e-05 0.00056004635
0.001395738 -0.0013845713 -5.4973236e-05 7.525669e-05 2.662111e-05 0.000107332984 -0.00014078496 -4.3074597e-05
4.4681132e-05 -7.499718e-05 -4.471049e-05 -0.00024232967 0.0007193927 0.0015639566 8.8796905e-06 -4.3011645e-05
-0.0005927216 0.0013111611 -0.0009129745 -2.4706766e-05 6.8832624e-06 -0.003014345 0.0015162511 -0.00024014762
0.0010493889 0.0002599224 -0.0014144742 -0.0006883935 0.000405948 -5.301087e-05 -0.00013360665 0.0002793996

conv1.lin.weight f4 [64, 8]
00000000: e109 abbf e3c7 39c0 b4d6 e4bf da80 c33b
00000010: 52a5 ebbb cc3d 8e3e 4e5c 7fbf 78d6 09ba
00000020: 3f04 083f 564f 79bf 49be 873f 3c2b 01bd
00000030: 1843 f6bb 675a 7840 8585 2b3f faaf 25ba
00000040: 7d4d e8be 0e24 893d c58a 97bf 14f3 e63b
00000050: 99f8 5f3b 55d0 5bc0 9c7c e6bf c49a e839
00000060: 0518 3fbc e829 13c0 d030 943e f251 bcbd
00000070: eeca d0bc 5426 8240 1d78 383f 5b55 23bb
00000080: 5b0d 6f3e 2537 0840 a73d 7abd cf0e 253c
00000090: 4c8c 4c3d 7b95 6ac0 5694 6b3e 0fe3 cc3b
000000a0: 4733 fd3e 6e53 4b40 fe21 1f3f 88ff 643d
000000b0: 2e61 063d 2aca 55c0 1c70 d63c 0957 693b
000000c0: a738 57be 9da4 24c0 193c babe 736f 6dbd
000000d0: 8b3d 9dbc c12d f83f d9ad 8dbe f5eb eaba
000000e0: 9c5a 97be af5a 1bc0 b448 85bf 03e1 a23e
000000f0: b4d9 8abc bd0c 3d40 94e2 a13c 75fe c2ba
00000100: a50d 523c 1ee4 e1bf 6f24 ac3e 3308 28be
00000110: 25ba 20bc 40ab 2840 f339 2cbe a084 53ba
00000120: 4d6b 8dbe ae5d 19c0 34c8 55bf 9fa8 0a3c
00000130: 25ff 50bc f2b1 0140 c9cd 14bf 1a6c 88ba
00000140: 3299 f93e 4741 4fbf a355 673f cfc0 b0bc
00000150: 08de 19bc b0af 8940 d033 c73f 31aa 6cba
00000160: 31fb 0e3f b4e3 3b40 cc97 2f3f bcf8 313c
00000170: a98d 943c dbd4 13c0 169a 483f ffad d83a
00000180: f802 0f3e f798 f0bf db99 073f 3816 ab3c
00000190: 4583 c6bc 9df8 9540 94f2 673f dd94 1cbb
000001a0: eecf 593d bb68 afbf 19c4 ff3d 5dc5 b1bd
000001b0: 5c21 92bc 3e27 4f40 9cfa 713f 52bc d6ba
000001c0: 5844 a5bf 0a05 3bc0 2216 b3bf b53d 513c
000001d0: e1b1 c8bb 77aa a5bd e49e fdbe e103 0cba
000001e0: a2d5 9940 97dc 6740 0f19 ad40 6ee6 80bb
000001f0: 9ed4 ccbb 9bc6 6141 1cd9 9740 2612 d1bb
00000200: 2468 373e 4446 d83f 7cfd 8e3e 1984 0bbe
00000210: 77db d63c a102 16c0 f628 2abe 9834 433b
00000220: dfc2 84be 2c67 ba3f 96cb 39bf 7426 91bc
00000230: 49fe 803c eaf9 87c0 91dd 623e ba4b 833a
00000240: b2c3 3d3b 94cf 45bf de5a b73d 9fbd 55bc
00000250: dbcd c2bc 67f2 8240 0810 ba3f 34c3 16bb
00000260: 0d24 ebbe a50e 41c0 1391 1abf 91e6 833e
00000270: 8c39 d1bc 4522 6440 8398 03be a27f 2bbb
00000280: dd2f 84bf 3fd8 91bb a5cf bcbf 5aaa 2abc
00000290: 0533 0c3c 93d1 a4c0 faa7 02c0 66b4 873a
000002a0: 4ba0 04bf b8b0 c63e ceee 8dbf 3ff4 96bc
000002b0: d8f9 c93b 0d71 77c0 4134 08c0 72f4 223a
000002c0: 5eec b2be cfa2 21c0 1095 7bbf 4ef9 a03e
000002d0: aead 88bc 35af 3740 9eaa d83d ee36 c1ba
000002e0: ffbd c63f 696e 8940 15ad d73f 4bd5 fa3b
000002f0: 90ea 6a3c ba04 babe 21ea 3d40 bf8a 933a
00000300: 4850 673f 4b78 b2be 72df a53f 557d 0d3b
00000310: 9c8f 77bc eed1 af40 6ce0 0240 ae2f c5ba
00000320: 241c c4bf 9172 5ac0 3223 febf 0a81 8d3b
00000330: 7291 82bb 5e47 9cbf 7d5c 30c0 181c 36b9
00000340: a578 c33f 245c 6740 c7ee ff3f a310 03be
00000350: 610d 2f3c a0f6 cebe 7c91 d03f 1881 633a
00000360: 472b a7be dc1c ce3f a22c f8be 761e 4dbc
00000370: a385 503c ba0f 90bf 12b5 8240 f69b ab3a
00000380: 6278 2fbe 25a6 10c0 41a7 2fbf 7872 84bd
00000390: 25b3 b1bb 7a9d 7b3f eb43 76bf 60d9 f0b9
000003a0: b4ab 03c0 e95a 7dc0 cdae 37c0 db26 333c
000003b0: d5e6 4bbb 9504 27c0 a4f1 4ec0 c5c6 00b9
000003c0: 7fe9 a3bf a306 3ac0 5602 bfbf 868e 7abc
000003d0: 00a8 ebbb 293c 2e3e 40b2 6ebf 8c68 30ba
000003e0: 59f9 64bf be02 21c0 b66e 83bf 8e57 313e
000003f0: 8b44 84bc 0771 1c40 c968 6ebe c72e beba
-1.336239 -2.902825 -1.7878022 0.005966288 -0.0071913386 0.27781522 -0.9975022 -0.00052580936
0.5313148 -0.9738668 1.0604945 -0.031535372 -0.0075153224 3.8805177 0.6700061 -0.0006320473
-0.4537162 0.0669633 -1.1839224 0.00704802 0.0034175275 -3.4345906 -1.8006778 0.00044365798
-0.011663442 -2.2994328 0.2894349 -0.09195317 -0.02548739 4.0671787 0.7205828 -0.0024922702
0.23344938 2.1283658 -0.061093953 0.010074331 0.049938485 -3.6653736 0.23005804 0.0062526534
0.49453184 3.1769671 0.6216124 0.055907756 0.03280752 -3.340464 0.026176505 0.0035604856
-0.21017705 -2.5725472 -0.36373976 -0.057967614 -0.019194385 1.9388963 -0.27671698 -0.0017923104
-0.29561317 -2.42741 -1.0412812 0.31812295 -0.016949512 2.9539025 0.019761361 -0.001487686
0.012820636 -1.7647741 0.33621547 -0.16409378 -0.009810005 2.6354523 -0.16818981 -0.0008068774
-0.27620926 -2.3963428 -0.8350861 0.008463054 -0.012756144 2.026486 -0.58126503 -0.0010408193
0.4874969 -0.8095898 0.90365046 -0.021576313 -0.009391315 4.302696 1.5562687 -0.0009028046
0.5585204 2.935773 0.68591 0.010862526 0.018133955 -2.3098667 0.78360116 0.0016531347
0.13965976 -1.8796681 0.5296914 0.020884618 -0.024232516 4.6865983 0.9060452 -0.002389244
0.053176813 -1.3703836 0.124885745 -0.08680222 -0.017838173 3.2367702 0.94523025 -0.0016383028
-1.2911482 -2.9221826 -1.3991129 0.01277106 -0.0061247204 -0.08089154 -0.49535286 -0.0005341154
4.807328 3.6228387 5.409309 -0.0039337194 -0.006250932 14.110988 4.7452526 -0.0063803373
0.1791082 1.6896443 0.27927768 -0.1362461 0.026227696 -2.3439105 -0.16617188 0.0029785987
-0.25929925 1.4562736 -0.7257627 -0.017718531 0.015746253 -4.249257 0.22154833 0.0010017075
0.0028955755 -0.77269864 0.089528784 -0.0130456975 -0.0237798 4.09209 1.4536142 -0.0023004534
-0.45925942 -3.0165188 -0.60377616 0.25761846 -0.025540136 3.5645916 -0.12851147 -0.0026168604
-1.0327107 -0.0044508274 -1.4750868 -0.010416592 0.008557086 -5.150583 -2.0415025 0.0010353446
-0.5180709 0.388067 -1.1088502 -0.018427012 0.006163817 -3.866275 -2.1281893 0.0006216235
-0.3494596 -2.525562 -0.98274326 0.31440204 -0.01668438 2.8700688 0.10579418 -0.0014741102
1.5526732 4.294728 1.6849695 0.007654821 0.014338151 -0.3633173 2.967415 0.001125656
0.90356874 -0.348574 1.2958815 0.0021589596 -0.015109923 5.494376 2.0449476 -0.0015044117
-1.5321088 -3.4132426 -1.9854491 0.004318361 -0.0039846236 -1.220928 -2.755645 -0.00017367338
1.5271193 3.6149988 1.9994744 -0.12799315 0.010684342 -0.40422535 1.6294398 0.0008678599
-0.32650205 1.6102557 -0.48471552 -0.0125194695 0.012727174 -1.1254799 4.0846033 0.0013092745
-0.17135766 -2.2601407 -0.68614584 -0.06467146 -0.005422967 0.98287165 -0.96197385 -0.00045938324
-2.057355 -3.9586737 -2.870044 0.010934557 -0.0031112928 -2.6096547 -3.2334986 -0.00012281079
-1.2805632 -2.906655 -1.4922588 -0.015292769 -0.007191658 0.17015137 -0.9324074 -0.0006729446
-0.89442974 -2.5157924 -1.0268161 0.17318556 -0.016145965 2.4443986 -0.2328216 -0.001450979

bn1.weight f4 [64]
00000000: ea34 543f 63f4 233f 1420 3a3f abb1 7e3f
00000010: dc41 2e3f 8bf9 4d3f 06f0 1c3f 9152 923f
00000020: bcfe 503f b5dc 733f 7e7a 2d3f 907a fc3e
00000030: 4c5e 0a3f 56e6 3b3f 8920 2c3f bd30 d93f
00000040: 561a 3b3f aef0 913f e144 d03e 6123 4a3f
00000050: e830 563f fc17 443f 701b 613f e364 6a3f
00000060: 2220 413f d100 523f 792a 613f aa72 a33f
00000070: 35b9 5e3f 34c1 583f ed9f 3f3f 8184 0a3f
00000080: 0e18 013f dbce 3a3f 8e15 873f 3d58 8d3f
00000090: 31c5 483f 2a13 8c3f 9285 253f 4eb5 383f
000000a0: 8cce cb3e 9fa6 503f 1046 133f 56ef 693f
000000b0: 552a 563f 9482 843f 46da 603f 4777 183f
000000c0: a6bd 3c3f abcf 2f3f c6fb 653f 3b00 813f
000000d0: c5dd c83e ded3 773f 77ca 933f c5db 5d3f
000000e0: 8c60 613f 81d9 4a3f e0fe 8b3f ee30 1b3f
000000f0: c9ac 0b3f 3bce de3e c14d 1d3f 95b8 153f
0.8289324 0.6404478 0.727052 0.9948985 0.68069243 0.804589 0.61303747 1.1431447
0.81638694 0.9525865 0.67765033 0.49312258 0.54050136 0.7339834 0.67237145 1.6967999
0.7308706 1.1401575 0.4067755 0.78960234 0.83668375 0.765991 0.8793249 0.9156019
0.75439656 0.82032496 0.87955433 1.2769368 0.87001354 0.84669805 0.748534 0.54108435
0.5042733 0.72971886 1.0553453 1.1042553 0.7842589 1.0943348 0.6465694 0.7215165
0.3980602 0.81504244 0.5752878 0.9138082 0.83658344 1.0352349 0.8783306 0.59557
0.7372688 0.6867625 0.898373 1.0078195 0.39231697 0.9680766 1.1546162 0.86663467
0.88037944 0.79238135 1.0937157 0.60621536 0.54560524 0.43516716 0.6144677 0.58484775

bn1.bias f4 [64]
00000000: cd23 d0bd 7ead b6be 37de 42be aee3 8d3d
00000010: 1367 e3be 5a25 033e 70a2 b9be e834 f9be
00000020: b6b4 b7bc fa3e a2be 26ba 8a3e 0de7 94be
00000030: 00c1 37be 829a 20bf d76a d4be 7330 2a3f
00000040: 19de ad3e c139 5fbf 063d e43e 84c9 573f
00000050: d328 b9bc be1f 50be d075 d8be 9e23 cebe
00000060: 5983 debd 65a2 0cbe 58c8 0fbf 9f91 99bf
00000070: 13df f0be d471 2fbd bd40 90be 89e5 56be
00000080: a01b f1be 0497 cd3d a73b edbd 7c91 33be
00000090: a014 28be 0589 28be 4206 b7bd d7f8 7abe
000000a0: deac a33e 6849 8ebe 310d 1f3f c4c7 20bf
000000b0: 48e7 bebe 8633 6cbf 944f 6fbc de18 ecbd
000000c0: 16d4 f23d cebc 883f 46fd a9be b78c adbd
000000d0: 0337 4fbe 077a 98bd 5202 42be 78e5 f6bc
000000e0: 96c7 44be 7a12 75be 8ef7 4dbe 20ea babe
000000f0: 2ed3 803e 55ac c1be b5d1 833e 6ae6 36be
-0.101630785 -0.3567924 -0.1903008 0.06928192 -0.44414577 0.12807217 -0.36256742 -0.48673177
-0.022425037 -0.31688672 0.27095145 -0.29082528 -0.17944717 -0.6273576 -0.41487762 0.6648018
0.3395851 -0.871975 0.44577807 0.84291863 -0.022602474 -0.20324609 -0.42277384 -0.4026155
-0.10864896 -0.13733824 -0.56165075 -1.1997565 -0.47045192 -0.042833164 -0.2817439 -0.20985998
-0.4709139 0.100385696 -0.115836434 -0.17535967 -0.16414118 -0.16458519 -0.089367405 -0.24508987
0.31967825 -0.2779038 0.62129503 -0.6280482 -0.3728583 -0.9226612 -0.014606375 -0.115281805
0.118568584 1.0682619 -0.33201045 -0.08474105 -0.20235829 -0.0744515 -0.18946198 -0.030138716
-0.19216761 -0.2393283 -0.20113966 -0.36506748 0.25161117 -0.3782679 0.2574593 -0.17861333

bn1.running_mean f4 [64]
00000000: 37ed b242 b1cc e1c3 4a9c c142 9916 a9c4
00000010: c4fd ff42 84fa 4b44 b784 53c4 6778 9545
00000020: 731f 18c5 2350 0643 e770 9dc3 5358 1a43
00000030: 0496 a943 ca8f 9fc4 7265 3a43 6435 10c2
00000040: fce5 00c5 90d5 88c3 026d 36c3 e05c 7245
00000050: 3a83 2cc3 15c9 8fc3 81bb 9345 7fde fb42
00000060: 8620 5942 7fc8 2e42 6aff f1c4 aea2 37c3
00000070: aa1f 6dc4 97d1 1a43 1a7e 63c3 904c 2345
00000080: 9b4a 6a45 6f79 6945 4aef afc3 182a 7143
00000090: 2af6 3f43 b30d 52c3 2b58 22c3 510f b9c2
000000a0: c547 2644 421d 7d42 7149 6843 a1a1 a0c3
000000b0: 78d2 0b44 9604 aa45 c3bb bdc2 198f 6743
000000c0: 04f6 f9c4 625d 22c5 04a8 d7c3 725b 0ec3
000000d0: 5599 2b43 eacc 8845 45ff d244 12dc 22c3
000000e0: 9d67 17c5 5bc7 9c43 572d 37c5 0d64 85c3
000000f0: 758c 75c3 10e1 90c3 10f3 3dc3 c5ef 66c3
89.46331 -451.59915 96.80525 -1352.7062 127.995636 815.9143 -846.07367 4783.0503
-2433.9656 134.31303 -314.88205 154.34502 339.172 -1276.4934 186.39627 -36.05214
-2062.374 -273.66846 -182.42581 3877.8047 -172.5126 -287.57095 4727.438 125.93456
54.28176 43.695797 -1935.9817 -183.63547 -948.49475 154.81871 -227.49258 2612.7852
3748.6628 3735.5896 -351.86945 241.16443 191.96158 -210.05351 -162.3444 -92.529915
665.1214 63.278572 232.28688 -321.26273 559.2886 5440.573 -94.86672 231.55898
-1999.688 -2597.8364 -431.31262 -142.35721 171.59895 4377.6143 1687.9772 -162.85965
-2422.4758 313.55746 -2930.8337 -266.78165 -245.54866 -289.7583 -189.94946 -230.9366

bn1.running_var f4 [64]
00000000: 4e81 0546 c6a7 3548 f698 1446 590c c949
00000010: 40bd 6346 8c51 1149 9557 1c49 1ee9 9c4b
00000020: 556a a24a 5fcd 8546 8479 b347 1472 a246
00000030: 626b c747 5b20 b349 ab76 ff46 5ddd 3f45
00000040: 1d42 694a 4dc3 8247 b061 f046 a13e 4e4b
00000050: 4963 c546 9715 8c47 7245 994b 34d1 4746
00000060: 0969 2845 40de 1945 9661 4f4a 11c5 f746
00000070: 23b5 4349 ec1d c546 a106 2b47 5382 bb4a
00000080: b875 404b ba2d 3f4b e91f e547 f66c 3e47
00000090: c27c f546 426d 1347 2e8a ac46 7cbe 0a46
000000a0: 3b5b c248 44af 9345 99dd 2f47 395d b647
000000b0: f6ab 8948 dbf5 ca4b 66f4 1e46 f35c 3847
000000c0: 4de0 5b4a 894a b94a 13fe 2348 2249 a646
000000d0: fb35 cc46 7547 834b fb18 1c4a d69d b146
000000e0: 2d00 a14a cba5 b147 f04e eb4a f130 7747
000000f0: 8721 5a47 cd1d 9647 04da ef46 03ae 3347
8544.326 186015.1 9510.24 1.6469871e+06 14575.3125 595224.75 640377.3 2.0566588e+07
5.3220265e+06 17126.686 91891.03 20793.04 102102.766 1.4674034e+06 32699.334 3069.8352
3.8217032e+06 66950.6 30768.844 1.3516449e+07 25265.643 71723.18 2.0089572e+07 12788.301
2694.5647 2461.8906 3.3977335e+06 31714.533 801618.2 25230.96 43782.63 6.1442975e+06
1.2613048e+07 1.2529082e+07 117311.82 48748.96 31422.379 37741.258 22085.09 8879.621
398041.84 4725.908 45021.598 93370.445 281951.7 2.6602422e+07 10173.1 47196.95
3.6024512e+06 6.0716205e+06 167928.3 21284.566 26138.99 1.7207018e+07 2.5575028e+06 22734.918
5.2756705e+06 90955.586 7.710584e+06 63280.94 55841.527 76859.6 30701.008 45998.01

conv2.att_src f4 [1, 1, 32]
00000000: 7b5e 50bf 716f 53be 32a8 9c40 939b 27c0
00000010: 162d 8bbf 81ee 493d 192d 2340 b983 8b3e
00000020: 6494 7240 4a81 8a40 6c99 0e40 0d6f 42bf
00000030: b62f cebf c5c9 483f 62c9 6240 4e35 a640
00000040: fe37 8f3e 6181 0dc0 8088 3fc0 4267 2fc0
00000050: cbf1 b93e c6d8 4cc0 95d2 52c0 03f1 8bc0
00000060: 7fb9 e8bf e175 173f fa9d d8bf a7ca 0bc0
00000070: 6de8 10c0 8a0f 0abf 84f8 54c0 3405 54c0
-0.81394166 -0.2064798 4.8955317 -2.6188705 -1.0873134 0.04929972 2.5496275 0.27248934
3.790307 4.3282824 2.2281141 -0.759507 -1.610831 0.78432876 3.5435414 5.194007
0.27972406 -2.2110217 -2.9927063 -2.7406774 0.36317286 -3.2007308 -3.294103 -4.3731704
-1.8181609 0.59164244 -1.6923211 -2.184244 -2.2641861 -0.5392996 -3.3276682 -3.3128176

conv2.att_dst f4 [1, 1, 32]
00000000: db6e 9ebd acc9 9fbd 41a8 073d e955 c5bc
00000010: c4da cf3d 21b2 59be f104 0abe 63a9 f6bc
00000020: f4f9 033e e91d 123e d13c 4f3d 8f74 a6be
00000030: a91c 943d ce57 333e afc2 71bd be1a a13d
00000040: b97a 823d c61e b8bd bedb bdbd 1e7b e33d
00000050: 9ee9 473c d480 763c e4c6 073e 059d c2bc
00000060: e10f 46ba 39e3 a63c 35ab 033e 6eca 693d
00000070: e255 bebc 3c9b f8bd d858 32bd e99f efbc
-0.07735988 -0.07802138 0.033119444 -0.024088817 0.10149148 -0.21259357 -0.13478447 -0.030110067
0.12888318 0.14269222 0.05059511 -0.32510802 0.07232029 0.17513964 -0.059023555 0.07866429
0.06371064 -0.089902446 -0.09270428 0.11107467 0.012201695 0.015045363 0.13259465 -0.023756513
-0.0007555467 0.02037202 0.12858279 0.057077818 -0.023234311 -0.121389836 -0.04354176 -0.029251056

conv2.bias f4 [32]
00000000: 1b70 443b b8c2 bb39 b499 0f3b 53df 3b39
00000010: 1775 da3a f7ce 95ba be69 dcb9 003d 8b3a
00000020: b123 c43b a3a0 17bb 4951 c0bc 88aa ecba
00000030: 158a 2eba ebd4 3dbb da18 c8bb b644 013c
00000040: ba67 3b3c 57c1 903b 19fb f8ba e622 373b
00000050: 4bff 95ba 07fd 56ba 5cd8 063b 9c58 0ebb
00000060: ec5a f7ba d4c4 493c e57d ac3a 3832 fcba
00000070: 1087 07bb 3331 80ba 909c b03b f677 933a
0.0029974047 0.00035812496 0.0021911683 0.00017916904 0.0016666976 -0.0011429478 -0.00042040454 0.0010623038
0.0059857 -0.0023136518 -0.02347626 -0.0018056193 -0.0006658149 -0.002896602 -0.006106478 0.007889917
0.011438305 0.004417579 -0.0018995731 0.0027944385 -0.0011443881 -0.0008201156 0.0020575738 -0.0021720296
-0.0018871701 0.012314994 0.0013160078 -0.001924104 -0.0020679869 -0.0009780288 0.0053897575 0.0011250961

conv2.lin.weight f4 [32, 64]
00000000: 335a 2f3d 07a8 1c3d 7d97 a83d 5625 563d
00000010: 347b 74be bcc3 453e 1dda f8bd e973 843b
00000020: 1a7c 4838 315e 213d 99a4 81be 2866 45bd
00000030: 89da c33d 31fe 42bf afee 56bd 499d ec3c
00000040: 13cc 3dbe 2c47 7dbf 2760 86bd 5098 a6be
00000050: ccb0 a83d 0dd8 f33d 376e 153d 900d 8bbe
00000060: d793 a73d 2ccb 84bc 59e7 21bf 29c3 2ec0
00000070: 40bd 8ebe 8534 8ebd b076 58be 0fa4 a03c
00000080: 9613 d23a bad9 053e dd83 c2be f724 c6bd
00000090: 33a6 47be 191d 9d3e 9216 143d 5288 d53d
000000a0: c08e 143e ec90 223e 47f4 d4bc f107 c0be
000000b0: 3943 8f3d 5205 b33e cf1a 11bd d642 8f3d
000000c0: 1230 05be 8cc4 943e b959 71be 0ca1 39bd
000000d0: 766b f43d c84e a73e 7ec4 793e cdf4 3c3d
000000e0: 9804 d63d 95e5 e9bd 8620 dcbe b529 c0bd
000000f0: 4281 80be 9645 86bd f326 f7bd c049 3bbd
00000100: fc27 8cbe 2072 bbbe da1a c13d f168 aebd
00000110: 6214 51be 29ca 473e f065 72bf 171d 3f3e
00000120: db58 b33c 626f 96bd d121 fabc dd50 60bb
00000130: da20 313e 7a05 74bf 6a60 6bbe 6384 08bd
00000140: bc47 143e 3c4b e1bf 83e0 ef3d 05c1 01be
00000150: 03a5 383e 0acc 00be ce57 d83e dc8c acbe
00000160: 0993 b93c 18a1 ccbd eeff edbf aaf1 fabf
00000170: 5f12 28bf 480d ebbc 13c1 b0be ae90 25bd
00000180: 9d5a 533c 293c 34be e2c5 40be b72d dfbe
00000190: 4e9d 3cbd 1564 773d c349 d9bd aa18 0ebb
000001a0: 1507 b2bd 7c2a 20bc 7260 f33c 2d9c b0bf
000001b0: aed1 2dbe 05e9 0b3f d572 e73d 5a40 60bc
000001c0: 4f39 fabd c14d f9be d67a 3cbe d114 04be
000001d0: be5b cbbd 58a1 be3e f8c7 613e feaa 433e
000001e0: 92d6 b2be 124c 5bbe e28c 05bf cebc 14bf
000001f0: b102 b63d 7413 043e fef3 02be 5962 8f3c
00000200: f463 5cbe 4ac1 44bd 3bd3 08bd 8be5 eb3c
00000210: 84ee 16be ae14 8b3e 550a 7b3d 53a5 203d
00000220: ce3d 77bd 090c 50be d6d5 4dbe 5cf2 4b3d
00000230: 4b6b dc3d 8c27 d13e d718 14be 3f67 413f
00000240: 303c a1bd 6a49 983e f57c 253e 6610 9f3e
00000250: 84c5 9abe 8585 68bd 43f6 80bc 70ea 613e
00000260: 1aa6 a83e 6421 31be 158d 4c3e adda 423f
00000270: a3b6 40bd 02fb 53be ec5d b8be 093b f1bd
00000280: d9b7 dbbd cf40 1e3e 03ef b63e 20ee 13bc
00000290: 7c05 323e 438c 67be c9cd 76bd a47a da3d
000002a0: 6af9 5a3c a25e 79be 3ae4 8a3e bf59 3a3e
000002b0: b8e7 b73c 2057 0dbd 9ebc 9d3e 356c 443d
000002c0: 9ee1 edbd bec1 6ebe 16f2 bb3c 113a 8b3d
000002d0: 3444 bb3d 7049 52be 835a 0e3e 598b 02bf
000002e0: f862 123e 1c7f 84be 1817 30be d61d 7fbe
000002f0: 419f 4d3e b429 883d 7f2d 513c 5858 6ebe
00000300: b0d8 27be a14e 91be 5c8f 843e 2bcd a83d
00000310: fd4e 2c3e a657 0d3e 70c4 8dbe c0e3 983e
00000320: 8b20 9a3d daee ab3d 2ba5 51be af89 cc3d
00000330: 4ef4 923d c26f f3be 07aa 0fbd e1d4 39bf
00000340: f027 8dbe 4f77 0dbf b4f9 14bc 9cf9 30be
00000350: 1906 083e e87f c43d b81f 823e 531a 81be
00000360: 3e02 91be 1790 c33d 5801 98be 25b1 a9bf
00000370: 1a8a 383e 1b54 a63e 3cc5 a03e 42ad 963e
00000380: 11d7 a73e 9c14 4c3b 5597 093e 85ce c93c
00000390: dd38 debd fdb0 c03e e50a 683e 9598 85be
000003a0: 2e5d adbd 3530 613e 8c24 47be 1bad 58bd
000003b0: eead 0f3e b597 1f3f d025 8abe d8d8 3bbd
000003c0: 26d6 20be 6894 183e fe44 953e 9444 32be
000003d0: 9d0f b5bd 3f35 c93e dfed c83e fe3a 8b3e
000003e0: 5a58 033e b2e0 a73d 0396 bfbd c482 48be
000003f0: ba03 5bbe 8544 35be 0e89 2cbd 6ee7 ff3d
0.04281063 0.03824618 0.08232019 0.0522817 -0.23875123 0.19312948 -0.12150977 0.004042138
4.7799294e-05 0.03939647 -0.2532089 -0.048193127 0.09563167 -0.76169115 -0.05247372 0.028883593
-0.1853488 -0.98936725 -0.06561308 -0.3253808 0.08236846 0.11906443 0.036482062 -0.27158785
0.08182495 -0.016210161 -0.63243634 -2.7306616 -0.2787876 -0.06943611 -0.21139026 0.01960948
0.0016027566 0.13071337 -0.3799123 -0.09675019 -0.19496994 0.30686262 0.036154337 0.10426392
0.1450758 0.15875596 -0.025995387 -0.3750606 0.069952436 0.34964997 -0.035425957 0.0699517
-0.13006619 0.29056203 -0.23569383 -0.045319602 0.11934559 0.32677293 0.24391362 0.046131898
0.10450095 -0.114207424 -0.42993563 -0.09382955 -0.25098616 -0.06556241 -0.12067976 -0.04572463
-0.27374256 -0.36610508 0.0942895 -0.0851611 -0.20417932 0.19510712 -0.94686794 0.1866344
0.021892956 -0.07345463 -0.030533703 -0.0034227886 0.17297688 -0.95320857 -0.22985998 -0.03332938
0.1448049 -1.7601085 0.11712744 -0.12671287 0.18031697 -0.12577835 0.4225449 -0.33701217
0.02265312 -0.09991664 -1.8593729 -1.9605 -0.6565303 -0.028692856 -0.34522304 -0.04042118
0.012900022 -0.17601074 -0.18825486 -0.43589565 -0.046048455 0.06039818 -0.10609772 -0.0021682181
-0.08692757 -0.009775754 0.029709075 -1.3797661 -0.16974518 0.54652435 0.11301199 -0.013687218
-0.12217962 -0.48692134 -0.18406233 -0.12898566 -0.09929608 0.3723247 0.22048938 0.19108197
-0.3492933 -0.21415737 -0.52168095 -0.58100593 0.08887232 0.12898046 -0.12788388 0.01750295
-0.21522504 -0.048035897 -0.03340457 0.028795978 -0.14739424 0.27164215 0.06128915 0.039220165
-0.060361676 -0.20317091 -0.20101103 0.04979168 0.10762652 0.40850484 -0.144626 0.75548166
-0.07872808 0.2974351 0.16160949 0.310672 -0.30228817 -0.05676796 -0.015742427 0.22062087
0.32939225 -0.17297894 0.19975694 0.7611492 -0.047049176 -0.2070122 -0.36009157 -0.11778838
-0.107284255 0.1545441 0.35729226 -0.009028941 0.17384905 -0.226121 -0.060254846 0.10667923
0.013365129 -0.24352506 0.27127248 0.18198298 0.02244936 -0.034506917 0.30807966 0.047954757
-0.11615299 -0.23316094 0.022942584 0.06798185 0.09143868 -0.20535827 0.13901715 -0.5099388
0.14295566 -0.25878227 -0.1719631 -0.24913725 0.20080282 0.06648579 0.012767195 -0.23275888
-0.16391253 -0.28380302 0.25890625 0.08242258 0.16827007 0.13802966 -0.27688932 0.2986126
0.07525738 0.08395167 -0.20473163 0.099871986 0.07175504 -0.47546202 -0.03507426 -0.7259045
-0.27569532 -0.55260175 -0.009092737 -0.17282718 0.13283576 0.09594709 0.25414824 -0.25215396
-0.28322023 0.09548967 -0.29688525 -1.3257185 0.18021432 0.32486042 0.31400478 0.2942906
0.3278127 0.0031140214 0.13436635 0.024634609 -0.108506896 0.3763503 0.22660406 -0.26092973
-0.08465038 0.21991046 -0.19447535 -0.05289946 0.14031193 0.6234086 -0.26981974 -0.045861095
-0.15706691 0.14900362 0.291542 -0.17408973 -0.088408686 0.39298436 0.3924398 0.27193445
0.12826672 0.08197154 -0.09354784 -0.19581133 -0.2138814 -0.1770192 -0.042122893 0.124953136

bn2.weight f4 [32]
00000000: c8b6 4540 2b6f c03f 3b9a db3f 6b0a c83f
00000010: 1797 f03f 4f8b 8a3f be93 503f 0554 ef3f
00000020: 5102 e43f 5e92 ee3f bf3e 0240 c192 ab3f
00000030: 7853 bc3f 2944 953f b6a7 0b40 f3b0 d83f
00000040: b0a3 ce3f 7081 0040 b59f f53f d182 c13f
00000050: 8122 de3f 55fd f73f 95d2 e13f 15dc 0d40
00000060: aea9 e13f 3f49 0340 52a7 dc3f 1b23 b23f
00000070: 2f94 0040 3872 0d40 166c 0740 c1f1 c83f
3.089281 1.5033926 1.7156442 1.5628179 1.8796109 1.0823764 0.81475437 1.8697516
1.7813207 1.8638418 2.0350797 1.3404161 1.4712973 1.1661426 2.1821113 1.6929001
1.6143703 2.0079002 1.9189364 1.5118047 1.735428 1.9374186 1.764239 2.2165577
1.7629907 2.0513456 1.7238562 1.3916963 2.0090444 2.2100964 2.115972 1.5698777

bn2.bias f4 [32]
00000000: 9ce2 7a3f cbd6 bd3e d7e1 a13f 9bf5 b0be
00000010: 02e7 973e 303c dbbe 3318 ee3e c8b0 953e
00000020: a269 013f 2a0d 9b3f 1f11 c33d 5f77 55bf
00000030: c684 41bf b7a6 ca3f 5929 ad3e 359e b73f
00000040: 590b 9d3f 661a 89bd c8e7 873e 3649 09bf
00000050: 6dde c53c 7bd4 41bd 575d 27be 680d cb3e
00000060: 7fe5 4d3e 7aef 9c3e f068 063f 31a0 313f
00000070: 90af bd3e e4c5 883e b854 24be 38e2 dfbd
0.9800203 0.37077937 1.2647046 -0.34562382 0.29668432 -0.42819357 0.46502838 0.29236436
0.5055181 1.2113392 0.0952475 -0.8338527 -0.7559322 1.5832127 0.33820608 1.4345156
1.2269088 -0.06694488 0.26544023 -0.53627336 0.024153912 -0.047321778 -0.163442 0.39658666
0.20107077 0.30651456 0.5250387 0.6938506 0.37048006 0.2671348 -0.16047943 -0.1093182

bn2.running_mean f4 [32]
00000000: 190f dbbe bd01 debf 1cc9 7a3f f721 e8be
00000010: 8d12 193f 96ea 56bf 572f df3f 5bb4 0240
00000020: 91f2 a13f 2c19 a03f 28c6 833f db64 e8bf
00000030: 0148 2ec0 ff82 3ebf 588d 943f 772b 843f
00000040: 5cd9 10bf de9a 56bf bb09 b1bf e4b1 cbbe
00000050: 6b63 0b40 47c9 b9be 920d 24bf ef94 55bf
00000060: e315 9c3f 6d1a 703f f266 e73e 22ab 7d3e
00000070: 573f 9abf ae6a cb3f 51b3 59bf a2b2 0cbf
-0.42784956 -1.734428 0.9796312 -0.45338413 0.5979393 -0.839517 1.7436322 2.042258
1.265215 1.2507682 1.0294847 -1.8155779 -2.7231448 -0.74418634 1.1605635 1.0325764
-0.56581664 -0.8383006 -1.3831095 -0.39784157 2.177943 -0.36286375 -0.64083207 -0.8343038
1.2194179 0.9379032 0.4519573 0.24772313 -1.205058 1.5891931 -0.8503924 -0.5496007

bn2.running_var f4 [32]
00000000: 8429 213f 4f95 e03f 3f4b 8d3f 6c70 8040
00000010: 18b7 3b3f 6908 0e3e afea 7840 e34a e63f
00000020: 267e b93e 8664 4c3f b93d 283f 832c 0a3f
00000030: 1102 a540 2357 1b40 4e34 583f 9947 313f
00000040: 417b a03f f737 573e 0613 4b3f 1fb7 953f
00000050: 6718 c93f 6152 0540 8ca9 b63f 97a8 f43e
00000060: b140 093f 51fc 4f3f 2937 7b3f 9ace ee3e
00000070: 2ef9 883f 4cc7 3e40 b62a 7d3e 7302 5a3f
0.6295397 1.7545565 1.1038588 4.0137234 0.73326254 0.13870396 3.889324 1.7991604
0.36229056 0.79840887 0.6571918 0.5397417 5.1565022 2.4271934 0.8445481 0.69249874
1.2537614 0.21017443 0.793259 1.1696509 1.5710572 2.083153 1.4270492 0.47784874
0.53614336 0.8124438 0.9813104 0.46642 1.0701044 2.980914 0.24723324 0.8515999

fc.weight f4 [8, 32]
00000000: 7c42 b13e 816b a6bd 0625 a2bf d6f0 ac3e
00000010: 4da0 b83e 2eb1 abbd d17a 42bf c18c 123f
00000020: dec2 90bf d250 8cbf a313 46bf 636e 93be
00000030: ef1a b93d 72fc 553e c247 d6be b4a5 b9bf
00000040: 5ad3 123e b5a2 083f 1ad5 363f b0f2 1d3f
00000050: c4cb 933e c693 0a3f 44a4 063f e4a1 473f
00000060: 860e 113f 8e2d 0ec0 e538 cb3e 9abe 923e
00000070: f6b8 943e 62d3 333e 755d aa3e f713 8c3e
00000080: 0bb1 a73e 0098 da3d 65c1 97be aba9 ee3d
00000090: 1684 59bb 5aa2 3b3e c639 48be 9088 413f
000000a0: 6ba4 2abf 079a d5be e512 32bf 8d1f 303f
000000b0: 211b 153f 3f1d 863e 94d7 77bf 997d 2dbf
000000c0: e415 813e 125c d63e d2a9 eb3c a649 3cbd
000000d0: c0b3 003f 339f cebb 9e53 36bd 435b b73e
000000e0: 79c6 76be f62f 3ebf b634 79bd 7ac3 7abe
000000f0: b96b dc3e 6289 823f 7ace 113f 0d78 f7be
00000100: 4443 07bf f3be a93e fc19 dbbd a988 0c3f
00000110: 9c33 0bc0 63a4 893e 27de b83d d23f e63e
00000120: 53e0 9fbe 7274 33be 4a38 0bbf ad94 ab3e
00000130: 7a33 27bd 4ff6 213e c86b 4a3e 24b1 9bbe
00000140: f00f c83e 9804 a53e df83 07be 1f41 cb3d
00000150: 924b ab3e cb13 773e 810f 9c3e 9965 0b3e
00000160: f109 0dc0 b002 c5be 52eb 9bbf ebf3 c7bf
00000170: 452d f0bd 009e 143f 7ace 973e 86d9 6abe
00000180: a33a 54c0 2535 0e3f dcbc ba3d e33b 9d3e
00000190: bc55 dcbf 4b93 613e 872b 413b f189 f33d
000001a0: f2e4 b2bd 422a d33d 49c5 39be 71b8 38be
000001b0: e5e0 6bbe ea47 efbe 5ea6 343f 0cd3 cc3c
000001c0: 9d78 043e c101 b53d c159 87be b7fa 1a3e
000001d0: 39a1 b53d 7692 5a3f a0fe f03e 502c dabd
000001e0: f47f b2bf 682b a9bd ffb2 20c0 c157 17c0
000001f0: ec5a b6bf dd3f 923d 8f1f 80bd 7188 863e
00000200: b912 a8c0 f12c babe a71d 513e affc f13c
00000210: beab 95bc 530e 323d 170b 303e dffd 38bd
00000220: 95a2 bc3d f000 543e 4ea6 993d 8cb6 3dbb
00000230: c69c 78bd f5f9 13bf 0c3b 21bc e840 eb3d
00000240: 2749 97bf 281f 49be e1f3 edbe 60f2 f43d
00000250: 5457 4cbd 10d0 1d3f f016 563e 158e b7be
00000260: 2896 cebe 9c66 cb3d cbcc 98bf a57e e2bf
00000270: 58a1 f9bf 31be 70be 14db b2be 6a57 8c3e
00000280: 9b2e 0fc0 9b4f 45bf 2745 993e 662c 88bd
00000290: b658 11be 92c8 2fbe f23b 883d 7291 88be
000002a0: c8ca 973e 72fc b83e 2502 a13e 09e2 6bbc
000002b0: e05e 48bd 73ea e2bf 4cf2 0f3d c606 923e
000002c0: e8a3 67c0 6f9b f5be 404b 26bf 04c4 5cbd
000002d0: a47e aebe b973 823e e6d9 a6bd 8d6a 11bf
000002e0: e82d a4bd 7526 743e 6977 f1bd 894a d6be
000002f0: 5fff 7ebf a5dd e9be 41fb 23bf 0d9d d03e
00000300: 4be3 96bf d2b2 5ebf a178 d23e f3d8 29be
00000310: bcf2 a0bd 6f6c 98be 1b36 2d3e bb59 e5be
00000320: 9f20 ca3e dd03 ea3e e1cc f63e a966 81bc
00000330: 54f0 11bd a5b1 4cc0 5c26 3abe 09d9 c53e
00000340: 3296 83c0 9ea8 49bf 1f41 66bf b02a aabd
00000350: 7596 0bbf bd88 df3d f8e5 acbd 96bc 5fbf
00000360: d6ee a4bd cbd1 dd3e c621 00be 9bb2 1b3e
00000370: 5655 a4be f327 17bf 2e8f 7cbf aeca e23e
00000380: cd35 50bf bf25 02bf 620c b93e 7cc1 10be
00000390: e86b e0bc 7c98 87be df1f 10bd 238f 19bf
000003a0: cbbe c13e 93e4 e83e ecb9 1d3f 983f 82bc
000003b0: 9c05 b7bc 2285 adc0 bf57 01be c0db b43e
000003c0: 8b48 59c0 131b 51bf 9fea 61bf 99d4 63be
000003d0: 5f43 4ebf ccd9 913d c6b6 cfbd a6a2 4ebf
000003e0: a66e 1dbc c37d 213f 293c cebd 3192 383f
000003f0: 8441 5bbd 44de 0abf 847d 80bf 13e1 9d3e
0.34621036 -0.081259735 -1.2667549 0.33777493 0.360598 -0.08383404 -0.7596865 0.57246023
-1.1309469 -1.0962164 -0.77373713 -0.28795156 0.0903834 0.20897081 -0.41851622 -1.4503694
0.14338437 0.5337327 0.7141892 0.61698437 0.28866398 0.54131734 0.525944 0.779814
0.56662786 -2.2215304 0.39691845 0.28661042 0.29047364 0.17561105 0.33274427 0.27358982
0.3275226 0.10673523 -0.29639736 0.11653455 -0.0033190302 0.18323651 -0.19553289 0.75599
-0.6665713 -0.41719076 -0.6956008 0.6879814 0.5824452 0.26194188 -0.9681332 -0.6776977
0.25212014 0.4186712 0.0287675 -0.045968674 0.50274277 -0.006305599 -0.044513337 0.35811815
-0.24099149 -0.7429193 -0.060841285 -0.24488631 0.43050936 1.0198176 0.56955683 -0.4833378
-0.52837014 0.33153495 -0.106983155 0.54896027 -2.175025 0.2688323 0.09026747 0.44970566
-0.31225833 -0.17524889 -0.54382765 0.33511868 -0.040820576 0.15816616 0.19767678 -0.30408585
0.3907466 0.32230067 -0.13233899 0.0992453 0.33456093 0.24128644 0.3048058 0.13612975
-2.2037318 -0.38478613 -1.2181189 -1.5621313 -0.117273845 0.5805359 0.29649717 -0.22934541
-3.316079 0.5554984 0.09118053 0.30709752 -1.7213664 0.22028844 0.0029475407 0.118915446
-0.08735074 0.103107944 -0.18141665 -0.18039109 -0.23035009 -0.46734554 0.70566356 0.025002979
0.12936635 0.08838225 -0.26435664 0.15134703 0.088686414 0.8537973 0.47069263 -0.10652983
-1.3945298 -0.08260232 -2.510925 -2.364731 -1.4246497 0.07141087 -0.06256019 0.26275972
-5.2522855 -0.36362413 0.20421468 0.029539434 -0.01827037 0.043470692 0.1719173 -0.045163985
0.092106976 0.20703483 0.07502423 -0.0028947918 -0.060696386 -0.5780328 -0.009840738 0.11486989
-1.1819199 -0.19640791 -0.46475127 0.11960292 -0.04988797 0.61645603 0.20907187 -0.35850587
-0.40348935 0.099316806 -1.1937498 -1.7694899 -1.9502363 -0.23510052 -0.34932768 0.27410442
-2.2372196 -0.77074593 0.29935572 -0.06649093 -0.14193997 -0.17166355 0.06652059 -0.26673466
0.29646897 0.361301 0.3144695 -0.014397153 -0.048918605 -1.7727798 0.03514318 0.28520793
-3.619379 -0.4797015 -0.6495857 -0.053897873 -0.34080994 0.25478914 -0.081470296 -0.5680321
-0.080165684 0.23842795 -0.11790354 -0.4185374 -0.99608415 -0.45676914 -0.6405526 0.4074482
-1.1788114 -0.8699161 0.41107658 -0.16586666 -0.07858798 -0.29770228 0.16915171 -0.4479502
0.39478013 0.45706072 0.48203185 -0.015796022 -0.035629585 -3.1983426 -0.18178695 0.38642147
-4.1120844 -0.78772914 -0.89943117 -0.08308923 -0.54526454 0.10914753 -0.084423006 -0.87397134
-0.08053367 0.43324122 -0.12512884 0.15204851 -0.32096356 -0.5904533 -0.98655975 0.44295257
-0.81332093 -0.50838846 0.3614226 -0.14136308 -0.027395204 -0.26483524 -0.035186645 -0.59984034
0.37840876 0.45486888 0.6161182 -0.015899464 -0.022341542 -5.4225016 -0.12631129 0.35323906
-3.3950527 -0.81681937 -0.8824863 -0.22249068 -0.8057155 0.071216196 -0.10142283 -0.8071693
-0.0096089 0.6308252 -0.100700684 0.7209807 -0.053529277 -0.542454 -1.0038304 0.3083578

fc.bias f4 [8]
00000000: 4d96 8abd 7db4 08be 5f92 1fbe 56fc bcbd
00000010: d9b5 293e e84b 713d 6e98 ae3e 00d4 87be
-0.06766949 -0.13350101 -0.1558318 -0.09227817 0.16573276 0.05891028 0.3410067 -0.2652893
