models/best_model_GAT_MCC.pth (torch, 160866 bytes, 18 tensors)

conv1.att_src f4 [1, 1, 256]
00000000: 503e 363e d4b4 4540 16f0 50bd ced7 0bbf
00000010: 94c0 5a3d 558f 153b e0fe 6a3e cb6c 9abe
00000020: 6c5a b5bc c61d cc3d 570b c8bf 7342 87be
00000030: c15e 2fbe b1b9 873e 3474 d93f 5b2c f7be
00000040: e05c 3d3f 9698 9c3d 62d6 863e 2662 123e
00000050: 1c20 5e3e 3b3c 8f3e a38a f0bd c3e1 dc3d
00000060: b980 12bf 4714 913e 04b4 d0bf 487c e33f
00000070: 6373 313f c8fa c83e 0738 1e40 ceac 4cbe
00000080: 57c5 08be d829 54be 7ee8 bc3d dc4e 75be
00000090: 5fa5 71bc e4cf aabe 4b96 6e3f d13d 9cbe
000000a0: f84e e8be 3815 383f ec8a 68be b7e5 583d
000000b0: 6f5b 4fbe 0126 24be 7e51 a93e 4b0b 89be
000000c0: e185 8d3f 2f09 6dbe 52fa 8bbe bf23 f13f
000000d0: 5db7 17be 690b 9dbe f5e1 ae3c aacc 15be
000000e0: d786 43be e2f3 a83d 00f1 693e 9a0f 393f
000000f0: dc0d 4cbe 408f a53f d25b 45bf 8846 933d
00000100: 9d56 16be 7b6e 81bf 8ed7 1b3e abf8 2b3e
00000110: 036c a3be 0a19 fbbe 0f4c afbd 895b bf3f
00000120: bada babe 1c9d 743c b833 84be 191d dcbe
00000130: 5990 da3e 1bb2 2ebe 11fd c13d f69d d73e
00000140: 218d 97be 9430 96be d7a2 c5be a1dc 22be
00000150: 9002 ab3f b75a 86be f1c8 0dbf db8f 633f
00000160: af18 cfbd 41af 18be 0cef 44be e779 3abe
00000170: 0eaa f6be 8c83 bc3e b842 e7be 8e8d df3e
00000180: 1097 0140 7d5e debd 9ceb 563e 95bf a63f
00000190: 9e6d 063e 518b 813d ef36 5b3e e505 523e
000001a0: 694b d2bf 5302 913f 0f5d 953e 8cc5 94bd
000001b0: 4d35 343f e469 ac3e 7b56 0f3f 0746 a9bd
000001c0: 3771 afbd b052 183f 0527 debe afab 25be
000001d0: 9a9a c4bf 1458 96be 4cce 593e e114 353e
000001e0: 7b18 4e3e 4bbc 163e a0c8 b33e e8b2 a63d
000001f0: 149c ebbd a9dc 413e 7e54 f03e d34c 093f
00000200: a484 c43d 54c0 6abb 2a00 c83c c5d9 243e
00000210: 13e5 2ebf 27dc 35be 05bf 8dbd 6723 c0be
00000220: 3885 3e3f eeb8 c0bd 4699 803e bdbf 003d
00000230: 8080 49be f321 843e 6a44 ce3d 202d 903f
00000240: c30a 4f3e 1320 0f3f 61f1 0fbe 10e8 d53f
00000250: a8c5 25be 3c26 ebbd 7b15 23bd e29c 0ebe
00000260: 0285 acbd b86c 0a3e 804c 3e3e e39b dd3e
00000270: 7632 b43e e791 1b3f 1398 6f3e 28de cc3d
00000280: 4a37 1dbe 7002 213e 5fc2 5c3e 4e67 013e
00000290: 3cf5 55be 2de9 fe3e 3d3d 83be d4e9 1c3e
000002a0: 34cf c33d 9e66 d4be 9a71 ba3c 3978 4d3c
000002b0: 2518 993e ceb4 003d 0413 953f 9f5b 173e
000002c0: c1a3 3e3f 5515 8a3f e317 913e a2dd 03bd
000002d0: 2993 9cbf 61e6 85be fda6 9d3d 4ea5 2b3e
000002e0: a118 90be f686 92bd 983e f03d 3cbc 803c
000002f0: 7f06 31be e869 19be 4490 e1bd 3b34 c23e
00000300: 2c47 153f 1208 6bbe 6d33 04be f2b1 dabe
00000310: b8da 33be fcce 45be df36 b23e 20bc 08bd
00000320: 3957 77be 39a4 a2bd 66bd 02be 6f26 27bf
00000330: 94f6 8bbe dd62 e93e fa55 46be aeb6 1a40
00000340: 1efb 003e 8553 07be 18b7 b63e f2d2 01be
00000350: 77ca d6be e52a ee3e f001 97be a73c f23c
00000360: cae8 8f3e a609 c03e 52b4 23be caf0 60be
00000370: 66e7 07bc e201 833e e8ed 09c0 847f 9f3f
00000380: 5a8c 103e 9326 c9bd b94f 813e 475b 003e
00000390: 09fe 3c3d 46bf 99be 8e77 1940 7929 2d3e
000003a0: ba87 46bf 49e3 63be b094 98be 5579 4f3e
000003b0: 8053 ba3e c8be d9be aa5d 30bf a714 48be
000003c0: 581b 70be 2c49 52be a53c 4c3e 2733 87be
000003d0: 6c8c c43e 0ea5 4a3f 1f53 72be 2b44 ce3d
000003e0: 5ea7 353e b035 bb3e 55fb 2c3e 0992 a8be
000003f0: b3e8 c2be d64f 46be f0cf 5a3e ce1b 3c3e
0.17797208 3.0891619 -0.051010214 -0.54626167 0.053406313 0.0022821028 0.2294879 -0.30161127
-0.022137843 0.09966616 -1.5628461 -0.26417884 -0.1712599 0.2650886 1.6988587 -0.48276028
0.7396984 0.07646291 0.26335436 0.14295253 0.21691936 0.2797564 -0.11745193 0.10785248
-0.57227665 0.28335783 -1.6304936 1.7772303 0.6931669 0.3925383 2.4721696 -0.19987795
-0.13356529 -0.20719087 0.09224032 -0.23955864 -0.0147489 -0.33361733 0.9319808 -0.30515912
-0.45372748 0.7190738 -0.22709244 0.05295345 -0.20249723 -0.16030122 0.33069986 -0.26766428
1.1056482 -0.23148035 -0.27339417 1.8839034 -0.14816041 -0.30672768 0.02134798 -0.14628854
-0.19094406 0.08249642 0.2284584 0.7228943 -0.19927162 1.2934341 -0.7709323 0.07191187
-0.14681478 -1.0111841 0.15218946 0.16794078 -0.31918344 -0.4904254 -0.08559429 1.4949809
-0.36495 0.014930036 -0.25820708 -0.4299095 0.42688254 -0.1706013 0.09472097 0.42112702
-0.2959986 -0.29333937 -0.386008 -0.15904476 1.3360157 -0.26241085 -0.5538474 0.8889138
-0.1011213 -0.14910604 -0.19231814 -0.18210565 -0.48176616 0.36819112 -0.4516809 0.43662685
2.0248451 -0.10857866 0.20988315 1.3027216 0.13127753 0.063254006 0.21407674 0.20510061
-1.6429263 1.1328834 0.2917256 -0.072642416 0.7039383 0.33674538 0.55991334 -0.0826531
-0.08566516 0.5950117 -0.43389145 -0.16178773 -1.5359681 -0.29364073 0.21270102 0.17683746
0.20126526 0.14720266 0.35114002 0.081395924 -0.11504379 0.18931831 0.46939462 0.5363285
0.09595612 -0.0035820203 0.02441414 0.16098697 -0.6831829 -0.17759763 -0.069212 -0.3752701
0.74422026 -0.094102725 0.25116938 0.031432856 -0.19677925 0.2580715 0.10071643 1.1263771
0.20218949 0.55908316 -0.14056922 1.6711445 -0.16188681 -0.11481902 -0.039815407 -0.13927034
-0.08423807 0.13518035 0.1858387 0.43282995 0.3519475 0.60769504 0.23397855 0.100033104
-0.15353122 0.15723586 0.21558522 0.12637064 -0.2089433 0.49787274 -0.2563266 0.15323573
0.09561005 -0.4148454 0.022759248 0.01254087 0.29901233 0.03142243 1.1646428 0.14781044
0.7446862 1.078776 0.28338537 -0.032193787 -1.223241 -0.26152328 0.07697866 0.16762277
-0.2814379 -0.07154648 0.11730689 0.015714757 -0.17287634 -0.14981806 -0.110138446 0.37930474
0.58311725 -0.22952297 -0.12910242 -0.42713886 -0.17563903 -0.1931724 0.34807488 -0.033382535
-0.24154367 -0.07941479 -0.12767562 -0.6529302 -0.27336562 0.4558324 -0.19368735 2.4174
0.12595794 -0.13215454 0.35686564 -0.12678126 -0.41951343 0.465171 -0.29493666 0.029569937
0.2810729 0.3750736 -0.15986755 -0.21966854 -0.008294916 0.25587374 -2.1551456 1.246079
0.1411604 -0.098218106 0.25256136 0.1253482 0.046140704 -0.30028743 2.397922 0.16910352
-0.7755085 -0.22254671 -0.2980094 0.20261128 0.3639183 -0.42528367 -0.6889292 -0.19539128
-0.23447931 -0.20535725 0.19945009 -0.26406214 0.38388383 0.79158103 -0.2366452 0.10071596
0.17739627 0.36564398 0.1689275 -0.32923916 -0.3806816 -0.19366392 0.21368384 0.18369982

conv1.att_dst f4 [1, 1, 256]
00000000: 8577 78bd 3317 033c 3442 013e b240 f13d
00000010: 202b 63bd 2f80 173b ccff f9bd 4c42 91bd
00000020: d267 67bd a9b8 d9bc 059f b2bc 8a80 d0bd
00000030: f551 93bd 8125 0dbe 9a11 3e3e 0ac9 03be
00000040: 1dca 96bc 347c f93c 2195 64bd 52ba 113d
00000050: 8bb0 1fbc 8c7e 593e 3d83 ebbd 157f 0e3d
00000060: 4f18 88bd 1087 1d3e d45d bebd c436 8e3d
00000070: 73ba b83d ee8f 96bc 75ab e63d df47 fcbd
00000080: 1a35 d1bd 5d25 a23d 4abc ed3d 27f1 61bd
00000090: 3b52 2e3d 7de0 96bd 3a9c 9c3b 96bd 553d
000000a0: a544 c33d 1720 9cbc b48c 613d c2c0 2e3e
000000b0: 50e6 69bd 9fa5 c1bd 1324 aabc 8b78 753c
000000c0: 979d 8ebd 8fd2 85bd 57b6 d13d 10cf 7a3d
000000d0: ccd2 acbd 1683 12be ec9a f73c 37f4 0a3c
000000e0: a346 97bc a2da 8cbc 99e9 8abd 6bd9 4cbd
000000f0: 81b3 26be 6452 2e3c b685 1d3e 38b8 153e
00000100: 8c16 403d 7632 1cbe 76b0 a5bc 6af1 8abd
00000110: 07e8 073e 3026 0f3d a5e2 10be b812 053e
00000120: b8cf f0bc a4fd f1bc a664 0b3e 6eb1 a13b
00000130: 8a0a 97bd c539 f6bd f80d 473d c3a8 19be
00000140: bd9f 443e bd61 42bd eea9 fc3c 5f20 cebc
00000150: c236 4cbe 78e0 a63d 430f 273d 90d8 e63d
00000160: 9a86 213d 9179 b0bd e6ce 89bc 55d7 f43c
00000170: 621b 97bd 7dae c03d 1e4a 693d a1f0 a1bd
00000180: 0cba c4bd e3e0 e03d 827e b7bd 2be4 8cbc
00000190: 5e9c 07be 1b41 013e 3f15 f73c 78c9 3fbd
000001a0: 101b ff3c eadc f4bd 3c09 a83d 2403 55bd
000001b0: c25f 8f3c 21ce d33d e0fa 163d 2076 c7bd
000001c0: 2ee4 1f3d 2baf 1e3e fc92 32bd f607 97bd
000001d0: 244c e8bd bdee 233d f2db b8bb ddc9 003e
000001e0: 6796 f0bd d84c 97bd 8c61 c53d 8cd7 8d3b
000001f0: 5d40 bc3d 87cf 2fbb 77f7 0ebe 1c4e 633e
00000200: 061a 623d b393 b1bd 2023 8dbd b528 d2bd
00000210: a0b5 873d e43e 02be 378a a3bd 6587 c13d
00000220: 7cdd 883b a1a1 93bd 8c42 33bd be93 363e
00000230: 2481 e83d aedf 303e bbd1 3c3e c31f 833d
00000240: 8c1a 27be 2032 48bc 382b 5f3d 8d7a dc3d
00000250: 82eb 7c3d cf75 a33d dcf8 0e3e 3c35 893b
00000260: b670 393d 3930 23bd 2e1c 9abd b63f a7bc
00000270: 34c2 d63d 42ba babc 6980 c4bd cd57 5a3d
00000280: 6589 613c 8117 2a3d c0e4 cfbd 1cb9 703d
00000290: e65c 1abe 2bfc 793d c4c3 223e 20e9 b43d
000002a0: 775d 263e c343 073d 4814 9fbd 897f 87bd
000002b0: 6542 5fbb 4f06 953c cbbd 2d3d 1870 7bbd
000002c0: 1838 84bd 9911 393d 3651 80bd 58bc fb3d
000002d0: a671 d0bd 06dd aebd 1163 b3bd f368 203e
000002e0: f209 d03d e00c 313d 5411 23bd a977 093e
000002f0: 391b c0bb bcc7 723d e65f 14be f414 f0bd
00000300: 9e4e 3e3e e71b 65be 2770 813d c544 d33d
00000310: 1205 d73d 50e6 c4bd 0439 fcbc 73bb d1bc
00000320: 6dd4 12bc 3d58 5d3c c037 a03d feb4 e63d
00000330: 0fe9 a33d 0061 3c3e 1e63 e0bd 3b2b 23be
00000340: 6753 7ebd 9009 183e 4628 c4bd a655 d83c
00000350: 20df 3e38 7c00 993d 3c85 c4bd 5cce 7cbd
00000360: cca3 0dbc 03ba 4ebd f8c4 4b3d 946e 823c
00000370: 7c6f d63d 4da4 7bbd e4cc cfbd 7b1e 993d
00000380: 1318 afbd 81ed 3dbe 8c63 4e3d 0359 8f3c
00000390: c0dd 13be 135a 233e 41f6 143d 20d3 0e3e
000003a0: 4921 a43d b1fb 9cbd 7e62 24bd 0a93 c53d
000003b0: 28de d23d 2fd8 bebc 0312 2abd b640 2e3d
000003c0: b02b e63d 2a70 793c c232 d8ba 3833 903d
000003d0: 1100 cd3d 0f05 563d 3858 b8bd 3f5c 033e
000003e0: 1cde e6bc 4d72 de3d d79a 0cbe 16c4 3d3c
000003f0: 9287 303e 41a2 d83d e538 483d 2014 b93d
-0.060660858 0.008001137 0.1262291 0.11779918 -0.05546105 0.0023117175 -0.122069925 -0.07092723
-0.056495495 -0.02657731 -0.021804342 -0.10180767 -0.071933664 -0.13783838 0.18561402 -0.12869659
-0.018406922 0.030454732 -0.055806283 0.03557808 -0.009746681 0.2123968 -0.11499641 0.034789164
-0.066452615 0.15383554 -0.0929524 0.069440395 0.09019937 -0.018379178 0.112631716 -0.12318396
-0.102152064 0.07917283 0.11608179 -0.05516162 0.04255889 -0.073670365 0.004779366 0.052182756
0.09534577 -0.01905827 0.055065826 0.17065719 -0.05710441 -0.09455418 -0.020769155 0.014982353
-0.069636516 -0.065343015 0.10239857 0.061232626 -0.08438644 -0.14307818 0.03022524 0.008481077
-0.0184663 -0.017194096 -0.067828365 -0.050012033 -0.16279413 0.010639761 0.15383038 0.14621055
0.046896502 -0.15253624 -0.020225745 -0.06784327 0.13272105 0.034948528 -0.14148958 0.12995422
-0.029395923 -0.02953989 0.13612613 0.0049344813 -0.07375057 -0.120227374 0.048597306 -0.15005784
0.1920156 -0.04745649 0.030842748 -0.02516192 -0.19942763 0.08148283 0.04078604 0.11271775
0.039435007 -0.08616937 -0.01682229 0.029887835 -0.0737827 0.09408281 0.05695545 -0.079072244
-0.09605798 0.10980394 -0.08959676 -0.017198643 -0.13243243 0.12622492 0.030161498 -0.046822995
0.031140834 -0.119561985 0.08204886 -0.05200495 0.017501716 0.1034205 0.036860347 -0.097393274
0.03903597 0.15496509 -0.043597206 -0.07374565 -0.11342648 0.0400226 -0.005641454 0.12577005
-0.11747437 -0.07387704 0.09637746 0.0043286737 0.09191964 -0.0026826577 -0.13961588 0.22197765
0.0552006 -0.086707495 -0.06891465 -0.102616705 0.06626439 -0.12719303 -0.07985347 0.094496526
0.0041767936 -0.07208563 -0.043764636 0.17829797 0.113527566 0.17272827 0.18439381 0.064025424
-0.1631872 -0.012218982 0.054484576 0.10765562 0.061748035 0.079814546 0.1396212 0.0041872542
0.045273505 -0.03984091 -0.07524906 -0.020416122 0.1048626 -0.022793893 -0.09594805 0.05330639
0.013765668 0.04152632 -0.101510525 0.058770284 -0.150745 0.0610315 0.15894991 0.088335276
0.16246592 0.033023607 -0.0776754 -0.06616122 -0.0034066674 0.018191485 0.04241733 -0.061386198
-0.064560115 0.045182798 -0.0626549 0.12291783 -0.10177927 -0.085382506 -0.0875913 0.15665035
0.10158147 0.04322517 -0.039811447 0.13424553 -0.00586262 0.059272513 -0.14489707 -0.117227465
0.18584678 -0.22373925 0.063202195 0.10315851 0.10499014 -0.09614241 -0.030788906 -0.025602078
-0.008961779 0.013509807 0.078231335 0.1126499 0.08003437 0.18396378 -0.10956405 -0.1593446
-0.062091257 0.14847398 -0.09577994 0.026408028 4.550733e-05 0.074707955 -0.09595725 -0.061720237
-0.008645009 -0.050470363 0.04974839 0.015921868 0.10470483 -0.061435986 -0.10146502 0.07476517
-0.08549514 -0.18547632 0.050387904 0.017498499 -0.1444006 0.1595233 0.03636766 0.13947725
0.08014161 -0.07665194 -0.040132992 0.09647186 0.10296279 -0.023296444 -0.041521084 0.042542182
0.112388015 0.015224496 -0.0016494619 0.07041019 0.10009778 0.052250918 -0.090012014 0.12828158
-0.028182082 0.10861645 -0.13730942 0.011582395 0.17239216 0.105778225 0.048882384 0.09037042

conv1.bias f4 [256]
00000000: db91 fcbb 0d11 88bc 44f6 6ab8 41ff 183b
00000010: 2218 ba3a b81f a8b9 4e80 833a e6b0 e0b9
00000020: 70d0 033b f540 d73a 7991 0a3d ee46 f0ba
00000030: 487d 543b 9e69 e439 c032 a83a 278e 983c
00000040: 23f1 2a3d 32f8 c7ba 7489 523c 213d 493a
00000050: 3ec5 b63b 08b0 25ba 4372 da3a 10cc 7bb9
00000060: 16b4 e13c 77d1 083c b603 dc3c c4ba 943c
00000070: 9468 fd3c 26fb 6d3a 4561 a8bb cd29 9abb
00000080: f6a8 453a 5104 c43b 4b33 2bb9 f970 8a3a
00000090: 7389 e53a b9f5 333a 79a9 22bc 0620 83bc
000000a0: 2203 d1ba 8709 b13c 2e44 5439 abe3 2f3b
000000b0: b741 9fbb 64d2 12bb e400 e338 c31e 613a
000000c0: 8033 2037 1afb d3b9 25ef 86bb 031e 563c
000000d0: 6f54 243b 5c84 803c b373 d5ba 7b9a 733a
000000e0: 3bec 423b 6e20 93ba 8cfc 5cbc 9f33 d0bc
000000f0: 64cb da3b 3f0e 473a 8575 c93c dea9 443a
00000100: e698 b1bb 86a0 b23b 7084 a1bc bb56 083b
00000110: 7163 6e3c 1106 7b3c f2b8 6d39 469c 1dbd
00000120: 721b 96bc e3b9 73b9 c42e 1d3b fa41 0ebc
00000130: d662 583b 532b efba 9d6f 3d39 7bd4 033c
00000140: 5721 b8ba 2cf0 2cbc d25a 44bb d113 b539
00000150: bbc0 5cbc 96ae d6ba 4192 8c3a 7e64 81bc
00000160: d5ec 8bb9 e373 cd3a 17ba 13bc 6998 1c3b
00000170: 0b19 1bbc 744c dcba e303 153d 876b 893c
00000180: 0bb9 00bd e0f1 17ba 0412 ddba e0f4 0f3d
00000190: 3416 1b3c 1579 b439 5e06 82ba bc1d 673b
000001a0: 6596 1c3b 79be 353c d041 52bb 6005 ba3b
000001b0: 7ddb 9c3c 54cd 543b a449 103a b72e b33a
000001c0: 6ef1 91ba 3486 073c 43f8 80bc 9d41 90b8
000001d0: 6dbb 7d3c 45c4 c6b9 9735 0d3a 9695 03bb
000001e0: 7eb8 403c b89b 8b3a 24ac 84ba 2c2c 12b8
000001f0: 8712 2b38 2eaa fcb9 d06c 163a e7d7 333c
00000200: 5d3c d23a d21a a5bc f051 01bc abde 1b3a
00000210: e8e0 57bc 8f23 d23b 5224 e33a 17ee 6e39
00000220: fd8d 8a3c 4127 0c39 1d28 c5bb c0ca ecb9
00000230: 3e5f 3dbb c2e2 b83c deb9 0dba f809 a23c
00000240: 4f60 fe3a 7feb 803c 12ea d53c f6ec bc3c
00000250: 45e6 913b 4886 933a 2ff2 a3ba 2651 c5bb
00000260: 4013 1dba 86cc afb9 2d8a db3a cc7c 3ebc
00000270: fa82 9fba 5c50 803b 5604 1a3a 47f1 103a
00000280: d8ad 1838 d32c 813a 6f2b c7bb 17b4 9539
00000290: f96c bb39 da0e 063c 1c31 e43a 2406 59bb
000002a0: 662a b2ba b50e 9a3c 6e49 41b9 aa04 d2ba
000002b0: b842 3dbb 9214 643a c8b7 deb9 7531 f439
000002c0: e694 143d 854d e5bc c994 1cbc 51e6 22bc
000002d0: 9de3 063c fdca 273a 05e4 deb9 1079 e4bb
000002e0: e53c 3cbb f42b 5aba 60dc 3ebb 14f2 04bb
000002f0: 970b afba 5e94 c4bb 8248 f8b9 700f 943c
00000300: e1e1 d93b 17f0 823a 7adb c637 fdaa 653c
00000310: 0ec9 4aba 69d0 b6b9 2281 6abc 7212 86b8
00000320: 51c0 8dbc 1c90 253b a175 523a 7f7b bdba
00000330: 6728 4bb9 a241 383c f9c3 96b9 2352 69bc
00000340: 3198 af3a 72c0 c8ba 9504 c4bc 057c 4e3c
00000350: f37c 65bb 83ef d43c 861b 0fbc 3851 8aba
00000360: 0fbd 72bb e3c8 fabb c022 90b4 fd22 19bb
00000370: 888c e338 bd30 313c 2e16 8d3c da5f b13b
00000380: cee6 3cba d083 183c 6125 76b9 ab10 4a3b
00000390: ecaf b239 ba2e b5b9 111c 11bb e77f c73b
000003a0: 1992 1c3b 6f26 043c 5482 08bc 5c05 073c
000003b0: 75bf 49bb 80c1 f5b8 976d 873a 3410 02bb
000003c0: daaa 8b39 42e6 0cbb 4db0 19bb 58d9 63ba
000003d0: 1c81 05bc 5e47 333d 4d43 a8b6 7389 5439
000003e0: 097f 2139 5098 ffba edf2 33bc a4c4 8ebb
000003f0: c4e8 d43c 23e0 cebb 8ec6 3439 3c8f 1aba
-0.007707817 -0.016609693 -5.60193e-05 0.0023345503 0.0014197866 -0.0003206709 0.0010032745 -0.0004285641
0.0020113252 0.0016422557 0.03383014 -0.0018331686 0.0032423306 0.0004356624 0.0012832507 0.018622471
0.041733872 -0.0015256463 0.012850154 0.00076766504 0.0055777123 -0.0006320481 0.0016666133 -0.00024013245
0.027551692 0.008350722 0.026857238 0.018155463 0.030933656 0.00090782566 -0.0051385486 -0.00470469
0.0007540131 0.00598196 -0.00016326939 0.0010562233 0.0017512277 0.00068649236 -0.009928101 -0.01600648
-0.0015946368 0.021610988 0.00020243294 0.0026838582 -0.0048601287 -0.0022403235 0.000108243694 0.00085876527
9.548734e-06 -0.0004043214 -0.0041178637 0.013068679 0.002507474 0.015688114 -0.0016285091 0.0009292734
0.0029742855 -0.0011224875 -0.013487946 -0.02541524 0.006677078 0.00075933704 0.02459217 0.0007502119
-0.0054198382 0.005451265 -0.019716471 0.0020803649 0.014550076 0.015321271 0.00022670979 -0.038479112
-0.018323634 -0.00023243534 0.0023984173 -0.008682722 0.0033017895 -0.0018247165 0.00018066024 0.008046265
-0.0014048022 -0.010555308 -0.002996136 0.00034537775 -0.013473685 -0.0016378935 0.0010724739 -0.015794989
-0.000266886 0.0015674796 -0.009016535 0.0023894554 -0.00946642 -0.0016807453 0.03638066 0.016774906
-0.03142647 -0.0005796235 -0.0016866331 0.03514564 0.009465743 0.00034422489 -0.000992011 0.0035265526
0.0023893353 0.0110927755 -0.0032082684 0.0056769103 0.019147629 0.0032471018 0.00055041374 0.0013670538
-0.0011134574 0.008271743 -0.01574338 -6.8786765e-05 0.01548658 -0.00037911735 0.00053867087 -0.0020078174
0.011762736 0.0010651266 -0.0010122103 -3.485025e-05 4.0786832e-05 -0.0004819198 0.000573826 0.010976768
0.0016039718 -0.02015439 -0.007893071 0.0005945961 -0.01317618 0.0064129303 0.001732955 0.00022786144
0.016913408 0.00013366064 -0.0060167448 -0.00045164488 -0.002889588 0.022569064 -0.00054064195 0.019780144
0.0019407364 0.015737293 0.02611259 0.02306221 0.004452499 0.0011255229 -0.001250809 -0.0060216365
-0.0005991943 -0.00033530983 0.0016749554 -0.011626434 -0.0012169771 0.0039158296 0.000587528 0.0005529117
3.640153e-05 0.0009855278 -0.0060781757 0.00028553672 0.0003574861 0.008182252 0.0017409655 -0.0033115232
-0.0013592958 0.018805841 -0.00018433269 -0.0016023119 -0.0028878879 0.0008700575 -0.00042480067 0.00046576155
0.036274813 -0.027991066 -0.0095569575 -0.009942607 0.008232978 0.0006400792 -0.00042513027 -0.0069724396
-0.002872282 -0.00083225896 -0.0029123053 -0.0020285891 -0.0013354894 -0.005999132 -0.0004735627 0.018073767
0.0066492413 0.0009989765 2.3705641e-05 0.014017818 -0.0007735648 -0.00034869023 -0.014313014 -6.3930536e-05
-0.017303618 0.0025262898 0.00080283923 -0.001445636 -0.0001937464 0.011246117 -0.0002875624 -0.014240774
0.0013396797 -0.0015316142 -0.023927966 0.012602811 -0.0035017102 0.025993114 -0.008734589 -0.001055277
-0.0037038957 -0.007653342 -2.6847374e-07 -0.0023366802 0.000108503795 0.010814843 0.01722249 0.0054130377
-0.00072060234 0.00930877 -0.00023474313 0.0030832689 0.00034081878 -0.00034557824 -0.0022141973 0.006088245
0.0023890792 0.008065804 -0.008331854 0.008241024 -0.0030784283 -0.000117185526 0.0010332343 -0.0019846084
0.0002663944 -0.002149955 -0.002345103 -0.00086917495 -0.008148458 0.043769233 -5.014625e-06 0.000202691
0.00015401481 -0.0019500349 -0.010983211 -0.0043569375 0.025989898 -0.0063133403 0.00017240105 -0.00058959774

conv1.lin.weight f4 [256, 8]
00000000: 9505 da3e c82b 80be ada1 ff3e 7056 693c
00000010: c259 19c0 fd8d 0140 ba8d 673f 78e9 debe
00000020: 8a68 50be ce13 81bf e807 82bd a680 ab3d
00000030: c796 a1c0 8d23 d93f 40d3 a33c 62ff 9cbf
00000040: 6da2 ad3f 2b7e 1440 a938 a73f d44f e93b
00000050: 0e3b 703f 42c9 163f cfbe f23f ac04 603d
00000060: 72ac ac3e b614 993f fa97 c93d 99f2 333c
00000070: 09e3 6740 7be6 9fbf dcf0 633e 55a8 533f
00000080: 6e66 893f 1f0e 803f c4b1 9a3f 2694 813c
00000090: dc97 9ebf c7d5 0e40 c670 d63f 5919 c4be
000000a0: 3722 b03f 38bb bc3f 2ae6 b23f 7090 45bc
000000b0: 9d60 003d 657b fb3f 6610 a93f 3bf1 9abd
000000c0: 5676 db3e e79c f2bd b7d5 063f 5574 c0bb
000000d0: 14a4 36c0 4347 e63f 105c e23e 1bf4 17bf
000000e0: dbcd 2e3f e561 d33f 2a51 023f bfd2 97bc
000000f0: 2c9b 3d40 8777 4abf 9a32 d33e 5538 063f
00000100: eb57 91bf 7d7a 8fbf d13b 96bf b47e 673c
00000110: e4f4 cf3e f82f 0dc0 06a7 bcbf bb4d 5b3d
00000120: a5b0 003f d17d 993b 9b9e e83e 3e42 1dbd
00000130: 46e6 ccbf b06f e83f e974 633f 85d0 d8be
00000140: 0785 5ebb 491f 493f e18b 6f3d 7d7e 49bd
00000150: 1347 8740 a7d8 a0bf 1827 5ebb e31d 813f
00000160: 7075 6c3f 1886 ff3f d488 6b3f 22f2 9b3c
00000170: 4cb6 4240 1d01 c73d f580 9f3f 6927 0e3f
00000180: 9f74 8fbf 4286 f7be 214b 73bf abe5 fa3b
00000190: f5ba 2340 8027 1ec0 96f3 89bf e94a c83e
000001a0: 30a1 2b3f 1a81 f83e dfb0 703f b0ee 8a3c
000001b0: 0691 40c0 21af 1340 ce39 373f 66c9 2dbf
000001c0: ae81 c93d 6e7e 30bf cc85 76bd a2dd 283c
000001d0: d5ee 89c0 21ce af3f a237 6d3e d046 90bf
000001e0: 284f 893e b383 8e3f aa1e 813e 10dc 943d
000001f0: 3704 7040 6613 a7bf ae78 453d 2071 213f
00000200: f7ec c5bd c1f2 63bf 3dfe 9fbd 3161 773c
00000210: 0fb5 6fc0 f275 5a3f 112b 263e ac4f 72bf
00000220: 8915 11bf 52f4 a4bf b5cf 38bf e600 1a3d
00000230: 8434 9abf 0e52 673e 41c2 fcbe ba1f b4be
00000240: fa37 9f3e 4015 e8be 9bab f23e a1b6 3ebe
00000250: 21ea 3dc0 bad2 d73f 46e5 c33e 0115 ecbe
00000260: eae7 b23f f3c0 8b3f 1d88 a33f 63e5 943c
00000270: 0960 11c0 0e20 2c40 3c5e bb3f 926d 08bf
00000280: fc22 803e e647 d0be f7f4 413e 4d37 bf3d
00000290: f5c5 17c0 5566 ec3f 4599 c93e f6e1 f1be
000002a0: 7c6b 093f 810c 8f3e 0453 233f f630 963c
000002b0: df1f 3fc0 9b29 0d40 5bb4 2d3f 7fe7 2ebf
000002c0: 4475 3fbf 767f c7be 0213 6dbf 60fa 643c
000002d0: c66d 0240 2f7e 1bc0 005b 6ebf d26e 8c3e
000002e0: 1596 123e 1c96 93be d171 013e d24e de3d
000002f0: 9970 a8bf c9a0 903f d004 0f3f f7ee a3bd
00000300: f56a 7f3d 6d35 553f 0036 163e 8f7f fc3d
00000310: 1b93 6740 2122 afbf 5507 09be 91bf 5f3f
00000320: 958a 6dbe b98d 6abf a7b9 82be ce39 d13c
00000330: d4e3 38c0 451c 703f 4543 d23d 988f e8be
00000340: d06e 333e 3fad 563f a48b 8c3c 1d4f 69bc
00000350: f4fb 9240 ab4b bdbf 18c3 22bd 7bc1 763f
00000360: 6d00 1dbd 5d80 a9bf 7565 6fbd 20b9 9a3d
00000370: 20d0 8ec0 63f8 ca3f 460f 09be 0c0c 7bbf
00000380: fee9 68bd 7a2c 89bf e602 12be 05af 123d
00000390: e6ac 73c0 ae21 a23f 022d b33d 2ac5 69bf
000003a0: 4853 89be 770d bebf 0ec8 a0be 8769 3d3c
000003b0: 4f0f 53c0 2198 8f3f b865 88be 14d4 10bf
000003c0: 629f 07be 2b50 aabf 99e4 0dbd e88c 873c
000003d0: bf79 9bc0 7995 d43f 2da5 45be c75b 82bf
000003e0: 9141 b1be f989 f4bd 3f85 e8be a825 093c
000003f0: 5e2c 1c40 82c5 03c0 d31b 8fbe 79d1 253f
0.42582384 -0.25033402 0.49928036 0.0142418 -2.3961034 2.0242913 0.9045063 -0.43537498
-0.20352378 -1.0084169 -0.06349164 0.08374147 -5.0496554 1.6963974 0.019998193 -1.2265437
1.3565193 2.3202007 1.3064166 0.007120112 0.9384011 0.58900845 1.896448 0.054691955
0.33725315 1.1959445 0.0984344 0.010983133 3.6232321 -1.2492212 0.2225985 0.8267873
1.0734384 1.000431 1.20855 0.015817713 -1.2390094 2.231798 1.6753166 -0.3830059
1.3760442 1.4744635 1.397649 -0.012058362 0.031342138 1.9647032 1.320813 -0.07565542
0.4286372 -0.11846333 0.5266985 -0.005873243 -2.8537645 1.7990497 0.44210863 -0.5935685
0.6828286 1.651425 0.50905097 -0.018533109 2.962596 -0.79088634 0.41249543 0.52429706
-1.1354955 -1.1209255 -1.1737005 0.0141293295 0.40616524 -2.2060528 -1.4738472 0.053540926
0.5026954 0.004684188 0.45433506 -0.03839325 -1.6007774 1.8159084 0.88850266 -0.42346588
-0.0033953802 0.7856336 0.05848301 -0.049192894 4.227426 -1.2566117 -0.0033897813 1.0087246
0.92366695 1.9962797 0.9200566 0.019036356 3.0423765 0.09717009 1.246123 0.55528885
-1.1207465 -0.48344618 -0.9503651 0.007656773 2.558286 -2.471161 -1.0777462 0.39119652
0.6704283 0.48535997 0.94019884 0.016959518 -3.0088515 2.307564 0.7157258 -0.67885435
0.098391876 -0.68942916 -0.060186192 0.010306748 -4.3104043 1.373478 0.23165753 -1.127161
0.26818204 1.1133941 0.25218707 0.07268536 3.7502573 -1.3052795 0.048210792 0.6306324
-0.09664338 -0.8904229 -0.07812164 0.015098856 -3.745426 0.8533622 0.16227366 -0.9465282
-0.56673485 -1.2887061 -0.72191936 0.037598513 -1.2047276 0.22589895 -0.49366954 -0.35180455
0.31097394 -0.45328712 0.4739655 -0.18624355 -2.967415 1.6861184 0.3826086 -0.46109775
1.3977025 1.0918258 1.2775913 0.018175786 -2.2714865 2.6894565 1.4638133 -0.5329219
0.2502669 -0.40679854 0.18941103 0.0933672 -2.3714573 1.8468729 0.39374748 -0.47242707
0.53679633 0.27939227 0.63798547 0.018333893 -2.9863203 2.2056644 0.67853326 -0.68321985
-0.7478831 -0.38964432 -0.9260713 0.01397571 2.03795 -2.4295766 -0.93107605 0.274283
0.14315064 -0.28825462 0.12641074 0.108548775 -1.3159362 1.1299068 0.5586672 -0.08004563
0.06235786 0.83284646 0.14669037 0.12329017 3.6183536 -1.368229 -0.13381703 0.8740168
-0.23197396 -0.916225 -0.25532266 0.025540259 -2.8889055 0.93793136 0.10266737 -0.45422053
0.1752274 0.838581 0.01715643 -0.0142400535 4.593256 -1.4788717 -0.039736837 0.9638898
-0.038330484 -1.3242298 -0.058446366 0.07554841 -4.462906 1.5857052 -0.13384733 -0.9806526
-0.056863777 -1.0716698 -0.14258918 0.035811443 -3.807428 1.2666528 0.08748819 -0.91316473
-0.2682135 -1.4847859 -0.3140263 0.011560804 -3.2978094 1.1218301 -0.26640105 -0.56573606
-0.13244393 -1.3305715 -0.034641836 0.016546682 -4.8586116 1.6608115 -0.19301291 -1.0184258
-0.34620336 -0.11940379 -0.4541416 0.008370794 2.440208 -2.05893 -0.27950916 0.64772755

bn1.weight f4 [256]
00000000: 8fda 523f 9029 7e3f 375d 683f ebdf 363f
00000010: 8a17 8b3f a725 713f b7fa 413f 5f65 3c3f
00000020: dcb9 8c3f 09f7 6a3f 3700 813f 83d4 9b3f
00000030: 5603 883f f5ee 6d3f 39ba 503f 2bc3 4d3f
00000040: 95e2 883f e615 663f 0640 803f 6f84 893f
00000050: 9448 373f 8cdc 4a3f 5416 8a3f bc07 483f
00000060: e70a 403f 7488 7c3f 9f66 3a3f f7b5 7c3f
00000070: 22ea 3d3f dd9e 8c3f 8e52 843f 4c0b 543f
00000080: 0683 693f 7965 5a3f 4e14 573f a4ce 713f
00000090: 5929 3e3f ac52 623f 0d41 863f c7c4 8c3f
000000a0: a864 743f cc7e 753f 5fd7 503f 95df 2e3f
000000b0: 74d7 753f f97c 413f 875e 563f 74c1 873f
000000c0: 6c88 7e3f 4ffb 4e3f 6f33 333f cf0d 743f
000000d0: 8aa7 343f 082e 7c3f 1667 833f 8cbe a73f
000000e0: 03b9 333f 0fae 463f 1ae2 573f 845b 463f
000000f0: d8cb 803f 4880 783f 7a90 443f 0653 8b3f
00000100: 6859 413f bac8 6f3f 5c44 433f 2787 463f
00000110: 015b 123f cdb3 6f3f 7fdc 883f 6183 483f
00000120: 9f27 523f a04d 8b3f 4278 423f 428b 613f
00000130: c777 3e3f 8ae7 603f 6135 833f 9abe 803f
00000140: 4aaf 4c3f f4ef 453f 3a6b 533f f5e9 753f
00000150: 5a71 6d3f 4537 603f c8f5 4e3f da21 4b3f
00000160: 9e0d 303f 2b45 833f 6700 653f f78c 833f
00000170: 112a 4d3f 731a 3a3f 1dc9 7f3f 2f81 8d3f
00000180: 2b26 653f 813e 3e3f 6406 833f 7255 413f
00000190: 2c0f 5a3f 894f 653f 934d 673f f197 603f
000001a0: ec20 5e3f 7f64 773f 6c08 553f d836 793f
000001b0: 1ce9 873f fcef 8b3f 8662 253f 271f 6c3f
000001c0: c5f2 673f d7ab 493f 4c33 7a3f 358c 8b3f
000001d0: 44ed 733f c4cb 483f 8171 5f3f ae36 833f
000001e0: 5fb5 413f 0f4e 803f 3d7f 3b3f c373 503f
000001f0: 4fbb 7c3f d343 6f3f d772 7d3f 4f34 513f
00000200: 12a1 8a3f 00dc fc3f eec1 863f f459 533f
00000210: 4f52 7c3f 157c 6c3f f6d4 583f 3c85 4f3f
00000220: b791 4d3f 9031 6c3f 2d5f 363f 1d6b 573f
00000230: 7882 463f 3ef3 573f d2d7 873f e935 803f
00000240: 2e34 803f 0048 883f 9d7e 5d3f a0eb 723f
00000250: b018 603f 2101 513f b494 763f c638 753f
00000260: f5f0 413f ce46 7a3f c818 7f3f f6a1 4e3f
00000270: cd53 233f 2b54 6c3f 2254 443f b082 473f
00000280: 7338 873f 4b57 523f 92f9 813f 67a0 603f
00000290: 90b4 933f 36b3 3b3f b0a1 433f 35a9 7d3f
000002a0: 2d5a 873f 0821 793f d5f8 3d3f 70fd 843f
000002b0: 9e2f 6f3f f93c 5b3f 2b85 443f 5c12 553f
000002c0: 512b 7c3f 7f73 7c3f 818b 433f 84bb 763f
000002d0: 14de 473f 6d4a 7c3f ae3b 593f e815 663f
000002e0: 0a42 603f 094b 7b3f b775 443f 682d 913f
000002f0: 0bf6 703f f57c 713f 2285 833f 9a5b 523f
00000300: cd9e 3e3f c151 8a3f b0c8 7c3f 24d8 3e3f
00000310: f4e9 893f d4ea 8b3f 3cda 6a3f f51f 4c3f
00000320: 9749 703f 20ac 383f 67b0 863f 861e 763f
00000330: 9df9 9a3f 7d92 603f 7d9f 813f a451 7e3f
00000340: b84e 823f 75d4 723f 7891 433f daa6 773f
00000350: d846 503f 8b88 333f 4e57 813f 7cfc 4d3f
00000360: 3ab7 6f3f ab49 603f 592a 3e3f 2a33 723f
00000370: dfc7 633f 98cc 563f fcd6 833f 9e69 5e3f
00000380: 6c2a 593f c9e6 493f 9127 6f3f 10e5 353f
00000390: d4ee 773f 7ee5 423f c9af 533f f258 5f3f
000003a0: 67be 7b3f bbf0 763f 3d74 893f 5ebe 743f
000003b0: b97d 813f 8d7c 843f ce99 563f bf3a 883f
000003c0: 058a 7f3f 6b99 883f 8df8 603f 8480 643f
000003d0: 0a2f 463f fc8b 793f 4b2e 8d3f 7bbf 4e3f
000003e0: 9961 813f 2eeb 523f a83c 813f e616 323f
000003f0: 453e 423f 71fd 3b3f a52e 883f 0eea 5e3f
0.82364744 0.9928217 0.90767235 0.7143542 1.0866559 0.9419808 0.75773185 0.7359218
1.099422 0.91783196 1.007819 1.2174228 1.0626018 0.92942744 0.81534153 0.8037593
1.0694147 0.89877164 1.0019538 1.074354 0.7159512 0.7924278 1.0788064 0.781368
0.75016636 0.9864571 0.7281284 0.98715156 0.74185383 1.0985981 1.0337694 0.8282974
0.9121555 0.85311085 0.8401536 0.94455934 0.7428184 0.884074 1.0488602 1.0997552
0.9546609 0.958966 0.8157863 0.6830991 0.9603188 0.7558132 0.8373799 1.0605912
0.99426913 0.80852216 0.70000356 0.9533357 0.70568144 0.9850774 1.0265834 1.3105025
0.7020418 0.7760934 0.8432938 0.7748339 1.0062208 0.9707074 0.76782954 1.0884712
0.7552705 0.9366566 0.76276183 0.77549976 0.5717011 0.9363373 1.069229 0.7832547
0.82091707 1.0883064 0.7596475 0.88103116 0.74401516 0.878533 1.0250665 1.0058167
0.7995497 0.77319264 0.8258549 0.96060115 0.92751086 0.87584335 0.8084378 0.7934853
0.6877078 1.0255483 0.8945374 1.0277394 0.80142313 0.7269661 0.9991625 1.1055049
0.89511365 0.74314123 1.0236325 0.75521004 0.851794 0.89574486 0.90352744 0.87731844
0.86768985 0.9663772 0.83215976 0.9734931 1.0618014 1.0932612 0.6460346 0.92235035
0.9060481 0.7877783 0.9773452 1.0902163 0.95283914 0.7843592 0.8728257 1.0251062
0.75667375 1.0023822 0.73241025 0.8142664 0.9872331 0.93462867 0.99003357 0.8172044
1.0830405 1.9754639 1.0527933 0.8255913 0.9856309 0.92376834 0.8469995 0.81062675
0.8030047 0.92263126 0.71238977 0.84147817 0.7754283 0.84355533 1.0612738 1.0016452
1.0015924 1.0646973 0.8652132 0.94890785 0.8753767 0.8164235 0.9632065 0.95789754
0.75758296 0.9776429 0.9964719 0.8071588 0.63799745 0.9231593 0.76690876 0.7793379
1.0564102 0.8216445 1.0154288 0.87744755 1.1539478 0.7332033 0.7641859 0.99086314
1.0574394 0.97316027 0.7420781 1.0389843 0.93432033 0.8563991 0.767657 0.8323114
0.98503596 0.98613733 0.7638474 0.96379876 0.7807324 0.98551065 0.8485669 0.89877176
0.8760077 0.9816137 0.7674212 1.1341982 0.9412543 0.94331294 1.0275004 0.8217102
0.7446106 1.0806199 0.98743725 0.74548554 1.0774522 1.0931039 0.9173925 0.7973626
0.9386229 0.7213764 1.0522584 0.96140325 1.2107426 0.87723523 1.0126797 0.99343324
1.0180273 0.94855434 0.7639384 0.9673897 0.813581 0.70130223 1.0104768 0.80463386
0.93638957 0.8761241 0.7428337 0.9460932 0.88976854 0.83905935 1.0299983 0.8687991
0.84830356 0.78867775 0.9341975 0.71052647 0.968488 0.7613143 0.826901 0.87245095
0.98337406 0.96461076 1.0738598 0.9560298 1.0116493 1.035051 0.8382844 1.0642928
0.99819976 1.067182 0.8787926 0.892586 0.77415526 0.97479224 1.1029752 0.80760926
1.010791 0.82390106 1.0096636 0.6956619 0.75876266 0.73433596 1.0639235 0.8707589

bn1.bias f4 [256]
00000000: 2b20 383f e025 eabe 6a40 33be 39d2 35bf
00000010: e33e 46be 5cee 89bd 20cf 263f 6b62 a0bd
00000020: 4426 bd3c fd56 9ebe 781a f6bd b273 d0bd
00000030: b890 743d 9b40 52bc acc8 3b3f 0df9 af3e
00000040: 5538 82be c7bd 0ebf 92a0 33bd a48e d23d
00000050: 17ed 72be f966 7abd e61c 053c 6a83 96be
00000060: 5fa0 65bd 6fbf a3be 7bbe c3bd 9782 4dbf
00000070: c002 51be c905 a0bd 0516 fabc 3df9 a4bc
00000080: 7360 3e3d 0dea 19bf 3c3c a5b9 6d93 1bbe
00000090: 730e e23e 628b 99bd 8af0 45be 871d b9bd
000000a0: 09a2 dabe 68c5 ecbe f722 23be e655 f2bd
000000b0: 9136 f0be d11e d7bd e30d 5cbe 9bd4 22be
000000c0: aad4 67be 1b40 f7bd 3225 1c3d 5239 bcbd
000000d0: f4d1 f83e aede 65be 2de0 8dbd 98c6 89bd
000000e0: 7f19 453d b8d2 933e 7989 d73d b2aa 21bf
000000f0: b9ec 2abf 8907 15be 63e6 363d 6e8a 7d3d
00000100: 3fe2 c93c 67b3 2cbf 7f5a 82be f179 f7bd
00000110: 808e ff3e 1bc0 d1bd 2de0 06be 9793 653d
00000120: 64f6 433e 0317 c2bc cf13 593d 289c b8bd
00000130: fe05 babd f93d 74bd b88d ffbd 9c6b 17be
00000140: b3fe 41be 23ab 2b3f d453 1fbf 8fe8 343d
00000150: 51d1 483d 1c6d 923d e740 333f 7673 d33d
00000160: 652d 043f 0ed4 43bd 8b5e f4bd f676 86be
00000170: 6a37 653d 7e9c c9bd 8274 f6be 6ffa 55bf
00000180: 239e ddbe 7881 a93e 5ab2 ddbe a206 cdbd
00000190: f743 ff3d 0060 d13e 1460 613e b018 2b3d
000001a0: 864d 24be d251 543d 1ff4 20bd b6e5 4dbe
000001b0: ca89 6ebe 397f 92bd fd99 0e3e 5a61 e93e
000001c0: b029 e1be 6aee 503e 1e28 98be a6bf b9bd
000001d0: f80d 30be fff3 973e 39f4 ac3c ef03 5bbe
000001e0: 5ea0 cabc e141 a83d 0fa0 2ebe 9eb5 c93e
000001f0: 98d3 f7bd 688c 2fbe 1472 a0be 3298 6fbf
00000200: cefa 69be 0343 7a3e d47b 32be 0f17 53bd
00000210: 69e2 8ebe 256a 88bd 0c39 86be 5c46 4bbd
00000220: 2edd e23d 07f4 f8bc 60b0 e43e f36a 6bbe
00000230: cfe9 2b3f dfe1 ea3b 334e 0c3d a63b a4bd
00000240: aceb dcbe 9c3e 5cbe 016c 20bf fbde 47bf
00000250: bf79 4dbe 8ffc e23d bb8b 33be adec bcbe
00000260: 9d58 87be 8584 67be ab2f 963d 7746 3c3b
00000270: 2740 b5be 403b b0be fd2d 04be 34ae 1dbe
00000280: e6a6 61bd 8791 30be f863 8dbe baf0 883e
00000290: fa70 a7bd e40d 42be 9549 9cbd a540 58be
000002a0: e962 483d f6b9 20be 2dbd 383f eafc 803c
000002b0: 6e88 9fbd eeb3 773d 1240 233f b5ab 3bbe
000002c0: 3466 2ebe 5544 1ebf f03b 06be f5c3 ba3d
000002d0: f41a 94be 0f02 8a3d d9bd 2b3f cd6e f6be
000002e0: 1240 2abd d4da 913b 8b86 95be 485d 66bd
000002f0: 6a48 983d 95de 99be ce7c 82be 5e4c 673c
00000300: e5f1 ea3c 7bb3 c4bc 23d5 563d 5027 96be
00000310: 5631 30be f5c1 253d 04f8 b9bd 1afc b23d
00000320: 8012 8dbe 22d9 c4be ab2c c1bd 0ebd 25bf
00000330: c1e3 173e dcc9 27bf c7e8 ff3d cd43 6dbf
00000340: b70f f8bd 29be 18bc 7ed5 32bf a292 a1be
00000350: 803a b93e aaa4 e43d ac3a b63d 2103 033d
00000360: 165a 03bf 7b61 143f 6417 54bd 17a4 8abd
00000370: 1740 ea3d a8e7 0fbf 65e9 18bf 0259 acbe
00000380: ff4a 9c3d fc88 3d3e 5e3f 41bd ff49 9bbe
00000390: 7116 763e 8286 54be 77f0 30bf 9c27 9abe
000003a0: 66ca 03be dd37 afbe d23c 19bf cdac 1abf
000003b0: b02c 5dbe 8ccc 1bbf abca d6bd 277a eebd
000003c0: 737b 83bd 9959 06be 5fee 05bf f519 eeba
000003d0: 5851 e9bc aa2e eabe dddb 94bd 4a30 db3d
000003e0: 7161 d5bd a2f4 08bf 2f86 2fbf 3075 3abc
000003f0: bda6 343e 4d72 1e3f dbad 2dbe c6ae dbbd
0.71924084 -0.4573202 -0.17505041 -0.710239 -0.19359927 -0.067349166 0.651598 -0.07831272
0.023089536 -0.30925742 -0.12016767 -0.10178317 0.059708327 -0.012832786 0.73353076 0.34369698
-0.25433603 -0.5575833 -0.043854304 0.10281113 -0.23723255 -0.06113336 0.008124566 -0.29397136
-0.056061145 -0.3198199 -0.09557816 -0.8027739 -0.20411205 -0.078136034 -0.030528078 -0.020138377
0.0464787 -0.6012276 -0.0003151613 -0.15192957 0.4415165 -0.07497288 -0.1933004 -0.09038835
-0.42701748 -0.4624436 -0.15931307 -0.1183279 -0.4691663 -0.10503925 -0.21489672 -0.15901415
-0.22639719 -0.12072774 0.03812141 -0.091906205 0.48597682 -0.22448227 -0.06927524 -0.06727332
0.048120018 0.28871703 0.10524268 -0.63151085 -0.6676746 -0.14553656 0.044653308 0.061899595
0.024644015 -0.67461246 -0.25459668 -0.12083805 0.49913406 -0.10241719 -0.13171454 0.056048956
0.1913696 -0.023692613 0.052997407 -0.090141594 -0.09083174 -0.059629414 -0.124782026 -0.14787143
-0.18944816 0.6705801 -0.62237287 0.044167098 0.049027745 0.07149717 0.7002091 0.10324757
0.51631767 -0.047809653 -0.11932095 -0.26262635 0.05596105 -0.09844302 -0.48135763 -0.83585256
-0.4328471 0.3310659 -0.43300134 -0.10011031 0.12464135 0.40893555 0.22009307 0.04177159
-0.16045198 0.051835842 -0.039295312 -0.20107159 -0.2329475 -0.07153172 0.1392593 0.45582086
-0.43977118 0.20403448 -0.29718107 -0.09069757 -0.17192829 0.29678342 0.021112548 -0.2138822
-0.024734672 0.082156904 -0.17053245 0.39396375 -0.12100905 -0.17143404 -0.31337035 -0.93591607
-0.2284958 0.24439625 -0.17430049 -0.051535662 -0.27907112 -0.066608705 -0.26215398 -0.049627647
0.11077343 -0.030389799 0.44665813 -0.22990017 0.6715364 0.007168039 0.034254264 -0.080191895
-0.43148553 -0.21508259 -0.626648 -0.78074616 -0.20065974 0.11083328 -0.17533772 -0.3689932
-0.26434794 -0.22609146 0.07333311 0.0028728524 -0.35400507 -0.34420204 -0.12908168 -0.15398484
-0.055090807 -0.17243014 -0.27615333 0.2674616 -0.081758454 -0.18950611 -0.07631222 -0.2111841
0.048922453 -0.15695938 0.7216366 0.015745599 -0.07789694 0.06047433 0.6376964 -0.1832722
-0.17031175 -0.61823016 -0.13108802 0.09119407 -0.28926814 0.06738674 0.6708656 -0.4813141
-0.04156501 0.004451135 -0.2920421 -0.056241304 0.07435687 -0.3005263 -0.25485843 0.014117328
0.028679797 -0.024011364 0.052449357 -0.29326868 -0.1720632 0.040468175 -0.09080508 0.08739491
-0.27553177 -0.3844691 -0.09432348 -0.647416 0.14832975 -0.6554239 0.12495571 -0.9268158
-0.12112372 -0.009322681 -0.69857013 -0.31557184 0.36177444 0.1116422 0.088979095 0.031985406
-0.51309335 0.57961243 -0.05178012 -0.06769579 0.114380054 -0.56212854 -0.5973113 -0.33661658
0.07631492 0.18509287 -0.047179572 -0.30329892 0.24031998 -0.20754436 -0.6911692 -0.30108345
-0.12870178 -0.34222308 -0.5985843 -0.60419923 -0.21599078 -0.6085899 -0.104878746 -0.116443925
-0.064200304 -0.13120116 -0.5231685 -0.0018165695 -0.02848117 -0.45738727 -0.07268498 0.1070257
-0.10418976 -0.5349828 -0.6856412 -0.011380479 0.1764173 0.6189316 -0.16960852 -0.10726695

bn1.running_mean f4 [256]
00000000: 43de 5b43 3b5e 9d44 1963 e242 9a7b 3b43
00000010: 2bab 7643 386f 33c3 bc46 b2c2 6cba 8bc3
00000020: 468a 5343 3a34 14c4 a7f6 35c4 9377 9343
00000030: faf5 e342 c933 8343 9855 0843 da07 8e44
00000040: 05e0 7043 64a2 0d44 ae80 33c5 ac5a 8d43
00000050: 877d af44 4037 8943 9fcf 5243 9a97 cc44
00000060: 9721 ef44 7832 b843 deba 42c3 005a 8d44
00000070: 31ef 0244 fe17 2c43 cf61 6a43 c076 bf41
00000080: 7260 e542 fd07 5243 a36c 1543 dba4 5ac3
00000090: 6cd9 5743 7656 6f43 27bf 0e45 e6cd 0943
000000a0: 6697 fe43 ed65 f944 5f3e 81c3 e362 e142
000000b0: 70c6 28c4 0097 96c4 9b9a 8243 452d 0f43
000000c0: 4672 6744 2f10 9943 ffdf 4643 d993 6ac3
000000d0: c6d1 23c3 b971 1cc5 c947 5ec3 731b 16c3
000000e0: b2b5 5f43 8bf5 7ec3 802b 98c4 5fce 2c44
000000f0: 6359 f443 3e30 1b44 b406 7344 e060 1c43
00000100: e5b5 4143 1126 c4c4 33c7 6f43 f757 66c3
00000110: 48ef 6c43 d500 5fc3 7149 3dc3 3475 0d44
00000120: 7e23 26c3 b8d9 19c2 8f5f 0ec3 7c3f f2c4
00000130: c90f 9043 5885 6e43 df2a 0d43 f517 5945
00000140: f563 0443 f75c fb42 4906 8e43 bc84 6344
00000150: aa6d f143 216c e6c2 5f3d 6f43 bb18 0945
00000160: 681b 9a42 32e9 5943 5226 3244 82b8 65c5
00000170: 95c4 5bc4 a198 bd44 a258 0e45 7100 3ec5
00000180: 7d8a 1444 2da5 4f44 4835 2644 f05e d543
00000190: 3fc3 3544 aace 7d43 322b cc42 9fdd 5443
000001a0: e158 9f42 0aef 0845 dcd6 1943 f446 92c5
000001b0: 0972 a1c4 f8a2 1c43 17fe 9344 cc92 0e43
000001c0: b3d6 9144 0301 0045 e3b4 7043 3950 0dc3
000001d0: 1479 9744 477b 5c43 ce30 c543 e804 5043
000001e0: f190 e043 2283 e542 d121 5944 2f3a f142
000001f0: 7785 3e43 9797 4bc3 4452 5b45 a682 6043
00000200: a67b fe42 bc4e 16c1 4e05 5dc3 2b43 7443
00000210: a668 d243 6a5a ce42 1b61 42c5 2905 8443
00000220: 110d f543 8fbb 5a43 270f d342 b9f3 8143
00000230: a553 5b43 e6db c3c4 2b6c 3cc3 cce7 71c3
00000240: 0da7 5ac4 11db 4445 f51d d543 0a43 c644
00000250: 4e84 c344 8abb 8043 7c88 3843 a815 5d43
00000260: 2807 8f43 ff1d 5843 298d 1c43 c43a 6b44
00000270: 25f5 5043 187f 6144 cee3 22c3 d096 5cc3
00000280: b228 1c43 013e 6444 85d6 cd43 3ff7 2043
00000290: bdc4 8943 1166 39c4 4ed6 40c4 a7f0 7243
000002a0: 53fa a643 bf6f a2c2 e41f e742 3780 4343
000002b0: 3b46 65c3 78d3 9243 9831 41c3 bd96 71c3
000002c0: 471c 94c4 b5c0 cb44 43f7 0744 04e0 b844
000002d0: d7bd 8044 4d2d 0a43 d40e 1143 755f 2344
000002e0: 68ef 6043 b2e1 4e43 f93f 79c4 66a3 4e43
000002f0: 4774 7943 7411 eac4 01e0 7343 cd70 f243
00000300: 4853 5144 ac16 3e43 4559 f042 8c54 5f44
00000310: 676b 2d43 2e87 5643 eb5d da42 fb07 b542
00000320: c351 ba43 6d97 4443 a370 0343 6a31 1f45
00000330: 2c94 b442 d1dc 0d43 4c5a d2c2 14d0 3c45
00000340: 4af5 87c3 4c61 3143 7f43 f543 04e0 1243
00000350: f147 60c4 7053 b2c3 7808 34c5 f82d 75c3
00000360: 0134 ec43 afdd 56c3 8d0c bb43 1898 3943
00000370: 207a 0143 4293 e542 a4c7 fa44 16be d744
00000380: eb0a ca42 50e2 9244 9eae 3343 7fc4 1444
00000390: c58d 43c3 b58a c543 bda2 4144 9a93 a043
000003a0: 6d54 cc42 bfe4 1b44 c6d1 41c3 c461 4044
000003b0: 1d49 36c3 7513 c8c4 35ad c2c4 45f1 0b43
000003c0: 63e5 0c43 56c2 1143 fed2 2744 ff3c 6543
000003d0: bdc3 6f43 1b7b 2345 8b62 ee42 f151 64c3
000003e0: 737f ff42 0958 2044 3504 e9c4 0017 df43
000003f0: 0c73 9944 788c 32c3 94b7 2543 5439 a1c2
219.86821 1258.9447 113.19355 187.48282 246.66862 -179.43445 -89.13815 -279.45642
211.54013 -592.81604 -727.85394 294.93417 113.98042 262.40457 136.33435 1136.2454
240.87508 566.53735 -2872.0425 282.70837 1403.9227 274.43164 210.81102 1636.7375
1913.0497 368.3943 -194.72995 1130.8125 523.73737 172.09372 234.38206 23.932983
114.68837 210.0312 149.42436 -218.64397 215.8493 239.33774 2283.947 137.80429
509.1828 1995.1852 -258.48727 112.69314 -675.1006 -1204.7188 261.20786 143.17683
925.7855 306.12643 198.87498 -234.57753 -163.81943 -2503.1077 -222.28041 -150.10722
223.70975 -254.95915 -1217.3594 691.22455 488.69833 620.7538 972.10474 156.37842
193.71053 -1569.1896 239.77812 -230.34361 236.9347 -223.00325 -189.28688 565.8313
-166.13864 -38.462616 -142.37328 -1937.9839 288.12332 238.52087 141.16747 3473.4973
132.39046 125.68157 284.0491 910.074 482.85675 -115.21119 239.23973 2193.5457
77.05353 217.91092 712.59875 -3675.5317 -879.0716 1516.7697 2277.5396 -3040.0276
594.1639 830.5809 664.8325 426.7417 727.0507 253.80728 102.084366 212.8657
79.67359 2190.94 153.8393 -4680.869 -1291.5636 156.6366 1183.9403 142.57343
1166.7094 2048.0632 240.70659 -141.31337 1211.7837 220.48155 394.3813 208.01917
449.13235 114.75612 868.5284 120.61364 190.52135 -203.59215 3509.1416 224.51035
127.2415 -9.394222 -221.02072 244.26237 420.81757 103.17659 -3110.069 264.0403
490.10208 218.73265 105.529594 259.90408 219.32674 -1566.8718 -188.42253 -241.90546
-874.61017 3149.6917 426.23404 1586.095 1564.1345 257.46515 184.53314 221.0846
286.0559 216.11717 156.5514 940.9182 208.9576 901.98584 -162.88986 -220.58911
156.15897 912.9688 411.67593 160.9658 275.53702 -741.5948 -771.3485 242.94005
333.95566 -81.218254 115.56229 195.50084 -229.27434 293.6521 -193.19373 -241.58882
-1184.8837 1630.0221 543.86346 1479.0005 1029.9325 138.17696 145.05792 653.4915
224.93518 206.88162 -996.9996 206.63828 249.45421 -1872.5454 243.87502 484.88126
837.3013 190.08856 120.174355 893.32104 173.41954 214.52805 109.18343 90.51559
372.63876 196.5915 131.43999 2547.0884 90.2894 141.86256 -105.17636 3021.005
-271.91632 177.38007 490.5273 146.87506 -897.1241 -356.65186 -2880.5293 -245.17957
472.40628 -214.86595 374.09805 185.59412 129.47705 114.78761 2006.2388 1725.9402
101.021324 1175.0723 179.6821 595.07025 -195.55379 395.08365 774.5428 321.15314
102.164894 623.57416 -193.81943 769.5276 -182.2856 -1600.608 -1557.4127 139.94246
140.89604 145.75912 671.29675 229.23827 239.7646 2615.694 119.19247 -228.32008
127.748924 641.37555 -1864.1315 446.1797 1227.5952 -178.5487 165.7171 -80.61197

bn1.running_var f4 [256]
00000000: 6709 3147 a527 b949 5cdd 2d46 a77e 0247
00000010: c19a 5a47 b505 fe46 8510 f845 b1b6 9347
00000020: 789c 2e47 2bad a548 6a97 f748 c378 9e47
00000030: 6e42 4f46 9f7b 7b47 0732 8a46 df9f 9649
00000040: b2db 5847 5677 9748 9f25 f14a 7a5c 9047
00000050: 8ad5 e549 c35e 8a47 246e 2b47 d038 1c4a
00000060: 6fcc 554a 9457 fe47 abd9 0d47 446e 9549
00000070: 7a3d 8048 6870 e046 0702 4e47 53d0 1145
00000080: 5792 3546 22a7 2647 7446 b046 bd27 2e47
00000090: ddab 2947 a30d 5447 0459 984a 6a4e 9046
000000a0: a3e4 7248 7f64 684a 2bb3 7c47 0621 3946
000000b0: e14f d548 2bd9 a949 aa97 7947 6798 9e46
000000c0: 7147 4849 87f2 aa47 086c 1247 99b6 4c47
000000d0: 3b2a ce46 8120 b74a 3c57 3f47 0f89 b446
000000e0: 3e70 3c47 b0bc 7747 925d ad49 f73a df48
000000f0: 09ed 5f48 6a1f b448 2bae 5c49 f7af ab46
00000100: 1ff8 0c47 62b8 0f4a a440 5847 59f0 4847
00000110: 89c5 5047 bd75 3947 2ab1 0247 1550 9548
00000120: ca65 cd46 0f67 0345 0dbe 9b46 bc87 5b4a
00000130: 183b 9b47 91eb 5747 c204 9b46 ed2d 304b
00000140: d207 8046 f685 6846 2b31 9447 1c24 4149
00000150: 7118 5a48 3cb9 5046 c6fd 5347 2e83 8c4a
00000160: 8101 a245 9353 3547 3ea2 ec48 5c7b 454b
00000170: 7e85 3449 802f 064a 1480 974a 88cf 064b
00000180: d2f0 a448 d316 2049 2c90 cf48 f6f4 2948
00000190: 1f8a f648 6d42 6647 bdf2 1046 155b 2d47
000001a0: 9d7e be45 9135 8c4a 2e94 ac46 fb16 a04b
000001b0: 93e3 c249 c417 ba46 788c a349 7a3b 8c46
000001c0: 2da5 9e49 07dc 744a ece3 5847 cea0 9c46
000001d0: 4b83 ab49 94a4 3247 1008 1148 66ed 2547
000001e0: f27f 3d48 e7a0 5346 f95f 3049 010a 4546
000001f0: e9f1 0147 34e9 1547 e2cc 334b c6e3 3a47
00000200: f856 5b46 943d 2144 24e3 3147 861d 5c47
00000210: b616 2548 8dd7 2346 2e54 0d4b 1b0f 8147
00000220: d359 6048 3df5 2947 530d 2146 9734 7347
00000230: db27 2e47 db7d 0f4a 70b9 0c47 d38d 5a47
00000240: 22ce 3149 b2d7 104b da0f 2948 baee 124a
00000250: 5aa6 0e4a 35e3 7247 333e 0547 49b4 3847
00000260: 4956 9747 6666 2c47 9875 bb46 9617 4f49
00000270: d4d9 2047 01de 3d49 4af3 cc46 68ca 3a47
00000280: c1f4 be46 1399 4149 ab6c 1f48 156f bb46
00000290: 2b5d 8a47 dbb7 0049 a3c2 0b49 a915 5f47
000002a0: 606e c847 3659 ca45 ac26 2d46 9e35 1a47
000002b0: 2e66 4147 05f8 a347 a7ba 0b47 c369 5e47
000002c0: e505 a449 4d3d 1b4a c1c7 8948 5022 ff49
000002d0: 0193 7749 4770 8846 39de 9046 a4ef c548
000002e0: 39a2 3947 017d 2447 793e 6949 37fe 1647
000002f0: 2962 6047 230b 4d4a b1f0 5f47 e2f0 5b48
00000300: e783 2349 e5d5 0c47 01b6 6246 3a34 3a49
00000310: 39d9 d746 f6ef 3047 d3e6 3046 0972 0346
00000320: 2828 0248 5ae4 0d47 92e5 6c46 5c6c bd4a
00000330: 8fac cf45 9634 9446 2ef6 1746 1844 054b
00000340: 72d2 8847 82e7 e246 fbf5 5f48 8278 a346
00000350: e226 3c49 2f0a ed47 e486 f24a 6864 6547
00000360: 1b97 5148 df49 2e47 0287 0048 dc62 fa46
00000370: abfd 6746 7d34 4646 c30b 6b4a 15fe 2d4a
00000380: 91c8 2346 0912 a149 50b7 e546 8447 a448
00000390: 4268 1c47 3702 1148 c214 0c49 7055 c247
000003a0: fed2 1c46 8169 b648 0acc 0a47 28d4 0949
000003b0: 43bc f646 3763 154a 98e0 0d4a aeb1 9646
000003c0: e359 9046 21f3 a446 ad94 d148 bf60 3f47
000003d0: 5c9c 5547 86c4 c74a 1187 5f46 ae8b 4947
000003e0: e958 7d46 d3b2 bf48 8755 4a4a 1d4f 3a48
000003f0: dbd8 af49 55bd f246 8753 c046 a9ff d545
45321.402 1.5167886e+06 11127.34 33406.652 55962.754 32514.854 7938.065 75629.38
44700.47 339305.34 507067.3 81137.52 13264.607 64379.62 17689.014 1.2339159e+06
55515.695 310202.7 7.9019035e+06 73912.95 1.8828012e+06 70845.52 43886.14 2.55954e+06
3.5028758e+06 130223.16 36313.668 1.2241365e+06 262635.8 28728.203 52738.027 2333.0203
11620.585 42663.133 22563.227 44583.74 43435.863 54285.637 4.99213e+06 18471.207
248722.55 3.8075198e+06 64691.168 11848.256 436863.03 1.3913974e+06 63895.664 20300.201
820343.06 87525.055 37484.03 52406.598 26389.115 6.0007045e+06 48983.234 23108.53
48240.242 63420.688 1.4202102e+06 457175.72 229300.14 368891.3 903906.7 21975.982
36088.12 2.3547125e+06 55360.64 51440.348 53445.535 47477.74 33457.164 305792.66
26290.895 2102.4412 19935.025 3.596783e+06 79478.19 55275.566 19842.379 1.1546093e+07
16387.91 14881.49 75874.336 791105.75 223329.77 13358.309 54269.773 4.604311e+06
5184.188 46419.574 484625.94 1.2942172e+07 739415.9 2.198496e+06 4.964362e+06 8.834952e+06
337798.56 655725.2 425089.38 174035.84 504912.97 58946.426 9276.685 44379.082
6095.8267 4.5943765e+06 22090.09 2.0983286e+07 1.5965304e+06 23819.883 1.339791e+06 17949.738
1.2996216e+06 4.0117778e+06 55523.92 20048.402 1.4050334e+06 45732.58 148512.25 42477.4
194047.78 13544.226 722431.56 12610.501 33265.91 38377.203 1.1783394e+07 47843.773
14037.742 644.96216 45539.14 56349.523 169050.84 10485.888 9.262126e+06 66078.21
229735.3 43509.24 10307.331 62260.59 44583.855 2.3509668e+06 36025.438 55949.824
728290.1 9.492402e+06 173119.4 2.4073425e+06 2.3371745e+06 62179.207 34110.2 47284.285
77484.57 44134.4 23994.797 848249.4 41177.83 777696.06 26233.645 47818.406
24442.377 792977.2 163250.67 23991.541 70842.336 527229.7 572458.2 57109.66
102620.75 6475.1514 11081.668 39477.617 49510.18 83952.04 35770.652 56937.76
1.3436766e+06 2.5434432e+06 282174.03 2.090058e+06 1.01406406e+06 17464.139 18543.111 405373.12
47522.223 42109.004 955367.56 38654.215 57442.16 3.3594328e+06 57328.69 225219.53
669758.44 36053.895 14509.501 762691.6 27628.611 45295.96 11321.706 8412.509
133280.62 36324.35 15161.393 6.207022e+06 6645.57 18970.293 9725.545 8.73372e+06
70052.89 29043.754 229335.92 20924.254 770670.1 121364.37 7.947122e+06 58724.406
214620.42 44617.87 131612.03 32049.43 14847.417 12685.122 3.8509928e+06 2.8506932e+06
10482.142 1.3194891e+06 29403.656 336444.12 40040.258 148488.86 573772.1 99498.875
10036.748 373580.03 35532.04 564546.5 31582.13 2.4475658e+06 2.324518e+06 19288.84
18476.943 21113.564 429221.4 48992.746 54684.36 6.545987e+06 14305.767 51595.68
16214.228 392598.6 3.3150418e+06 190780.45 1.4405394e+06 31070.666 24617.764 6847.9575
